experiments/CnnTransformer/simclr/simclr_cnn_transformer_trainings2/logistic_on_simclr_IT_3pat/lightning_logs/version_0/checkpoints/last.ckpt (torch, 7847 bytes, 6 tensors)

classifier.weight f4 [5, 184]
0.0034136777 -0.010013301 -0.07037877 -0.019599047 0.043669607 0.052186273 -0.08822548 -0.0559914
-0.036399588 0.00013953497 -0.0487095 -0.010652304 -0.03769755 0.034709606 -0.07526053 -0.009668983
-0.004534814 -0.010646004 -0.0034855471 -0.025007231 -0.015730122 0.016146477 0.031002346 0.014453282
0.0067023234 0.037138224 0.0336497 0.0004486607 0.02375896 0.023835193 0.006252039 -0.05304695
-0.01662933 0.036413204 -0.022762029 0.019568177 -0.0040325467 -0.038739823 -0.061633043 0.019884191
0.0066713886 -0.021599518 -0.05348428 -0.013225481 0.021679336 0.025798203 -0.0039281547 0.0016617596
-0.037901916 0.01446409 -0.056161467 -0.06207252 0.05303395 -0.044983223 -0.011486124 0.05044612
-0.01674624 -0.0056476495 -0.036308777 0.0524035 0.0012565269 0.004392987 0.0153977955 0.01684393
0.054935034 0.021049535 0.054422673 -0.001861752 0.0048367395 0.006005861 -0.008524085 -0.061854504
0.030084169 0.009193126 0.039104033 0.034137685 0.03323941 0.05415718 0.034539327 -0.0005483491
-0.0070156576 -0.017927416 -0.0027013808 -0.021218559 0.009094645 -0.0068232464 -0.055884868 0.019932117
0.015918192 -0.034086145 0.047440197 0.026685767 0.030069765 0.0057876995 -0.030899389 0.06391964
-0.038225032 -0.022566931 -0.017261922 -0.047486566 -0.0258443 0.048979428 0.020805653 -0.00070308667
0.0064398125 -0.019802988 -0.035108455 0.011325922 0.009588149 0.010099688 -0.020116676 0.04097469
-0.016346367 0.00067062076 0.077378854 0.015500243 0.011289142 0.04382926 -0.029147537 0.014624573
0.02840314 0.0074322126 0.025647497 -0.013377555 -0.032451242 -0.012022821 0.028594628 -0.044458423
-0.0657338 -0.03662786 0.060801383 0.021106964 -0.03180247 0.06250063 0.09368171 0.023558712
-0.039090484 0.026718818 0.04267164 0.010306604 0.013307849 -0.021455156 -0.020032791 -0.0057831043
-0.049521 -0.040221453 0.06280275 -0.016463041 0.020591866 -0.0074156653 0.0020560487 -0.099393316
-0.018074822 0.0014572624 0.027338672 0.0679526 -0.002886132 -0.0022611655 -0.039186094 0.019987931
-0.01899281 -0.01076562 0.009190706 -0.07502763 0.07193239 0.001073205 -0.032616444 0.018294163
0.051354147 -0.04597581 -0.008849908 0.054846983 -0.095001616 0.04115311 -0.03941429 0.017461857
-0.019088155 -0.0030340964 -0.035780966 -0.075203486 -0.07504035 0.006937612 -0.018154984 0.014226981
0.043272685 0.03276638 -0.04376843 0.017442968 0.01844227 -0.08700647 -0.0690238 0.035337012
-0.0025674677 -0.03624828 0.029926995 0.0015694711 0.006561362 0.03621156 0.010835254 -0.067757145
0.013657072 0.018515673 -0.0008821846 0.0506339 -0.017270977 0.008836014 0.0016924776 -0.047060955
0.011795273 -0.048445325 0.0032826206 -0.078877814 -0.009179081 0.016547637 0.04115677 -0.023156451
-0.013791151 -0.0022790316 0.03414661 -0.00093091384 0.033332758 0.0513683 0.037132997 0.020295013
-0.026097614 -0.0021483025 0.013819346 -0.012726511 -0.036024235 0.016485928 -0.046864934 0.053656798
0.033829037 0.00973591 -0.02791629 0.025212897 0.037893802 -0.031504393 -0.018721947 0.04049599
-0.059529185 -0.06116989 0.0071902485 -0.013648448 -0.010803587 -0.045322686 -0.04670152 0.0056336606
-0.032346908 -0.03440142 -0.03788257 0.02369954 0.0061350306 0.0021446152 -0.06996353 0.06243015
00000000: 02b8 5f3b d40e 24bc bf22 90bd 2e8e a0bc
00000010: e7de 323d 46c1 553d 8faf b4bd 3d57 65bd
00000020: bc17 15bd 2250 1239 9d83 47bd 0087 2ebc
00000030: bf68 1abd a92b 0e3d 3122 9abd a76a 1ebc
00000040: c798 94bb 946c 2ebc c76d 64bb f7db ccbc
00000050: 75dc 80bc 9e45 843c a2f8 fd3c 75cd 6c3c
00000060: 2a9f db3b 401e 183d 45d4 093d 383a eb39
00000070: 27a2 c23c 0642 c33c e8dd cc3b c247 59bd
00000080: 3c3a 88bc 0326 153d 6f77 babc 714d a03c
00000090: 7423 84bb a6ad 1ebd ee72 7cbd 2ce4 a23c
000000a0: aa9b da3b 79f1 b0bc 5512 5bbd b0af 58bc
000000b0: dd98 b13c c156 d33c c0b7 80bb 66cf d93a
000000c0: 0a3f 1bbd cafa 6c3c 9109 66bd c13f 7ebd
000000d0: 213a 593d 5440 38bd 4c30 3cbc 97a0 4e3d
000000e0: 692f 89bc eb0f b9bb 83b8 14bd 0da5 563d
000000f0: 0cb2 a43a 0cf3 8f3b 0947 7c3c 48fc 893c
00000100: 8f03 613d 1370 ac3c 4fea 5e3d 0806 f4ba
00000110: 837d 9e3b d0cc c43b 9ba8 0bbc 265b 7dbd
00000120: 1373 f63c c49e 163c 8d2b 203d f5d3 0b3d
00000130: 0c26 083d ebd3 5d3d 1c79 0d3d 16bf 0fba
00000140: 9ae3 e5bb 84dc 92bc a609 31bb 8bd2 adbc
00000150: b501 153c 8a95 dfbb 88e7 64bd ae48 a33c
00000160: de66 823c ea9d 0bbd a750 423d 1c9c da3c
00000170: de54 f63c bea6 bd3b b720 fdbc 4de8 823d
00000180: da91 1cbd 49de b8bc e068 8dbc 4681 42bd
00000190: 6db7 d3bc a79e 483d 9e70 aa3c 594f 38ba
000001a0: 1005 d33b e039 a2bc e2cd 0fbd 5c90 393c
000001b0: 9d17 1d3c 2979 253c bacb a4bc 14d5 273d
000001c0: d1e8 85bc 99cc 2f3a ce78 9e3d bbf4 7d3c
000001d0: 18f6 383c 4f86 333d d1c6 eebc e89b 6f3c
000001e0: b4ad e83c eb89 f33b b31a d23c 882d 5bbc
000001f0: 98eb 04bd 5efb 44bc 483f ea3c 091a 36bd
00000200: 719f 86bd 1807 16bd df0a 793d 83e8 ac3c
00000210: 4f43 02bd 5500 803d 32dc bf3d 33fe c03c
00000220: 581d 20bd 6ce1 da3c 75c8 2e3d 08dd 283c
00000230: 2a09 5a3c b9c2 afbc cf1b a4bc 3280 bdbb
00000240: 88d6 4abd 40bf 24bd ba9e 803d 80dd 86bc
00000250: 46b0 a83c 1cff f2bb c6be 063b b98e cbbd
00000260: a611 94bc 9d01 bf3a 5af5 df3c bc2a 8b3d
00000270: 4325 3dbb 1030 14bb 9981 20bd bbbd a33c
00000280: cf96 9bbc 4862 30bc 9d94 163c 16a8 99bd
00000290: 4a51 933d c9aa 8c3a d298 05bd a4dd 953c
000002a0: ba58 523d 2251 3cbd 34ff 10bc 3ba7 603d
000002b0: 3590 c2bd 2a90 283d e170 21bd 2b0c 8f3c
000002c0: c35e 9cbc b1d7 46bb 108f 12bd 4904 9abd
000002d0: c1ae 99bd e854 e33b c3b9 94bc 4918 693c
000002e0: b33e 313d 0a36 063d 8646 33bd 8ee4 8e3c
000002f0: 3e14 973c 7330 b2bd 5a5c 8dbd 8bbd 103d
00000300: f642 28bb 1479 14bd 7529 f53c b6b6 cd3a
00000310: b200 d73b 9352 143d 5986 313c 42c4 8abd
00000320: e9c1 5f3c 2eae 973c 6842 67ba 7e65 4f3d
00000330: dd7b 8dbc eec4 103c 20d6 dd3a fdc2 40bd
00000340: f640 413c 9b6e 46bd 3c21 573b b18a a1bd
00000350: db63 16bc e98e 873c 0094 283d 99b2 bdbc
00000360: 48f4 61bc ce5b 15bb 51dd 0b3d 9208 74ba
00000370: ee87 083d 9167 523d c518 183d ba41 a63c
00000380: aaca d5bc 89ca 0cbb 8a6a 623c db82 50bc
00000390: 268e 13bd 7f0d 873c 72f5 3fbd 3bc7 5b3d
000003a0: 5190 0a3d 5e83 1f3c b4b0 e4bc 478b ce3c
000003b0: 8836 1b3d c00a 01bd c55e 99bc 20df 253d
000003c0: e0d4 73bd 478d 7abd 2d9c eb3b bd9d 5fbc
000003d0: 8701 31bc 48a4 39bd 184a 3fbd 929a b83b
000003e0: 317e 04bd 81e8 0cbd c12a 1bbd 8a25 c23c
000003f0: 5e08 c93b ac8c 0c3b 0a49 8fbd c2b6 7f3d

classifier.bias f4 [5]
-0.024462271 -0.0017619346 -0.043498356 -0.058489334 0.033420518
00000000: 1a65 c8bc b7f0 e6ba 552b 32bd 8392 6fbd
00000010: f4e3 083d

net.1.weight f4 [5, 184]
0.0034136777 -0.010013301 -0.07037877 -0.019599047 0.043669607 0.052186273 -0.08822548 -0.0559914
-0.036399588 0.00013953497 -0.0487095 -0.010652304 -0.03769755 0.034709606 -0.07526053 -0.009668983
-0.004534814 -0.010646004 -0.0034855471 -0.025007231 -0.015730122 0.016146477 0.031002346 0.014453282
0.0067023234 0.037138224 0.0336497 0.0004486607 0.02375896 0.023835193 0.006252039 -0.05304695
-0.01662933 0.036413204 -0.022762029 0.019568177 -0.0040325467 -0.038739823 -0.061633043 0.019884191
0.0066713886 -0.021599518 -0.05348428 -0.013225481 0.021679336 0.025798203 -0.0039281547 0.0016617596
-0.037901916 0.01446409 -0.056161467 -0.06207252 0.05303395 -0.044983223 -0.011486124 0.05044612
-0.01674624 -0.0056476495 -0.036308777 0.0524035 0.0012565269 0.004392987 0.0153977955 0.01684393
0.054935034 0.021049535 0.054422673 -0.001861752 0.0048367395 0.006005861 -0.008524085 -0.061854504
0.030084169 0.009193126 0.039104033 0.034137685 0.03323941 0.05415718 0.034539327 -0.0005483491
-0.0070156576 -0.017927416 -0.0027013808 -0.021218559 0.009094645 -0.0068232464 -0.055884868 0.019932117
0.015918192 -0.034086145 0.047440197 0.026685767 0.030069765 0.0057876995 -0.030899389 0.06391964
-0.038225032 -0.022566931 -0.017261922 -0.047486566 -0.0258443 0.048979428 0.020805653 -0.00070308667
0.0064398125 -0.019802988 -0.035108455 0.011325922 0.009588149 0.010099688 -0.020116676 0.04097469
-0.016346367 0.00067062076 0.077378854 0.015500243 0.011289142 0.04382926 -0.029147537 0.014624573
0.02840314 0.0074322126 0.025647497 -0.013377555 -0.032451242 -0.012022821 0.028594628 -0.044458423
-0.0657338 -0.03662786 0.060801383 0.021106964 -0.03180247 0.06250063 0.09368171 0.023558712
-0.039090484 0.026718818 0.04267164 0.010306604 0.013307849 -0.021455156 -0.020032791 -0.0057831043
-0.049521 -0.040221453 0.06280275 -0.016463041 0.020591866 -0.0074156653 0.0020560487 -0.099393316
-0.018074822 0.0014572624 0.027338672 0.0679526 -0.002886132 -0.0022611655 -0.039186094 0.019987931
-0.01899281 -0.01076562 0.009190706 -0.07502763 0.07193239 0.001073205 -0.032616444 0.018294163
0.051354147 -0.04597581 -0.008849908 0.054846983 -0.095001616 0.04115311 -0.03941429 0.017461857
-0.019088155 -0.0030340964 -0.035780966 -0.075203486 -0.07504035 0.006937612 -0.018154984 0.014226981
0.043272685 0.03276638 -0.04376843 0.017442968 0.01844227 -0.08700647 -0.0690238 0.035337012
-0.0025674677 -0.03624828 0.029926995 0.0015694711 0.006561362 0.03621156 0.010835254 -0.067757145
0.013657072 0.018515673 -0.0008821846 0.0506339 -0.017270977 0.008836014 0.0016924776 -0.047060955
0.011795273 -0.048445325 0.0032826206 -0.078877814 -0.009179081 0.016547637 0.04115677 -0.023156451
-0.013791151 -0.0022790316 0.03414661 -0.00093091384 0.033332758 0.0513683 0.037132997 0.020295013
-0.026097614 -0.0021483025 0.013819346 -0.012726511 -0.036024235 0.016485928 -0.046864934 0.053656798
0.033829037 0.00973591 -0.02791629 0.025212897 0.037893802 -0.031504393 -0.018721947 0.04049599
-0.059529185 -0.06116989 0.0071902485 -0.013648448 -0.010803587 -0.045322686 -0.04670152 0.0056336606
-0.032346908 -0.03440142 -0.03788257 0.02369954 0.0061350306 0.0021446152 -0.06996353 0.06243015
00000000: 02b8 5f3b d40e 24bc bf22 90bd 2e8e a0bc
00000010: e7de 323d 46c1 553d 8faf b4bd 3d57 65bd
00000020: bc17 15bd 2250 1239 9d83 47bd 0087 2ebc
00000030: bf68 1abd a92b 0e3d 3122 9abd a76a 1ebc
00000040: c798 94bb 946c 2ebc c76d 64bb f7db ccbc
00000050: 75dc 80bc 9e45 843c a2f8 fd3c 75cd 6c3c
00000060: 2a9f db3b 401e 183d 45d4 093d 383a eb39
00000070: 27a2 c23c 0642 c33c e8dd cc3b c247 59bd
00000080: 3c3a 88bc 0326 153d 6f77 babc 714d a03c
00000090: 7423 84bb a6ad 1ebd ee72 7cbd 2ce4 a23c
000000a0: aa9b da3b 79f1 b0bc 5512 5bbd b0af 58bc
000000b0: dd98 b13c c156 d33c c0b7 80bb 66cf d93a
000000c0: 0a3f 1bbd cafa 6c3c 9109 66bd c13f 7ebd
000000d0: 213a 593d 5440 38bd 4c30 3cbc 97a0 4e3d
000000e0: 692f 89bc eb0f b9bb 83b8 14bd 0da5 563d
000000f0: 0cb2 a43a 0cf3 8f3b 0947 7c3c 48fc 893c
00000100: 8f03 613d 1370 ac3c 4fea 5e3d 0806 f4ba
00000110: 837d 9e3b d0cc c43b 9ba8 0bbc 265b 7dbd
00000120: 1373 f63c c49e 163c 8d2b 203d f5d3 0b3d
00000130: 0c26 083d ebd3 5d3d 1c79 0d3d 16bf 0fba
00000140: 9ae3 e5bb 84dc 92bc a609 31bb 8bd2 adbc
00000150: b501 153c 8a95 dfbb 88e7 64bd ae48 a33c
00000160: de66 823c ea9d 0bbd a750 423d 1c9c da3c
00000170: de54 f63c bea6 bd3b b720 fdbc 4de8 823d
00000180: da91 1cbd 49de b8bc e068 8dbc 4681 42bd
00000190: 6db7 d3bc a79e 483d 9e70 aa3c 594f 38ba
000001a0: 1005 d33b e039 a2bc e2cd 0fbd 5c90 393c
000001b0: 9d17 1d3c 2979 253c bacb a4bc 14d5 273d
000001c0: d1e8 85bc 99cc 2f3a ce78 9e3d bbf4 7d3c
000001d0: 18f6 383c 4f86 333d d1c6 eebc e89b 6f3c
000001e0: b4ad e83c eb89 f33b b31a d23c 882d 5bbc
000001f0: 98eb 04bd 5efb 44bc 483f ea3c 091a 36bd
00000200: 719f 86bd 1807 16bd df0a 793d 83e8 ac3c
00000210: 4f43 02bd 5500 803d 32dc bf3d 33fe c03c
00000220: 581d 20bd 6ce1 da3c 75c8 2e3d 08dd 283c
00000230: 2a09 5a3c b9c2 afbc cf1b a4bc 3280 bdbb
00000240: 88d6 4abd 40bf 24bd ba9e 803d 80dd 86bc
00000250: 46b0 a83c 1cff f2bb c6be 063b b98e cbbd
00000260: a611 94bc 9d01 bf3a 5af5 df3c bc2a 8b3d
00000270: 4325 3dbb 1030 14bb 9981 20bd bbbd a33c
00000280: cf96 9bbc 4862 30bc 9d94 163c 16a8 99bd
00000290: 4a51 933d c9aa 8c3a d298 05bd a4dd 953c
000002a0: ba58 523d 2251 3cbd 34ff 10bc 3ba7 603d
000002b0: 3590 c2bd 2a90 283d e170 21bd 2b0c 8f3c
000002c0: c35e 9cbc b1d7 46bb 108f 12bd 4904 9abd
000002d0: c1ae 99bd e854 e33b c3b9 94bc 4918 693c
000002e0: b33e 313d 0a36 063d 8646 33bd 8ee4 8e3c
000002f0: 3e14 973c 7330 b2bd 5a5c 8dbd 8bbd 103d
00000300: f642 28bb 1479 14bd 7529 f53c b6b6 cd3a
00000310: b200 d73b 9352 143d 5986 313c 42c4 8abd
00000320: e9c1 5f3c 2eae 973c 6842 67ba 7e65 4f3d
00000330: dd7b 8dbc eec4 103c 20d6 dd3a fdc2 40bd
00000340: f640 413c 9b6e 46bd 3c21 573b b18a a1bd
00000350: db63 16bc e98e 873c 0094 283d 99b2 bdbc
00000360: 48f4 61bc ce5b 15bb 51dd 0b3d 9208 74ba
00000370: ee87 083d 9167 523d c518 183d ba41 a63c
00000380: aaca d5bc 89ca 0cbb 8a6a 623c db82 50bc
00000390: 268e 13bd 7f0d 873c 72f5 3fbd 3bc7 5b3d
000003a0: 5190 0a3d 5e83 1f3c b4b0 e4bc 478b ce3c
000003b0: 8836 1b3d c00a 01bd c55e 99bc 20df 253d
000003c0: e0d4 73bd 478d 7abd 2d9c eb3b bd9d 5fbc
000003d0: 8701 31bc 48a4 39bd 184a 3fbd 929a b83b
000003e0: 317e 04bd 81e8 0cbd c12a 1bbd 8a25 c23c
000003f0: 5e08 c93b ac8c 0c3b 0a49 8fbd c2b6 7f3d

net.1.bias f4 [5]
-0.024462271 -0.0017619346 -0.043498356 -0.058489334 0.033420518
00000000: 1a65 c8bc b7f0 e6ba 552b 32bd 8392 6fbd
00000010: f4e3 083d

weight f4 [5, 184]
0.0034136777 -0.010013301 -0.07037877 -0.019599047 0.043669607 0.052186273 -0.08822548 -0.0559914
-0.036399588 0.00013953497 -0.0487095 -0.010652304 -0.03769755 0.034709606 -0.07526053 -0.009668983
-0.004534814 -0.010646004 -0.0034855471 -0.025007231 -0.015730122 0.016146477 0.031002346 0.014453282
0.0067023234 0.037138224 0.0336497 0.0004486607 0.02375896 0.023835193 0.006252039 -0.05304695
-0.01662933 0.036413204 -0.022762029 0.019568177 -0.0040325467 -0.038739823 -0.061633043 0.019884191
0.0066713886 -0.021599518 -0.05348428 -0.013225481 0.021679336 0.025798203 -0.0039281547 0.0016617596
-0.037901916 0.01446409 -0.056161467 -0.06207252 0.05303395 -0.044983223 -0.011486124 0.05044612
-0.01674624 -0.0056476495 -0.036308777 0.0524035 0.0012565269 0.004392987 0.0153977955 0.01684393
0.054935034 0.021049535 0.054422673 -0.001861752 0.0048367395 0.006005861 -0.008524085 -0.061854504
0.030084169 0.009193126 0.039104033 0.034137685 0.03323941 0.05415718 0.034539327 -0.0005483491
-0.0070156576 -0.017927416 -0.0027013808 -0.021218559 0.009094645 -0.0068232464 -0.055884868 0.019932117
0.015918192 -0.034086145 0.047440197 0.026685767 0.030069765 0.0057876995 -0.030899389 0.06391964
-0.038225032 -0.022566931 -0.017261922 -0.047486566 -0.0258443 0.048979428 0.020805653 -0.00070308667
0.0064398125 -0.019802988 -0.035108455 0.011325922 0.009588149 0.010099688 -0.020116676 0.04097469
-0.016346367 0.00067062076 0.077378854 0.015500243 0.011289142 0.04382926 -0.029147537 0.014624573
0.02840314 0.0074322126 0.025647497 -0.013377555 -0.032451242 -0.012022821 0.028594628 -0.044458423
-0.0657338 -0.03662786 0.060801383 0.021106964 -0.03180247 0.06250063 0.09368171 0.023558712
-0.039090484 0.026718818 0.04267164 0.010306604 0.013307849 -0.021455156 -0.020032791 -0.0057831043
-0.049521 -0.040221453 0.06280275 -0.016463041 0.020591866 -0.0074156653 0.0020560487 -0.099393316
-0.018074822 0.0014572624 0.027338672 0.0679526 -0.002886132 -0.0022611655 -0.039186094 0.019987931
-0.01899281 -0.01076562 0.009190706 -0.07502763 0.07193239 0.001073205 -0.032616444 0.018294163
0.051354147 -0.04597581 -0.008849908 0.054846983 -0.095001616 0.04115311 -0.03941429 0.017461857
-0.019088155 -0.0030340964 -0.035780966 -0.075203486 -0.07504035 0.006937612 -0.018154984 0.014226981
0.043272685 0.03276638 -0.04376843 0.017442968 0.01844227 -0.08700647 -0.0690238 0.035337012
-0.0025674677 -0.03624828 0.029926995 0.0015694711 0.006561362 0.03621156 0.010835254 -0.067757145
0.013657072 0.018515673 -0.0008821846 0.0506339 -0.017270977 0.008836014 0.0016924776 -0.047060955
0.011795273 -0.048445325 0.0032826206 -0.078877814 -0.009179081 0.016547637 0.04115677 -0.023156451
-0.013791151 -0.0022790316 0.03414661 -0.00093091384 0.033332758 0.0513683 0.037132997 0.020295013
-0.026097614 -0.0021483025 0.013819346 -0.012726511 -0.036024235 0.016485928 -0.046864934 0.053656798
0.033829037 0.00973591 -0.02791629 0.025212897 0.037893802 -0.031504393 -0.018721947 0.04049599
-0.059529185 -0.06116989 0.0071902485 -0.013648448 -0.010803587 -0.045322686 -0.04670152 0.0056336606
-0.032346908 -0.03440142 -0.03788257 0.02369954 0.0061350306 0.0021446152 -0.06996353 0.06243015
00000000: 02b8 5f3b d40e 24bc bf22 90bd 2e8e a0bc
00000010: e7de 323d 46c1 553d 8faf b4bd 3d57 65bd
00000020: bc17 15bd 2250 1239 9d83 47bd 0087 2ebc
00000030: bf68 1abd a92b 0e3d 3122 9abd a76a 1ebc
00000040: c798 94bb 946c 2ebc c76d 64bb f7db ccbc
00000050: 75dc 80bc 9e45 843c a2f8 fd3c 75cd 6c3c
00000060: 2a9f db3b 401e 183d 45d4 093d 383a eb39
00000070: 27a2 c23c 0642 c33c e8dd cc3b c247 59bd
00000080: 3c3a 88bc 0326 153d 6f77 babc 714d a03c
00000090: 7423 84bb a6ad 1ebd ee72 7cbd 2ce4 a23c
000000a0: aa9b da3b 79f1 b0bc 5512 5bbd b0af 58bc
000000b0: dd98 b13c c156 d33c c0b7 80bb 66cf d93a
000000c0: 0a3f 1bbd cafa 6c3c 9109 66bd c13f 7ebd
000000d0: 213a 593d 5440 38bd 4c30 3cbc 97a0 4e3d
000000e0: 692f 89bc eb0f b9bb 83b8 14bd 0da5 563d
000000f0: 0cb2 a43a 0cf3 8f3b 0947 7c3c 48fc 893c
00000100: 8f03 613d 1370 ac3c 4fea 5e3d 0806 f4ba
00000110: 837d 9e3b d0cc c43b 9ba8 0bbc 265b 7dbd
00000120: 1373 f63c c49e 163c 8d2b 203d f5d3 0b3d
00000130: 0c26 083d ebd3 5d3d 1c79 0d3d 16bf 0fba
00000140: 9ae3 e5bb 84dc 92bc a609 31bb 8bd2 adbc
00000150: b501 153c 8a95 dfbb 88e7 64bd ae48 a33c
00000160: de66 823c ea9d 0bbd a750 423d 1c9c da3c
00000170: de54 f63c bea6 bd3b b720 fdbc 4de8 823d
00000180: da91 1cbd 49de b8bc e068 8dbc 4681 42bd
00000190: 6db7 d3bc a79e 483d 9e70 aa3c 594f 38ba
000001a0: 1005 d33b e039 a2bc e2cd 0fbd 5c90 393c
000001b0: 9d17 1d3c 2979 253c bacb a4bc 14d5 273d
000001c0: d1e8 85bc 99cc 2f3a ce78 9e3d bbf4 7d3c
000001d0: 18f6 383c 4f86 333d d1c6 eebc e89b 6f3c
000001e0: b4ad e83c eb89 f33b b31a d23c 882d 5bbc
000001f0: 98eb 04bd 5efb 44bc 483f ea3c 091a 36bd
00000200: 719f 86bd 1807 16bd df0a 793d 83e8 ac3c
00000210: 4f43 02bd 5500 803d 32dc bf3d 33fe c03c
00000220: 581d 20bd 6ce1 da3c 75c8 2e3d 08dd 283c
00000230: 2a09 5a3c b9c2 afbc cf1b a4bc 3280 bdbb
00000240: 88d6 4abd 40bf 24bd ba9e 803d 80dd 86bc
00000250: 46b0 a83c 1cff f2bb c6be 063b b98e cbbd
00000260: a611 94bc 9d01 bf3a 5af5 df3c bc2a 8b3d
00000270: 4325 3dbb 1030 14bb 9981 20bd bbbd a33c
00000280: cf96 9bbc 4862 30bc 9d94 163c 16a8 99bd
00000290: 4a51 933d c9aa 8c3a d298 05bd a4dd 953c
000002a0: ba58 523d 2251 3cbd 34ff 10bc 3ba7 603d
000002b0: 3590 c2bd 2a90 283d e170 21bd 2b0c 8f3c
000002c0: c35e 9cbc b1d7 46bb 108f 12bd 4904 9abd
000002d0: c1ae 99bd e854 e33b c3b9 94bc 4918 693c
000002e0: b33e 313d 0a36 063d 8646 33bd 8ee4 8e3c
000002f0: 3e14 973c 7330 b2bd 5a5c 8dbd 8bbd 103d
00000300: f642 28bb 1479 14bd 7529 f53c b6b6 cd3a
00000310: b200 d73b 9352 143d 5986 313c 42c4 8abd
00000320: e9c1 5f3c 2eae 973c 6842 67ba 7e65 4f3d
00000330: dd7b 8dbc eec4 103c 20d6 dd3a fdc2 40bd
00000340: f640 413c 9b6e 46bd 3c21 573b b18a a1bd
00000350: db63 16bc e98e 873c 0094 283d 99b2 bdbc
00000360: 48f4 61bc ce5b 15bb 51dd 0b3d 9208 74ba
00000370: ee87 083d 9167 523d c518 183d ba41 a63c
00000380: aaca d5bc 89ca 0cbb 8a6a 623c db82 50bc
00000390: 268e 13bd 7f0d 873c 72f5 3fbd 3bc7 5b3d
000003a0: 5190 0a3d 5e83 1f3c b4b0 e4bc 478b ce3c
000003b0: 8836 1b3d c00a 01bd c55e 99bc 20df 253d
000003c0: e0d4 73bd 478d 7abd 2d9c eb3b bd9d 5fbc
000003d0: 8701 31bc 48a4 39bd 184a 3fbd 929a b83b
000003e0: 317e 04bd 81e8 0cbd c12a 1bbd 8a25 c23c
000003f0: 5e08 c93b ac8c 0c3b 0a49 8fbd c2b6 7f3d

bias f4 [5]
-0.024462271 -0.0017619346 -0.043498356 -0.058489334 0.033420518
00000000: 1a65 c8bc b7f0 e6ba 552b 32bd 8392 6fbd
00000010: f4e3 083d
