experiments/CnnTransformer/simclr/simclr_cnn_transformer_trainings2/logistic_on_simclr_IT_100pat/lightning_logs/version_0/checkpoints/epoch=38-step=43953.ckpt (torch, 7847 bytes, 6 tensors)

classifier.weight f4 [5, 184]
000000 7b 80 84 3c cb e2 10 bd 96 3c fc 3b d4 db 6c bb
       0.016174546 -0.035372537 0.007697652 -0.003614177
000010 d8 e9 0d 3b 83 12 be bc 25 a2 66 ba 4c 4a 14 bd
       0.0021654274 -0.023202186 -0.0008797965 -0.036203668
000020 e0 a0 d0 3b c3 01 20 bd c0 e5 63 3a f5 4e be 3b
       0.006366834 -0.03906418 0.0008693598 0.0058077523
000030 5b e6 87 bb bd e6 97 bc 1e 5e a0 3b 42 cd d6 b9
       -0.0041473336 -0.018542642 0.004894032 -0.0004097019
000040 55 91 6e 3c 16 13 a4 3c 63 5b c9 bb af 37 ed 3c
       0.014561017 0.020028632 -0.0061449273 0.028957216
000050 44 57 a3 3c e2 d6 48 bc dc 1f 46 bc 38 5f cb bc
       0.019939072 -0.012258263 -0.012092557 -0.024825677
000060 b8 8e b4 bc 47 8d 19 3b a1 cf 16 bb 00 90 06 bd
       -0.02204071 0.0023430155 -0.002301194 -0.032852173
000070 b7 df 24 3d 24 64 e5 bb 90 aa 8a 3c f7 5e d0 bc
       0.040252414 -0.007000463 0.016927034 -0.025435908
000080 1b c6 15 bd 98 88 f1 3c 02 3c b5 3c e5 a1 8c 3c
       -0.03656588 0.029484078 0.02212334 0.017167041
000090 3b b4 09 3c f9 a9 17 bd 52 1c 21 bc 47 36 db 3c
       0.008404787 -0.037027333 -0.009833412 0.02675928
0000a0 73 49 11 bd 36 50 cb bc 6b 56 21 3d 44 be 9b bc
       -0.035470437 -0.024818521 0.039389055 -0.019011624
0000b0 e0 5c fc ba 40 e2 b9 bc 03 e7 90 bc c7 cd b6 3c
       -0.0019253753 -0.022690892 -0.01768828 0.02231492
0000c0 01 83 21 bd 41 2f ce 3c b0 f1 07 3c 28 3c 60 3c
       -0.039431576 0.025169017 0.008297369 0.013686217
0000d0 f9 01 9f bb 5d 0d 08 bc 8a 52 c8 bc c3 cd 03 bd
       -0.00485253 -0.008303967 -0.02445342 -0.03217865
0000e0 db 60 b7 bc 7a 6e 8a 3b 4d 55 cc bc 9c a3 84 3c
       -0.022385051 0.0042245956 -0.024943018 0.016191296
0000f0 42 76 18 bd 20 a7 22 3c 50 d5 bb 3a e4 31 d5 ba
       -0.037222154 0.009927541 0.001433054 -0.0016265479
000100 f4 8c a9 bc 88 93 85 bc d0 ba b0 bc 73 f6 a0 3c
       -0.020697095 -0.0163057 -0.021573454 0.019648766
000110 3b a8 57 3d 28 85 bc 3c 83 b6 87 3c 6e 72 08 bd
       0.05265067 0.023012713 0.01656652 -0.033312254
000120 75 dc 26 bc 81 da f0 bc f1 fe a3 bc 6a 78 8d 3b
       -0.010184397 -0.029401066 -0.020019026 0.004317333
000130 44 18 ac 3c 2c ef 07 bd e4 e5 90 bc bd 29 ba 3c
       0.021007665 -0.033187076 -0.017687745 0.02272498
000140 31 4e 15 bc dc c9 46 bd 87 69 01 3c 0c a4 35 3d
       -0.009112881 -0.04853235 0.007898695 0.0443459
000150 3b a3 5d 3c 0f 5f 1a 3c b9 13 7f bb a1 9d 24 bd
       0.013527687 0.009422078 -0.0038921668 -0.04018939
000160 50 7a 88 bc 16 ce 66 3c c7 84 47 ba d7 d7 ed 3c
       -0.016659886 0.014087221 -0.0007611033 0.029033585
000170 91 df 5e bc 69 06 80 bb 34 8a 83 bc e3 39 ff 3c
       -0.013603107 -0.003907014 -0.016057111 0.031155532
000180 c0 97 f5 3b 29 9e 06 ba 9a 7c 09 bc 06 a3 d0 3b
       0.0074948967 -0.0005135262 -0.008391524 0.00636709
000190 b6 33 0a bd 99 50 b2 3c 9d e1 e2 3b ae b6 17 3c
       -0.03374072 0.021766948 0.006923868 0.009259863
0001a0 df ce b1 3c e9 44 0e bc 6a 28 79 3c 20 d8 12 bd
       0.02170509 -0.008683422 0.015207389 -0.035850644
0001b0 07 b6 9e 3c f6 cc 22 3c 9b e4 53 bc 8d 2f df 3c
       0.019373907 0.009936562 -0.012932922 0.027244354
0001c0 1e 3a 44 bc 19 d1 16 3d 2a fe 09 3d eb 42 87 3b
       -0.011976747 0.036820505 0.033689655 0.0041278503
0001d0 ce 5d 9c bb 89 af 12 3c a0 98 c5 bc e2 94 a8 3b
       -0.0047719246 0.008952984 -0.024120629 0.0051447013
0001e0 d8 9b 8f 3c d2 06 84 3b c2 3b 0c 3c d7 58 00 3c
       0.017530367 0.0040291334 0.008559169 0.007833681
0001f0 2c 9d 66 3b 42 98 dd 3c 4e 08 71 bc 27 f0 2d bd
       0.0035188897 0.027050141 -0.014711453 -0.042465355
000200 9b ca a8 bc 70 d8 2e 3b 56 9b 24 bd d4 11 01 3c
       -0.020604422 0.00266793 -0.040187202 0.007877786
000210 95 c7 93 bc fa fb bd bc df 03 58 bc 7e f9 97 bc
       -0.018039504 -0.02319144 -0.013184517 -0.018551584
000220 98 07 a7 3c fa 09 38 bc 26 a5 c0 bc e0 47 a4 3c
       0.020389363 -0.011232847 -0.023516249 0.020053804
000230 2b e0 ac 3c 6d a0 82 bc c1 79 02 3d b4 b7 4a bc
       0.021102985 -0.015945638 0.031854395 -0.0123729
000240 75 54 80 3b 1c 7a 34 3d 65 19 62 3b e1 0f 78 bc
       0.003916318 0.044061765 0.00345 -0.015140505
000250 fc 92 76 3b 89 18 9a bc 50 1d 72 bc 4f b3 5d 3d
       0.003762423 -0.018810527 -0.014777496 0.05412608
000260 5a c1 e1 bc b4 c0 89 3a 3b 15 1a bd 68 62 f5 3c
       -0.027558018 0.00105097 -0.037617903 0.02995415
000270 d4 0a f6 3b 27 e5 45 bc 7f 01 07 bd 0b 84 89 bb
       0.007508615 -0.01207856 -0.03296041 -0.004196649
000280 1c 06 8b bb 92 d1 57 bc b9 c1 1e bc 5d 3a 21 bc
       -0.0042426717 -0.013172524 -0.009689742 -0.009840575
000290 a1 c2 14 3d cc 2b 91 bc d8 b7 7f 3c 59 47 cc bc
       0.036318425 -0.01772108 0.015607797 -0.024936365
0002a0 6f 95 0a 3d c5 b8 0f 3d 10 a7 fa bb e4 25 66 3c
       0.033833917 0.03508832 -0.00764931 0.01404712
0002b0 be 54 1c bd 81 2c 89 bc 6f 79 56 3c 93 ea 63 3b
       -0.038166754 -0.016744854 0.013090475 0.0034777268
0002c0 c1 6d b0 bb 7c 97 a9 bb ae c6 f2 3c e4 58 9b bc
       -0.0053841774 -0.005175529 0.029635753 -0.018963285
0002d0 07 79 36 3c bf 7f cf bb ef 73 0a 3c 27 ab 11 3c
       0.011137254 -0.006332367 0.008450492 0.008890904
0002e0 08 9a ea 3c b2 7d 33 bc f3 f9 ed bb a5 59 69 3b
       0.028637901 -0.010955261 -0.0072624623 0.003560641
0002f0 ea 74 72 bc 78 d7 06 bc 79 42 3f bc 3a bc 97 bc
       -0.014798382 -0.008230083 -0.011673563 -0.01852237
000300 4b 8a ac 3c ae 3d fd bc dd 10 14 3c 28 d6 91 bb
       0.021062037 -0.0309132 0.009037224 -0.0044505782
000310 a4 dc 4a bc 11 a7 86 bc 4c b2 31 3b 53 08 68 3c
       -0.012381706 -0.016437085 0.002711433 0.014162141
000320 d2 84 e4 3c d6 ed ec 3c 4e 2e d2 ba ac 6a b8 3b
       0.027895365 0.028922003 -0.0016035528 0.0056279507
000330 a5 d8 8a 3c ba 78 38 bc a1 4e 4b bc c4 c6 99 bc
       0.016949007 -0.011259252 -0.012408883 -0.018771537
000340 4b 52 fd bb 51 a0 2f 3c 6d 4f 57 bc 49 35 21 bd
       -0.0077307574 0.010719375 -0.013141495 -0.039357457
000350 88 48 5e 3d 4a e9 ab bc 3f 2e eb 3c bb 02 12 bd
       0.05426839 -0.020985264 0.028708575 -0.035647135
000360 d3 80 89 bc c6 2c 54 3c cb 99 1c 3d 3b b3 be 3c
       -0.016785061 0.012950128 0.038232606 0.023278823
000370 3d fe 07 3c 44 eb 1d bd 8d 57 be bb 84 d4 08 3d
       0.008300361 -0.038554445 -0.0058087767 0.033405796
000380 f7 75 d0 bc 30 67 f9 bc 84 69 6f 3c ae fe bb bc
       -0.025446875 -0.030444711 0.014612559 -0.02294859
000390 14 56 6c 3c 42 b9 7a 3c ed 08 c1 bc a3 48 d1 3c
       0.0144248195 0.015302958 -0.023563826 0.025547331
0003a0 45 cc 3a bd 5f 73 f5 3a 56 11 d7 3c b5 81 a5 3c
       -0.045604963 0.00187264 0.026253384 0.02020345
0003b0 cf 9d a3 ba a1 24 02 bd 9e 45 05 bc 74 98 78 bc
       -0.0012482944 -0.031773213 -0.008134274 -0.015173066
0003c0 92 07 13 bd d1 bb 11 3c f5 75 79 3b 40 6e cf 3c
       -0.03589589 0.008894877 0.0038064693 0.025321126
0003d0 56 ab 12 bd ca e1 b4 bc 64 1a 23 3c 8e 50 9d 3c
       -0.03580793 -0.02208032 0.0099550225 0.01920345
0003e0 91 ea 58 bc 11 05 0c bd 17 d7 af bc d0 09 f9 3c
       -0.013239519 -0.03418452 -0.021464868 0.030400187
0003f0 40 11 27 3d c2 7c bc 3c 2a 49 a9 bb 68 1e e4 bc
       0.040787935 0.023008708 -0.0051661925 -0.02784653

classifier.bias f4 [5]
000000 84 92 16 bd 9a 1d 4a bd e6 5f ad 3d d2 c3 94 bd
       -0.036760822 -0.049344636 0.08465557 -0.07263912
000010 cf 81 8e 3d
       0.06958353

net.1.weight f4 [5, 184]
000000 7b 80 84 3c cb e2 10 bd 96 3c fc 3b d4 db 6c bb
       0.016174546 -0.035372537 0.007697652 -0.003614177
000010 d8 e9 0d 3b 83 12 be bc 25 a2 66 ba 4c 4a 14 bd
       0.0021654274 -0.023202186 -0.0008797965 -0.036203668
000020 e0 a0 d0 3b c3 01 20 bd c0 e5 63 3a f5 4e be 3b
       0.006366834 -0.03906418 0.0008693598 0.0058077523
000030 5b e6 87 bb bd e6 97 bc 1e 5e a0 3b 42 cd d6 b9
       -0.0041473336 -0.018542642 0.004894032 -0.0004097019
000040 55 91 6e 3c 16 13 a4 3c 63 5b c9 bb af 37 ed 3c
       0.014561017 0.020028632 -0.0061449273 0.028957216
000050 44 57 a3 3c e2 d6 48 bc dc 1f 46 bc 38 5f cb bc
       0.019939072 -0.012258263 -0.012092557 -0.024825677
000060 b8 8e b4 bc 47 8d 19 3b a1 cf 16 bb 00 90 06 bd
       -0.02204071 0.0023430155 -0.002301194 -0.032852173
000070 b7 df 24 3d 24 64 e5 bb 90 aa 8a 3c f7 5e d0 bc
       0.040252414 -0.007000463 0.016927034 -0.025435908
000080 1b c6 15 bd 98 88 f1 3c 02 3c b5 3c e5 a1 8c 3c
       -0.03656588 0.029484078 0.02212334 0.017167041
000090 3b b4 09 3c f9 a9 17 bd 52 1c 21 bc 47 36 db 3c
       0.008404787 -0.037027333 -0.009833412 0.02675928
0000a0 73 49 11 bd 36 50 cb bc 6b 56 21 3d 44 be 9b bc
       -0.035470437 -0.024818521 0.039389055 -0.019011624
0000b0 e0 5c fc ba 40 e2 b9 bc 03 e7 90 bc c7 cd b6 3c
       -0.0019253753 -0.022690892 -0.01768828 0.02231492
0000c0 01 83 21 bd 41 2f ce 3c b0 f1 07 3c 28 3c 60 3c
       -0.039431576 0.025169017 0.008297369 0.013686217
0000d0 f9 01 9f bb 5d 0d 08 bc 8a 52 c8 bc c3 cd 03 bd
       -0.00485253 -0.008303967 -0.02445342 -0.03217865
0000e0 db 60 b7 bc 7a 6e 8a 3b 4d 55 cc bc 9c a3 84 3c
       -0.022385051 0.0042245956 -0.024943018 0.016191296
0000f0 42 76 18 bd 20 a7 22 3c 50 d5 bb 3a e4 31 d5 ba
       -0.037222154 0.009927541 0.001433054 -0.0016265479
000100 f4 8c a9 bc 88 93 85 bc d0 ba b0 bc 73 f6 a0 3c
       -0.020697095 -0.0163057 -0.021573454 0.019648766
000110 3b a8 57 3d 28 85 bc 3c 83 b6 87 3c 6e 72 08 bd
       0.05265067 0.023012713 0.01656652 -0.033312254
000120 75 dc 26 bc 81 da f0 bc f1 fe a3 bc 6a 78 8d 3b
       -0.010184397 -0.029401066 -0.020019026 0.004317333
000130 44 18 ac 3c 2c ef 07 bd e4 e5 90 bc bd 29 ba 3c
       0.021007665 -0.033187076 -0.017687745 0.02272498
000140 31 4e 15 bc dc c9 46 bd 87 69 01 3c 0c a4 35 3d
       -0.009112881 -0.04853235 0.007898695 0.0443459
000150 3b a3 5d 3c 0f 5f 1a 3c b9 13 7f bb a1 9d 24 bd
       0.013527687 0.009422078 -0.0038921668 -0.04018939
000160 50 7a 88 bc 16 ce 66 3c c7 84 47 ba d7 d7 ed 3c
       -0.016659886 0.014087221 -0.0007611033 0.029033585
000170 91 df 5e bc 69 06 80 bb 34 8a 83 bc e3 39 ff 3c
       -0.013603107 -0.003907014 -0.016057111 0.031155532
000180 c0 97 f5 3b 29 9e 06 ba 9a 7c 09 bc 06 a3 d0 3b
       0.0074948967 -0.0005135262 -0.008391524 0.00636709
000190 b6 33 0a bd 99 50 b2 3c 9d e1 e2 3b ae b6 17 3c
       -0.03374072 0.021766948 0.006923868 0.009259863
0001a0 df ce b1 3c e9 44 0e bc 6a 28 79 3c 20 d8 12 bd
       0.02170509 -0.008683422 0.015207389 -0.035850644
0001b0 07 b6 9e 3c f6 cc 22 3c 9b e4 53 bc 8d 2f df 3c
       0.019373907 0.009936562 -0.012932922 0.027244354
0001c0 1e 3a 44 bc 19 d1 16 3d 2a fe 09 3d eb 42 87 3b
       -0.011976747 0.036820505 0.033689655 0.0041278503
0001d0 ce 5d 9c bb 89 af 12 3c a0 98 c5 bc e2 94 a8 3b
       -0.0047719246 0.008952984 -0.024120629 0.0051447013
0001e0 d8 9b 8f 3c d2 06 84 3b c2 3b 0c 3c d7 58 00 3c
       0.017530367 0.0040291334 0.008559169 0.007833681
0001f0 2c 9d 66 3b 42 98 dd 3c 4e 08 71 bc 27 f0 2d bd
       0.0035188897 0.027050141 -0.014711453 -0.042465355
000200 9b ca a8 bc 70 d8 2e 3b 56 9b 24 bd d4 11 01 3c
       -0.020604422 0.00266793 -0.040187202 0.007877786
000210 95 c7 93 bc fa fb bd bc df 03 58 bc 7e f9 97 bc
       -0.018039504 -0.02319144 -0.013184517 -0.018551584
000220 98 07 a7 3c fa 09 38 bc 26 a5 c0 bc e0 47 a4 3c
       0.020389363 -0.011232847 -0.023516249 0.020053804
000230 2b e0 ac 3c 6d a0 82 bc c1 79 02 3d b4 b7 4a bc
       0.021102985 -0.015945638 0.031854395 -0.0123729
000240 75 54 80 3b 1c 7a 34 3d 65 19 62 3b e1 0f 78 bc
       0.003916318 0.044061765 0.00345 -0.015140505
000250 fc 92 76 3b 89 18 9a bc 50 1d 72 bc 4f b3 5d 3d
       0.003762423 -0.018810527 -0.014777496 0.05412608
000260 5a c1 e1 bc b4 c0 89 3a 3b 15 1a bd 68 62 f5 3c
       -0.027558018 0.00105097 -0.037617903 0.02995415
000270 d4 0a f6 3b 27 e5 45 bc 7f 01 07 bd 0b 84 89 bb
       0.007508615 -0.01207856 -0.03296041 -0.004196649
000280 1c 06 8b bb 92 d1 57 bc b9 c1 1e bc 5d 3a 21 bc
       -0.0042426717 -0.013172524 -0.009689742 -0.009840575
000290 a1 c2 14 3d cc 2b 91 bc d8 b7 7f 3c 59 47 cc bc
       0.036318425 -0.01772108 0.015607797 -0.024936365
0002a0 6f 95 0a 3d c5 b8 0f 3d 10 a7 fa bb e4 25 66 3c
       0.033833917 0.03508832 -0.00764931 0.01404712
0002b0 be 54 1c bd 81 2c 89 bc 6f 79 56 3c 93 ea 63 3b
       -0.038166754 -0.016744854 0.013090475 0.0034777268
0002c0 c1 6d b0 bb 7c 97 a9 bb ae c6 f2 3c e4 58 9b bc
       -0.0053841774 -0.005175529 0.029635753 -0.018963285
0002d0 07 79 36 3c bf 7f cf bb ef 73 0a 3c 27 ab 11 3c
       0.011137254 -0.006332367 0.008450492 0.008890904
0002e0 08 9a ea 3c b2 7d 33 bc f3 f9 ed bb a5 59 69 3b
       0.028637901 -0.010955261 -0.0072624623 0.003560641
0002f0 ea 74 72 bc 78 d7 06 bc 79 42 3f bc 3a bc 97 bc
       -0.014798382 -0.008230083 -0.011673563 -0.01852237
000300 4b 8a ac 3c ae 3d fd bc dd 10 14 3c 28 d6 91 bb
       0.021062037 -0.0309132 0.009037224 -0.0044505782
000310 a4 dc 4a bc 11 a7 86 bc 4c b2 31 3b 53 08 68 3c
       -0.012381706 -0.016437085 0.002711433 0.014162141
000320 d2 84 e4 3c d6 ed ec 3c 4e 2e d2 ba ac 6a b8 3b
       0.027895365 0.028922003 -0.0016035528 0.0056279507
000330 a5 d8 8a 3c ba 78 38 bc a1 4e 4b bc c4 c6 99 bc
       0.016949007 -0.011259252 -0.012408883 -0.018771537
000340 4b 52 fd bb 51 a0 2f 3c 6d 4f 57 bc 49 35 21 bd
       -0.0077307574 0.010719375 -0.013141495 -0.039357457
000350 88 48 5e 3d 4a e9 ab bc 3f 2e eb 3c bb 02 12 bd
       0.05426839 -0.020985264 0.028708575 -0.035647135
000360 d3 80 89 bc c6 2c 54 3c cb 99 1c 3d 3b b3 be 3c
       -0.016785061 0.012950128 0.038232606 0.023278823
000370 3d fe 07 3c 44 eb 1d bd 8d 57 be bb 84 d4 08 3d
       0.008300361 -0.038554445 -0.0058087767 0.033405796
000380 f7 75 d0 bc 30 67 f9 bc 84 69 6f 3c ae fe bb bc
       -0.025446875 -0.030444711 0.014612559 -0.02294859
000390 14 56 6c 3c 42 b9 7a 3c ed 08 c1 bc a3 48 d1 3c
       0.0144248195 0.015302958 -0.023563826 0.025547331
0003a0 45 cc 3a bd 5f 73 f5 3a 56 11 d7 3c b5 81 a5 3c
       -0.045604963 0.00187264 0.026253384 0.02020345
0003b0 cf 9d a3 ba a1 24 02 bd 9e 45 05 bc 74 98 78 bc
       -0.0012482944 -0.031773213 -0.008134274 -0.015173066
0003c0 92 07 13 bd d1 bb 11 3c f5 75 79 3b 40 6e cf 3c
       -0.03589589 0.008894877 0.0038064693 0.025321126
0003d0 56 ab 12 bd ca e1 b4 bc 64 1a 23 3c 8e 50 9d 3c
       -0.03580793 -0.02208032 0.0099550225 0.01920345
0003e0 91 ea 58 bc 11 05 0c bd 17 d7 af bc d0 09 f9 3c
       -0.013239519 -0.03418452 -0.021464868 0.030400187
0003f0 40 11 27 3d c2 7c bc 3c 2a 49 a9 bb 68 1e e4 bc
       0.040787935 0.023008708 -0.0051661925 -0.02784653

net.1.bias f4 [5]
000000 84 92 16 bd 9a 1d 4a bd e6 5f ad 3d d2 c3 94 bd
       -0.036760822 -0.049344636 0.08465557 -0.07263912
000010 cf 81 8e 3d
       0.06958353

weight f4 [5, 184]
000000 7b 80 84 3c cb e2 10 bd 96 3c fc 3b d4 db 6c bb
       0.016174546 -0.035372537 0.007697652 -0.003614177
000010 d8 e9 0d 3b 83 12 be bc 25 a2 66 ba 4c 4a 14 bd
       0.0021654274 -0.023202186 -0.0008797965 -0.036203668
000020 e0 a0 d0 3b c3 01 20 bd c0 e5 63 3a f5 4e be 3b
       0.006366834 -0.03906418 0.0008693598 0.0058077523
000030 5b e6 87 bb bd e6 97 bc 1e 5e a0 3b 42 cd d6 b9
       -0.0041473336 -0.018542642 0.004894032 -0.0004097019
000040 55 91 6e 3c 16 13 a4 3c 63 5b c9 bb af 37 ed 3c
       0.014561017 0.020028632 -0.0061449273 0.028957216
000050 44 57 a3 3c e2 d6 48 bc dc 1f 46 bc 38 5f cb bc
       0.019939072 -0.012258263 -0.012092557 -0.024825677
000060 b8 8e b4 bc 47 8d 19 3b a1 cf 16 bb 00 90 06 bd
       -0.02204071 0.0023430155 -0.002301194 -0.032852173
000070 b7 df 24 3d 24 64 e5 bb 90 aa 8a 3c f7 5e d0 bc
       0.040252414 -0.007000463 0.016927034 -0.025435908
000080 1b c6 15 bd 98 88 f1 3c 02 3c b5 3c e5 a1 8c 3c
       -0.03656588 0.029484078 0.02212334 0.017167041
000090 3b b4 09 3c f9 a9 17 bd 52 1c 21 bc 47 36 db 3c
       0.008404787 -0.037027333 -0.009833412 0.02675928
0000a0 73 49 11 bd 36 50 cb bc 6b 56 21 3d 44 be 9b bc
       -0.035470437 -0.024818521 0.039389055 -0.019011624
0000b0 e0 5c fc ba 40 e2 b9 bc 03 e7 90 bc c7 cd b6 3c
       -0.0019253753 -0.022690892 -0.01768828 0.02231492
0000c0 01 83 21 bd 41 2f ce 3c b0 f1 07 3c 28 3c 60 3c
       -0.039431576 0.025169017 0.008297369 0.013686217
0000d0 f9 01 9f bb 5d 0d 08 bc 8a 52 c8 bc c3 cd 03 bd
       -0.00485253 -0.008303967 -0.02445342 -0.03217865
0000e0 db 60 b7 bc 7a 6e 8a 3b 4d 55 cc bc 9c a3 84 3c
       -0.022385051 0.0042245956 -0.024943018 0.016191296
0000f0 42 76 18 bd 20 a7 22 3c 50 d5 bb 3a e4 31 d5 ba
       -0.037222154 0.009927541 0.001433054 -0.0016265479
000100 f4 8c a9 bc 88 93 85 bc d0 ba b0 bc 73 f6 a0 3c
       -0.020697095 -0.0163057 -0.021573454 0.019648766
000110 3b a8 57 3d 28 85 bc 3c 83 b6 87 3c 6e 72 08 bd
       0.05265067 0.023012713 0.01656652 -0.033312254
000120 75 dc 26 bc 81 da f0 bc f1 fe a3 bc 6a 78 8d 3b
       -0.010184397 -0.029401066 -0.020019026 0.004317333
000130 44 18 ac 3c 2c ef 07 bd e4 e5 90 bc bd 29 ba 3c
       0.021007665 -0.033187076 -0.017687745 0.02272498
000140 31 4e 15 bc dc c9 46 bd 87 69 01 3c 0c a4 35 3d
       -0.009112881 -0.04853235 0.007898695 0.0443459
000150 3b a3 5d 3c 0f 5f 1a 3c b9 13 7f bb a1 9d 24 bd
       0.013527687 0.009422078 -0.0038921668 -0.04018939
000160 50 7a 88 bc 16 ce 66 3c c7 84 47 ba d7 d7 ed 3c
       -0.016659886 0.014087221 -0.0007611033 0.029033585
000170 91 df 5e bc 69 06 80 bb 34 8a 83 bc e3 39 ff 3c
       -0.013603107 -0.003907014 -0.016057111 0.031155532
000180 c0 97 f5 3b 29 9e 06 ba 9a 7c 09 bc 06 a3 d0 3b
       0.0074948967 -0.0005135262 -0.008391524 0.00636709
000190 b6 33 0a bd 99 50 b2 3c 9d e1 e2 3b ae b6 17 3c
       -0.03374072 0.021766948 0.006923868 0.009259863
0001a0 df ce b1 3c e9 44 0e bc 6a 28 79 3c 20 d8 12 bd
       0.02170509 -0.008683422 0.015207389 -0.035850644
0001b0 07 b6 9e 3c f6 cc 22 3c 9b e4 53 bc 8d 2f df 3c
       0.019373907 0.009936562 -0.012932922 0.027244354
0001c0 1e 3a 44 bc 19 d1 16 3d 2a fe 09 3d eb 42 87 3b
       -0.011976747 0.036820505 0.033689655 0.0041278503
0001d0 ce 5d 9c bb 89 af 12 3c a0 98 c5 bc e2 94 a8 3b
       -0.0047719246 0.008952984 -0.024120629 0.0051447013
0001e0 d8 9b 8f 3c d2 06 84 3b c2 3b 0c 3c d7 58 00 3c
       0.017530367 0.0040291334 0.008559169 0.007833681
0001f0 2c 9d 66 3b 42 98 dd 3c 4e 08 71 bc 27 f0 2d bd
       0.0035188897 0.027050141 -0.014711453 -0.042465355
000200 9b ca a8 bc 70 d8 2e 3b 56 9b 24 bd d4 11 01 3c
       -0.020604422 0.00266793 -0.040187202 0.007877786
000210 95 c7 93 bc fa fb bd bc df 03 58 bc 7e f9 97 bc
       -0.018039504 -0.02319144 -0.013184517 -0.018551584
000220 98 07 a7 3c fa 09 38 bc 26 a5 c0 bc e0 47 a4 3c
       0.020389363 -0.011232847 -0.023516249 0.020053804
000230 2b e0 ac 3c 6d a0 82 bc c1 79 02 3d b4 b7 4a bc
       0.021102985 -0.015945638 0.031854395 -0.0123729
000240 75 54 80 3b 1c 7a 34 3d 65 19 62 3b e1 0f 78 bc
       0.003916318 0.044061765 0.00345 -0.015140505
000250 fc 92 76 3b 89 18 9a bc 50 1d 72 bc 4f b3 5d 3d
       0.003762423 -0.018810527 -0.014777496 0.05412608
000260 5a c1 e1 bc b4 c0 89 3a 3b 15 1a bd 68 62 f5 3c
       -0.027558018 0.00105097 -0.037617903 0.02995415
000270 d4 0a f6 3b 27 e5 45 bc 7f 01 07 bd 0b 84 89 bb
       0.007508615 -0.01207856 -0.03296041 -0.004196649
000280 1c 06 8b bb 92 d1 57 bc b9 c1 1e bc 5d 3a 21 bc
       -0.0042426717 -0.013172524 -0.009689742 -0.009840575
000290 a1 c2 14 3d cc 2b 91 bc d8 b7 7f 3c 59 47 cc bc
       0.036318425 -0.01772108 0.015607797 -0.024936365
0002a0 6f 95 0a 3d c5 b8 0f 3d 10 a7 fa bb e4 25 66 3c
       0.033833917 0.03508832 -0.00764931 0.01404712
0002b0 be 54 1c bd 81 2c 89 bc 6f 79 56 3c 93 ea 63 3b
       -0.038166754 -0.016744854 0.013090475 0.0034777268
0002c0 c1 6d b0 bb 7c 97 a9 bb ae c6 f2 3c e4 58 9b bc
       -0.0053841774 -0.005175529 0.029635753 -0.018963285
0002d0 07 79 36 3c bf 7f cf bb ef 73 0a 3c 27 ab 11 3c
       0.011137254 -0.006332367 0.008450492 0.008890904
0002e0 08 9a ea 3c b2 7d 33 bc f3 f9 ed bb a5 59 69 3b
       0.028637901 -0.010955261 -0.0072624623 0.003560641
0002f0 ea 74 72 bc 78 d7 06 bc 79 42 3f bc 3a bc 97 bc
       -0.014798382 -0.008230083 -0.011673563 -0.01852237
000300 4b 8a ac 3c ae 3d fd bc dd 10 14 3c 28 d6 91 bb
       0.021062037 -0.0309132 0.009037224 -0.0044505782
000310 a4 dc 4a bc 11 a7 86 bc 4c b2 31 3b 53 08 68 3c
       -0.012381706 -0.016437085 0.002711433 0.014162141
000320 d2 84 e4 3c d6 ed ec 3c 4e 2e d2 ba ac 6a b8 3b
       0.027895365 0.028922003 -0.0016035528 0.0056279507
000330 a5 d8 8a 3c ba 78 38 bc a1 4e 4b bc c4 c6 99 bc
       0.016949007 -0.011259252 -0.012408883 -0.018771537
000340 4b 52 fd bb 51 a0 2f 3c 6d 4f 57 bc 49 35 21 bd
       -0.0077307574 0.010719375 -0.013141495 -0.039357457
000350 88 48 5e 3d 4a e9 ab bc 3f 2e eb 3c bb 02 12 bd
       0.05426839 -0.020985264 0.028708575 -0.035647135
000360 d3 80 89 bc c6 2c 54 3c cb 99 1c 3d 3b b3 be 3c
       -0.016785061 0.012950128 0.038232606 0.023278823
000370 3d fe 07 3c 44 eb 1d bd 8d 57 be bb 84 d4 08 3d
       0.008300361 -0.038554445 -0.0058087767 0.033405796
000380 f7 75 d0 bc 30 67 f9 bc 84 69 6f 3c ae fe bb bc
       -0.025446875 -0.030444711 0.014612559 -0.02294859
000390 14 56 6c 3c 42 b9 7a 3c ed 08 c1 bc a3 48 d1 3c
       0.0144248195 0.015302958 -0.023563826 0.025547331
0003a0 45 cc 3a bd 5f 73 f5 3a 56 11 d7 3c b5 81 a5 3c
       -0.045604963 0.00187264 0.026253384 0.02020345
0003b0 cf 9d a3 ba a1 24 02 bd 9e 45 05 bc 74 98 78 bc
       -0.0012482944 -0.031773213 -0.008134274 -0.015173066
0003c0 92 07 13 bd d1 bb 11 3c f5 75 79 3b 40 6e cf 3c
       -0.03589589 0.008894877 0.0038064693 0.025321126
0003d0 56 ab 12 bd ca e1 b4 bc 64 1a 23 3c 8e 50 9d 3c
       -0.03580793 -0.02208032 0.0099550225 0.01920345
0003e0 91 ea 58 bc 11 05 0c bd 17 d7 af bc d0 09 f9 3c
       -0.013239519 -0.03418452 -0.021464868 0.030400187
0003f0 40 11 27 3d c2 7c bc 3c 2a 49 a9 bb 68 1e e4 bc
       0.040787935 0.023008708 -0.0051661925 -0.02784653

bias f4 [5]
000000 84 92 16 bd 9a 1d 4a bd e6 5f ad 3d d2 c3 94 bd
       -0.036760822 -0.049344636 0.08465557 -0.07263912
000010 cf 81 8e 3d
       0.06958353
