experiments/CnnEncoder/simclr/simclr_cnn_encoder_trainings1/logistic_on_simclr_IT_3pat/lightning_logs/version_0/checkpoints/epoch=39-step=1400.ckpt (torch, 7847 bytes, 6 tensors)

classifier.weight f4 [5, 184]
0.057917282 -0.04276916 -0.043253455 0.02081778 0.04442176 0.027614668 0.02838371 -0.013942182
0.057831638 -0.035459355 -0.061097324 0.03698414 0.012531657 0.013099227 -0.040255606 -0.046499893
0.0059945015 -0.0043429644 0.07080862 0.005375345 -0.074319735 0.026856877 -0.012624527 0.049761184
0.07900479 0.009242551 0.0032500713 0.07140297 -0.028503506 -0.040612873 -0.03764489 -0.0018584094
-0.01630243 -0.015137207 0.020956207 -0.013934123 -0.003920832 0.03653097 0.006967877 -0.0042022807
-0.05241474 0.035485953 -0.070016734 0.026578581 -0.024850627 0.0058664144 -0.00024981383 -0.004021347
-0.051698435 0.027156249 -0.0005099195 -0.054102637 -0.025206786 -0.0071255364 0.056274656 0.01850422
0.048771918 -0.021079047 -0.068724655 0.030165188 0.050131436 -0.057307865 0.002971216 -0.06916335
-0.032954782 -0.033464186 0.019591568 -0.05472249 -0.04552211 0.038078677 -0.02202501 0.076766744
0.025596105 0.033658244 -0.0026171745 -0.054061778 -0.0043986645 0.033620104 0.06524148 -0.016345745
0.063308634 -0.08165697 -0.06315475 -0.029800417 0.0047115767 0.047617063 -0.052249625 -0.030018121
0.04894041 -0.06039144 0.07403371 0.033134017 -0.066259965 -0.018471904 0.04263148 -0.02601593
-0.061624575 0.013353199 -0.015683986 -0.016968278 0.06943783 0.0117068235 0.046017744 0.06315043
-0.06854357 -0.02190906 0.04095761 -0.045492083 0.0747396 0.057975087 0.07044493 -0.06929033
0.06927727 -0.010863733 -0.058280066 0.07514137 -0.0031990851 0.022297164 0.016131751 0.028764984
0.069532536 -0.06668466 0.048682958 -0.0021380077 -0.0372448 0.020887032 0.05922091 0.018593483
-0.03477448 0.025595954 0.047119834 0.039721627 -0.008253177 -0.010057387 -0.06747111 -0.03193682
0.048551526 0.0617317 0.046730798 -0.044065874 -0.0076692156 -0.05246333 -0.0074088527 -0.020493707
0.059852153 0.07298586 0.033680756 0.015682915 0.046125513 0.06417512 0.017441073 0.04337537
-0.05063505 0.053392168 0.029862095 -0.0054727015 -0.07451182 0.012090567 0.046231225 -0.024366824
0.050137654 -0.030646373 -0.00608381 0.056105256 0.013396061 0.009508426 -0.023860574 0.059197713
0.05496818 -0.023747128 -0.01681922 0.03199249 0.046779685 -0.06845209 -0.045889005 0.06819711
-0.032484043 -0.024226986 0.04767631 0.01709237 0.027627274 -0.0337872 0.04955171 0.039240092
0.010995232 0.014900743 0.05277864 0.048281383 0.048156407 -0.06597503 -0.04908165 0.04922411
-0.007827514 0.055130787 0.060857747 -0.028566815 0.045005113 0.00019996091 0.0038241937 -0.014482354
0.061987612 0.016144052 0.0016155413 -0.0032970218 -0.05656474 -0.05314199 -0.0017359066 0.0035160847
-0.00886393 0.008818348 0.086004466 0.066806 0.05528861 0.023775738 0.04026004 0.008413124
-0.00025397184 -0.056124307 0.048468586 0.04499609 0.03021041 0.02374062 0.06693017 0.03132752
-0.05189538 0.01282008 -0.04915229 -0.053978603 -0.026566105 -0.06968907 -0.054186027 -0.05756563
-0.0013660247 0.031200958 0.02651924 -0.003296958 0.044921204 0.016866175 -0.04591258 0.03991099
0.087481424 0.04404992 -0.032353055 0.004105547 0.04820532 -0.014863288 -0.026177896 0.088216506
-0.047400564 0.03428569 0.06895433 0.018204462 -0.024587367 -0.011299042 0.03159264 -0.044048034
00000000: ac3a 6d3d b72e 2fbd 892a 31bd 0d8a aa3c
00000010: 97f3 353d 2838 e23c f484 e83c c06d 64bc
00000020: dee0 6c3d d43d 11bd 3041 7abd ae7c 173d
00000030: 9451 4d3c 249e 563c 10e3 24bd ac76 3ebd
00000040: 866d c43b 6d4f 8ebb 1c04 913d a923 b03b
00000050: f234 98bd f402 dc3c 1bd7 4ebc 62d2 4b3d
00000060: 43cd a13d 126e 173c 26ff 543b b83b 923d
00000070: 2f80 e9bc af59 26bd 8731 1abd df95 f3ba
00000080: ac8c 85bc 0c02 78bc 5aac ab3c f34b 64bc
00000090: 537a 80bb 80a1 153d ca52 e43b 49b3 89bb
000000a0: d7b0 56bd b859 113d ef64 8fbd 53bb d93c
000000b0: 8b93 cbbc 0d3b c03b 72f9 82b9 81c5 83bb
000000c0: bdc1 53bd c876 de3c 1eac 05ba ba9a 5dbd
000000d0: 767e cebc 557d e9bb 4180 663d 2996 973c
000000e0: 10c5 473d f7ad acbc 83bf 8cbd fc1c f73c
000000f0: 9f56 4d3d a7bb 6abd bcb8 423b 84a5 8dbd
00000100: 98fb 06bd be11 09bd 7f7e a03c b124 60bd
00000110: 6475 3abd 63f8 1b3d cb6d b4bc e237 9d3d
00000120: ecae d13c 3add 093d e784 2bbb e26f 5dbd
00000130: ac22 90bb 3cb5 093d 539d 853d 83e7 85bc
00000140: f5a7 813d c53b a7bd 4757 81bd 0120 f4bc
00000150: 9263 9a3b 1c0a 433d b403 56bd 90e8 f5bc
00000160: bd75 483d 045d 77bd fc9e 973d 89b7 073d
00000170: 4eb3 87bd 6452 97bc 599e 2e3d 5c1f d5bc
00000180: 0d6a 7cbd 60c7 5a3c b47b 80bc 0f01 8bbc
00000190: 6c35 8e3d facd 3f3c 1a7d 3c3d 0355 813d
000001a0: 9260 8cbd a17a b3bc 2bc3 273d e855 3abd
000001b0: 1311 993d 4977 6d3d 6e45 903d 17e8 8dbd
000001c0: 3ee1 8d3d ccfd 31bc 14b7 6ebd b8e3 993d
000001d0: bea7 51bb 8ba8 b63c bc26 843c 8ba4 eb3c
000001e0: 1367 8e3d f891 88bd c867 473d d11d 0cbb
000001f0: 018e 18bd 481b ab3c a091 723d 5c51 983c
00000200: af6f 0ebd 9bae d13c ba00 413d 25b3 223d
00000210: 5538 07bc bdc7 24bc 4b2e 8abd 2fd0 02bd
00000220: f7dd 463d 61da 7c3d cb68 3f3d 6b7e 34bd
00000230: 0b4e fbbb cae3 56bd f6c5 f2bb 6be2 a7bc
00000240: 8827 753d 9c79 953d d5f4 093d 7579 803c
00000250: 1bee 3c3d 3f6e 833d 95e0 8e3c 5faa 313d
00000260: b366 4fbd bfb1 5a3d 5aa1 f43c 5954 b3bb
00000270: a799 98bd 8317 463c f45c 3d3d ef9c c7bc
00000280: 245d 4d3d 1a0e fbbc b25a c7bb a0ce 653d
00000290: 277b 5b3c 3bc9 1b3c 4077 c3bc 4d79 723d
000002a0: 5026 613d 5689 c2bc 76c8 89bc 8f0a 033d
000002b0: 0e9c 3f3d 9c30 8cbd 1cf6 3bbd edaa 8b3d
000002c0: fd0d 05bd ac77 c6bc 3c48 433d 4c05 8c3c
000002d0: 9852 e23c 7264 0abd bcf6 4a3d 38ba 203d
000002e0: 5825 343c 3f22 743c 6a2e 583d b3c2 453d
000002f0: a73f 453d eb1d 87bd d709 49bd 389f 493d
00000300: f93e 00bc d2d0 613d f945 793d f404 eabc
00000310: 4857 383d 99ac 5139 539f 7a3b 6547 6dbc
00000320: b9e6 7d3d 8840 843c 92c0 d33a d912 58bb
00000330: 6eb0 67bd 6aab 59bd 5c87 e3ba 1d6e 663b
00000340: 043a 11bc d57a 103c 1c23 b03d 96d1 883d
00000350: 4f76 623d 56c5 c23c b6e7 243d 33d7 093c
00000360: 8627 85b9 9ae2 65bd ff86 463d d24d 383d
00000370: d27b f73c b07b c23c af12 893d 4951 003d
00000380: 4090 54bd 500b 523c e953 49bd ab18 5dbd
00000390: 29a1 d9bc 25b9 8ebd 2bf2 5dbd f0c9 6bbd
000003a0: 2f0c b3ba 2799 ff3c e13e d93c c711 58bb
000003b0: 4cff 373d ef2a 8a3c d40e 3cbd b579 233d
000003c0: 7629 b33d b06d 343d a384 04bd d387 863b
000003d0: f172 453d 2685 73bc 0773 d6bc dbaa b43d
000003e0: 1827 42bd 276f 0c3d ee37 8d3d 8621 953c
000003f0: 726b c9bc 9e1f 39bc 4967 013d b66b 34bd

classifier.bias f4 [5]
-0.01562078 0.049920283 0.010455246 -0.07277088 -0.016417453
00000000: 4dee 7fbc 3679 4c3d 7b4c 2b3c e608 95bd
00000010: e57d 86bc

net.1.weight f4 [5, 184]
0.057917282 -0.04276916 -0.043253455 0.02081778 0.04442176 0.027614668 0.02838371 -0.013942182
0.057831638 -0.035459355 -0.061097324 0.03698414 0.012531657 0.013099227 -0.040255606 -0.046499893
0.0059945015 -0.0043429644 0.07080862 0.005375345 -0.074319735 0.026856877 -0.012624527 0.049761184
0.07900479 0.009242551 0.0032500713 0.07140297 -0.028503506 -0.040612873 -0.03764489 -0.0018584094
-0.01630243 -0.015137207 0.020956207 -0.013934123 -0.003920832 0.03653097 0.006967877 -0.0042022807
-0.05241474 0.035485953 -0.070016734 0.026578581 -0.024850627 0.0058664144 -0.00024981383 -0.004021347
-0.051698435 0.027156249 -0.0005099195 -0.054102637 -0.025206786 -0.0071255364 0.056274656 0.01850422
0.048771918 -0.021079047 -0.068724655 0.030165188 0.050131436 -0.057307865 0.002971216 -0.06916335
-0.032954782 -0.033464186 0.019591568 -0.05472249 -0.04552211 0.038078677 -0.02202501 0.076766744
0.025596105 0.033658244 -0.0026171745 -0.054061778 -0.0043986645 0.033620104 0.06524148 -0.016345745
0.063308634 -0.08165697 -0.06315475 -0.029800417 0.0047115767 0.047617063 -0.052249625 -0.030018121
0.04894041 -0.06039144 0.07403371 0.033134017 -0.066259965 -0.018471904 0.04263148 -0.02601593
-0.061624575 0.013353199 -0.015683986 -0.016968278 0.06943783 0.0117068235 0.046017744 0.06315043
-0.06854357 -0.02190906 0.04095761 -0.045492083 0.0747396 0.057975087 0.07044493 -0.06929033
0.06927727 -0.010863733 -0.058280066 0.07514137 -0.0031990851 0.022297164 0.016131751 0.028764984
0.069532536 -0.06668466 0.048682958 -0.0021380077 -0.0372448 0.020887032 0.05922091 0.018593483
-0.03477448 0.025595954 0.047119834 0.039721627 -0.008253177 -0.010057387 -0.06747111 -0.03193682
0.048551526 0.0617317 0.046730798 -0.044065874 -0.0076692156 -0.05246333 -0.0074088527 -0.020493707
0.059852153 0.07298586 0.033680756 0.015682915 0.046125513 0.06417512 0.017441073 0.04337537
-0.05063505 0.053392168 0.029862095 -0.0054727015 -0.07451182 0.012090567 0.046231225 -0.024366824
0.050137654 -0.030646373 -0.00608381 0.056105256 0.013396061 0.009508426 -0.023860574 0.059197713
0.05496818 -0.023747128 -0.01681922 0.03199249 0.046779685 -0.06845209 -0.045889005 0.06819711
-0.032484043 -0.024226986 0.04767631 0.01709237 0.027627274 -0.0337872 0.04955171 0.039240092
0.010995232 0.014900743 0.05277864 0.048281383 0.048156407 -0.06597503 -0.04908165 0.04922411
-0.007827514 0.055130787 0.060857747 -0.028566815 0.045005113 0.00019996091 0.0038241937 -0.014482354
0.061987612 0.016144052 0.0016155413 -0.0032970218 -0.05656474 -0.05314199 -0.0017359066 0.0035160847
-0.00886393 0.008818348 0.086004466 0.066806 0.05528861 0.023775738 0.04026004 0.008413124
-0.00025397184 -0.056124307 0.048468586 0.04499609 0.03021041 0.02374062 0.06693017 0.03132752
-0.05189538 0.01282008 -0.04915229 -0.053978603 -0.026566105 -0.06968907 -0.054186027 -0.05756563
-0.0013660247 0.031200958 0.02651924 -0.003296958 0.044921204 0.016866175 -0.04591258 0.03991099
0.087481424 0.04404992 -0.032353055 0.004105547 0.04820532 -0.014863288 -0.026177896 0.088216506
-0.047400564 0.03428569 0.06895433 0.018204462 -0.024587367 -0.011299042 0.03159264 -0.044048034
00000000: ac3a 6d3d b72e 2fbd 892a 31bd 0d8a aa3c
00000010: 97f3 353d 2838 e23c f484 e83c c06d 64bc
00000020: dee0 6c3d d43d 11bd 3041 7abd ae7c 173d
00000030: 9451 4d3c 249e 563c 10e3 24bd ac76 3ebd
00000040: 866d c43b 6d4f 8ebb 1c04 913d a923 b03b
00000050: f234 98bd f402 dc3c 1bd7 4ebc 62d2 4b3d
00000060: 43cd a13d 126e 173c 26ff 543b b83b 923d
00000070: 2f80 e9bc af59 26bd 8731 1abd df95 f3ba
00000080: ac8c 85bc 0c02 78bc 5aac ab3c f34b 64bc
00000090: 537a 80bb 80a1 153d ca52 e43b 49b3 89bb
000000a0: d7b0 56bd b859 113d ef64 8fbd 53bb d93c
000000b0: 8b93 cbbc 0d3b c03b 72f9 82b9 81c5 83bb
000000c0: bdc1 53bd c876 de3c 1eac 05ba ba9a 5dbd
000000d0: 767e cebc 557d e9bb 4180 663d 2996 973c
000000e0: 10c5 473d f7ad acbc 83bf 8cbd fc1c f73c
000000f0: 9f56 4d3d a7bb 6abd bcb8 423b 84a5 8dbd
00000100: 98fb 06bd be11 09bd 7f7e a03c b124 60bd
00000110: 6475 3abd 63f8 1b3d cb6d b4bc e237 9d3d
00000120: ecae d13c 3add 093d e784 2bbb e26f 5dbd
00000130: ac22 90bb 3cb5 093d 539d 853d 83e7 85bc
00000140: f5a7 813d c53b a7bd 4757 81bd 0120 f4bc
00000150: 9263 9a3b 1c0a 433d b403 56bd 90e8 f5bc
00000160: bd75 483d 045d 77bd fc9e 973d 89b7 073d
00000170: 4eb3 87bd 6452 97bc 599e 2e3d 5c1f d5bc
00000180: 0d6a 7cbd 60c7 5a3c b47b 80bc 0f01 8bbc
00000190: 6c35 8e3d facd 3f3c 1a7d 3c3d 0355 813d
000001a0: 9260 8cbd a17a b3bc 2bc3 273d e855 3abd
000001b0: 1311 993d 4977 6d3d 6e45 903d 17e8 8dbd
000001c0: 3ee1 8d3d ccfd 31bc 14b7 6ebd b8e3 993d
000001d0: bea7 51bb 8ba8 b63c bc26 843c 8ba4 eb3c
000001e0: 1367 8e3d f891 88bd c867 473d d11d 0cbb
000001f0: 018e 18bd 481b ab3c a091 723d 5c51 983c
00000200: af6f 0ebd 9bae d13c ba00 413d 25b3 223d
00000210: 5538 07bc bdc7 24bc 4b2e 8abd 2fd0 02bd
00000220: f7dd 463d 61da 7c3d cb68 3f3d 6b7e 34bd
00000230: 0b4e fbbb cae3 56bd f6c5 f2bb 6be2 a7bc
00000240: 8827 753d 9c79 953d d5f4 093d 7579 803c
00000250: 1bee 3c3d 3f6e 833d 95e0 8e3c 5faa 313d
00000260: b366 4fbd bfb1 5a3d 5aa1 f43c 5954 b3bb
00000270: a799 98bd 8317 463c f45c 3d3d ef9c c7bc
00000280: 245d 4d3d 1a0e fbbc b25a c7bb a0ce 653d
00000290: 277b 5b3c 3bc9 1b3c 4077 c3bc 4d79 723d
000002a0: 5026 613d 5689 c2bc 76c8 89bc 8f0a 033d
000002b0: 0e9c 3f3d 9c30 8cbd 1cf6 3bbd edaa 8b3d
000002c0: fd0d 05bd ac77 c6bc 3c48 433d 4c05 8c3c
000002d0: 9852 e23c 7264 0abd bcf6 4a3d 38ba 203d
000002e0: 5825 343c 3f22 743c 6a2e 583d b3c2 453d
000002f0: a73f 453d eb1d 87bd d709 49bd 389f 493d
00000300: f93e 00bc d2d0 613d f945 793d f404 eabc
00000310: 4857 383d 99ac 5139 539f 7a3b 6547 6dbc
00000320: b9e6 7d3d 8840 843c 92c0 d33a d912 58bb
00000330: 6eb0 67bd 6aab 59bd 5c87 e3ba 1d6e 663b
00000340: 043a 11bc d57a 103c 1c23 b03d 96d1 883d
00000350: 4f76 623d 56c5 c23c b6e7 243d 33d7 093c
00000360: 8627 85b9 9ae2 65bd ff86 463d d24d 383d
00000370: d27b f73c b07b c23c af12 893d 4951 003d
00000380: 4090 54bd 500b 523c e953 49bd ab18 5dbd
00000390: 29a1 d9bc 25b9 8ebd 2bf2 5dbd f0c9 6bbd
000003a0: 2f0c b3ba 2799 ff3c e13e d93c c711 58bb
000003b0: 4cff 373d ef2a 8a3c d40e 3cbd b579 233d
000003c0: 7629 b33d b06d 343d a384 04bd d387 863b
000003d0: f172 453d 2685 73bc 0773 d6bc dbaa b43d
000003e0: 1827 42bd 276f 0c3d ee37 8d3d 8621 953c
000003f0: 726b c9bc 9e1f 39bc 4967 013d b66b 34bd

net.1.bias f4 [5]
-0.01562078 0.049920283 0.010455246 -0.07277088 -0.016417453
00000000: 4dee 7fbc 3679 4c3d 7b4c 2b3c e608 95bd
00000010: e57d 86bc

weight f4 [5, 184]
0.057917282 -0.04276916 -0.043253455 0.02081778 0.04442176 0.027614668 0.02838371 -0.013942182
0.057831638 -0.035459355 -0.061097324 0.03698414 0.012531657 0.013099227 -0.040255606 -0.046499893
0.0059945015 -0.0043429644 0.07080862 0.005375345 -0.074319735 0.026856877 -0.012624527 0.049761184
0.07900479 0.009242551 0.0032500713 0.07140297 -0.028503506 -0.040612873 -0.03764489 -0.0018584094
-0.01630243 -0.015137207 0.020956207 -0.013934123 -0.003920832 0.03653097 0.006967877 -0.0042022807
-0.05241474 0.035485953 -0.070016734 0.026578581 -0.024850627 0.0058664144 -0.00024981383 -0.004021347
-0.051698435 0.027156249 -0.0005099195 -0.054102637 -0.025206786 -0.0071255364 0.056274656 0.01850422
0.048771918 -0.021079047 -0.068724655 0.030165188 0.050131436 -0.057307865 0.002971216 -0.06916335
-0.032954782 -0.033464186 0.019591568 -0.05472249 -0.04552211 0.038078677 -0.02202501 0.076766744
0.025596105 0.033658244 -0.0026171745 -0.054061778 -0.0043986645 0.033620104 0.06524148 -0.016345745
0.063308634 -0.08165697 -0.06315475 -0.029800417 0.0047115767 0.047617063 -0.052249625 -0.030018121
0.04894041 -0.06039144 0.07403371 0.033134017 -0.066259965 -0.018471904 0.04263148 -0.02601593
-0.061624575 0.013353199 -0.015683986 -0.016968278 0.06943783 0.0117068235 0.046017744 0.06315043
-0.06854357 -0.02190906 0.04095761 -0.045492083 0.0747396 0.057975087 0.07044493 -0.06929033
0.06927727 -0.010863733 -0.058280066 0.07514137 -0.0031990851 0.022297164 0.016131751 0.028764984
0.069532536 -0.06668466 0.048682958 -0.0021380077 -0.0372448 0.020887032 0.05922091 0.018593483
-0.03477448 0.025595954 0.047119834 0.039721627 -0.008253177 -0.010057387 -0.06747111 -0.03193682
0.048551526 0.0617317 0.046730798 -0.044065874 -0.0076692156 -0.05246333 -0.0074088527 -0.020493707
0.059852153 0.07298586 0.033680756 0.015682915 0.046125513 0.06417512 0.017441073 0.04337537
-0.05063505 0.053392168 0.029862095 -0.0054727015 -0.07451182 0.012090567 0.046231225 -0.024366824
0.050137654 -0.030646373 -0.00608381 0.056105256 0.013396061 0.009508426 -0.023860574 0.059197713
0.05496818 -0.023747128 -0.01681922 0.03199249 0.046779685 -0.06845209 -0.045889005 0.06819711
-0.032484043 -0.024226986 0.04767631 0.01709237 0.027627274 -0.0337872 0.04955171 0.039240092
0.010995232 0.014900743 0.05277864 0.048281383 0.048156407 -0.06597503 -0.04908165 0.04922411
-0.007827514 0.055130787 0.060857747 -0.028566815 0.045005113 0.00019996091 0.0038241937 -0.014482354
0.061987612 0.016144052 0.0016155413 -0.0032970218 -0.05656474 -0.05314199 -0.0017359066 0.0035160847
-0.00886393 0.008818348 0.086004466 0.066806 0.05528861 0.023775738 0.04026004 0.008413124
-0.00025397184 -0.056124307 0.048468586 0.04499609 0.03021041 0.02374062 0.06693017 0.03132752
-0.05189538 0.01282008 -0.04915229 -0.053978603 -0.026566105 -0.06968907 -0.054186027 -0.05756563
-0.0013660247 0.031200958 0.02651924 -0.003296958 0.044921204 0.016866175 -0.04591258 0.03991099
0.087481424 0.04404992 -0.032353055 0.004105547 0.04820532 -0.014863288 -0.026177896 0.088216506
-0.047400564 0.03428569 0.06895433 0.018204462 -0.024587367 -0.011299042 0.03159264 -0.044048034
00000000: ac3a 6d3d b72e 2fbd 892a 31bd 0d8a aa3c
00000010: 97f3 353d 2838 e23c f484 e83c c06d 64bc
00000020: dee0 6c3d d43d 11bd 3041 7abd ae7c 173d
00000030: 9451 4d3c 249e 563c 10e3 24bd ac76 3ebd
00000040: 866d c43b 6d4f 8ebb 1c04 913d a923 b03b
00000050: f234 98bd f402 dc3c 1bd7 4ebc 62d2 4b3d
00000060: 43cd a13d 126e 173c 26ff 543b b83b 923d
00000070: 2f80 e9bc af59 26bd 8731 1abd df95 f3ba
00000080: ac8c 85bc 0c02 78bc 5aac ab3c f34b 64bc
00000090: 537a 80bb 80a1 153d ca52 e43b 49b3 89bb
000000a0: d7b0 56bd b859 113d ef64 8fbd 53bb d93c
000000b0: 8b93 cbbc 0d3b c03b 72f9 82b9 81c5 83bb
000000c0: bdc1 53bd c876 de3c 1eac 05ba ba9a 5dbd
000000d0: 767e cebc 557d e9bb 4180 663d 2996 973c
000000e0: 10c5 473d f7ad acbc 83bf 8cbd fc1c f73c
000000f0: 9f56 4d3d a7bb 6abd bcb8 423b 84a5 8dbd
00000100: 98fb 06bd be11 09bd 7f7e a03c b124 60bd
00000110: 6475 3abd 63f8 1b3d cb6d b4bc e237 9d3d
00000120: ecae d13c 3add 093d e784 2bbb e26f 5dbd
00000130: ac22 90bb 3cb5 093d 539d 853d 83e7 85bc
00000140: f5a7 813d c53b a7bd 4757 81bd 0120 f4bc
00000150: 9263 9a3b 1c0a 433d b403 56bd 90e8 f5bc
00000160: bd75 483d 045d 77bd fc9e 973d 89b7 073d
00000170: 4eb3 87bd 6452 97bc 599e 2e3d 5c1f d5bc
00000180: 0d6a 7cbd 60c7 5a3c b47b 80bc 0f01 8bbc
00000190: 6c35 8e3d facd 3f3c 1a7d 3c3d 0355 813d
000001a0: 9260 8cbd a17a b3bc 2bc3 273d e855 3abd
000001b0: 1311 993d 4977 6d3d 6e45 903d 17e8 8dbd
000001c0: 3ee1 8d3d ccfd 31bc 14b7 6ebd b8e3 993d
000001d0: bea7 51bb 8ba8 b63c bc26 843c 8ba4 eb3c
000001e0: 1367 8e3d f891 88bd c867 473d d11d 0cbb
000001f0: 018e 18bd 481b ab3c a091 723d 5c51 983c
00000200: af6f 0ebd 9bae d13c ba00 413d 25b3 223d
00000210: 5538 07bc bdc7 24bc 4b2e 8abd 2fd0 02bd
00000220: f7dd 463d 61da 7c3d cb68 3f3d 6b7e 34bd
00000230: 0b4e fbbb cae3 56bd f6c5 f2bb 6be2 a7bc
00000240: 8827 753d 9c79 953d d5f4 093d 7579 803c
00000250: 1bee 3c3d 3f6e 833d 95e0 8e3c 5faa 313d
00000260: b366 4fbd bfb1 5a3d 5aa1 f43c 5954 b3bb
00000270: a799 98bd 8317 463c f45c 3d3d ef9c c7bc
00000280: 245d 4d3d 1a0e fbbc b25a c7bb a0ce 653d
00000290: 277b 5b3c 3bc9 1b3c 4077 c3bc 4d79 723d
000002a0: 5026 613d 5689 c2bc 76c8 89bc 8f0a 033d
000002b0: 0e9c 3f3d 9c30 8cbd 1cf6 3bbd edaa 8b3d
000002c0: fd0d 05bd ac77 c6bc 3c48 433d 4c05 8c3c
000002d0: 9852 e23c 7264 0abd bcf6 4a3d 38ba 203d
000002e0: 5825 343c 3f22 743c 6a2e 583d b3c2 453d
000002f0: a73f 453d eb1d 87bd d709 49bd 389f 493d
00000300: f93e 00bc d2d0 613d f945 793d f404 eabc
00000310: 4857 383d 99ac 5139 539f 7a3b 6547 6dbc
00000320: b9e6 7d3d 8840 843c 92c0 d33a d912 58bb
00000330: 6eb0 67bd 6aab 59bd 5c87 e3ba 1d6e 663b
00000340: 043a 11bc d57a 103c 1c23 b03d 96d1 883d
00000350: 4f76 623d 56c5 c23c b6e7 243d 33d7 093c
00000360: 8627 85b9 9ae2 65bd ff86 463d d24d 383d
00000370: d27b f73c b07b c23c af12 893d 4951 003d
00000380: 4090 54bd 500b 523c e953 49bd ab18 5dbd
00000390: 29a1 d9bc 25b9 8ebd 2bf2 5dbd f0c9 6bbd
000003a0: 2f0c b3ba 2799 ff3c e13e d93c c711 58bb
000003b0: 4cff 373d ef2a 8a3c d40e 3cbd b579 233d
000003c0: 7629 b33d b06d 343d a384 04bd d387 863b
000003d0: f172 453d 2685 73bc 0773 d6bc dbaa b43d
000003e0: 1827 42bd 276f 0c3d ee37 8d3d 8621 953c
000003f0: 726b c9bc 9e1f 39bc 4967 013d b66b 34bd

bias f4 [5]
-0.01562078 0.049920283 0.010455246 -0.07277088 -0.016417453
00000000: 4dee 7fbc 3679 4c3d 7b4c 2b3c e608 95bd
00000010: e57d 86bc
