trained_models/cnn_model_simple/cnn_model_simple.ckpt (torch, 567529 bytes, 17 tensors)

model.0.model.0.net.0.weight f4 [32, 1, 3]
0.55615366 0.027621683 -0.5543867 0.28880686 -0.12631115 0.31762648 0.18474144 0.50192374
0.49592724 0.13317932 0.51449025 -0.24914105 -0.33382815 -0.21336225 0.43097308 0.17067376
-0.35231557 -0.21554501 -0.5488813 -0.32798 0.047755875 0.42431733 0.19167216 0.3145247
-0.1663183 -0.25848913 -0.3830782 0.56454086 0.38438338 0.1310814 0.32499194 -0.32965872
-0.033959113 -0.04399712 0.36067623 -0.20643038 0.5778163 0.40279064 0.15467393 0.4800103
0.19775912 -0.45694086 -0.46869177 -0.38947663 0.54759246 0.09570766 -0.20283316 0.41844746
0.37723193 -0.13651389 0.5088118 -0.20517911 -0.34564242 -0.26465434 0.158215 -0.4606785
-0.27761117 -0.4595309 0.30528125 -0.514831 0.04510978 0.38705948 -0.44006708 0.085216574
-0.37442556 0.4453171 -0.5471136 0.4508166 0.51115227 0.07554605 0.019187417 0.41418335
0.2515328 0.41046524 -0.54142326 0.4137257 -0.38547158 0.14400065 -0.14104061 0.029925758
0.1730118 0.071007535 0.015845712 0.39175925 0.4707036 0.26917282 -0.33139798 -0.17236738
0.28522876 0.36434898 0.31123692 0.2733141 0.43411633 0.3839275 0.19194414 -0.18931308
00000000: 1660 0e3f de46 e23c 49ec 0dbf 7ede 933e
00000010: b657 01be f09f a23e dc2c 3d3e 137e 003f
00000020: 2dea fd3e 2960 083e a2b5 033f d51e 7fbe
00000030: 86eb aabe a27b 5abe 81a8 dc3e 1ac5 2e3e
00000040: b562 b4be d5b7 5cbe 7c83 0cbf ffec a7be
00000050: aa9b 433d 1f40 d93e b545 443e 6209 a13e
00000060: 584f 2abe b058 84be d322 c4be c085 103f
00000070: e6cd c43e 343a 063e 5865 a63e 07c9 a8be
00000080: b618 0bbd 5336 34bd 8eaa b83e 7c62 53be
00000090: c5eb 133f 933a ce3e d862 1e3e e9c3 f53e
000000a0: 5e81 4a3e 27f4 e9be 5ef8 efbe 7b69 c7be
000000b0: 052f 0c3f 6102 c43d 7fb3 4fbe bf3e d63e
000000c0: 8b24 c13e 4cca 0bbe 7d41 023f 791a 52be
000000d0: 0bf8 b0be c680 87be 1d03 223e 0dde ebbe
000000e0: 0d23 8ebe a247 ebbe d34d 9c3e f7cb 03bf
000000f0: 08c5 383d a92c c63e 7950 e1be 0786 ae3d
00000100: b5b4 bfbe 9a00 e43e a30f 0cbf 6fd1 e63e
00000110: e0da 023f e3b7 9a3d ee2e 9d3c d70f d43e
00000120: e8c8 803e 8028 d23e b79a 0abf dbd3 d33e
00000130: 885c c5be e874 133e f36c 10be dd26 f53c
00000140: 012a 313e 666c 913d dece 813c ab94 c83e
00000150: 1000 f13e 05d1 893e ffac a9be 1381 30be
00000160: 8109 923e f38b ba3e 725a 9f3e d3ef 8b3e
00000170: 7f44 de3e 2592 c43e 018d 443e 4adb 41be

model.0.model.0.net.1.weight f4 [32]
1.0091541 1.0040966 0.9846389 0.9979345 1.0157038 1.0027425 1.0032454 0.99462235
0.9967983 0.99096453 0.9981911 1.003194 1.002554 0.99513805 0.99407595 1.0002664
0.9983001 1.0060059 1.0014936 1.0111206 1.0046297 0.9989778 0.986424 1.009523
0.9925305 1.0228816 1.0055561 0.99896955 0.9892868 0.9839401 1.0010257 0.99081403
00000000: f62b 813f 3d86 803f 4c11 7c3f a378 7f3f
00000010: 9502 823f de59 803f 586a 803f 929f 7e3f
00000020: 2c2e 7f3f daaf 7d3f 7489 7f3f a968 803f
00000030: b153 803f 5ec1 7e3f c37b 7e3f bb08 803f
00000040: 9890 7f3f cdc4 803f f130 803f 666c 813f
00000050: b597 803f 02bd 7f3f 4986 7c3f 0d38 813f
00000060: 7b16 7e3f c9ed 823f 10b6 803f 78bc 7f3f
00000070: e641 7d3f 80e3 7b3f 9c21 803f fda5 7d3f

model.0.model.0.net.1.bias f4 [32]
0.026564911 0.012462856 0.001781306 0.009522357 0.033469826 0.01786601 0.0078107715 -0.00058092043
0.0052056774 0.011705229 0.021543771 -0.005515131 0.0076990603 0.027964178 0.0065871156 -0.006601671
0.02285928 0.013497524 -0.013402282 0.030244326 -0.027066514 0.01131305 -0.0059207305 0.0017883162
0.01472987 0.010266135 0.006568604 -0.012353319 -0.011697333 7.4882584e-05 0.01355496 0.003183537
00000000: a89e d93c 0231 4c3c b67a e93a a903 1c3c
00000010: a817 093d bd5b 923c 80f1 ff3b e948 18ba
00000020: 6394 aa3b 4ac7 3f3c 907c b03c 46b8 b4bb
00000030: 6648 fc3b 2215 e53c bbd8 d73b d552 d8bb
00000040: 6343 bb3c b824 5d3c 3f95 5bbc f3c2 f73c
00000050: 98ba ddbc 5f5a 393c b002 c2bb ef65 ea3a
00000060: 8d55 713c 4b33 283c 723d d73b 9365 4abc
00000070: 2ca6 3fbc 480a 9d38 9f15 5e3c e3a2 503b

model.0.model.0.net.1.running_mean f4 [32]
7.459204e-06 -3.2947946e-06 -5.5738187e-06 3.1639304e-06 -5.641401e-06 2.8267348e-06 -1.4501084e-06 -3.0402878e-06
4.2673773e-06 -6.426503e-07 9.2644615e-07 2.3729365e-06 -8.9899225e-07 6.1843807e-06 -7.238593e-06 -4.8011934e-06
-5.415157e-06 2.8024754e-06 3.541662e-06 5.3563385e-06 5.283389e-06 -5.1356287e-06 -6.9323983e-06 -4.780866e-06
6.815223e-06 -1.038614e-06 -2.2747197e-06 -4.521762e-06 4.681749e-06 -4.590931e-06 -4.637654e-06 2.8606269e-06
00000000: 134a fa36 241c 5db6 bd06 bbb6 e953 5436
00000010: 444b bdb6 efb2 3d36 58a1 c2b5 bf07 4cb6
00000020: 7e30 8f36 9882 2cb5 e5b0 7835 bd3e 1f36
00000030: 4752 71b5 6d83 cf36 0ae3 f2b6 f019 a1b6
00000040: d8b3 b5b6 2912 3c36 4aad 6d36 99ba b336
00000050: f747 b136 b752 acb6 d99c e8b6 546b a0b6
00000060: 52ae e436 8166 8bb5 63a7 18b6 a4b9 97b6
00000070: eb17 9d36 cc0b 9ab6 259d 9bb6 32f9 3f36

model.0.model.0.net.1.running_var f4 [32]
0.25716496 0.17872952 1.2101057 0.20599592 0.13974884 0.18331651 0.6549894 0.7080237
0.55296063 1.0171608 0.042041548 0.034180045 1.1175491 0.22945014 0.32010633 0.097648054
0.4412913 0.5664218 0.35475674 0.34798706 0.06643376 0.057707902 0.40933812 0.22983484
0.1666756 0.05038252 0.023724541 0.20350009 0.28490987 0.26220033 0.8583956 0.19765998
00000000: 20ab 833e df04 373e bee4 9a3f 98f0 523e
00000010: 521a 0f3e 53b7 3b3e 63ad 273f 0b41 353f
00000020: d48e 0d3f 5332 823f c233 2c3d 6000 0c3d
00000030: d90b 8f3f faf4 6a3e fae4 a33e b4fb c73d
00000040: eff0 e13e 0501 113f ada2 b53e 5c2b b23e
00000050: 6c0e 883d 1f5f 6c3d c494 d13e d359 6b3e
00000060: 02ad 2a3e e75d 4e3d f859 c23c 5462 503e
00000070: b5df 913e 1f3f 863e d0bf 5b3f 6167 4a3e

model.0.model.1.net.0.weight f4 [64, 32, 3]
-0.00992746 -0.016904099 -0.09747903 0.010916187 0.07978129 -0.06926661 0.022506988 -0.055678602
-0.05082147 0.00063620607 -0.09919138 -0.07690179 0.059496157 -0.021255866 0.032817326 -0.067477025
-0.004033157 0.029924968 -0.08620482 -0.07726143 -0.01580279 -0.018375931 -0.06907945 -0.02310212
0.006477257 0.092373535 -0.041840784 0.033129863 0.0062611224 0.09563939 0.05645335 -0.039084103
-0.0075361207 -0.09510937 -0.07642127 -0.056873504 0.10218706 0.046941657 0.103727326 0.026613751
0.03780058 0.013724826 -0.06740531 0.08258789 0.048225094 0.04057265 -0.03624968 -0.09572314
-0.038877137 -0.05372349 0.024958173 -0.05163656 0.017983777 -0.03659744 -0.05668908 0.023112144
0.066124834 0.036965553 -0.01515422 -0.018177908 -0.038127284 0.07755776 0.10060176 -0.09344863
0.010466364 0.004022796 -0.007067474 -0.05626511 -0.0006542212 -0.083585754 0.10506564 0.078377485
0.079146534 0.06310288 -0.0047740815 0.030515851 -0.06863445 -0.04177331 -0.08176228 -0.033584684
-0.082709864 -0.04294861 -0.077345856 -0.042766266 -0.08099452 -0.0048515736 0.026164854 0.078702085
0.020843554 -0.05955072 0.066861965 0.027189361 -0.069814 -0.003154337 0.08598327 -0.061021633
-0.07365841 0.015384648 0.08256554 -0.07067803 0.071861446 -0.08539416 0.07067004 0.06779476
0.09922362 -0.007430545 0.02160497 -0.105648205 -0.10065246 0.08885274 0.04060684 0.04665809
-0.025345849 -0.04137258 0.0068559926 0.025643632 0.06352462 0.016931193 -0.063334875 -0.0048558586
-0.038250234 -0.08237805 -0.0042897733 -0.016898764 0.09533925 0.08956892 0.080820926 -0.09184116
0.042957753 0.046897262 -0.01721072 0.081225075 -0.030035978 0.02908318 0.04575306 0.034134246
0.09035435 -0.114156164 0.058764275 -0.008377619 -0.08419931 0.10127651 0.09227398 0.101230785
-0.011683805 -5.2620722e-05 0.08528596 0.030571954 0.097027 0.053918246 -0.012179884 0.040103927
0.0019433707 0.0944254 -0.059442915 0.097541876 -0.031200487 0.083941996 -0.03468974 0.018861867
0.056270607 -0.06742827 -0.089008175 0.0035027394 -0.080798365 0.070715055 0.014980725 0.06855081
-0.03950055 -0.018089484 0.049224027 0.1007935 0.035714194 -0.010003 -0.07942474 -0.066061966
0.02412404 0.053969193 -0.003585802 0.08469182 0.037845593 0.083584085 -0.03694498 0.0055919625
-0.091035195 -0.010764526 -0.09929096 -0.08600851 -0.037085705 -0.09152313 -0.08530729 0.012922114
0.035178483 0.02824596 0.08764219 0.016294194 0.04911938 0.05213064 0.055773538 0.07037103
0.060791276 0.101676345 0.090255186 0.0035181697 -0.02343008 -0.06465343 -0.016424302 0.087121665
0.102519475 0.027237825 -0.07344902 -0.023111796 -0.07746863 0.09805959 0.09809933 0.013976307
-0.059562843 -0.084901966 -0.046556506 0.06423408 0.010107618 -0.04549529 -0.08325731 -0.02674855
0.05874008 0.0775423 0.0708654 -0.035090502 -0.0077114836 0.043420948 -0.01255547 -0.070275664
-0.04770631 0.02948395 0.09434714 -0.07884665 0.07825867 0.076812856 -0.024169598 -0.021645816
0.041615352 -0.029386297 0.008053138 -0.09777672 -0.049160518 0.06741237 0.04199556 0.043192696
0.042813912 -0.060720187 0.08189923 0.08807796 0.05915506 -0.045033317 -0.07069886 0.06544696
00000000: c9a6 22bc 777a 8abc 16a3 c7bd cfd9 323c
00000010: 5f64 a33d a7db 8dbd 9360 b83c 3f0f 64bd
00000020: 2c2a 50bd 11c7 263a da24 cbbd b07e 9dbd
00000030: 3eb2 733d c820 aebc 766b 063d 6531 8abd
00000040: 9328 84bb 3525 f53c 278c b0bd 3e3b 9ebd
00000050: da74 81bc 1f89 96bc 8779 8dbd a840 bdbc
00000060: 2b3f d43b 562e bd3d 3e61 2bbd 2eb3 073d
00000070: 1a2a cd3b 96de c33d a13b 673d a716 20bd
00000080: 90f1 f6bb b4c8 c2bd c182 9cbd 31f4 68bd
00000090: 7347 d13d e545 403d fe6e d43d 1505 da3c
000000a0: c8d4 1a3d 18de 603c cc0b 8abd d723 a93d
000000b0: ad87 453d 822f 263d 8b7a 14bd 7e0a c4bd
000000c0: a23d 1fbd 2a0d 5cbd 1575 cc3c dc80 53bd
000000d0: b752 933c 32e7 15bd cf32 68bd ae55 bd3c
000000e0: 756c 873d 3169 173d 6849 78bc d6e9 94bc
000000f0: 5b2b 1cbd 9ad6 9e3d 4c08 ce3d ff61 bfbd
00000100: 1d7b 2b3c a9d1 833b 4596 e7bb 3e76 66bd
00000110: 0b80 2bba 022f abbd a72c d73d 6084 a03d
00000120: 9417 a23d 153c 813d e66f 9cbb 61fc f93c
00000130: 3890 8cbd 7e1a 2bbd fb72 a7bd 1890 09bd
00000140: ca63 a9bd e2ea 2fbd 8167 9ebd ae2b 2fbd
00000150: 74e0 a5bd f3f9 9ebb ad57 d63c 8f2e a13d
00000160: 1ac0 aa3c 75eb 73bd edee 883d 39bc de3c
00000170: a4fa 8ebd feb8 4ebb ff17 b03d d2f1 79bd
00000180: 38da 96bd e40f 7c3c 1f18 a93d a5bf 90bd
00000190: 182c 933d 22e3 aebd 74bb 903d fbd7 8a3d
000001a0: c135 cb3d ee7b f3bb e8fc b03c 165e d8bd
000001b0: e022 cebd 6df8 b53d 5c53 263d 8e1c 3f3d
000001c0: 19a2 cfbc 4b76 29bd 3ca8 e03b 9812 d23c
000001d0: 3219 823d 49b3 8a3c b7b5 81bd e51d 9fbb
000001e0: 47ac 1cbd d3b5 a8bd 3a91 8cbb 476f 8abc
000001f0: 3a41 c33d e96f b73d 7185 a53d 3817 bcbd
00000200: 78f4 2f3d 5817 403d 7ffd 8cbc 5559 a63d
00000210: 030e f6bc d93f ee3c 9067 3b3d 5ad0 0b3d
00000220: b40b b93d b5ca e9bd cfb2 703d 4842 09bc
00000230: b070 acbd 0f6a cf3d 24fa bc3d 1652 cf3d
00000240: 6e6d 3fbc 12b5 5cb8 68aa ae3d 0972 fa3c
00000250: 17b6 c63d 61d9 5c3d 238e 47bc 0444 243d
00000260: b3b8 fe3a 1b62 c13d 6a7a 73bd 09c4 c73d
00000270: 2a98 ffbc c8e9 ab3d d416 0ebd 3484 9a3c
00000280: 027c 663d d517 8abd eb49 b6bd 378e 653b
00000290: 9d79 a5bd 0ed3 903d b771 753c 5e64 8c3d
000002a0: 54cb 21bd 6630 94bc 229f 493d d36c ce3d
000002b0: 0c49 123d 9fe3 23bc 70a9 a2bd 7f4b 87bd
000002c0: c79f c53c cd0e 5d3d c6ff 6abb e872 ad3d
000002d0: fb03 1b3d 222e ab3d 9f53 17bd c83c b73b
000002e0: a970 babd b25d 30bc 0f59 cbbd 3b25 b0bd
000002f0: 2ee7 17bd 7b70 bbbd 97b5 aebd 46b7 533c
00000300: 5017 103d 1264 e73c c07d b33d 677b 853c
00000310: 6731 493d f086 553d cb72 643d b01e 903d
00000320: 4600 793d b03b d03d b6d7 b83d 1891 663b
00000330: 70f0 bfbc 0469 84bd 428c 86bc d86c b23d
00000340: bbf5 d13d dc21 df3c 716c 96bd f354 bdbc
00000350: e0a7 9ebd 77d3 c83d 4de8 c83d e1fc 643c
00000360: 2bf8 73bd 15e1 adbd 09b2 3ebd 288d 833d
00000370: 6c9a 253c 4559 3abd cf82 aabd c61f dbbc
00000380: 7099 703d 7fce 9e3d e121 913d 0fbb 0fbd
00000390: 9db0 fcbb 2ada 313d 75b5 4dbc b0ec 8fbd
000003a0: b167 43bd 5388 f13c 1339 c13d 5a7a a1bd
000003b0: 1546 a03d 0f50 9d3d 52ff c5bc 9152 b1bc
000003c0: dc74 2a3d 88bb f0bc 4ff1 033c 293f c8bd
000003d0: 8a5c 49bd 7f0f 8a3d 8903 2c3d d3ea 303d
000003e0: a45d 2f3d bbb5 78bd c9ba a73d 3862 b43d
000003f0: 944c 723d db74 38bd 90ca 90bd 0e09 863d

model.0.model.1.net.1.weight f4 [64]
1.0102878 0.99047387 0.99582076 0.99678105 1.0077617 0.9929461 1.0029428 1.0186826
0.9985891 0.994226 1.0022281 0.99615586 1.0076331 1.0115209 0.9988375 0.9876953
0.99143106 0.9844291 0.9971134 0.9889118 0.9957763 1.0162755 1.0004632 1.0115081
1.009639 0.98619515 0.9891059 1.0148718 0.99568504 0.98237425 0.9954652 0.9993795
1.0218648 1.0149606 1.0072937 0.9980509 0.9984858 1.010796 1.0041068 0.99165916
1.016246 0.9891223 0.9845819 1.0020764 1.0015974 0.9922269 1.0013425 0.9998514
1.0050277 0.994119 0.99760133 1.0108538 0.99552864 0.9983732 1.0016303 1.0118023
0.9820101 1.0211159 1.0028427 0.9910066 1.0075282 1.019706 1.010771 1.0043591
00000000: 1c51 813f b28f 7d3f 1cee 7e3f 0b2d 7f3f
00000010: 56fe 803f b731 7e3f 6e60 803f 3164 823f
00000020: 89a3 7f3f 9885 7e3f 0349 803f 1204 7f3f
00000030: 1ffa 803f 8479 813f d0b3 7f3f 99d9 7c3f
00000040: 6dce 7d3f 8c03 7c3f d342 7f3f 5329 7d3f
00000050: 32eb 7e3f 5115 823f 2e0f 803f 1979 813f
00000060: da3b 813f 4977 7c3f 0b36 7d3f 52e7 813f
00000070: 37e5 7e3f e17c 7b3f cfd6 7e3f 56d7 7f3f
00000080: 77cc 823f 3bea 813f 00ef 803f 4480 7f3f
00000090: c49c 7f3f c361 813f 9286 803f 60dd 7d3f
000000a0: 5914 823f 1e37 7d3f 8f0d 7c3f 0a44 803f
000000b0: 5834 803f 9502 7e3f fe2b 803f 43f6 7f3f
000000c0: bfa4 803f 957e 7e3f cd62 7f3f a863 813f
000000d0: f7da 7e3f 6395 7f3f 6c35 803f bd82 813f
000000e0: 0465 7b3f edb3 823f 265d 803f 9cb2 7d3f
000000f0: aff6 803f ba85 823f f260 813f d78e 803f

model.0.model.1.net.1.bias f4 [64]
0.0035285908 -0.016958438 0.0067714592 0.0150434505 -0.005989244 0.0025317234 -0.009292042 0.01930361
-0.011446078 -0.0019332124 0.014833673 0.0053647123 0.0041627227 -0.0032095872 0.0007006731 -0.021885185
-0.0038958897 -0.010789728 0.0074654194 -0.015010707 -0.00036263233 -0.020784408 0.0101991175 0.008584732
0.004626541 -0.0075574587 -0.004119618 -0.00023923542 0.009293648 -0.01948603 0.0030725943 0.018190827
0.0017032034 -0.009476683 -0.0055460385 -0.00031445612 0.0034896855 -0.013274111 -0.01085995 0.010857189
0.0131849805 -0.015719848 -0.00019522326 -0.0012891919 -0.014053769 -0.0036213961 0.004723557 4.7253925e-05
-1.9008401e-05 -0.0010015084 9.9745375e-05 0.0048947954 -0.012810318 0.0057158335 0.019050764 -0.0026547788
0.0003073798 -0.0079491045 -0.0073846676 0.016151145 0.014819349 -0.0031953016 0.016237827 0.017301528
00000000: ee3f 673b 6cec 8abc 1ee3 dd3b ce78 763c
00000010: 6c41 c4bb 45eb 253b a63d 18bc 9b22 9e3c
00000020: 5588 3bbc d863 fdba ef08 733c 78ca af3b
00000030: 7367 883b f057 52bb 60ad 373a 8f48 b3bc
00000040: 2f52 7fbb 66c7 30bc 7aa0 f43b 78ef 75bc
00000050: b01f beb9 1044 aabc 331a 273c faa6 0c3c
00000060: 3d9a 973b 8fa4 f7bb dcfd 86bb 45db 7ab9
00000070: 6344 183c 2ba1 9fbc 945d 493b ee04 953c
00000080: 063e df3a 1744 1bbc 8bbb b5bb 96dd a4b9
00000090: 35b3 643b a87b 59bc efed 31bc 5ae2 313c
000000a0: d105 583c e9c6 80bc d8b4 4cb9 1afa a8ba
000000b0: c841 66bc f254 6dbb 11c8 9a3b 8432 4638
000000c0: 3b74 9fb7 0c45 83ba 642e d138 8564 a03b
000000d0: 5ee2 51bc e34b bb3b 5910 9c3c ccfb 2dbb
000000e0: d227 a139 f63c 02bc 15fb f1bb 684f 843c
000000f0: dbcc 723c 4468 51bb 3105 853c efbb 8d3c

model.0.model.1.net.1.running_mean f4 [64]
-0.31508777 0.38763985 0.7034315 -0.14634253 -0.07947013 0.08280354 -0.26711944 -0.25468335
0.05391981 -0.029218914 -0.46054384 0.20063435 -0.4466412 -0.14391415 -0.3301221 0.29428342
0.4436932 -0.4989434 -0.122771055 -0.027980579 -0.27105886 -0.044386357 0.21093455 -0.09427917
-0.105352856 -0.052853014 -0.29333058 0.33486483 0.6483856 0.47498506 0.26527524 0.093371846
-0.46676746 -0.5897486 -0.38090327 -0.073218934 0.51166457 0.0040093223 -0.53119 -0.033925023
-0.1731515 -0.06839957 0.49929672 -0.22645147 0.27198014 0.51347774 0.002715245 0.21087901
-0.3175226 -0.31162938 0.30892357 -0.22327438 0.6083843 0.16111907 -0.1458482 -0.08616556
0.018464947 -0.25940162 -0.3180188 -0.5016052 -0.58979714 -0.29149494 -0.2963006 0.381471
00000000: 2f53 a1be bb78 c63e 1614 343f d1da 15be
00000010: 3cc1 a2bd e794 a93d e1c3 88be db65 82be
00000020: 05db 5c3d 815c efbc 67cc ebbe 1773 4d3e
00000030: 28ae e4be 3b5e 13be c405 a9be 51ac 963e
00000040: c12b e33e 8275 ffbe 646f fbbd 8737 e5bc
00000050: 3ac8 8abe 78ce 35bd 3aff 573e 7015 c1bd
00000060: 3dc3 d7bd 677c 58bd 6d2f 96be 6773 ab3e
00000070: 99fc 253f 3e31 f33e 28d2 873e bd39 bf3d
00000080: 25fc eebe c4f9 16bf c105 c3be cff3 95bd
00000090: 73fc 023f a260 833b 11fc 07bf f7f4 0abd
000000a0: a04e 31be 1315 8cbd d2a3 ff3e e5e2 67be
000000b0: fb40 8b3e 4773 033f 40f2 313b abf0 573e
000000c0: 5292 a2be e38d 9fbe 3b2b 9e3e 0aa2 64be
000000d0: 13bf 1b3f 66fc 243e 3b59 15be 9277 b0bd
000000e0: cd43 973c 4ad0 84be 5cd3 a2be 3369 00bf
000000f0: f2fc 16bf d33e 95be b6b4 97be 2b50 c33e

model.0.model.1.net.1.running_var f4 [64]
0.12025792 0.08062458 0.6141164 0.056348115 0.0803948 0.054106258 0.06597895 0.12648624
0.13298275 0.23601311 0.17766878 0.20915769 0.19151065 0.14293835 0.19848526 0.20612891
0.32453084 0.36566058 0.079167455 0.08877895 0.10224296 0.113080144 0.29054967 0.14370683
0.032130156 0.083210416 0.19307669 0.0984099 0.18803926 0.18970406 0.059266657 0.09199975
0.1437912 0.21789478 0.15974857 0.10844289 0.13663301 0.104127124 0.1700531 0.36324933
0.13380358 0.15849563 0.39979345 0.114227325 0.07802259 0.46917796 0.043276813 0.10526282
0.21271226 0.17734936 0.24753474 0.12883425 0.18304785 0.07663982 0.05966359 0.124571055
0.25373775 0.061640877 0.24504136 0.29110643 0.21683024 0.13194838 0.13810632 0.11474044
00000000: c949 f63d 801e a53d bb36 1d3f 48cd 663d
00000010: 07a6 a43d 869e 5d3d f91f 873d 9c85 013e
00000020: a12c 083e 6cad 713e ceee 353e 6f2d 563e
00000030: 5e1b 443e 6e5e 123e b83f 4b3e 7513 533e
00000040: e828 a63e dd37 bb3e 8c22 a23d bdd1 b53d
00000050: c264 d13d 9096 e73d edc2 943e e227 133e
00000060: e99a 033d 396a aa3d e5b5 453e 218b c93d
00000070: 5d8d 403e c841 423e 98c1 723d 5d6a bc3d
00000080: 003e 133e cf1f 5f3e 2195 233e 4e17 de3d
00000090: 86e9 0b3e 9a40 d53d 6622 2e3e d1fb b93e
000000a0: ce03 093e ae4c 223e bab1 cc3e 04f0 e93d
000000b0: 4fca 9f3d 1838 f03e 0743 313d 0994 d73d
000000c0: 3ed1 593e 129b 353e bf79 7d3e 20ed 033e
000000d0: e570 3b3e 57f5 9c3d cf61 743d 1c1f ff3d
000000e0: eae9 813e 257b 7c3d 1fec 7a3e e70b 953e
000000f0: bf08 5e3e 7a1d 073e be6b 0d3e 09fd ea3d

model.0.model.2.net.0.weight f4 [64, 64, 3]
0.031000745 0.0144035015 0.097440295 -0.052220512 -0.034766 -0.063474424 -0.031178867 -0.028655838
-0.036980543 0.056826122 -0.023700038 0.0006419397 0.0032529526 0.008504986 0.00085913984 -0.06829166
-0.014367636 -0.009151553 0.0031004555 -0.054623276 -0.04951888 0.011272004 0.010530464 -0.018559974
0.06711462 0.058555912 0.04832769 -0.024024751 -0.036868382 -0.025744673 -0.060558174 0.022184571
-0.014336838 -0.017939733 -0.016493594 0.0003746327 0.06270176 0.06503721 -0.06616213 -0.07526961
-0.06247166 -0.038111858 -0.02227679 0.033164058 -0.06346832 0.068919204 -0.030333724 0.06968938
0.06374101 -0.0126949325 0.052399516 0.010007265 0.05726311 0.044747267 -0.04311182 0.07038598
-0.04968651 0.053430308 0.048368 0.07702353 0.0019054655 -0.028274426 -0.010672081 -0.04180743
0.008563882 -0.050292853 0.035302162 -0.011795092 0.06135466 -0.057110384 -0.05073695 0.032424945
-0.07064817 0.039729584 0.046418395 -0.048183754 0.014521438 0.037463862 0.04701696 -0.007672404
0.051764373 0.054650873 -0.067442715 -0.0052034957 0.05417352 -0.04795214 0.014757024 0.01991212
-0.0119106565 -0.047867946 0.0068302443 -0.054154657 -0.03898561 0.02476578 -0.04415533 0.045794763
-0.034023944 -0.049216777 -0.059190452 -0.014312176 0.06929945 -0.059111215 0.07639142 0.0047246427
0.06283287 0.022565061 -0.055331256 0.06175994 0.0146102775 -0.049363125 0.0023384623 0.057139553
-0.077236086 -0.052071672 0.027689757 0.0112334 0.02618572 -0.06287774 -0.06284831 -0.031405155
-0.051886052 0.05077148 -0.04475718 -0.04634759 -0.024729382 0.034721777 0.011970706 0.024975847
-0.058067337 -0.045446146 0.034628678 0.08304356 -0.05147932 -0.054305088 -0.002870137 -0.019872388
-0.052991077 0.047270883 0.025085872 -0.035986543 0.022274766 0.06759765 8.88106e-05 -0.07169862
-0.014318787 -0.012950922 -0.026831506 -0.047454163 -0.033130422 -0.024366366 0.032513086 0.015460333
-0.05756189 0.05269623 -0.033183694 -0.02584642 -0.0001673262 -0.037575673 -0.0029361467 0.063511424
0.022266813 -0.019994633 0.0055987663 0.03970883 0.039979406 0.009290557 -0.061640643 -0.006371033
0.0676038 -0.02582481 -0.03544769 0.06816031 -0.044263195 0.055498537 0.06184994 0.033102304
0.011663643 0.057326313 0.0009632435 0.05482044 -0.05496581 -0.023203213 0.030007182 0.05270892
0.02513537 0.038785987 -0.048208147 0.064614266 -0.025589503 0.04503078 -0.06869001 -0.027969709
0.040599607 -0.044287127 0.064526424 -0.053134784 -0.03557647 -0.058899958 0.05662207 0.027915874
0.00084886386 -0.067049935 0.027854186 0.018029926 -0.045434766 0.05211361 -0.070429154 -0.026195094
0.07313203 -0.024073612 0.040825766 0.047649354 -0.03133054 -0.05291624 -0.05273425 0.032374326
-0.011751475 0.024390338 0.020848975 0.0035045787 -0.058831323 0.060155693 0.049399275 -0.0016836618
-0.0008326651 -0.052168693 -0.020647913 -0.022357957 -0.0057110745 0.04429637 -0.03397679 -0.04495177
0.0068263495 0.020832349 0.069799975 0.033983555 -0.0469738 -0.0639496 -0.004070414 0.047742225
0.025526725 0.017476995 0.050187793 0.06882576 0.041100394 0.018743481 -0.06338859 -0.015249602
-0.036865216 -0.04567882 -0.08388082 -0.03647543 0.082806595 0.014698187 0.035749543 0.03925798
00000000: 46f5 fd3c aafc 6b3c c78e c73d 2de5 55bd
00000010: cb66 0ebd e1fe 81bd d36a ffbc a6bf eabc
00000020: e978 17bd 82c2 683d 9526 c2bc d847 283a
00000030: 7d2f 553b 7f58 0b3c e637 613a 7fdc 8bbd
00000040: 3c66 6bbc 65f0 15bc 0331 4b3b a8bc 5fbd
00000050: 4fd4 4abd 36ae 383c f887 2c3c 160b 98bc
00000060: 6473 893d 53d8 6f3d 42f3 453d 8ecf c4bc
00000070: 4d03 17bd 7ee6 d2bc d90b 78bd 6bbc b53c
00000080: 0fe5 6abc 59f6 92bc 931d 87bc 5a6a c439
00000090: c869 803d 3b32 853d 0380 87bd f426 9abd
000000a0: 49e2 7fbd 2e1b 1cbd d17d b6bc 09d7 073d
000000b0: aefb 81bd 8325 8d3d 6e7e f8bc 4eb9 8e3d
000000c0: a68a 823d 68fe 4fbc e0a0 563d 83f5 233c
000000d0: b98c 6a3d e948 373d 0596 30bd 8626 903d
000000e0: 1584 4bbd bdd9 5a3d 861d 463d 83be 9d3d
000000f0: d0c0 f93a c59f e7bc f4d9 2ebc 453e 2bbd
00000100: 864f 0c3c e1ff 4dbd 0099 103d 3440 41bc
00000110: 064f 7b3d 94ec 69bd 8cd1 4fbd 05d0 043d
00000120: fdaf 90bd 7dbb 223d 3721 3e3d 545c 45bd
00000130: 53eb 6d3c b573 193d db94 403d ca68 fbbb
00000140: e106 543d 98d9 5f3d 681f 8abd 1682 aabb
00000150: 0ee5 5d3d 7769 44bd 72c7 713c be1e a33c
00000160: ea24 43bc 2e11 44bd 3ed0 df3b 46d1 5dbd
00000170: 60af 1fbd 9be1 ca3c 38dc 34bd 4a93 3b3d
00000180: b15c 0bbd 8897 49bd b071 72bd 9e7d 6abc
00000190: dfec 8d3d 9a1e 72bd 1b73 9c3d 2dd1 9a3b
000001a0: 85ae 803d 5dda b83c 07a3 62bd fef7 7c3d
000001b0: f25f 6f3c fd30 4abd e340 193b 2a0b 6a3d
000001c0: f42d 9ebd 1b49 55bd a1d5 e23c 4b0c 383c
000001d0: 6f83 d63c 0bc6 80bd 9db6 80bd b1a2 00bd
000001e0: 7886 54bd c1f5 4f3d 4e53 37bd f8d6 3dbd
000001f0: 4695 cabc 6c38 0e3d c820 443c 269a cc3c
00000200: 04d8 6dbd bd25 3abd cdd6 0d3d be12 aa3d
00000210: fbdb 52bd 036f 5ebd e918 3cbb 6bcb a2bc
00000220: 2c0d 59bd 1d9f 413d e380 cd3c a066 13bd
00000230: 9279 b63c a370 8a3d d43f ba38 bad6 92bd
00000240: 5899 6abc 1b30 54bc bfcd dbbc 4c5f 42bd
00000250: c4b3 07bd f99b c7bc 712c 053d 564d 7d3c
00000260: 04c6 6bbd 01d8 573d a0eb 07bd dfbb d3bc
00000270: 4974 2fb9 f3e8 19bd 5e6c 40bb 4712 823d
00000280: e468 b63c c9cb a3bc db75 b73b baa5 223d
00000290: 72c1 233d 6c37 183c e67a 7cbd 19c4 d0bb
000002a0: dc73 8a3d 8d8e d3bc 9931 11bd a297 8b3d
000002b0: 534d 35bd 6f52 633d 5d56 7d3d 4896 073d
000002c0: dd18 3f3c ffce 6a3d 2d82 7c3a 668b 603d
000002d0: d423 61bd aa14 bebc 9fd1 f53c 4fe5 573d
000002e0: b1e8 cd3c 0ede 1e3d e875 45bd 7c54 843d
000002f0: 14a1 d1bc 3272 383d 59ad 8cbd bb20 e5bc
00000300: c64b 263d 6b66 35bd 6e26 843d dca3 59bd
00000310: a2b8 11bd 1541 71bd 8bec 673d d5af e43c
00000320: 4a86 5e3a 7a51 89bd 762e e43c 7fb3 933c
00000330: ce19 3abd 1575 553d 293d 90bd 1897 d6bc
00000340: 3fc6 953d 0636 c5bc eb38 273d f82b 433d
00000350: 7454 00bd b3be 58bd deff 57bd f19a 043d
00000360: 4289 40bc 3fce c73c 78cb aa3c 13ad 653b
00000370: 1df9 70bd d165 763d e556 4a3d 51ae dcba
00000380: 3547 5aba d7ae 55bd d025 a9bc 0928 b7bc
00000390: f723 bbbb 1c70 353d 3f2b 0bbd 591f 38bd
000003a0: 92af df3b 9aa8 aa3c 4af3 8e3d 5732 0b3d
000003b0: 9967 40bd 02f8 82bd 1c61 85bb 5a8d 433d
000003c0: 6c1d d13c ea2b 8f3c b791 4d3d 85f4 8c3d
000003d0: e358 283d ee8b 993c e1d1 81bd 77d9 79bc
000003e0: fbff 16bd b719 3bbd b5c9 abbd 4367 15bd
000003f0: 8196 a93d aad0 703c 1d6e 123d facc 203d

model.0.model.2.net.1.weight f4 [64]
0.9970325 0.9909917 0.9972567 0.99076116 0.99886805 0.9872118 0.99454993 1.0002896
0.9725608 0.9927829 0.9910532 0.9960705 0.9905599 0.972039 0.99856913 0.9932414
0.9981164 0.9930244 0.9939063 0.97583365 0.9854893 0.98922 0.9928368 0.99659145
0.9949622 0.98545206 0.9851282 0.9957 0.9975251 0.9881772 0.9884752 0.9916965
1.0013331 0.9801024 0.98925805 0.99950814 0.9880604 0.9855822 0.9976116 0.984498
0.94361186 1.001198 0.9961354 0.98477393 0.9952274 0.9849117 0.98664063 1.0002561
0.98170495 1.0003254 0.99615693 1.0027502 0.97530675 0.9941539 0.9875024 0.9962479
0.99693555 0.99435633 0.98421097 0.9721358 0.9930858 0.9988583 0.9987102 0.9870275
00000000: 863d 7f3f a2b1 7d3f 374c 7f3f 86a2 7d3f
00000010: d1b5 7f3f eab9 7c3f d39a 7e3f 7d09 803f
00000020: bff9 783f 0527 7e3f aab5 7d3f 7afe 7e3f
00000030: 5595 7d3f 8cd7 783f 3aa2 7f3f 1245 7e3f
00000040: 8e84 7f3f d936 7e3f a570 7e3f 3cd0 793f
00000050: 0749 7c3f 863d 7d3f 8d2a 7e3f 9e20 7f3f
00000060: d8b5 7e3f 9646 7c3f 5d31 7c3f 32e6 7e3f
00000070: ce5d 7f3f 2ef9 7c3f b60c 7d3f d2df 7d3f
00000080: af2b 803f fee7 7a3f 0440 7d3f c4df 7f3f
00000090: 87f1 7c3f 1d4f 7c3f 7963 7f3f 1008 7c3f
000000a0: 8c90 713f 4227 803f bb02 7f3f 251a 7c3f
000000b0: 39c7 7e3f 2c23 7c3f 7b94 7c3f 6408 803f
000000c0: 0451 7b3f aa0a 803f 2404 7f3f 1e5a 803f
000000d0: b4ad 793f df80 7e3f f5cc 7c3f 1a0a 7f3f
000000e0: 2b37 7f3f 238e 7e3f 40f5 7b3f e4dd 783f
000000f0: df3a 7e3f 2db5 7f3f 79ab 7f3f d6ad 7c3f

model.0.model.2.net.1.bias f4 [64]
-0.009269141 -0.013530081 -0.006729701 -0.014072566 -0.0062643853 -0.013468604 -0.010539804 -0.004052832
-0.019783169 -0.01119784 -0.009859393 -0.0097487345 -0.012783687 -0.019262468 -0.010697831 -0.011322291
-0.008753133 -0.010083889 -0.009914161 -0.015557381 -0.01690091 -0.016682439 -0.008317781 -0.00955831
-0.009663815 -0.014051608 -0.017494207 -0.008633041 -0.008174335 -0.014635059 -0.011135804 -0.010200957
-0.008562028 -0.018300653 -0.01009004 -0.0077451994 -0.010361176 -0.012359691 -0.010424552 -0.012716549
-0.042493835 -0.006037375 -0.008740616 -0.016896484 -0.008160735 -0.01700516 -0.013174456 -0.0071765506
-0.013479699 -0.0061479467 -0.0052328897 -0.0077261454 -0.019409733 -0.012519161 -0.014195292 -0.0086371275
-0.008621199 -0.011367703 -0.014576067 -0.031221272 -0.010613523 -0.0077019637 -0.004588768 -0.012497466
00000000: 98dd 17bc 46ad 5dbc d384 dcbb 9f90 66bc
00000010: 7945 cdbb 6bab 5cbc 24af 2cbc 9ecd 84bb
00000020: 5010 a2bc 2577 37bc 4b89 21bc 28b9 1fbc
00000030: ab72 51bc 53cc 9dbc f545 2fbc 2181 39bc
00000040: 4d69 0fbc e536 25bc 016f 22bc 63e4 7ebc
00000050: c773 8abc 9ca9 88bc 4d47 08bc 759a 1cbc
00000060: fa54 1ebc b738 66bc 0350 8fbc 9971 0dbc
00000070: a5ed 05bc e3c7 6fbc f272 36bc ea21 27bc
00000080: c047 0cbc 40eb 95bc b250 25bc 71cb fdbb
00000090: ecc1 29bc 4d80 4abc bdcb 2abc 1359 50bc
000000a0: 040e 2ebd 2cd5 c5bb cd34 0fbc 7f6a 8abc
000000b0: 9ab4 05bc 684e 8bbc acd9 57bc 4529 ebbb
000000c0: f5d9 5cbc b774 c9bb a978 abbb 9b2b fdbb
000000d0: 2901 9fbc 2b1d 4dbc 5f93 68bc bd82 0dbc
000000e0: ee3f 0dbc 9a3f 3abc 75d0 6ebc c1c3 ffbc
000000f0: 58e4 2dbc c160 fcbb 605d 96bb 2cc2 4cbc

model.0.model.2.net.1.running_mean f4 [64]
-0.04398056 -0.52365893 -0.58471984 -0.3578534 0.09920214 0.10337818 0.047950026 -0.29962015
0.5277739 -0.340506 -0.23251899 0.241642 0.11899395 0.15184364 -0.27490535 -0.5068119
0.38566563 -0.27475506 -0.5005451 0.41535646 -0.049950205 -0.29790092 0.3909839 0.41763273
-0.28489444 -0.27356553 -0.4506474 0.20344079 -0.37618464 -0.17597203 0.4459595 -0.15437111
0.2032912 -0.25244662 0.44369385 -0.022601243 -0.045324273 0.017121319 0.34727275 -0.19971463
0.13251327 0.43378592 0.26359057 -0.31443074 -0.26152328 0.054183744 0.14378586 0.09025347
-0.12412867 -0.56180173 -0.26500243 -0.12551731 -0.069171004 0.38397318 -0.40513507 -0.1930248
0.1074923 -0.028314423 0.27796006 -0.6488436 -0.55171525 -0.070155896 -0.5660427 0.20375201
00000000: f624 34bd 830e 06bf 33b0 15bf 9038 b7be
00000010: 7e2a cb3d f0b7 d33d 3f67 443d d067 99be
00000020: 311c 073f cd56 aebe 7519 6ebe 0071 773e
00000030: 1ab3 f33d e67c 1b3e 65c0 8cbe 6dbe 01bf
00000040: f775 c53e b2ac 8cbe b923 00bf 9aa9 d43e
00000050: 9698 4cbd 7886 98be 0b2f c83e f5d3 d53e
00000060: afdd 91be c810 8cbe 42bb e6be c852 503e
00000070: 469b c0be 0332 34be ce54 e43e 7613 1ebe
00000080: 912b 503e af40 81be d72b e33e 3e26 b9bc
00000090: f2a5 39bd 0242 8c3c bccd b13e fe81 4cbe
000000a0: 8fb1 073e 3019 de3e 58f5 863e 11fd a0be
000000b0: 61e6 85be c6ef 5d3d 9a3c 133e d0d6 b83d
000000c0: 2c37 febd 3dd2 0fbf 66ae 87be 9c87 00be
000000d0: 87a9 8dbd 2298 c43e dd6d cfbe 4ba8 45be
000000e0: ec24 dc3d a6f3 e7bc c850 8e3e 9d1a 26bf
000000f0: 363d 0dbf e5ad 8fbd 2de8 10bf 5ea4 503e

model.0.model.2.net.1.running_var f4 [64]
0.19002283 0.30448923 0.14427194 0.14256343 0.16912648 0.08098456 0.14113195 0.10059416
0.123369806 0.37899375 0.09185138 0.06269383 0.25218996 0.11251301 0.16760537 0.12389432
0.11971921 0.15410931 0.19290541 0.25454712 0.13176823 0.31141213 0.14030127 0.08147307
0.12933873 0.117086545 0.10832761 0.09995759 0.18203008 0.138703 0.0924019 0.1684072
0.27706593 0.14378662 0.07696462 0.16319558 0.1459917 0.23189974 0.10284186 0.10990106
0.18813752 0.089135446 0.108034104 0.14331597 0.36978346 0.23528476 0.12855142 0.061607856
0.34247854 0.089535475 0.06194723 0.09171559 0.14556924 0.09736702 0.082840666 0.12719068
0.123860344 0.17571981 0.07092238 0.26477152 0.19337194 0.21200183 0.09089965 0.31326145
00000000: 5895 423e 03e6 9b3e 06bc 133e 26fc 113e
00000010: 7e2f 2d3e 3cdb a53d e584 103e 5004 ce3d
00000020: 4fa9 fc3d 780b c23e 941c bc3d 9f65 803d
00000030: 0b1f 813e 396d e63d bea0 2b3e 4ebc fd3d
00000040: 582f f53d d5ce 1d3e ff88 453e 0054 823e
00000050: 40ee 063e 6971 9f3e 23ab 0f3e 5adb a63d
00000060: 5f71 043e 12cb ef3d deda dd3d 91b6 cc3d
00000070: 1866 3a3e 2908 0e3e 353d bd3d f072 2c3e
00000080: 96db 8d3e cd3c 133e a09f 9d3d be1c 273e
00000090: d97e 153e 2077 6d3e c19e d23d cf13 e13d
000000a0: 1fa7 403e a58c b63d fc40 dd3d 6cc1 123e
000000b0: 4254 bd3e 7dee 703e fca2 033e 8558 7c3d
000000c0: 5959 af3e 605e b73d 61bc 7d3d 62d5 bb3d
000000d0: 1a10 153e 5c68 c73d 5ea8 a93d 463e 023e
000000e0: 7eaa fd3d e5ef 333e c13f 913d 2290 873e
000000f0: 4b03 463e 0217 593e 9829 ba3d ce63 a03e

model.1.weight f4 [5, 24000]
0.0047541424 -0.0018942947 0.0019384585 0.0070209084 0.0049954806 0.009135635 -0.0004117154 0.0045100646
0.00093689904 -0.0009793817 0.0067149135 0.0058475654 0.0032024332 -0.0032648125 0.0018397579 0.003222366
0.0068573235 -0.001313379 0.009501422 0.0071869134 -0.002759063 0.0011469589 0.0055769724 0.0040317895
0.005745206 0.0034019167 -0.004465723 0.00076065096 0.0032291121 0.0028931235 0.0050989687 0.0057185222
0.0106954565 -0.0009594364 0.0027156104 -0.00010666534 0.0017775773 -0.00031933485 -0.0037349763 -0.0024659925
0.0051154452 -0.0013243145 0.00794438 0.004295806 0.0037452097 0.0045123124 0.0039637038 0.0055761123
0.007807082 -0.0022486867 -0.00097077544 0.0060048704 0.0061446186 0.0070512122 0.00058177504 0.0015900733
0.0040778206 0.00035047386 -0.0026645092 0.0016485006 -0.00010115405 0.004926712 0.012485465 0.014479525
0.008763812 0.003217737 -0.002032563 0.006417456 0.005048149 -0.0014937945 0.0023528668 0.00819347
0.005197043 0.01169798 0.005759629 0.00311712 0.0056190724 0.0051813507 0.0033947153 -0.0004206743
0.004427976 0.008706785 0.0042243507 0.009002703 0.0007893072 -0.0029059085 0.0036250595 0.008597829
0.001284255 0.0076148342 0.0068567046 0.0032056398 -0.0026832237 0.008957589 0.007042816 0.008186113
0.011784529 0.0003648809 0.004184164 0.0072856946 0.01061042 0.0077405395 -0.00034554416 0.0002736508
0.003942699 0.0075460286 0.0061761937 2.4212126e-05 0.006618698 0.004458082 0.0070428415 0.009154712
-0.0022508781 0.004138593 0.0016060646 0.006924678 0.008201044 0.0013701755 -2.1717284e-05 -0.00016864156
0.0078016706 0.0015060012 -0.0012171213 0.0015190582 0.0033339767 0.008955194 0.007413928 0.0057620225
0.0032488988 0.0074564666 0.005917215 0.0074782954 0.005910009 0.0050238166 0.00054391986 -0.0031065757
0.0015060221 0.0019150284 0.00698674 -0.0036796473 0.005181445 -0.00072098506 -0.0039270194 0.010716421
0.0010031442 0.005693767 0.00085627614 0.0039462144 0.002190479 0.0030721726 0.006091322 0.011072166
0.003289095 0.0047455197 0.00041108922 -0.0049916627 0.00332103 0.0054685613 0.0055681407 0.002085448
0.0049563292 0.006666286 0.00756077 0.0013652581 0.000956478 0.011146133 0.005189684 0.0038967233
0.0024503474 -0.000102489736 0.010190722 0.007291479 0.0059740418 0.0002275523 0.009803638 0.0032237326
0.0002122655 0.004659324 0.009449175 0.011991077 -0.0027410132 -0.0016285565 0.0060069505 0.008352577
0.0083872415 0.008099471 0.0019444772 0.0025124277 0.0025334198 0.008259115 0.0065079276 0.0033665344
0.004791246 0.010957626 0.0034189648 0.0008378041 0.008295288 0.006643049 0.008684139 0.0074732667
0.007053949 0.0066592563 -1.5811587e-05 0.0012998303 0.0015269589 0.0026214102 0.006541892 -0.0020763546
0.010749985 0.005035416 0.00045331471 -0.00018530292 0.00589504 0.0011288492 0.002427599 0.007479041
1.833614e-05 0.0066353227 0.0070209946 0.006304383 0.001573801 0.009556607 0.00039534335 -0.0032231098
-0.0017288687 0.0012040397 0.008481219 0.002336967 -0.0009255761 0.0026280151 0.0107871825 0.0046403194
0.0018230343 0.006550257 0.0002599571 -0.00023430887 0.008833273 0.008196385 0.010997017 0.0023596196
0.00031583858 0.007411596 -4.5218927e-05 0.00697807 0.0068762787 0.012179979 0.008802941 0.0075968015
0.006049972 0.0071112844 0.006434714 0.0033010414 0.0066917087 0.005484871 0.009965068 0.0063875043
00000000: a3c8 9b3b fc49 f8ba e013 fe3a a60f e63b
00000010: 21b1 a33b a1ad 153c 81db d7b9 2ac9 933b
00000020: 3b9a 753a 995e 80ba c708 dc3b ef9c bf3b
00000030: eadf 513b 77f6 55bb 0824 f13a 552e 533b
00000040: 66b3 e03b b025 acba daab 1b3c 3380 eb3b
00000050: 65d1 34bb 8e55 963a 09bf b63b 1a1d 843b
00000060: 4842 bc3b b1f2 5e3b 3355 92bb 6c66 473a
00000070: 839f 533b 8f9a 3d3b 4015 a73b 7162 bb3b
00000080: ff3b 2f3c b082 7bba 62f8 313b 85b1 dfb8
00000090: 99fd e83a 666c a7b9 81c6 74bb 7d9c 21bb
000000a0: 779f a73b 9f94 adba 2529 023c d5c3 8c3b
000000b0: 3172 753b 05dc 933b f5e1 813b d2b7 b63b
000000c0: 8dd2 ff3b b45e 13bb a37b 7eba 81c4 c43b
000000d0: cc58 c93b db0d e73b 4382 183a 026a d03a
000000e0: 3d9f 853b cebf b739 0c9f 2ebb 8012 d83a
000000f0: ab22 d4b8 4170 a13b d68f 4c3c 883b 6d3c
00000100: 1796 0f3c abe0 523b c034 05bb 8649 d23b
00000110: f16a a53b 6dcb c3ba 8e32 1a3b e73d 063c
00000120: f54b aa3b e2a8 3f3c 45bb bc3b 9848 4c3b
00000130: 3220 b83b 52c8 a93b df79 5e3b f38d dcb9
00000140: 8e18 913b e7a6 0e3c 6c6c 8a3b 1380 133c
00000150: 82e9 4e3a 0e71 3ebb 6892 6d3b e9dd 0c3c
00000160: 7254 a83a dc85 f93b 35ae e03b b615 523b
00000170: 06d9 2fbb dac2 123c 6cc7 e63b 0c1f 063c
00000180: e613 413c 7c4d bf39 501b 893b d6bc ee3b
00000190: 54d7 2d3c 5aa4 fd3b 272a b5b9 ca78 8f39
000001a0: c231 813b ad44 f73b ab61 ca3b 251b cb37
000001b0: aae1 d83b 1a15 923b a3c7 e63b a5fd 153c
000001c0: 7883 13bb 099d 873b 9682 d23a 69e8 e23b
000001d0: ac5d 063c 7697 b33a 832d b6b7 60d5 30b9
000001e0: 28a5 ff3b 0465 c53a d087 9fba 231b c73a
000001f0: d97e 5a3b ceb8 123c 89f0 f23b 59cf bc3b
00000200: 7aeb 543b 6055 f43b 32e5 c13b 7d0c f53b
00000210: c0a8 c13b d49e a43b d895 0e3a b197 4bbb
00000220: b765 c53a b101 fb3a 06f1 e43b 3d26 71bb
00000230: 1cc9 a93b 7d00 3dba 3aae 80bb ed93 2f3c
00000240: ef7b 833a c892 ba3b b877 603a 3f4f 813b
00000250: 248e 0f3b 8156 493b b699 c73b 0868 353c
00000260: db8d 573b 4e80 9b3b 7687 d739 1a91 a3bb
00000270: a3a5 593b 9e31 b33b f374 b63b 03ac 083b
00000280: b468 a23b dc70 da3b 56c0 f73b 76f2 b23a
00000290: 27bc 7a3a 459e 363c 3a0e aa3b 2b60 7f3b
000002a0: 0296 203b c2ef d6b8 fcf6 263c 5ced ee3b
000002b0: e5c1 c33b 1b9b 6e39 709f 203c 4245 533b
000002c0: 9693 5e39 3ead 983b b6d0 1a3c 3976 443c
000002d0: 92a2 33bb 4a75 d5ba f4d5 c43b 3fd9 083c
000002e0: a46a 093c a5b3 043c d4dd fe3a 8ba7 243b
000002f0: bb07 263b 3d51 073c 7440 d53b 13a1 5c3b
00000300: e2ff 9c3b 9d87 333c b610 603b 15a0 5b3a
00000310: f6e8 073c efad d93b eb47 0e3c 4ee2 f43b
00000320: d024 e73b e435 da3b 20a3 84b7 115f aa3a
00000330: 3d24 c83a f7cb 2b3b 5e5d d63b 7313 08bb
00000340: b520 303c 2200 a53b dfaa ed39 e04d 42b9
00000350: 2e2b c13b e5f5 933a 5a18 1f3b be12 f53b
00000360: 90d0 9937 1f6d d93b 5f10 e63b ff94 ce3b
00000370: 0048 ce3a 5193 1c3c 1646 cf39 cf3a 53bb
00000380: 359b e2ba ded0 9d3a d0f4 0a3c cd27 193b
00000390: 5ca2 72ba c73a 2c3b b9bc 303c d20d 983b
000003a0: e1f2 ee3a 8aa3 d63b da4a 8839 cfb0 75b9
000003b0: 6fb9 103c 214a 063c d52c 343c d9a3 1a3b
000003c0: 2397 a539 f9dc f23b 74a9 3db8 4ba8 e43b
000003d0: 6852 e13b 898e 473c 363a 103c 97ee f83b
000003e0: d83e c63b c705 e93b 4bda d23b 4956 583b
000003f0: 1f46 db3b 6fba b33b 8644 233c 454e d13b

model.1.bias f4 [5]
-0.002339955 0.0023609581 0.00176263 0.005676401 -0.0059803827
00000000: ee59 19bb 4eba 1a3b 0c08 e73a 1a01 ba3b
00000010: 16f7 c3bb
