simclr_cnn_transformer_trainings1/logistic_on_simclr_IT_3pat/lightning_logs/version_0/checkpoints/last.ckpt (torch, 7847 bytes, 6 tensors)

classifier.weight f4 [5, 184]
00000000: 083e af3d 7be3 37bd 2d53 3a3d 0f15 c93c
00000010: 5819 41bc c1cf a83d 3df8 fdbc af45 eabc
00000020: 0257 f4bc 9127 1cbd 8fcd 6a3d ffc6 c2bb
00000030: a347 fbbc ccfc 44bd 948a 9c3a 6344 ffbc
00000040: 2cc2 8dbd ab36 623d c1a4 ebbc c2d9 773b
00000050: 693f 043d 1b1c 0ebd 5450 c43b 9710 be3d
00000060: 20b1 5cbd 12d4 21bd 7585 0c3d 97f1 893d
00000070: 4e4c fdbb 9eca 513d a99e 01bc da2d aab7
00000080: 7203 5c3d 9a7b 703c 5003 5ebd 9d87 893d
00000090: 54ca 2e3d 1a5b 853d e9dc 47bb 8513 d2bc
000000a0: 1c80 1a3d 47d7 45bd b315 c83c a96d 96bd
000000b0: a1d1 cdba 91da 8a3c 1cab 46bd 8904 e8bc
000000c0: cb1c 13bd 19fb 2e3d d9cc d3bc 6530 03bd
000000d0: 26e2 93bd 062b c4bc 7674 22bd 56ed 0f3d
000000e0: cdcd dabc 7233 45bb 9886 b13c e79b 00bd
000000f0: ba32 cdbc 6d4e 5cbb 3622 ad3c 9f44 91bb
00000100: 2473 94bd 8f4d fe3c 2373 64bc 7697 f5bc
00000110: 6438 3bbd 8d41 14bd 8e22 afbc bbc1 2a3d
00000120: a9a7 b93b 4ff6 033c 8b9b b5bc 0e36 2ebd
00000130: 4565 723d e0e4 733d c941 46bc 0d9f 20bd
00000140: c72d 893b eaa5 d3bb 42cb 803c 567e 6f3b
00000150: 9ade a7bc c8c3 123d 4a9a 423c 7bbc d2bc
00000160: 488b e93c 6c13 f33c c037 243d 4af7 0b3d
00000170: ade4 793d a357 193d 8f76 3d3c bb1e 8d3c
00000180: b1ad 1cbc 1215 4e3d 850d 60bd 5000 06bd
00000190: f977 2bbc 7ae6 f9bc 9926 d7bc 77fb 7cbc
000001a0: 11de a93c c81b 363c 0dd5 92bb d2b8 57bd
000001b0: 3fde 1c3d b0a8 453d 2f8c 49bc 98bc 37bd
000001c0: 936b 92bd 3833 85bc 65f3 dfbc 0ffb 1b3d
000001d0: 2405 75bd 53e3 0c3d 2e5a b13c 6f5c be3c
000001e0: 82e4 503d 77da 81bd f41d d8bb 235c 25bc
000001f0: 3d57 e63c fc32 8a3d 6f09 283c b019 5a3d
00000200: 55cd 35bd 7669 5f3d ea2d 8a3d 90d6 56bd
00000210: 5e3d efbc f425 7bbc 1596 bf3b 1c2d fdbc
00000220: 0b81 813d 3a4b cf3c ee18 55bd 3021 17bd
00000230: c0df 73bc 23f1 3bbd 5158 593d 49b2 86bd
00000240: 0061 1c3d 369a e0bc 7fe1 c2ba bb77 883d
00000250: 989f 2dbd 027f 333c a377 d83c 83ab 113d
00000260: 0d53 0abd e7d3 1cbd 9621 d4bc 30e5 e1bc
00000270: 785b 5d3d aebd cebc 2f62 b63c 45b2 2fbd
00000280: 0e1f 46bd 8461 43bd e2a8 663d f2c2 bc3c
00000290: cd86 683b 1f3e bebc 6fe5 a53c e417 093d
000002a0: 8993 0c3d 6ddd 253d 65e9 a3bc fe4f 193d
000002b0: 2bd6 dcbb 17c3 33bd 5feb 8bbc 962d 8dbd
000002c0: 29c9 873d ac2d 183d 34b6 373d 26e7 1dbd
000002d0: 6337 c7bc c2dc 37bc 0b42 5eba ebca 8abd
000002e0: 7506 0c3d e10c 3dbd b013 233d b948 2f3d
000002f0: 548b 9bbc 4d10 2a3d ee37 ccbb ea66 f53c
00000300: e6fc 07bd d3d1 213d 7cb4 62bd c735 2dbd
00000310: 00c4 ff3c 82cc a5bc b872 453d 995e d4bc
00000320: fcb6 86bd 4f55 2d3d bd22 333d 899f 6e3d
00000330: 7105 a3bb 0e9e 5abd d1ff 493d 7e03 a23d
00000340: cc71 26bc 8424 3cbd 3b03 d33a 6715 993d
00000350: 1428 973d 7325 86bc 673d 523d 115c cbbc
00000360: 5f12 b53c 3709 3d3d afe7 f63c 73e0 1fbb
00000370: 4d79 443d 40a8 6c3c 935b 36bd 81fc 563d
00000380: 5483 5abd 8405 973c 3475 4dbd d4f7 f73b
00000390: 4397 333c 286b 2bbb 25f4 5538 ad04 49bc
000003a0: 5a51 f1bc 8deb ccbc 92b6 e4bc 64ba 0a3d
000003b0: 247f 3a3c 1527 45bc 4cf5 92bc eeb0 c83c
000003c0: 303e d23b 252e 8e3d 0609 57bd 2e9b 91bd
000003d0: 90e8 c3bc c2e5 c3bc 2c86 38bd a069 60bd
000003e0: 5267 583d dd23 4fbd febb 743d e286 80bc
000003f0: 3e3d 023c 8067 f93c 258c c7bb be47 98bb
0.085567534 -0.044894677 0.04548948 0.024546174 -0.011785828 0.08242751 -0.031002158 -0.02859768
-0.029826645 -0.03812367 0.057324942 -0.0059441323 -0.030673807 -0.04809265 0.0011943155 -0.031160539
-0.06921801 0.055227917 -0.028765084 0.0037819003 0.032287035 -0.034694772 0.005991021 0.09280508
-0.053879857 -0.039508887 0.034306962 0.06735533 -0.0077300435 0.05121862 -0.007911363 -2.028693e-05
0.053714223 0.014677906 -0.054202378 0.06715319 0.042673424 0.06511517 -0.0030496663 -0.025644073
0.03771983 -0.048301008 0.02442441 -0.07345135 -0.0015702733 0.016949924 -0.048503026 -0.028322475
-0.03591613 0.042719934 -0.025854515 -0.032028574 -0.07220869 -0.023946296 -0.039661847 0.03513845
-0.026709462 -0.0030090478 0.021670625 -0.03139868 -0.025048602 -0.0033616081 0.021134477 -0.004433229
-0.07248524 0.031042842 -0.013943466 -0.029979449 -0.045708075 -0.036195327 -0.021378782 0.041688662
0.0056657386 0.00805433 -0.022168895 -0.04253202 0.05917861 0.059544444 -0.012100645 -0.039214183
0.0041863653 -0.0064589875 0.01572192 0.0036543808 -0.020491887 0.035831243 0.011877606 -0.02572464
0.028508797 0.029672347 0.04009223 0.03417138 0.061009098 0.037437093 0.011563911 0.017226567
-0.009562896 0.050313063 -0.054700393 -0.03271514 -0.010465615 -0.030505408 -0.026263522 -0.015440813
0.020735772 0.011115022 -0.004480964 -0.052666493 0.038297888 0.048256576 -0.012301489 -0.04485759
-0.071494244 -0.016259775 -0.02733774 0.038081225 -0.059819356 0.03439648 0.021649446 0.023237435
0.050999172 -0.06340497 -0.0065953676 -0.010092768 0.02811777 0.06748006 0.010256155 0.053247154
-0.044385273 0.054543935 0.06747039 -0.052450716 -0.029204067 -0.015328873 0.0058467486 -0.030905299
0.06323441 0.025304426 -0.052025728 -0.036896884 -0.014884889 -0.045884263 0.05306274 -0.06576974
0.038178444 -0.027417284 -0.0014868228 0.06663462 -0.04238853 0.010955574 0.026424235 0.035563957
-0.03377061 -0.038288023 -0.025894921 -0.027575105 0.05404231 -0.02523693 0.022263614 -0.04289462
-0.04836946 -0.04770042 0.056313403 0.023042176 0.0035480738 -0.023222981 0.020251004 0.03347005
0.034320388 0.04049437 -0.020008752 0.037429802 -0.006739398 -0.043887224 -0.017080007 -0.068934605
0.06630165 0.03715293 0.044851497 -0.03855052 -0.024318403 -0.011222066 -0.0008478469 -0.06776985
0.034185845 -0.04615486 0.039813697 0.042793963 -0.018987335 0.041519452 -0.0062322533 0.0299563
-0.033200167 0.039506745 -0.055347905 -0.042287614 0.03122139 -0.020239118 0.048205107 -0.025924014
-0.0657787 0.042317685 0.0437343 0.058257613 -0.004975014 -0.05337339 0.04931623 0.07910822
-0.010158967 -0.04593326 0.0016098985 0.07474785 0.07380691 -0.016375279 0.05132809 -0.024824174
0.022103487 0.046151366 0.030139772 -0.0024395257 0.047967244 0.014444411 -0.044520926 0.0524869
-0.0533479 0.018435247 -0.0501606 0.007567385 0.010961357 -0.00261564 5.1010535e-05 -0.012269181
-0.029457737 -0.025014663 -0.027919088 0.033869162 0.011382852 -0.012033244 -0.017939232 0.02449843
0.0064161047 0.06942395 -0.05249884 -0.07109676 -0.023914605 -0.023913268 -0.04504983 -0.05478823
0.05283291 -0.05057131 0.059749596 -0.015689317 0.007949172 0.03044486 -0.0060897046 -0.004647224

classifier.bias f4 [5]
00000000: 49b3 86bd ab16 0ebd 1616 eb3c 36cb 3c3d
00000010: f45b 38bc
-0.06577165 -0.034689587 0.028697055 0.046092235 -0.011252392

net.1.weight f4 [5, 184]
00000000: 083e af3d 7be3 37bd 2d53 3a3d 0f15 c93c
00000010: 5819 41bc c1cf a83d 3df8 fdbc af45 eabc
00000020: 0257 f4bc 9127 1cbd 8fcd 6a3d ffc6 c2bb
00000030: a347 fbbc ccfc 44bd 948a 9c3a 6344 ffbc
00000040: 2cc2 8dbd ab36 623d c1a4 ebbc c2d9 773b
00000050: 693f 043d 1b1c 0ebd 5450 c43b 9710 be3d
00000060: 20b1 5cbd 12d4 21bd 7585 0c3d 97f1 893d
00000070: 4e4c fdbb 9eca 513d a99e 01bc da2d aab7
00000080: 7203 5c3d 9a7b 703c 5003 5ebd 9d87 893d
00000090: 54ca 2e3d 1a5b 853d e9dc 47bb 8513 d2bc
000000a0: 1c80 1a3d 47d7 45bd b315 c83c a96d 96bd
000000b0: a1d1 cdba 91da 8a3c 1cab 46bd 8904 e8bc
000000c0: cb1c 13bd 19fb 2e3d d9cc d3bc 6530 03bd
000000d0: 26e2 93bd 062b c4bc 7674 22bd 56ed 0f3d
000000e0: cdcd dabc 7233 45bb 9886 b13c e79b 00bd
000000f0: ba32 cdbc 6d4e 5cbb 3622 ad3c 9f44 91bb
00000100: 2473 94bd 8f4d fe3c 2373 64bc 7697 f5bc
00000110: 6438 3bbd 8d41 14bd 8e22 afbc bbc1 2a3d
00000120: a9a7 b93b 4ff6 033c 8b9b b5bc 0e36 2ebd
00000130: 4565 723d e0e4 733d c941 46bc 0d9f 20bd
00000140: c72d 893b eaa5 d3bb 42cb 803c 567e 6f3b
00000150: 9ade a7bc c8c3 123d 4a9a 423c 7bbc d2bc
00000160: 488b e93c 6c13 f33c c037 243d 4af7 0b3d
00000170: ade4 793d a357 193d 8f76 3d3c bb1e 8d3c
00000180: b1ad 1cbc 1215 4e3d 850d 60bd 5000 06bd
00000190: f977 2bbc 7ae6 f9bc 9926 d7bc 77fb 7cbc
000001a0: 11de a93c c81b 363c 0dd5 92bb d2b8 57bd
000001b0: 3fde 1c3d b0a8 453d 2f8c 49bc 98bc 37bd
000001c0: 936b 92bd 3833 85bc 65f3 dfbc 0ffb 1b3d
000001d0: 2405 75bd 53e3 0c3d 2e5a b13c 6f5c be3c
000001e0: 82e4 503d 77da 81bd f41d d8bb 235c 25bc
000001f0: 3d57 e63c fc32 8a3d 6f09 283c b019 5a3d
00000200: 55cd 35bd 7669 5f3d ea2d 8a3d 90d6 56bd
00000210: 5e3d efbc f425 7bbc 1596 bf3b 1c2d fdbc
00000220: 0b81 813d 3a4b cf3c ee18 55bd 3021 17bd
00000230: c0df 73bc 23f1 3bbd 5158 593d 49b2 86bd
00000240: 0061 1c3d 369a e0bc 7fe1 c2ba bb77 883d
00000250: 989f 2dbd 027f 333c a377 d83c 83ab 113d
00000260: 0d53 0abd e7d3 1cbd 9621 d4bc 30e5 e1bc
00000270: 785b 5d3d aebd cebc 2f62 b63c 45b2 2fbd
00000280: 0e1f 46bd 8461 43bd e2a8 663d f2c2 bc3c
00000290: cd86 683b 1f3e bebc 6fe5 a53c e417 093d
000002a0: 8993 0c3d 6ddd 253d 65e9 a3bc fe4f 193d
000002b0: 2bd6 dcbb 17c3 33bd 5feb 8bbc 962d 8dbd
000002c0: 29c9 873d ac2d 183d 34b6 373d 26e7 1dbd
000002d0: 6337 c7bc c2dc 37bc 0b42 5eba ebca 8abd
000002e0: 7506 0c3d e10c 3dbd b013 233d b948 2f3d
000002f0: 548b 9bbc 4d10 2a3d ee37 ccbb ea66 f53c
00000300: e6fc 07bd d3d1 213d 7cb4 62bd c735 2dbd
00000310: 00c4 ff3c 82cc a5bc b872 453d 995e d4bc
00000320: fcb6 86bd 4f55 2d3d bd22 333d 899f 6e3d
00000330: 7105 a3bb 0e9e 5abd d1ff 493d 7e03 a23d
00000340: cc71 26bc 8424 3cbd 3b03 d33a 6715 993d
00000350: 1428 973d 7325 86bc 673d 523d 115c cbbc
00000360: 5f12 b53c 3709 3d3d afe7 f63c 73e0 1fbb
00000370: 4d79 443d 40a8 6c3c 935b 36bd 81fc 563d
00000380: 5483 5abd 8405 973c 3475 4dbd d4f7 f73b
00000390: 4397 333c 286b 2bbb 25f4 5538 ad04 49bc
000003a0: 5a51 f1bc 8deb ccbc 92b6 e4bc 64ba 0a3d
000003b0: 247f 3a3c 1527 45bc 4cf5 92bc eeb0 c83c
000003c0: 303e d23b 252e 8e3d 0609 57bd 2e9b 91bd
000003d0: 90e8 c3bc c2e5 c3bc 2c86 38bd a069 60bd
000003e0: 5267 583d dd23 4fbd febb 743d e286 80bc
000003f0: 3e3d 023c 8067 f93c 258c c7bb be47 98bb
0.085567534 -0.044894677 0.04548948 0.024546174 -0.011785828 0.08242751 -0.031002158 -0.02859768
-0.029826645 -0.03812367 0.057324942 -0.0059441323 -0.030673807 -0.04809265 0.0011943155 -0.031160539
-0.06921801 0.055227917 -0.028765084 0.0037819003 0.032287035 -0.034694772 0.005991021 0.09280508
-0.053879857 -0.039508887 0.034306962 0.06735533 -0.0077300435 0.05121862 -0.007911363 -2.028693e-05
0.053714223 0.014677906 -0.054202378 0.06715319 0.042673424 0.06511517 -0.0030496663 -0.025644073
0.03771983 -0.048301008 0.02442441 -0.07345135 -0.0015702733 0.016949924 -0.048503026 -0.028322475
-0.03591613 0.042719934 -0.025854515 -0.032028574 -0.07220869 -0.023946296 -0.039661847 0.03513845
-0.026709462 -0.0030090478 0.021670625 -0.03139868 -0.025048602 -0.0033616081 0.021134477 -0.004433229
-0.07248524 0.031042842 -0.013943466 -0.029979449 -0.045708075 -0.036195327 -0.021378782 0.041688662
0.0056657386 0.00805433 -0.022168895 -0.04253202 0.05917861 0.059544444 -0.012100645 -0.039214183
0.0041863653 -0.0064589875 0.01572192 0.0036543808 -0.020491887 0.035831243 0.011877606 -0.02572464
0.028508797 0.029672347 0.04009223 0.03417138 0.061009098 0.037437093 0.011563911 0.017226567
-0.009562896 0.050313063 -0.054700393 -0.03271514 -0.010465615 -0.030505408 -0.026263522 -0.015440813
0.020735772 0.011115022 -0.004480964 -0.052666493 0.038297888 0.048256576 -0.012301489 -0.04485759
-0.071494244 -0.016259775 -0.02733774 0.038081225 -0.059819356 0.03439648 0.021649446 0.023237435
0.050999172 -0.06340497 -0.0065953676 -0.010092768 0.02811777 0.06748006 0.010256155 0.053247154
-0.044385273 0.054543935 0.06747039 -0.052450716 -0.029204067 -0.015328873 0.0058467486 -0.030905299
0.06323441 0.025304426 -0.052025728 -0.036896884 -0.014884889 -0.045884263 0.05306274 -0.06576974
0.038178444 -0.027417284 -0.0014868228 0.06663462 -0.04238853 0.010955574 0.026424235 0.035563957
-0.03377061 -0.038288023 -0.025894921 -0.027575105 0.05404231 -0.02523693 0.022263614 -0.04289462
-0.04836946 -0.04770042 0.056313403 0.023042176 0.0035480738 -0.023222981 0.020251004 0.03347005
0.034320388 0.04049437 -0.020008752 0.037429802 -0.006739398 -0.043887224 -0.017080007 -0.068934605
0.06630165 0.03715293 0.044851497 -0.03855052 -0.024318403 -0.011222066 -0.0008478469 -0.06776985
0.034185845 -0.04615486 0.039813697 0.042793963 -0.018987335 0.041519452 -0.0062322533 0.0299563
-0.033200167 0.039506745 -0.055347905 -0.042287614 0.03122139 -0.020239118 0.048205107 -0.025924014
-0.0657787 0.042317685 0.0437343 0.058257613 -0.004975014 -0.05337339 0.04931623 0.07910822
-0.010158967 -0.04593326 0.0016098985 0.07474785 0.07380691 -0.016375279 0.05132809 -0.024824174
0.022103487 0.046151366 0.030139772 -0.0024395257 0.047967244 0.014444411 -0.044520926 0.0524869
-0.0533479 0.018435247 -0.0501606 0.007567385 0.010961357 -0.00261564 5.1010535e-05 -0.012269181
-0.029457737 -0.025014663 -0.027919088 0.033869162 0.011382852 -0.012033244 -0.017939232 0.02449843
0.0064161047 0.06942395 -0.05249884 -0.07109676 -0.023914605 -0.023913268 -0.04504983 -0.05478823
0.05283291 -0.05057131 0.059749596 -0.015689317 0.007949172 0.03044486 -0.0060897046 -0.004647224

net.1.bias f4 [5]
00000000: 49b3 86bd ab16 0ebd 1616 eb3c 36cb 3c3d
00000010: f45b 38bc
-0.06577165 -0.034689587 0.028697055 0.046092235 -0.011252392

weight f4 [5, 184]
00000000: 083e af3d 7be3 37bd 2d53 3a3d 0f15 c93c
00000010: 5819 41bc c1cf a83d 3df8 fdbc af45 eabc
00000020: 0257 f4bc 9127 1cbd 8fcd 6a3d ffc6 c2bb
00000030: a347 fbbc ccfc 44bd 948a 9c3a 6344 ffbc
00000040: 2cc2 8dbd ab36 623d c1a4 ebbc c2d9 773b
00000050: 693f 043d 1b1c 0ebd 5450 c43b 9710 be3d
00000060: 20b1 5cbd 12d4 21bd 7585 0c3d 97f1 893d
00000070: 4e4c fdbb 9eca 513d a99e 01bc da2d aab7
00000080: 7203 5c3d 9a7b 703c 5003 5ebd 9d87 893d
00000090: 54ca 2e3d 1a5b 853d e9dc 47bb 8513 d2bc
000000a0: 1c80 1a3d 47d7 45bd b315 c83c a96d 96bd
000000b0: a1d1 cdba 91da 8a3c 1cab 46bd 8904 e8bc
000000c0: cb1c 13bd 19fb 2e3d d9cc d3bc 6530 03bd
000000d0: 26e2 93bd 062b c4bc 7674 22bd 56ed 0f3d
000000e0: cdcd dabc 7233 45bb 9886 b13c e79b 00bd
000000f0: ba32 cdbc 6d4e 5cbb 3622 ad3c 9f44 91bb
00000100: 2473 94bd 8f4d fe3c 2373 64bc 7697 f5bc
00000110: 6438 3bbd 8d41 14bd 8e22 afbc bbc1 2a3d
00000120: a9a7 b93b 4ff6 033c 8b9b b5bc 0e36 2ebd
00000130: 4565 723d e0e4 733d c941 46bc 0d9f 20bd
00000140: c72d 893b eaa5 d3bb 42cb 803c 567e 6f3b
00000150: 9ade a7bc c8c3 123d 4a9a 423c 7bbc d2bc
00000160: 488b e93c 6c13 f33c c037 243d 4af7 0b3d
00000170: ade4 793d a357 193d 8f76 3d3c bb1e 8d3c
00000180: b1ad 1cbc 1215 4e3d 850d 60bd 5000 06bd
00000190: f977 2bbc 7ae6 f9bc 9926 d7bc 77fb 7cbc
000001a0: 11de a93c c81b 363c 0dd5 92bb d2b8 57bd
000001b0: 3fde 1c3d b0a8 453d 2f8c 49bc 98bc 37bd
000001c0: 936b 92bd 3833 85bc 65f3 dfbc 0ffb 1b3d
000001d0: 2405 75bd 53e3 0c3d 2e5a b13c 6f5c be3c
000001e0: 82e4 503d 77da 81bd f41d d8bb 235c 25bc
000001f0: 3d57 e63c fc32 8a3d 6f09 283c b019 5a3d
00000200: 55cd 35bd 7669 5f3d ea2d 8a3d 90d6 56bd
00000210: 5e3d efbc f425 7bbc 1596 bf3b 1c2d fdbc
00000220: 0b81 813d 3a4b cf3c ee18 55bd 3021 17bd
00000230: c0df 73bc 23f1 3bbd 5158 593d 49b2 86bd
00000240: 0061 1c3d 369a e0bc 7fe1 c2ba bb77 883d
00000250: 989f 2dbd 027f 333c a377 d83c 83ab 113d
00000260: 0d53 0abd e7d3 1cbd 9621 d4bc 30e5 e1bc
00000270: 785b 5d3d aebd cebc 2f62 b63c 45b2 2fbd
00000280: 0e1f 46bd 8461 43bd e2a8 663d f2c2 bc3c
00000290: cd86 683b 1f3e bebc 6fe5 a53c e417 093d
000002a0: 8993 0c3d 6ddd 253d 65e9 a3bc fe4f 193d
000002b0: 2bd6 dcbb 17c3 33bd 5feb 8bbc 962d 8dbd
000002c0: 29c9 873d ac2d 183d 34b6 373d 26e7 1dbd
000002d0: 6337 c7bc c2dc 37bc 0b42 5eba ebca 8abd
000002e0: 7506 0c3d e10c 3dbd b013 233d b948 2f3d
000002f0: 548b 9bbc 4d10 2a3d ee37 ccbb ea66 f53c
00000300: e6fc 07bd d3d1 213d 7cb4 62bd c735 2dbd
00000310: 00c4 ff3c 82cc a5bc b872 453d 995e d4bc
00000320: fcb6 86bd 4f55 2d3d bd22 333d 899f 6e3d
00000330: 7105 a3bb 0e9e 5abd d1ff 493d 7e03 a23d
00000340: cc71 26bc 8424 3cbd 3b03 d33a 6715 993d
00000350: 1428 973d 7325 86bc 673d 523d 115c cbbc
00000360: 5f12 b53c 3709 3d3d afe7 f63c 73e0 1fbb
00000370: 4d79 443d 40a8 6c3c 935b 36bd 81fc 563d
00000380: 5483 5abd 8405 973c 3475 4dbd d4f7 f73b
00000390: 4397 333c 286b 2bbb 25f4 5538 ad04 49bc
000003a0: 5a51 f1bc 8deb ccbc 92b6 e4bc 64ba 0a3d
000003b0: 247f 3a3c 1527 45bc 4cf5 92bc eeb0 c83c
000003c0: 303e d23b 252e 8e3d 0609 57bd 2e9b 91bd
000003d0: 90e8 c3bc c2e5 c3bc 2c86 38bd a069 60bd
000003e0: 5267 583d dd23 4fbd febb 743d e286 80bc
000003f0: 3e3d 023c 8067 f93c 258c c7bb be47 98bb
0.085567534 -0.044894677 0.04548948 0.024546174 -0.011785828 0.08242751 -0.031002158 -0.02859768
-0.029826645 -0.03812367 0.057324942 -0.0059441323 -0.030673807 -0.04809265 0.0011943155 -0.031160539
-0.06921801 0.055227917 -0.028765084 0.0037819003 0.032287035 -0.034694772 0.005991021 0.09280508
-0.053879857 -0.039508887 0.034306962 0.06735533 -0.0077300435 0.05121862 -0.007911363 -2.028693e-05
0.053714223 0.014677906 -0.054202378 0.06715319 0.042673424 0.06511517 -0.0030496663 -0.025644073
0.03771983 -0.048301008 0.02442441 -0.07345135 -0.0015702733 0.016949924 -0.048503026 -0.028322475
-0.03591613 0.042719934 -0.025854515 -0.032028574 -0.07220869 -0.023946296 -0.039661847 0.03513845
-0.026709462 -0.0030090478 0.021670625 -0.03139868 -0.025048602 -0.0033616081 0.021134477 -0.004433229
-0.07248524 0.031042842 -0.013943466 -0.029979449 -0.045708075 -0.036195327 -0.021378782 0.041688662
0.0056657386 0.00805433 -0.022168895 -0.04253202 0.05917861 0.059544444 -0.012100645 -0.039214183
0.0041863653 -0.0064589875 0.01572192 0.0036543808 -0.020491887 0.035831243 0.011877606 -0.02572464
0.028508797 0.029672347 0.04009223 0.03417138 0.061009098 0.037437093 0.011563911 0.017226567
-0.009562896 0.050313063 -0.054700393 -0.03271514 -0.010465615 -0.030505408 -0.026263522 -0.015440813
0.020735772 0.011115022 -0.004480964 -0.052666493 0.038297888 0.048256576 -0.012301489 -0.04485759
-0.071494244 -0.016259775 -0.02733774 0.038081225 -0.059819356 0.03439648 0.021649446 0.023237435
0.050999172 -0.06340497 -0.0065953676 -0.010092768 0.02811777 0.06748006 0.010256155 0.053247154
-0.044385273 0.054543935 0.06747039 -0.052450716 -0.029204067 -0.015328873 0.0058467486 -0.030905299
0.06323441 0.025304426 -0.052025728 -0.036896884 -0.014884889 -0.045884263 0.05306274 -0.06576974
0.038178444 -0.027417284 -0.0014868228 0.06663462 -0.04238853 0.010955574 0.026424235 0.035563957
-0.03377061 -0.038288023 -0.025894921 -0.027575105 0.05404231 -0.02523693 0.022263614 -0.04289462
-0.04836946 -0.04770042 0.056313403 0.023042176 0.0035480738 -0.023222981 0.020251004 0.03347005
0.034320388 0.04049437 -0.020008752 0.037429802 -0.006739398 -0.043887224 -0.017080007 -0.068934605
0.06630165 0.03715293 0.044851497 -0.03855052 -0.024318403 -0.011222066 -0.0008478469 -0.06776985
0.034185845 -0.04615486 0.039813697 0.042793963 -0.018987335 0.041519452 -0.0062322533 0.0299563
-0.033200167 0.039506745 -0.055347905 -0.042287614 0.03122139 -0.020239118 0.048205107 -0.025924014
-0.0657787 0.042317685 0.0437343 0.058257613 -0.004975014 -0.05337339 0.04931623 0.07910822
-0.010158967 -0.04593326 0.0016098985 0.07474785 0.07380691 -0.016375279 0.05132809 -0.024824174
0.022103487 0.046151366 0.030139772 -0.0024395257 0.047967244 0.014444411 -0.044520926 0.0524869
-0.0533479 0.018435247 -0.0501606 0.007567385 0.010961357 -0.00261564 5.1010535e-05 -0.012269181
-0.029457737 -0.025014663 -0.027919088 0.033869162 0.011382852 -0.012033244 -0.017939232 0.02449843
0.0064161047 0.06942395 -0.05249884 -0.07109676 -0.023914605 -0.023913268 -0.04504983 -0.05478823
0.05283291 -0.05057131 0.059749596 -0.015689317 0.007949172 0.03044486 -0.0060897046 -0.004647224

bias f4 [5]
00000000: 49b3 86bd ab16 0ebd 1616 eb3c 36cb 3c3d
00000010: f45b 38bc
-0.06577165 -0.034689587 0.028697055 0.046092235 -0.011252392
