experiments/CnnEncoder/simclr/simclr_cnn_encoder_trainings1/logistic_on_simclr_IT_100pat/lightning_logs/version_0/checkpoints/last.ckpt (torch, 7847 bytes, 6 tensors)

classifier.weight f4 [5, 184]
000000 bd 19 3b bd 8c 73 0f 3d 14 ea d1 3c a6 c1 43 3d
       -0.045678843 0.035022303 0.025624312 0.0477921
000010 81 94 4e bd 3b 90 ca bc dc 0b 70 3c 49 ef ab 3a
       -0.050434593 -0.024726978 0.014651265 0.0013117577
000020 12 ea 9e bc 07 fc d9 bc ff 50 bf 3c a7 8f fb 3c
       -0.019398723 -0.026609434 0.023354052 0.030708147
000030 25 e0 9c 39 27 b8 ca 3c c9 c0 5a 3d d7 d0 ef bb
       0.0002992164 0.024746014 0.05340651 -0.007318597
000040 ac 79 35 3b e2 d4 97 bc be 02 40 3b bb 93 da 3a
       0.002769093 -0.018534128 0.002929851 0.0016676107
000050 12 bc fb bc ea a6 30 bd d7 7d 61 3d ba 57 62 3d
       -0.030729327 -0.04312793 0.05505165 0.055259444
000060 93 8e b6 bb 6f 80 0b 3d b9 bc 7c 3b 4b ef ad bc
       -0.0055711954 0.03405803 0.0038564636 -0.021232268
000070 57 ed f0 3c 7e d3 28 bd df c2 58 bd 4d 5a d1 bd
       0.029410047 -0.04121732 -0.05292022 -0.10222302
000080 34 a5 6c ba 29 22 35 bd e7 1e d3 bc 43 38 85 3d
       -0.0009027303 -0.04422203 -0.025771571 0.06504872
000090 bf dc 53 3a 9d a9 4b 3d ba 8f 0c 3c fc 60 08 bd
       0.0008081905 0.049722303 0.008579189 -0.033295617
0000a0 90 bb 5c bc 22 4b 32 bc a6 9d 3a 3d 34 72 25 bc
       -0.013472453 -0.010882171 0.0455605 -0.010098029
0000b0 a7 87 81 3d 84 1b a7 bd 99 51 a2 ba a1 34 71 bd
       0.06324702 -0.08159545 -0.0012383937 -0.05888808
0000c0 c3 5f 5b 3c 55 fb 9e bb 69 8e ac bc 8e 14 0f 3d
       0.013389531 -0.0048517385 -0.021064 0.03493171
0000d0 d8 9e a7 3c 51 35 b7 bc d9 fd 29 bd d4 20 f1 bb
       0.020461485 -0.02236429 -0.041501854 -0.0073586497
0000e0 63 b7 07 bd 54 0c 81 3d 0b f5 e9 bc 05 39 3a bd
       -0.033133876 0.063011795 -0.028559228 -0.045464534
0000f0 e8 ed cf ba d7 03 05 bd cc e0 19 bd 66 f2 5b 3d
       -0.0015863748 -0.032474365 -0.0375679 0.053697966
000100 36 33 e7 3c 53 0c 40 bd 68 9c 11 bd 7d e1 d2 bc
       0.028222661 -0.046886753 -0.03554955 -0.025742287
000110 de cf 36 3c a6 92 0f b7 46 f2 00 3d 55 2b 17 3d
       0.011157958 -8.557608e-06 0.03148105 0.03690656
000120 74 76 38 3d f2 4f c4 3c e5 76 8d bb ed 4d 09 bb
       0.04503484 0.023963902 -0.004317152 -0.0020950988
000130 4e c6 5e 3c c4 ba 2f bd 79 84 de 3c 45 79 83 bd
       0.013597084 -0.042902723 0.027162777 -0.06419615
000140 54 b7 b6 3c 3c 93 aa 3b e5 0d 7e 3d 8f 99 46 3b
       0.022304215 0.00520554 0.06202497 0.003030393
000150 c9 4b 77 3c 15 af 19 bd 8d af 25 3d e3 16 d9 bc
       0.015093752 -0.037520487 0.04045062 -0.026500171
000160 fe d0 46 3d 1d 7a a1 bb 81 7c 2e bd 90 9e df bc
       0.048539154 -0.004927887 -0.042599205 -0.027297288
000170 c4 5c 5f 3d 8c bf 4c bd 9e 15 f9 3c 8d 79 c0 ba
       0.054531828 -0.04998736 0.030405816 -0.0014684662
000180 66 82 06 bd 8f 97 ac bd e4 cd dc bc ba 74 13 3c
       -0.0328392 -0.08427345 -0.026953645 0.008999998
000190 07 a2 40 3b f7 05 3c bb 76 71 ff 3c be fd 0e 3c
       0.002939345 -0.0028690079 0.031182032 0.008727489
0001a0 de 4c 2a 3d 17 44 bf bc 24 35 bd 3c 45 74 47 bc
       0.041577213 -0.023347897 0.023096628 -0.012173717
0001b0 0e 74 40 bd 35 b4 02 bd 6d 03 51 3d e5 69 03 bb
       -0.04698568 -0.03191014 0.051028658 -0.0020052132
0001c0 20 44 de bc 87 0f f1 3c a4 bf fe ba e9 02 e9 bc
       -0.027132094 0.02942635 -0.0019435775 -0.02844377
0001d0 22 79 1e bd 80 cc 0b bd f8 70 ef bc 06 74 92 3d
       -0.03868974 -0.034130573 -0.029228672 0.07151036
0001e0 94 dd 93 3c 4d 1e a8 3a 33 d4 e5 bb 38 85 dc bc
       0.018049993 0.0012826413 -0.0070138215 -0.026918992
0001f0 f3 b2 dd bc ed c0 37 3d 24 1c 7d bc 5c 51 00 bc
       -0.027062869 0.044861723 -0.015448604 -0.007831898
000200 a9 a0 1a bc 2f 60 e1 3c f2 9a 63 3c 12 70 cb 3c
       -0.009437718 0.027511684 0.013891922 0.024833713
000210 80 50 83 3c 84 22 87 bb 0b 64 d0 3c 55 0c 12 bd
       0.016029596 -0.0041239876 0.02543833 -0.035656292
000220 86 c8 8f ba 31 c0 1c bc a9 a2 f0 bd 65 62 3a bd
       -0.0010969795 -0.009567306 -0.11749775 -0.045503993
000230 fa fe ba bb 15 43 0e bd a8 c2 4a bd 0d a8 49 bc
       -0.005706665 -0.034731943 -0.049502045 -0.012308133
000240 37 08 b0 bc 1f e7 b4 3c 47 9a 88 3d a0 a2 88 3c
       -0.021488292 0.022082863 0.06670051 0.016679108
000250 30 c4 3a 3d 6c d6 3e bd 11 82 df 3c f9 ce ae bd
       0.045597255 -0.046591207 0.0272837 -0.08535571
000260 93 e7 80 3d 5c 1d 41 bc e0 51 18 3d 62 97 53 3d
       0.06294169 -0.011786785 0.037187457 0.05165804
000270 cb 06 3f bc d0 fa 75 3c d5 0c 86 3c 36 2e 86 bc
       -0.011659334 0.015013412 0.01636354 -0.016379457
000280 92 2d 16 bc 45 cf 0b 3d bc 39 43 3c f9 26 22 3d
       -0.009166138 0.034133215 0.01191562 0.03958795
000290 54 5f 71 bd af de f1 bc fe ce 48 bd 4b a2 df bb
       -0.058928803 -0.02952513 -0.049025528 -0.0068247668
0002a0 f3 b1 93 bb 26 09 4c bd 46 51 b2 3c 19 75 43 3c
       -0.004507297 -0.049813412 0.02176727 0.011929774
0002b0 e3 40 36 3d f2 5a 6d 3d eb f7 6d 3d 9f cf b6 bc
       0.044495475 0.05794806 0.05809776 -0.022315798
0002c0 fc 37 1a ba f7 eb 2e 3d ac ad df 3b b2 6f 76 3c
       -0.0005882976 0.042705502 0.006826123 0.015041279
0002d0 27 52 85 bc b2 70 04 3c 42 95 4b 3d 70 26 17 bc
       -0.016274525 0.008083509 0.04970289 -0.009225473
0002e0 cb 6f f0 3c 26 d4 bf 3c 97 33 6b bc 7d 81 66 3d
       0.029350182 0.02341659 -0.014355562 0.056275833
0002f0 b1 f6 20 bc 77 e6 73 bb 7b 49 8a bd b9 11 e3 bc
       -0.009824441 -0.0037216225 -0.067522965 -0.027718412
000300 8e 90 89 3b d2 32 2b bd 09 c9 4d 3b 69 d3 97 3c
       0.0041981405 -0.041796513 0.0031400344 0.018533425
000310 bb 00 0c 3d 61 0f 25 3d c5 52 48 3c 8e 64 55 3c
       0.034180384 0.04029787 0.012226765 0.013024462
000320 b4 29 13 bd 14 75 4e bd 14 e8 b1 bc 52 15 18 bd
       -0.035928443 -0.050404623 -0.021717109 -0.037129708
000330 ab 61 65 3c 1e 3f a2 bc 41 84 28 bc cc 12 17 3d
       0.014000337 -0.019805487 -0.010285438 0.03688316
000340 2c 48 93 bd 89 3c 80 bb 35 67 71 3b 2d 09 10 bd
       -0.071915 -0.0039134664 0.0036835198 -0.035165
000350 ac cf 09 bd f5 b9 f5 3b de 63 69 3c a3 74 be bc
       -0.033645317 0.0074989744 0.014245002 -0.023248976
000360 11 29 af 3c 26 36 5c 3d 6c c8 08 bc e0 b7 3e bd
       0.021381887 0.053762577 -0.008348566 -0.046562076
000370 98 30 12 bd bb 29 51 3c 95 ba 49 bc 3d 0a 08 3d
       -0.035690874 0.012766297 -0.012312551 0.03321289
000380 cd 45 46 bd eb 93 01 bc 6f e8 cc 3c b9 92 05 3d
       -0.04840641 -0.007908802 0.025013177 0.03261063
000390 22 3c 0a 3d 58 43 ab ba 00 52 1f bd 5b dc f0 bb
       0.033748753 -0.0013066335 -0.03889656 -0.007350487
0003a0 53 28 95 bc 97 3e 26 3c 67 64 ec bc e4 a6 24 3d
       -0.018207705 0.0101467585 -0.02885647 0.04019822
0003b0 7e 37 23 bd a1 cf 3c bb 25 28 6d bd bb 5f 40 bc
       -0.039847843 -0.002881028 -0.057899613 -0.011741574
0003c0 b7 94 e8 bc eb 9f ff 3c ee 90 75 3c 66 dc 61 3a
       -0.028391225 0.031204185 0.014988167 0.0008615911
0003d0 7d 7f 18 bd de 0e 91 bc 1e 9d a6 bc 8a ae 99 bd
       -0.037230957 -0.017707285 -0.020338591 -0.07503994
0003e0 b7 60 13 bd 31 3b 17 3b e5 c2 89 bd bc 6e df bc
       -0.035980906 0.0023076052 -0.06726626 -0.027274482
0003f0 82 29 0f 3d 95 89 12 bc 12 06 26 bc 72 83 11 bc
       0.034951694 -0.008943935 -0.010133283 -0.008881437

classifier.bias f4 [5]
000000 d0 5b 6b 3e cf af 93 bd e8 5e 9e 3d d2 31 ed bd
       0.22984242 -0.07211267 0.07732946 -0.11581768
000010 5e 1c 98 be
       -0.29709142

net.1.weight f4 [5, 184]
000000 bd 19 3b bd 8c 73 0f 3d 14 ea d1 3c a6 c1 43 3d
       -0.045678843 0.035022303 0.025624312 0.0477921
000010 81 94 4e bd 3b 90 ca bc dc 0b 70 3c 49 ef ab 3a
       -0.050434593 -0.024726978 0.014651265 0.0013117577
000020 12 ea 9e bc 07 fc d9 bc ff 50 bf 3c a7 8f fb 3c
       -0.019398723 -0.026609434 0.023354052 0.030708147
000030 25 e0 9c 39 27 b8 ca 3c c9 c0 5a 3d d7 d0 ef bb
       0.0002992164 0.024746014 0.05340651 -0.007318597
000040 ac 79 35 3b e2 d4 97 bc be 02 40 3b bb 93 da 3a
       0.002769093 -0.018534128 0.002929851 0.0016676107
000050 12 bc fb bc ea a6 30 bd d7 7d 61 3d ba 57 62 3d
       -0.030729327 -0.04312793 0.05505165 0.055259444
000060 93 8e b6 bb 6f 80 0b 3d b9 bc 7c 3b 4b ef ad bc
       -0.0055711954 0.03405803 0.0038564636 -0.021232268
000070 57 ed f0 3c 7e d3 28 bd df c2 58 bd 4d 5a d1 bd
       0.029410047 -0.04121732 -0.05292022 -0.10222302
000080 34 a5 6c ba 29 22 35 bd e7 1e d3 bc 43 38 85 3d
       -0.0009027303 -0.04422203 -0.025771571 0.06504872
000090 bf dc 53 3a 9d a9 4b 3d ba 8f 0c 3c fc 60 08 bd
       0.0008081905 0.049722303 0.008579189 -0.033295617
0000a0 90 bb 5c bc 22 4b 32 bc a6 9d 3a 3d 34 72 25 bc
       -0.013472453 -0.010882171 0.0455605 -0.010098029
0000b0 a7 87 81 3d 84 1b a7 bd 99 51 a2 ba a1 34 71 bd
       0.06324702 -0.08159545 -0.0012383937 -0.05888808
0000c0 c3 5f 5b 3c 55 fb 9e bb 69 8e ac bc 8e 14 0f 3d
       0.013389531 -0.0048517385 -0.021064 0.03493171
0000d0 d8 9e a7 3c 51 35 b7 bc d9 fd 29 bd d4 20 f1 bb
       0.020461485 -0.02236429 -0.041501854 -0.0073586497
0000e0 63 b7 07 bd 54 0c 81 3d 0b f5 e9 bc 05 39 3a bd
       -0.033133876 0.063011795 -0.028559228 -0.045464534
0000f0 e8 ed cf ba d7 03 05 bd cc e0 19 bd 66 f2 5b 3d
       -0.0015863748 -0.032474365 -0.0375679 0.053697966
000100 36 33 e7 3c 53 0c 40 bd 68 9c 11 bd 7d e1 d2 bc
       0.028222661 -0.046886753 -0.03554955 -0.025742287
000110 de cf 36 3c a6 92 0f b7 46 f2 00 3d 55 2b 17 3d
       0.011157958 -8.557608e-06 0.03148105 0.03690656
000120 74 76 38 3d f2 4f c4 3c e5 76 8d bb ed 4d 09 bb
       0.04503484 0.023963902 -0.004317152 -0.0020950988
000130 4e c6 5e 3c c4 ba 2f bd 79 84 de 3c 45 79 83 bd
       0.013597084 -0.042902723 0.027162777 -0.06419615
000140 54 b7 b6 3c 3c 93 aa 3b e5 0d 7e 3d 8f 99 46 3b
       0.022304215 0.00520554 0.06202497 0.003030393
000150 c9 4b 77 3c 15 af 19 bd 8d af 25 3d e3 16 d9 bc
       0.015093752 -0.037520487 0.04045062 -0.026500171
000160 fe d0 46 3d 1d 7a a1 bb 81 7c 2e bd 90 9e df bc
       0.048539154 -0.004927887 -0.042599205 -0.027297288
000170 c4 5c 5f 3d 8c bf 4c bd 9e 15 f9 3c 8d 79 c0 ba
       0.054531828 -0.04998736 0.030405816 -0.0014684662
000180 66 82 06 bd 8f 97 ac bd e4 cd dc bc ba 74 13 3c
       -0.0328392 -0.08427345 -0.026953645 0.008999998
000190 07 a2 40 3b f7 05 3c bb 76 71 ff 3c be fd 0e 3c
       0.002939345 -0.0028690079 0.031182032 0.008727489
0001a0 de 4c 2a 3d 17 44 bf bc 24 35 bd 3c 45 74 47 bc
       0.041577213 -0.023347897 0.023096628 -0.012173717
0001b0 0e 74 40 bd 35 b4 02 bd 6d 03 51 3d e5 69 03 bb
       -0.04698568 -0.03191014 0.051028658 -0.0020052132
0001c0 20 44 de bc 87 0f f1 3c a4 bf fe ba e9 02 e9 bc
       -0.027132094 0.02942635 -0.0019435775 -0.02844377
0001d0 22 79 1e bd 80 cc 0b bd f8 70 ef bc 06 74 92 3d
       -0.03868974 -0.034130573 -0.029228672 0.07151036
0001e0 94 dd 93 3c 4d 1e a8 3a 33 d4 e5 bb 38 85 dc bc
       0.018049993 0.0012826413 -0.0070138215 -0.026918992
0001f0 f3 b2 dd bc ed c0 37 3d 24 1c 7d bc 5c 51 00 bc
       -0.027062869 0.044861723 -0.015448604 -0.007831898
000200 a9 a0 1a bc 2f 60 e1 3c f2 9a 63 3c 12 70 cb 3c
       -0.009437718 0.027511684 0.013891922 0.024833713
000210 80 50 83 3c 84 22 87 bb 0b 64 d0 3c 55 0c 12 bd
       0.016029596 -0.0041239876 0.02543833 -0.035656292
000220 86 c8 8f ba 31 c0 1c bc a9 a2 f0 bd 65 62 3a bd
       -0.0010969795 -0.009567306 -0.11749775 -0.045503993
000230 fa fe ba bb 15 43 0e bd a8 c2 4a bd 0d a8 49 bc
       -0.005706665 -0.034731943 -0.049502045 -0.012308133
000240 37 08 b0 bc 1f e7 b4 3c 47 9a 88 3d a0 a2 88 3c
       -0.021488292 0.022082863 0.06670051 0.016679108
000250 30 c4 3a 3d 6c d6 3e bd 11 82 df 3c f9 ce ae bd
       0.045597255 -0.046591207 0.0272837 -0.08535571
000260 93 e7 80 3d 5c 1d 41 bc e0 51 18 3d 62 97 53 3d
       0.06294169 -0.011786785 0.037187457 0.05165804
000270 cb 06 3f bc d0 fa 75 3c d5 0c 86 3c 36 2e 86 bc
       -0.011659334 0.015013412 0.01636354 -0.016379457
000280 92 2d 16 bc 45 cf 0b 3d bc 39 43 3c f9 26 22 3d
       -0.009166138 0.034133215 0.01191562 0.03958795
000290 54 5f 71 bd af de f1 bc fe ce 48 bd 4b a2 df bb
       -0.058928803 -0.02952513 -0.049025528 -0.0068247668
0002a0 f3 b1 93 bb 26 09 4c bd 46 51 b2 3c 19 75 43 3c
       -0.004507297 -0.049813412 0.02176727 0.011929774
0002b0 e3 40 36 3d f2 5a 6d 3d eb f7 6d 3d 9f cf b6 bc
       0.044495475 0.05794806 0.05809776 -0.022315798
0002c0 fc 37 1a ba f7 eb 2e 3d ac ad df 3b b2 6f 76 3c
       -0.0005882976 0.042705502 0.006826123 0.015041279
0002d0 27 52 85 bc b2 70 04 3c 42 95 4b 3d 70 26 17 bc
       -0.016274525 0.008083509 0.04970289 -0.009225473
0002e0 cb 6f f0 3c 26 d4 bf 3c 97 33 6b bc 7d 81 66 3d
       0.029350182 0.02341659 -0.014355562 0.056275833
0002f0 b1 f6 20 bc 77 e6 73 bb 7b 49 8a bd b9 11 e3 bc
       -0.009824441 -0.0037216225 -0.067522965 -0.027718412
000300 8e 90 89 3b d2 32 2b bd 09 c9 4d 3b 69 d3 97 3c
       0.0041981405 -0.041796513 0.0031400344 0.018533425
000310 bb 00 0c 3d 61 0f 25 3d c5 52 48 3c 8e 64 55 3c
       0.034180384 0.04029787 0.012226765 0.013024462
000320 b4 29 13 bd 14 75 4e bd 14 e8 b1 bc 52 15 18 bd
       -0.035928443 -0.050404623 -0.021717109 -0.037129708
000330 ab 61 65 3c 1e 3f a2 bc 41 84 28 bc cc 12 17 3d
       0.014000337 -0.019805487 -0.010285438 0.03688316
000340 2c 48 93 bd 89 3c 80 bb 35 67 71 3b 2d 09 10 bd
       -0.071915 -0.0039134664 0.0036835198 -0.035165
000350 ac cf 09 bd f5 b9 f5 3b de 63 69 3c a3 74 be bc
       -0.033645317 0.0074989744 0.014245002 -0.023248976
000360 11 29 af 3c 26 36 5c 3d 6c c8 08 bc e0 b7 3e bd
       0.021381887 0.053762577 -0.008348566 -0.046562076
000370 98 30 12 bd bb 29 51 3c 95 ba 49 bc 3d 0a 08 3d
       -0.035690874 0.012766297 -0.012312551 0.03321289
000380 cd 45 46 bd eb 93 01 bc 6f e8 cc 3c b9 92 05 3d
       -0.04840641 -0.007908802 0.025013177 0.03261063
000390 22 3c 0a 3d 58 43 ab ba 00 52 1f bd 5b dc f0 bb
       0.033748753 -0.0013066335 -0.03889656 -0.007350487
0003a0 53 28 95 bc 97 3e 26 3c 67 64 ec bc e4 a6 24 3d
       -0.018207705 0.0101467585 -0.02885647 0.04019822
0003b0 7e 37 23 bd a1 cf 3c bb 25 28 6d bd bb 5f 40 bc
       -0.039847843 -0.002881028 -0.057899613 -0.011741574
0003c0 b7 94 e8 bc eb 9f ff 3c ee 90 75 3c 66 dc 61 3a
       -0.028391225 0.031204185 0.014988167 0.0008615911
0003d0 7d 7f 18 bd de 0e 91 bc 1e 9d a6 bc 8a ae 99 bd
       -0.037230957 -0.017707285 -0.020338591 -0.07503994
0003e0 b7 60 13 bd 31 3b 17 3b e5 c2 89 bd bc 6e df bc
       -0.035980906 0.0023076052 -0.06726626 -0.027274482
0003f0 82 29 0f 3d 95 89 12 bc 12 06 26 bc 72 83 11 bc
       0.034951694 -0.008943935 -0.010133283 -0.008881437

net.1.bias f4 [5]
000000 d0 5b 6b 3e cf af 93 bd e8 5e 9e 3d d2 31 ed bd
       0.22984242 -0.07211267 0.07732946 -0.11581768
000010 5e 1c 98 be
       -0.29709142

weight f4 [5, 184]
000000 bd 19 3b bd 8c 73 0f 3d 14 ea d1 3c a6 c1 43 3d
       -0.045678843 0.035022303 0.025624312 0.0477921
000010 81 94 4e bd 3b 90 ca bc dc 0b 70 3c 49 ef ab 3a
       -0.050434593 -0.024726978 0.014651265 0.0013117577
000020 12 ea 9e bc 07 fc d9 bc ff 50 bf 3c a7 8f fb 3c
       -0.019398723 -0.026609434 0.023354052 0.030708147
000030 25 e0 9c 39 27 b8 ca 3c c9 c0 5a 3d d7 d0 ef bb
       0.0002992164 0.024746014 0.05340651 -0.007318597
000040 ac 79 35 3b e2 d4 97 bc be 02 40 3b bb 93 da 3a
       0.002769093 -0.018534128 0.002929851 0.0016676107
000050 12 bc fb bc ea a6 30 bd d7 7d 61 3d ba 57 62 3d
       -0.030729327 -0.04312793 0.05505165 0.055259444
000060 93 8e b6 bb 6f 80 0b 3d b9 bc 7c 3b 4b ef ad bc
       -0.0055711954 0.03405803 0.0038564636 -0.021232268
000070 57 ed f0 3c 7e d3 28 bd df c2 58 bd 4d 5a d1 bd
       0.029410047 -0.04121732 -0.05292022 -0.10222302
000080 34 a5 6c ba 29 22 35 bd e7 1e d3 bc 43 38 85 3d
       -0.0009027303 -0.04422203 -0.025771571 0.06504872
000090 bf dc 53 3a 9d a9 4b 3d ba 8f 0c 3c fc 60 08 bd
       0.0008081905 0.049722303 0.008579189 -0.033295617
0000a0 90 bb 5c bc 22 4b 32 bc a6 9d 3a 3d 34 72 25 bc
       -0.013472453 -0.010882171 0.0455605 -0.010098029
0000b0 a7 87 81 3d 84 1b a7 bd 99 51 a2 ba a1 34 71 bd
       0.06324702 -0.08159545 -0.0012383937 -0.05888808
0000c0 c3 5f 5b 3c 55 fb 9e bb 69 8e ac bc 8e 14 0f 3d
       0.013389531 -0.0048517385 -0.021064 0.03493171
0000d0 d8 9e a7 3c 51 35 b7 bc d9 fd 29 bd d4 20 f1 bb
       0.020461485 -0.02236429 -0.041501854 -0.0073586497
0000e0 63 b7 07 bd 54 0c 81 3d 0b f5 e9 bc 05 39 3a bd
       -0.033133876 0.063011795 -0.028559228 -0.045464534
0000f0 e8 ed cf ba d7 03 05 bd cc e0 19 bd 66 f2 5b 3d
       -0.0015863748 -0.032474365 -0.0375679 0.053697966
000100 36 33 e7 3c 53 0c 40 bd 68 9c 11 bd 7d e1 d2 bc
       0.028222661 -0.046886753 -0.03554955 -0.025742287
000110 de cf 36 3c a6 92 0f b7 46 f2 00 3d 55 2b 17 3d
       0.011157958 -8.557608e-06 0.03148105 0.03690656
000120 74 76 38 3d f2 4f c4 3c e5 76 8d bb ed 4d 09 bb
       0.04503484 0.023963902 -0.004317152 -0.0020950988
000130 4e c6 5e 3c c4 ba 2f bd 79 84 de 3c 45 79 83 bd
       0.013597084 -0.042902723 0.027162777 -0.06419615
000140 54 b7 b6 3c 3c 93 aa 3b e5 0d 7e 3d 8f 99 46 3b
       0.022304215 0.00520554 0.06202497 0.003030393
000150 c9 4b 77 3c 15 af 19 bd 8d af 25 3d e3 16 d9 bc
       0.015093752 -0.037520487 0.04045062 -0.026500171
000160 fe d0 46 3d 1d 7a a1 bb 81 7c 2e bd 90 9e df bc
       0.048539154 -0.004927887 -0.042599205 -0.027297288
000170 c4 5c 5f 3d 8c bf 4c bd 9e 15 f9 3c 8d 79 c0 ba
       0.054531828 -0.04998736 0.030405816 -0.0014684662
000180 66 82 06 bd 8f 97 ac bd e4 cd dc bc ba 74 13 3c
       -0.0328392 -0.08427345 -0.026953645 0.008999998
000190 07 a2 40 3b f7 05 3c bb 76 71 ff 3c be fd 0e 3c
       0.002939345 -0.0028690079 0.031182032 0.008727489
0001a0 de 4c 2a 3d 17 44 bf bc 24 35 bd 3c 45 74 47 bc
       0.041577213 -0.023347897 0.023096628 -0.012173717
0001b0 0e 74 40 bd 35 b4 02 bd 6d 03 51 3d e5 69 03 bb
       -0.04698568 -0.03191014 0.051028658 -0.0020052132
0001c0 20 44 de bc 87 0f f1 3c a4 bf fe ba e9 02 e9 bc
       -0.027132094 0.02942635 -0.0019435775 -0.02844377
0001d0 22 79 1e bd 80 cc 0b bd f8 70 ef bc 06 74 92 3d
       -0.03868974 -0.034130573 -0.029228672 0.07151036
0001e0 94 dd 93 3c 4d 1e a8 3a 33 d4 e5 bb 38 85 dc bc
       0.018049993 0.0012826413 -0.0070138215 -0.026918992
0001f0 f3 b2 dd bc ed c0 37 3d 24 1c 7d bc 5c 51 00 bc
       -0.027062869 0.044861723 -0.015448604 -0.007831898
000200 a9 a0 1a bc 2f 60 e1 3c f2 9a 63 3c 12 70 cb 3c
       -0.009437718 0.027511684 0.013891922 0.024833713
000210 80 50 83 3c 84 22 87 bb 0b 64 d0 3c 55 0c 12 bd
       0.016029596 -0.0041239876 0.02543833 -0.035656292
000220 86 c8 8f ba 31 c0 1c bc a9 a2 f0 bd 65 62 3a bd
       -0.0010969795 -0.009567306 -0.11749775 -0.045503993
000230 fa fe ba bb 15 43 0e bd a8 c2 4a bd 0d a8 49 bc
       -0.005706665 -0.034731943 -0.049502045 -0.012308133
000240 37 08 b0 bc 1f e7 b4 3c 47 9a 88 3d a0 a2 88 3c
       -0.021488292 0.022082863 0.06670051 0.016679108
000250 30 c4 3a 3d 6c d6 3e bd 11 82 df 3c f9 ce ae bd
       0.045597255 -0.046591207 0.0272837 -0.08535571
000260 93 e7 80 3d 5c 1d 41 bc e0 51 18 3d 62 97 53 3d
       0.06294169 -0.011786785 0.037187457 0.05165804
000270 cb 06 3f bc d0 fa 75 3c d5 0c 86 3c 36 2e 86 bc
       -0.011659334 0.015013412 0.01636354 -0.016379457
000280 92 2d 16 bc 45 cf 0b 3d bc 39 43 3c f9 26 22 3d
       -0.009166138 0.034133215 0.01191562 0.03958795
000290 54 5f 71 bd af de f1 bc fe ce 48 bd 4b a2 df bb
       -0.058928803 -0.02952513 -0.049025528 -0.0068247668
0002a0 f3 b1 93 bb 26 09 4c bd 46 51 b2 3c 19 75 43 3c
       -0.004507297 -0.049813412 0.02176727 0.011929774
0002b0 e3 40 36 3d f2 5a 6d 3d eb f7 6d 3d 9f cf b6 bc
       0.044495475 0.05794806 0.05809776 -0.022315798
0002c0 fc 37 1a ba f7 eb 2e 3d ac ad df 3b b2 6f 76 3c
       -0.0005882976 0.042705502 0.006826123 0.015041279
0002d0 27 52 85 bc b2 70 04 3c 42 95 4b 3d 70 26 17 bc
       -0.016274525 0.008083509 0.04970289 -0.009225473
0002e0 cb 6f f0 3c 26 d4 bf 3c 97 33 6b bc 7d 81 66 3d
       0.029350182 0.02341659 -0.014355562 0.056275833
0002f0 b1 f6 20 bc 77 e6 73 bb 7b 49 8a bd b9 11 e3 bc
       -0.009824441 -0.0037216225 -0.067522965 -0.027718412
000300 8e 90 89 3b d2 32 2b bd 09 c9 4d 3b 69 d3 97 3c
       0.0041981405 -0.041796513 0.0031400344 0.018533425
000310 bb 00 0c 3d 61 0f 25 3d c5 52 48 3c 8e 64 55 3c
       0.034180384 0.04029787 0.012226765 0.013024462
000320 b4 29 13 bd 14 75 4e bd 14 e8 b1 bc 52 15 18 bd
       -0.035928443 -0.050404623 -0.021717109 -0.037129708
000330 ab 61 65 3c 1e 3f a2 bc 41 84 28 bc cc 12 17 3d
       0.014000337 -0.019805487 -0.010285438 0.03688316
000340 2c 48 93 bd 89 3c 80 bb 35 67 71 3b 2d 09 10 bd
       -0.071915 -0.0039134664 0.0036835198 -0.035165
000350 ac cf 09 bd f5 b9 f5 3b de 63 69 3c a3 74 be bc
       -0.033645317 0.0074989744 0.014245002 -0.023248976
000360 11 29 af 3c 26 36 5c 3d 6c c8 08 bc e0 b7 3e bd
       0.021381887 0.053762577 -0.008348566 -0.046562076
000370 98 30 12 bd bb 29 51 3c 95 ba 49 bc 3d 0a 08 3d
       -0.035690874 0.012766297 -0.012312551 0.03321289
000380 cd 45 46 bd eb 93 01 bc 6f e8 cc 3c b9 92 05 3d
       -0.04840641 -0.007908802 0.025013177 0.03261063
000390 22 3c 0a 3d 58 43 ab ba 00 52 1f bd 5b dc f0 bb
       0.033748753 -0.0013066335 -0.03889656 -0.007350487
0003a0 53 28 95 bc 97 3e 26 3c 67 64 ec bc e4 a6 24 3d
       -0.018207705 0.0101467585 -0.02885647 0.04019822
0003b0 7e 37 23 bd a1 cf 3c bb 25 28 6d bd bb 5f 40 bc
       -0.039847843 -0.002881028 -0.057899613 -0.011741574
0003c0 b7 94 e8 bc eb 9f ff 3c ee 90 75 3c 66 dc 61 3a
       -0.028391225 0.031204185 0.014988167 0.0008615911
0003d0 7d 7f 18 bd de 0e 91 bc 1e 9d a6 bc 8a ae 99 bd
       -0.037230957 -0.017707285 -0.020338591 -0.07503994
0003e0 b7 60 13 bd 31 3b 17 3b e5 c2 89 bd bc 6e df bc
       -0.035980906 0.0023076052 -0.06726626 -0.027274482
0003f0 82 29 0f 3d 95 89 12 bc 12 06 26 bc 72 83 11 bc
       0.034951694 -0.008943935 -0.010133283 -0.008881437

bias f4 [5]
000000 d0 5b 6b 3e cf af 93 bd e8 5e 9e 3d d2 31 ed bd
       0.22984242 -0.07211267 0.07732946 -0.11581768
000010 5e 1c 98 be
       -0.29709142
