experiments/CnnTransformer/simclr/simclr_cnn_transformer_trainings2/logistic_on_simclr_IT_10pat/lightning_logs/version_0/checkpoints/epoch=38-step=4797.ckpt (torch, 7847 bytes, 6 tensors)

classifier.weight f4 [5, 184]
000000 5a 78 93 bb c7 75 fd bc c7 c6 1e bd 3b 89 c7 3c
       -0.004500431 -0.03093995 -0.038763788 0.024357429
000010 97 cc 28 bd 95 b7 af 3c 89 23 5e bd 3a 4e 78 ba
       -0.041210737 0.021449843 -0.054233108 -0.0009472106
000020 03 96 95 bb 5f 01 e2 bc f4 92 26 3d 66 f9 a4 3b
       -0.004565002 -0.027588544 0.04066749 0.0050346134
000030 59 b0 ea bc 97 d8 f5 bc fe f5 38 3d 50 04 8b bc
       -0.028648542 -0.030010505 0.04515647 -0.01696983
000040 94 a9 86 3c 33 a3 c0 3c 43 8e 10 3d f3 ee b5 3a
       0.016438283 0.02351532 0.03529192 0.0013880417
000050 18 37 af bc 46 13 9d 3c d8 46 84 bc 78 09 b8 bc
       -0.021388575 0.01917423 -0.016147062 -0.022465453
000060 c1 85 3b bc bd f1 d6 bb b3 b0 28 3c 15 e2 03 3d
       -0.011445464 -0.006559579 0.010296035 0.03219803
000070 d8 ce 49 3d 09 37 03 bd 02 79 3f 3c 22 30 76 3d
       0.049269527 -0.032034907 0.011686565 0.060104497
000080 2a a0 1f bc cc ab 19 bc 07 b7 14 bb ad 0d 85 bc
       -0.009742776 -0.0093793385 -0.00226921 -0.016241873
000090 75 71 c0 3c ef dd 26 bd db 64 0b bd f9 ba 44 bd
       0.0234916 -0.040738996 -0.03403173 -0.048029874
0000a0 6d f9 84 bc 5f 9a 4c 3d 72 a5 81 3b a4 9c 9c 3c
       -0.016232217 0.049951907 0.00395649 0.01911766
0000b0 a9 de 6a 3c 32 91 8f 3c 5a 53 29 bc d5 69 6b 3d
       0.014335313 0.01752529 -0.010334814 0.057473976
0000c0 2b 91 25 3d e2 57 18 bc 5a 46 bd 3c 59 30 cf bc
       0.040421646 -0.009298297 0.023104835 -0.025291609
0000d0 e4 b0 32 3d e7 98 46 3c 6e 41 29 3d 10 6a 24 3d
       0.043625727 0.012121416 0.041322164 0.04014021
0000e0 f3 61 a4 3c c7 c7 6e 3d 22 ac ce bc 94 2c 16 bc
       0.020066237 0.05829599 -0.025228564 -0.009165902
0000f0 e4 37 aa 3c 9a 1a 35 3d 0e 2f 8d 3c 22 cf 9d bc
       0.020778604 0.044214822 0.017234351 -0.019263808
000100 b6 d3 6b 3b e4 ef 0c bd 4d 69 92 bc 13 d9 47 3b
       0.0035984344 -0.034408465 -0.017872477 0.0030494377
000110 7c 92 c3 3c 77 f8 f8 3c 02 7c 35 3d e9 4f 44 bd
       0.02387356 0.030391915 0.044307716 -0.04792777
000120 60 07 f0 3b 83 19 92 bc d2 63 a4 bc 6b 21 80 bc
       0.007325098 -0.01783443 -0.02006713 -0.015640935
000130 0c 80 bf 3c 68 71 80 3c 05 6d 01 bd 2c 0c 89 3d
       0.023376487 0.015679076 -0.03159811 0.06691775
000140 c3 2a 57 bd d9 b3 3f bd ac 33 e2 3b 31 cc a6 3c
       -0.052531015 -0.046802375 0.0069031324 0.020361038
000150 f2 22 10 bd e0 0f 1f bc ea 50 b6 bc 46 4a 11 3d
       -0.035189576 -0.009708375 -0.02225538 0.035471223
000160 95 11 55 3d 75 b9 e9 bc 56 9a fd 3c 0b 01 28 3c
       0.05201872 -0.028530816 0.030957382 0.010254155
000170 cd fa 85 bb 7b 01 01 3d 5f 1b 92 3d b2 d1 fa 3c
       -0.0040887357 0.031495553 0.07134127 0.030617569
000180 9a 80 2d 3d 1c 52 81 3d b4 99 5f bd c5 76 a3 b9
       0.042358972 0.06314489 -0.054589942 -0.00031178273
000190 eb f1 75 bc ea 5c 20 3b 40 2d bc 3c d3 f9 a5 3c
       -0.015011291 0.0024469444 0.022970796 0.020260727
0001a0 e7 97 ff b9 de 14 15 3c 0a 36 13 3d 88 49 4c 3d
       -0.00048750566 0.009099213 0.035940208 0.049874812
0001b0 b4 28 e4 3b 6a 99 ee bb a1 f0 18 3c 83 5f 96 bd
       0.00696286 -0.007281472 0.009334714 -0.07342436
0001c0 a1 84 d6 3c 16 a5 fb bc 93 35 83 bc 71 5a ba 3b
       0.02618629 -0.030718368 -0.016016757 0.005687051
0001d0 1d 49 ea bc 21 f1 dd 3a 05 45 41 3d 66 b2 c0 3c
       -0.028599316 0.0016932824 0.047184963 0.023522567
0001e0 dc 74 33 3c 7c d1 7e bd a7 3e 5e 3d 27 f5 9e 3c
       0.010953154 -0.0622115 0.05425897 0.019404007
0001f0 43 ec 5f bd 5a c0 16 3c 9b 6c 90 bc 75 56 0d bd
       -0.054668676 0.009201134 -0.017629912 -0.03450628
000200 ef fd 9a 3c 42 d5 64 3d a3 08 90 3c 9b 61 10 3d
       0.018919913 0.05586744 0.017582243 0.035249334
000210 ad 89 d9 bc 2d 50 97 3c 7e b5 ed 3c 0d 11 81 bd
       -0.026554907 0.018470848 0.029017206 -0.0630208
000220 06 53 f8 bc ca 01 10 3d f0 16 26 bd ea 5f 49 ba
       -0.030313026 0.035157956 -0.04054922 -0.0007681834
000230 fd 26 09 ba 3b 10 ad bc 60 aa b8 3b 41 95 9f b8
       -0.0005231945 -0.021125903 0.0056355447 -7.6095115e-05
000240 eb 37 2b 3c 79 f6 a8 3c 35 36 95 3c 20 4b fd 3c
       0.010450344 0.02062534 0.018214324 0.030919611
000250 af 8f 86 b9 22 02 94 3c 74 64 aa 3c 98 50 af bc
       -0.00025665524 0.018067423 0.020799853 -0.021400735
000260 70 65 11 bc 8b 2d b4 bc 02 4a 90 bc 46 a6 05 bd
       -0.008874282 -0.021994373 -0.017613415 -0.032629274
000270 09 95 0b 3c 47 8a 15 3d 09 2e 1b bc f8 c2 af 3c
       0.0085194195 0.036508825 -0.009471425 0.021455273
000280 b9 d7 1c bd 33 22 d1 bc 82 a7 66 bc fe 5c 0d bb
       -0.038291667 -0.025529003 -0.014078023 -0.002157032
000290 0a b5 00 3d 04 89 14 bd 77 bf 07 bd 12 14 2a 3d
       0.031422652 -0.03626348 -0.03314158 0.041523047
0002a0 8f 78 15 3d 51 2c 98 bc ae 37 22 3d 02 af cf bb
       0.036491927 -0.01857582 0.03960388 -0.006338001
0002b0 e4 9d ba 3c e7 34 98 bc 7e 1d a3 3c 77 9a ce 3c
       0.022780366 -0.018579913 0.019911524 0.025220139
0002c0 c9 72 6e 3c 87 ae 4f bc a3 6a 0b bd ac 72 de bc
       0.014553734 -0.012675888 -0.034037244 -0.02715429
0002d0 75 15 a8 bc 06 af 5c bc a8 91 f4 39 cd 92 1b 3d
       -0.020518044 -0.013469463 0.0004664783 0.037981797
0002e0 2a e3 b3 bc b3 b9 8a 3b d7 b8 34 3c 90 58 a7 bb
       -0.021958906 0.004233563 0.011030397 -0.005106993
0002f0 c7 4f b5 ba 80 7c 86 ba 9e e3 67 bd 6f 22 9e 3d
       -0.001383298 -0.0010260493 -0.056613557 0.077214114
000300 39 49 df 3c d7 3c 6a 3b 48 d5 21 3c c2 ab fb bc
       0.027256595 0.003574183 0.00987751 -0.030721549
000310 e6 de 72 3b 37 f7 1d bd 9f 14 46 3d 9e f5 73 bc
       0.0037059127 -0.03856584 0.04835951 -0.014890103
000320 92 a3 e1 3c 58 a1 37 3c 0c 26 22 3c 63 09 0b 3c
       0.027543817 0.011207901 0.009896766 0.008486125
000330 f4 b2 e5 bc 30 5a 9f bb 05 22 25 3d 35 e3 25 bc
       -0.028039433 -0.004863046 0.040315647 -0.010124971
000340 c8 e9 c8 3a f9 e1 14 3d 9f f0 f5 bc ba 18 cd 3c
       0.0015328461 0.036348317 -0.030021964 0.025036205
000350 a5 9b 7e 3c 6f f7 c0 bc 79 45 12 bc 29 72 0a bd
       0.015540038 -0.023555486 -0.008927696 -0.033800278
000360 36 d3 b8 bc 90 2e fc 3c f7 87 b1 3c fb de d1 bb
       -0.02256165 0.030783921 0.021671278 -0.006404755
000370 20 94 4d bd 4d a9 25 bc d8 39 9c bc fa 30 7c 39
       -0.05019009 -0.010111165 -0.01907055 0.00024050838
000380 6c 7a 2f 3c c4 82 79 3d d0 fb 01 3c f2 86 c8 3c
       0.01071034 0.060915723 0.007933572 0.02447841
000390 85 90 1f 3d 1c 91 11 3d e8 b7 f1 3b ca c2 af ba
       0.038956184 0.035538778 0.0073766597 -0.0013409492
0003a0 31 69 80 3d b4 33 5b b9 70 0c 0e 3d d9 34 2b bd
       0.06270064 -0.00020904728 0.03467983 -0.041798446
0003b0 28 20 20 3d ed a7 55 bd de cb 5d b9 17 d0 31 bd
       0.039093167 -0.0521621 -0.00021152149 -0.04341134
0003c0 31 d8 06 bc c2 4e 71 3d b9 0c dc bc b0 d9 ae bb
       -0.008230255 0.058913 -0.026861535 -0.005336009
0003d0 4e d6 ea bc 26 b4 2d bb fa 70 50 bc 9a 08 5d 3c
       -0.028666642 -0.0026505082 -0.012722248 0.01349082
0003e0 17 dd 64 bd 10 45 d1 3c ae 2e 19 bd 98 b7 d8 bc
       -0.05587491 0.025545627 -0.037398033 -0.026454732
0003f0 ef 45 28 3d 73 27 be 3c 20 d9 0e bc 33 74 44 bd
       0.04108232 0.02321217 -0.008718759 -0.04796238

classifier.bias f4 [5]
000000 f0 53 84 3d 68 fc 03 3d be 7e 7d 3b ae 2b 6e bd
       0.06461322 0.032223135 0.003868028 -0.058147125
000010 dd 23 8e 3d
       0.06940434

net.1.weight f4 [5, 184]
000000 5a 78 93 bb c7 75 fd bc c7 c6 1e bd 3b 89 c7 3c
       -0.004500431 -0.03093995 -0.038763788 0.024357429
000010 97 cc 28 bd 95 b7 af 3c 89 23 5e bd 3a 4e 78 ba
       -0.041210737 0.021449843 -0.054233108 -0.0009472106
000020 03 96 95 bb 5f 01 e2 bc f4 92 26 3d 66 f9 a4 3b
       -0.004565002 -0.027588544 0.04066749 0.0050346134
000030 59 b0 ea bc 97 d8 f5 bc fe f5 38 3d 50 04 8b bc
       -0.028648542 -0.030010505 0.04515647 -0.01696983
000040 94 a9 86 3c 33 a3 c0 3c 43 8e 10 3d f3 ee b5 3a
       0.016438283 0.02351532 0.03529192 0.0013880417
000050 18 37 af bc 46 13 9d 3c d8 46 84 bc 78 09 b8 bc
       -0.021388575 0.01917423 -0.016147062 -0.022465453
000060 c1 85 3b bc bd f1 d6 bb b3 b0 28 3c 15 e2 03 3d
       -0.011445464 -0.006559579 0.010296035 0.03219803
000070 d8 ce 49 3d 09 37 03 bd 02 79 3f 3c 22 30 76 3d
       0.049269527 -0.032034907 0.011686565 0.060104497
000080 2a a0 1f bc cc ab 19 bc 07 b7 14 bb ad 0d 85 bc
       -0.009742776 -0.0093793385 -0.00226921 -0.016241873
000090 75 71 c0 3c ef dd 26 bd db 64 0b bd f9 ba 44 bd
       0.0234916 -0.040738996 -0.03403173 -0.048029874
0000a0 6d f9 84 bc 5f 9a 4c 3d 72 a5 81 3b a4 9c 9c 3c
       -0.016232217 0.049951907 0.00395649 0.01911766
0000b0 a9 de 6a 3c 32 91 8f 3c 5a 53 29 bc d5 69 6b 3d
       0.014335313 0.01752529 -0.010334814 0.057473976
0000c0 2b 91 25 3d e2 57 18 bc 5a 46 bd 3c 59 30 cf bc
       0.040421646 -0.009298297 0.023104835 -0.025291609
0000d0 e4 b0 32 3d e7 98 46 3c 6e 41 29 3d 10 6a 24 3d
       0.043625727 0.012121416 0.041322164 0.04014021
0000e0 f3 61 a4 3c c7 c7 6e 3d 22 ac ce bc 94 2c 16 bc
       0.020066237 0.05829599 -0.025228564 -0.009165902
0000f0 e4 37 aa 3c 9a 1a 35 3d 0e 2f 8d 3c 22 cf 9d bc
       0.020778604 0.044214822 0.017234351 -0.019263808
000100 b6 d3 6b 3b e4 ef 0c bd 4d 69 92 bc 13 d9 47 3b
       0.0035984344 -0.034408465 -0.017872477 0.0030494377
000110 7c 92 c3 3c 77 f8 f8 3c 02 7c 35 3d e9 4f 44 bd
       0.02387356 0.030391915 0.044307716 -0.04792777
000120 60 07 f0 3b 83 19 92 bc d2 63 a4 bc 6b 21 80 bc
       0.007325098 -0.01783443 -0.02006713 -0.015640935
000130 0c 80 bf 3c 68 71 80 3c 05 6d 01 bd 2c 0c 89 3d
       0.023376487 0.015679076 -0.03159811 0.06691775
000140 c3 2a 57 bd d9 b3 3f bd ac 33 e2 3b 31 cc a6 3c
       -0.052531015 -0.046802375 0.0069031324 0.020361038
000150 f2 22 10 bd e0 0f 1f bc ea 50 b6 bc 46 4a 11 3d
       -0.035189576 -0.009708375 -0.02225538 0.035471223
000160 95 11 55 3d 75 b9 e9 bc 56 9a fd 3c 0b 01 28 3c
       0.05201872 -0.028530816 0.030957382 0.010254155
000170 cd fa 85 bb 7b 01 01 3d 5f 1b 92 3d b2 d1 fa 3c
       -0.0040887357 0.031495553 0.07134127 0.030617569
000180 9a 80 2d 3d 1c 52 81 3d b4 99 5f bd c5 76 a3 b9
       0.042358972 0.06314489 -0.054589942 -0.00031178273
000190 eb f1 75 bc ea 5c 20 3b 40 2d bc 3c d3 f9 a5 3c
       -0.015011291 0.0024469444 0.022970796 0.020260727
0001a0 e7 97 ff b9 de 14 15 3c 0a 36 13 3d 88 49 4c 3d
       -0.00048750566 0.009099213 0.035940208 0.049874812
0001b0 b4 28 e4 3b 6a 99 ee bb a1 f0 18 3c 83 5f 96 bd
       0.00696286 -0.007281472 0.009334714 -0.07342436
0001c0 a1 84 d6 3c 16 a5 fb bc 93 35 83 bc 71 5a ba 3b
       0.02618629 -0.030718368 -0.016016757 0.005687051
0001d0 1d 49 ea bc 21 f1 dd 3a 05 45 41 3d 66 b2 c0 3c
       -0.028599316 0.0016932824 0.047184963 0.023522567
0001e0 dc 74 33 3c 7c d1 7e bd a7 3e 5e 3d 27 f5 9e 3c
       0.010953154 -0.0622115 0.05425897 0.019404007
0001f0 43 ec 5f bd 5a c0 16 3c 9b 6c 90 bc 75 56 0d bd
       -0.054668676 0.009201134 -0.017629912 -0.03450628
000200 ef fd 9a 3c 42 d5 64 3d a3 08 90 3c 9b 61 10 3d
       0.018919913 0.05586744 0.017582243 0.035249334
000210 ad 89 d9 bc 2d 50 97 3c 7e b5 ed 3c 0d 11 81 bd
       -0.026554907 0.018470848 0.029017206 -0.0630208
000220 06 53 f8 bc ca 01 10 3d f0 16 26 bd ea 5f 49 ba
       -0.030313026 0.035157956 -0.04054922 -0.0007681834
000230 fd 26 09 ba 3b 10 ad bc 60 aa b8 3b 41 95 9f b8
       -0.0005231945 -0.021125903 0.0056355447 -7.6095115e-05
000240 eb 37 2b 3c 79 f6 a8 3c 35 36 95 3c 20 4b fd 3c
       0.010450344 0.02062534 0.018214324 0.030919611
000250 af 8f 86 b9 22 02 94 3c 74 64 aa 3c 98 50 af bc
       -0.00025665524 0.018067423 0.020799853 -0.021400735
000260 70 65 11 bc 8b 2d b4 bc 02 4a 90 bc 46 a6 05 bd
       -0.008874282 -0.021994373 -0.017613415 -0.032629274
000270 09 95 0b 3c 47 8a 15 3d 09 2e 1b bc f8 c2 af 3c
       0.0085194195 0.036508825 -0.009471425 0.021455273
000280 b9 d7 1c bd 33 22 d1 bc 82 a7 66 bc fe 5c 0d bb
       -0.038291667 -0.025529003 -0.014078023 -0.002157032
000290 0a b5 00 3d 04 89 14 bd 77 bf 07 bd 12 14 2a 3d
       0.031422652 -0.03626348 -0.03314158 0.041523047
0002a0 8f 78 15 3d 51 2c 98 bc ae 37 22 3d 02 af cf bb
       0.036491927 -0.01857582 0.03960388 -0.006338001
0002b0 e4 9d ba 3c e7 34 98 bc 7e 1d a3 3c 77 9a ce 3c
       0.022780366 -0.018579913 0.019911524 0.025220139
0002c0 c9 72 6e 3c 87 ae 4f bc a3 6a 0b bd ac 72 de bc
       0.014553734 -0.012675888 -0.034037244 -0.02715429
0002d0 75 15 a8 bc 06 af 5c bc a8 91 f4 39 cd 92 1b 3d
       -0.020518044 -0.013469463 0.0004664783 0.037981797
0002e0 2a e3 b3 bc b3 b9 8a 3b d7 b8 34 3c 90 58 a7 bb
       -0.021958906 0.004233563 0.011030397 -0.005106993
0002f0 c7 4f b5 ba 80 7c 86 ba 9e e3 67 bd 6f 22 9e 3d
       -0.001383298 -0.0010260493 -0.056613557 0.077214114
000300 39 49 df 3c d7 3c 6a 3b 48 d5 21 3c c2 ab fb bc
       0.027256595 0.003574183 0.00987751 -0.030721549
000310 e6 de 72 3b 37 f7 1d bd 9f 14 46 3d 9e f5 73 bc
       0.0037059127 -0.03856584 0.04835951 -0.014890103
000320 92 a3 e1 3c 58 a1 37 3c 0c 26 22 3c 63 09 0b 3c
       0.027543817 0.011207901 0.009896766 0.008486125
000330 f4 b2 e5 bc 30 5a 9f bb 05 22 25 3d 35 e3 25 bc
       -0.028039433 -0.004863046 0.040315647 -0.010124971
000340 c8 e9 c8 3a f9 e1 14 3d 9f f0 f5 bc ba 18 cd 3c
       0.0015328461 0.036348317 -0.030021964 0.025036205
000350 a5 9b 7e 3c 6f f7 c0 bc 79 45 12 bc 29 72 0a bd
       0.015540038 -0.023555486 -0.008927696 -0.033800278
000360 36 d3 b8 bc 90 2e fc 3c f7 87 b1 3c fb de d1 bb
       -0.02256165 0.030783921 0.021671278 -0.006404755
000370 20 94 4d bd 4d a9 25 bc d8 39 9c bc fa 30 7c 39
       -0.05019009 -0.010111165 -0.01907055 0.00024050838
000380 6c 7a 2f 3c c4 82 79 3d d0 fb 01 3c f2 86 c8 3c
       0.01071034 0.060915723 0.007933572 0.02447841
000390 85 90 1f 3d 1c 91 11 3d e8 b7 f1 3b ca c2 af ba
       0.038956184 0.035538778 0.0073766597 -0.0013409492
0003a0 31 69 80 3d b4 33 5b b9 70 0c 0e 3d d9 34 2b bd
       0.06270064 -0.00020904728 0.03467983 -0.041798446
0003b0 28 20 20 3d ed a7 55 bd de cb 5d b9 17 d0 31 bd
       0.039093167 -0.0521621 -0.00021152149 -0.04341134
0003c0 31 d8 06 bc c2 4e 71 3d b9 0c dc bc b0 d9 ae bb
       -0.008230255 0.058913 -0.026861535 -0.005336009
0003d0 4e d6 ea bc 26 b4 2d bb fa 70 50 bc 9a 08 5d 3c
       -0.028666642 -0.0026505082 -0.012722248 0.01349082
0003e0 17 dd 64 bd 10 45 d1 3c ae 2e 19 bd 98 b7 d8 bc
       -0.05587491 0.025545627 -0.037398033 -0.026454732
0003f0 ef 45 28 3d 73 27 be 3c 20 d9 0e bc 33 74 44 bd
       0.04108232 0.02321217 -0.008718759 -0.04796238

net.1.bias f4 [5]
000000 f0 53 84 3d 68 fc 03 3d be 7e 7d 3b ae 2b 6e bd
       0.06461322 0.032223135 0.003868028 -0.058147125
000010 dd 23 8e 3d
       0.06940434

weight f4 [5, 184]
000000 5a 78 93 bb c7 75 fd bc c7 c6 1e bd 3b 89 c7 3c
       -0.004500431 -0.03093995 -0.038763788 0.024357429
000010 97 cc 28 bd 95 b7 af 3c 89 23 5e bd 3a 4e 78 ba
       -0.041210737 0.021449843 -0.054233108 -0.0009472106
000020 03 96 95 bb 5f 01 e2 bc f4 92 26 3d 66 f9 a4 3b
       -0.004565002 -0.027588544 0.04066749 0.0050346134
000030 59 b0 ea bc 97 d8 f5 bc fe f5 38 3d 50 04 8b bc
       -0.028648542 -0.030010505 0.04515647 -0.01696983
000040 94 a9 86 3c 33 a3 c0 3c 43 8e 10 3d f3 ee b5 3a
       0.016438283 0.02351532 0.03529192 0.0013880417
000050 18 37 af bc 46 13 9d 3c d8 46 84 bc 78 09 b8 bc
       -0.021388575 0.01917423 -0.016147062 -0.022465453
000060 c1 85 3b bc bd f1 d6 bb b3 b0 28 3c 15 e2 03 3d
       -0.011445464 -0.006559579 0.010296035 0.03219803
000070 d8 ce 49 3d 09 37 03 bd 02 79 3f 3c 22 30 76 3d
       0.049269527 -0.032034907 0.011686565 0.060104497
000080 2a a0 1f bc cc ab 19 bc 07 b7 14 bb ad 0d 85 bc
       -0.009742776 -0.0093793385 -0.00226921 -0.016241873
000090 75 71 c0 3c ef dd 26 bd db 64 0b bd f9 ba 44 bd
       0.0234916 -0.040738996 -0.03403173 -0.048029874
0000a0 6d f9 84 bc 5f 9a 4c 3d 72 a5 81 3b a4 9c 9c 3c
       -0.016232217 0.049951907 0.00395649 0.01911766
0000b0 a9 de 6a 3c 32 91 8f 3c 5a 53 29 bc d5 69 6b 3d
       0.014335313 0.01752529 -0.010334814 0.057473976
0000c0 2b 91 25 3d e2 57 18 bc 5a 46 bd 3c 59 30 cf bc
       0.040421646 -0.009298297 0.023104835 -0.025291609
0000d0 e4 b0 32 3d e7 98 46 3c 6e 41 29 3d 10 6a 24 3d
       0.043625727 0.012121416 0.041322164 0.04014021
0000e0 f3 61 a4 3c c7 c7 6e 3d 22 ac ce bc 94 2c 16 bc
       0.020066237 0.05829599 -0.025228564 -0.009165902
0000f0 e4 37 aa 3c 9a 1a 35 3d 0e 2f 8d 3c 22 cf 9d bc
       0.020778604 0.044214822 0.017234351 -0.019263808
000100 b6 d3 6b 3b e4 ef 0c bd 4d 69 92 bc 13 d9 47 3b
       0.0035984344 -0.034408465 -0.017872477 0.0030494377
000110 7c 92 c3 3c 77 f8 f8 3c 02 7c 35 3d e9 4f 44 bd
       0.02387356 0.030391915 0.044307716 -0.04792777
000120 60 07 f0 3b 83 19 92 bc d2 63 a4 bc 6b 21 80 bc
       0.007325098 -0.01783443 -0.02006713 -0.015640935
000130 0c 80 bf 3c 68 71 80 3c 05 6d 01 bd 2c 0c 89 3d
       0.023376487 0.015679076 -0.03159811 0.06691775
000140 c3 2a 57 bd d9 b3 3f bd ac 33 e2 3b 31 cc a6 3c
       -0.052531015 -0.046802375 0.0069031324 0.020361038
000150 f2 22 10 bd e0 0f 1f bc ea 50 b6 bc 46 4a 11 3d
       -0.035189576 -0.009708375 -0.02225538 0.035471223
000160 95 11 55 3d 75 b9 e9 bc 56 9a fd 3c 0b 01 28 3c
       0.05201872 -0.028530816 0.030957382 0.010254155
000170 cd fa 85 bb 7b 01 01 3d 5f 1b 92 3d b2 d1 fa 3c
       -0.0040887357 0.031495553 0.07134127 0.030617569
000180 9a 80 2d 3d 1c 52 81 3d b4 99 5f bd c5 76 a3 b9
       0.042358972 0.06314489 -0.054589942 -0.00031178273
000190 eb f1 75 bc ea 5c 20 3b 40 2d bc 3c d3 f9 a5 3c
       -0.015011291 0.0024469444 0.022970796 0.020260727
0001a0 e7 97 ff b9 de 14 15 3c 0a 36 13 3d 88 49 4c 3d
       -0.00048750566 0.009099213 0.035940208 0.049874812
0001b0 b4 28 e4 3b 6a 99 ee bb a1 f0 18 3c 83 5f 96 bd
       0.00696286 -0.007281472 0.009334714 -0.07342436
0001c0 a1 84 d6 3c 16 a5 fb bc 93 35 83 bc 71 5a ba 3b
       0.02618629 -0.030718368 -0.016016757 0.005687051
0001d0 1d 49 ea bc 21 f1 dd 3a 05 45 41 3d 66 b2 c0 3c
       -0.028599316 0.0016932824 0.047184963 0.023522567
0001e0 dc 74 33 3c 7c d1 7e bd a7 3e 5e 3d 27 f5 9e 3c
       0.010953154 -0.0622115 0.05425897 0.019404007
0001f0 43 ec 5f bd 5a c0 16 3c 9b 6c 90 bc 75 56 0d bd
       -0.054668676 0.009201134 -0.017629912 -0.03450628
000200 ef fd 9a 3c 42 d5 64 3d a3 08 90 3c 9b 61 10 3d
       0.018919913 0.05586744 0.017582243 0.035249334
000210 ad 89 d9 bc 2d 50 97 3c 7e b5 ed 3c 0d 11 81 bd
       -0.026554907 0.018470848 0.029017206 -0.0630208
000220 06 53 f8 bc ca 01 10 3d f0 16 26 bd ea 5f 49 ba
       -0.030313026 0.035157956 -0.04054922 -0.0007681834
000230 fd 26 09 ba 3b 10 ad bc 60 aa b8 3b 41 95 9f b8
       -0.0005231945 -0.021125903 0.0056355447 -7.6095115e-05
000240 eb 37 2b 3c 79 f6 a8 3c 35 36 95 3c 20 4b fd 3c
       0.010450344 0.02062534 0.018214324 0.030919611
000250 af 8f 86 b9 22 02 94 3c 74 64 aa 3c 98 50 af bc
       -0.00025665524 0.018067423 0.020799853 -0.021400735
000260 70 65 11 bc 8b 2d b4 bc 02 4a 90 bc 46 a6 05 bd
       -0.008874282 -0.021994373 -0.017613415 -0.032629274
000270 09 95 0b 3c 47 8a 15 3d 09 2e 1b bc f8 c2 af 3c
       0.0085194195 0.036508825 -0.009471425 0.021455273
000280 b9 d7 1c bd 33 22 d1 bc 82 a7 66 bc fe 5c 0d bb
       -0.038291667 -0.025529003 -0.014078023 -0.002157032
000290 0a b5 00 3d 04 89 14 bd 77 bf 07 bd 12 14 2a 3d
       0.031422652 -0.03626348 -0.03314158 0.041523047
0002a0 8f 78 15 3d 51 2c 98 bc ae 37 22 3d 02 af cf bb
       0.036491927 -0.01857582 0.03960388 -0.006338001
0002b0 e4 9d ba 3c e7 34 98 bc 7e 1d a3 3c 77 9a ce 3c
       0.022780366 -0.018579913 0.019911524 0.025220139
0002c0 c9 72 6e 3c 87 ae 4f bc a3 6a 0b bd ac 72 de bc
       0.014553734 -0.012675888 -0.034037244 -0.02715429
0002d0 75 15 a8 bc 06 af 5c bc a8 91 f4 39 cd 92 1b 3d
       -0.020518044 -0.013469463 0.0004664783 0.037981797
0002e0 2a e3 b3 bc b3 b9 8a 3b d7 b8 34 3c 90 58 a7 bb
       -0.021958906 0.004233563 0.011030397 -0.005106993
0002f0 c7 4f b5 ba 80 7c 86 ba 9e e3 67 bd 6f 22 9e 3d
       -0.001383298 -0.0010260493 -0.056613557 0.077214114
000300 39 49 df 3c d7 3c 6a 3b 48 d5 21 3c c2 ab fb bc
       0.027256595 0.003574183 0.00987751 -0.030721549
000310 e6 de 72 3b 37 f7 1d bd 9f 14 46 3d 9e f5 73 bc
       0.0037059127 -0.03856584 0.04835951 -0.014890103
000320 92 a3 e1 3c 58 a1 37 3c 0c 26 22 3c 63 09 0b 3c
       0.027543817 0.011207901 0.009896766 0.008486125
000330 f4 b2 e5 bc 30 5a 9f bb 05 22 25 3d 35 e3 25 bc
       -0.028039433 -0.004863046 0.040315647 -0.010124971
000340 c8 e9 c8 3a f9 e1 14 3d 9f f0 f5 bc ba 18 cd 3c
       0.0015328461 0.036348317 -0.030021964 0.025036205
000350 a5 9b 7e 3c 6f f7 c0 bc 79 45 12 bc 29 72 0a bd
       0.015540038 -0.023555486 -0.008927696 -0.033800278
000360 36 d3 b8 bc 90 2e fc 3c f7 87 b1 3c fb de d1 bb
       -0.02256165 0.030783921 0.021671278 -0.006404755
000370 20 94 4d bd 4d a9 25 bc d8 39 9c bc fa 30 7c 39
       -0.05019009 -0.010111165 -0.01907055 0.00024050838
000380 6c 7a 2f 3c c4 82 79 3d d0 fb 01 3c f2 86 c8 3c
       0.01071034 0.060915723 0.007933572 0.02447841
000390 85 90 1f 3d 1c 91 11 3d e8 b7 f1 3b ca c2 af ba
       0.038956184 0.035538778 0.0073766597 -0.0013409492
0003a0 31 69 80 3d b4 33 5b b9 70 0c 0e 3d d9 34 2b bd
       0.06270064 -0.00020904728 0.03467983 -0.041798446
0003b0 28 20 20 3d ed a7 55 bd de cb 5d b9 17 d0 31 bd
       0.039093167 -0.0521621 -0.00021152149 -0.04341134
0003c0 31 d8 06 bc c2 4e 71 3d b9 0c dc bc b0 d9 ae bb
       -0.008230255 0.058913 -0.026861535 -0.005336009
0003d0 4e d6 ea bc 26 b4 2d bb fa 70 50 bc 9a 08 5d 3c
       -0.028666642 -0.0026505082 -0.012722248 0.01349082
0003e0 17 dd 64 bd 10 45 d1 3c ae 2e 19 bd 98 b7 d8 bc
       -0.05587491 0.025545627 -0.037398033 -0.026454732
0003f0 ef 45 28 3d 73 27 be 3c 20 d9 0e bc 33 74 44 bd
       0.04108232 0.02321217 -0.008718759 -0.04796238

bias f4 [5]
000000 f0 53 84 3d 68 fc 03 3d be 7e 7d 3b ae 2b 6e bd
       0.06461322 0.032223135 0.003868028 -0.058147125
000010 dd 23 8e 3d
       0.06940434
