experiments/CnnTransformer/simclr/simclr_cnn_transformer_trainings2/logistic_on_simclr_IT_10pat/lightning_logs/version_0/checkpoints/last.ckpt (torch, 7847 bytes, 6 tensors)

classifier.weight f4 [5, 184]
0	0xbbaaf702	-0.005217434
1	0xbcfadb9a	-0.030622292
2	0xbd201c34	-0.039089397
3	0x3cbfaf8c	0.023399137
4	0xbd2618e9	-0.0405511
5	0x3cac937c	0.02106642
6	0xbd5c35db	-0.053762298
7	0xba17f4e5	-0.0005796685
8	0xbb6efa7b	-0.0036465216
9	0xbce2d33e	-0.027688619
10	0x3d259d2b	0.04043309
11	0x3baeac0a	0.0053305672
12	0xbcec9c6b	-0.02888318
13	0xbcf65ce2	-0.030073587
14	0x3d39832f	0.045291122
15	0xbc878c04	-0.016546257
16	0x3c8abfd1	0.016937168
17	0x3cc1273e	0.023578282
18	0x3d0f6ceb	0.03501598
19	0x3a77f06c	0.0009458128
20	0xbcad5b0b	-0.021161577
21	0x3ca1d5e2	0.019755308
22	0xbc820663	-0.015872186
23	0xbcb8615b	-0.02250736
24	0xbc34e8f3	-0.011041868
25	0xbbd46c6d	-0.006482652
26	0x3c2b07f0	0.010438904
27	0x3d028992	0.03186948
28	0x3d48aee9	0.048994932
29	0xbd042142	-0.03225828
30	0x3c44f06d	0.012020213
31	0x3d75e11d	0.060029138
32	0xbc18dacb	-0.009329508
33	0xbc104235	-0.0088048475
34	0xbb103630	-0.0022004955
35	0xbc821612	-0.015879665
36	0x3cbd2aa9	0.023091631
37	0xbd2766cd	-0.040869523
38	0xbd0a056b	-0.033696573
39	0xbd451d19	-0.048123453
40	0xbc7df7da	-0.015500987
41	0x3d4c526c	0.04988329
42	0x3b874422	0.004127995
43	0x3c97c8d5	0.018528381
44	0x3c66b9bb	0.0140823675
45	0x3c8d5504	0.017252453
46	0xbc2dc8d6	-0.010606965
47	0x3d697f88	0.05700639
48	0x3d25a7b6	0.040443145
49	0xbc177e51	-0.009246425
50	0x3cb7a074	0.022415377
51	0xbccdd79f	-0.02512723
52	0x3d327f91	0.043578688
53	0x3c41c05f	0.01182565
54	0x3d2943d6	0.04132446
55	0x3d23a777	0.03995463
56	0x3ca05e20	0.019576132
57	0x3d6d860f	0.057989176
58	0xbcce14df	-0.025156436
59	0xbc1a3fb0	-0.009414598
60	0x3cae65b5	0.021288732
61	0x3d337b7e	0.043818943
62	0x3c8b72c7	0.017022504
63	0xbca03895	-0.01955823
64	0x3b6ab8dc	0.0035815751
65	0xbd0a240b	-0.03372578
66	0xbc94323f	-0.018090365
67	0x3b580039	0.0032959117
68	0x3cc0e8df	0.023548542
69	0x3cfe2571	0.031023713
70	0x3d301cbe	0.04299616
71	0xbd422372	-0.047397085
72	0x3bed4ef2	0.007242077
73	0xbc91e8b2	-0.017811153
74	0xbc9f94d1	-0.01948014
75	0xbc7db5c4	-0.015485231
76	0x3cbde949	0.023182528
77	0x3c8077b2	0.015682075
78	0xbcfb1a90	-0.030652314
79	0x3d87b1d0	0.06625712
80	0xbd558281	-0.05212641
81	0xbd3e8b42	-0.046519525
82	0x3be587e1	0.0070047234
83	0x3ca4bcec	0.020109616
84	0xbd0edf84	-0.03488113
85	0xbc1ec05a	-0.009689415
86	0xbcaf52be	-0.02140176
87	0x3d123e73	0.035704087
88	0x3d527cb1	0.051388446
89	0xbce8657f	-0.02836871
90	0x3cfceebd	0.030875558
91	0x3c2e8dd7	0.010653934
92	0xbb72b794	-0.003703569
93	0x3cfe2665	0.031024167
94	0x3d9241c6	0.071414515
95	0x3cf2b91c	0.029629283
96	0x3d2c4d7b	0.04206608
97	0x3d808229	0.06274826
98	0xbd5cdf9e	-0.053924195
99	0x39258e7a	0.00015788703
100	0xbc6da6cb	-0.014505099
101	0x3b19a291	0.0023442844
102	0x3cbf8a7c	0.023381464
103	0x3ca86d27	0.02055986
104	0xba42763a	-0.000741813
105	0x3c101b46	0.008795565
106	0x3d11f419	0.03563318
107	0x3d4c6b38	0.04990694
108	0x3bd6618d	0.0065423907
109	0xbbeb7c3e	-0.0071864417
110	0x3c1d5793	0.009603399
111	0xbd94feac	-0.07275137
112	0x3cd263a0	0.02568227
113	0xbcf9c8e5	-0.030491302
114	0xbc83d6dc	-0.016093664
115	0x3bbaec95	0.0057044723
116	0xbce93114	-0.028465785
117	0x3ada1a0b	0.0016639841
118	0x3d40a977	0.047036614
119	0x3cbed808	0.023296371
120	0x3c303a38	0.010756068
121	0xbd7e041f	-0.06201565
122	0x3d5e0e99	0.05421314
123	0x3ca30ac2	0.01990259
124	0xbd5ff2f0	-0.054675043
125	0x3c12c8c7	0.008959002
126	0xbc8ece6f	-0.01743242
127	0xbd0ce465	-0.0343975
128	0x3c98e7c2	0.018665198
129	0x3d63aeb1	0.05558652
130	0x3c8bcd1b	0.017065575
131	0x3d113221	0.035448197
132	0xbcdda096	-0.027054112
133	0x3c97c225	0.018525193
134	0x3ce9e072	0.028549407
135	0xbd81078d	-0.06300268
136	0xbcf84377	-0.030305607
137	0x3d0fa105	0.03506567
138	0xbd26b4be	-0.040699713
139	0xbaa8e52b	-0.001288568
140	0xb9e60314	-0.00043871312
141	0xbca827ab	-0.020526728
142	0x3bd143e9	0.0063862693
143	0x39beb367	0.0003637329
144	0x3c2b9198	0.010471724
145	0x3cacd367	0.021096898
146	0x3c97e31e	0.018540915
147	0x3cfbb8d1	0.030727776
148	0x399503f4	0.0002842244
149	0x3c92fc02	0.017942432
150	0x3ca072c4	0.019585975
151	0xbcaf291e	-0.02138191
152	0xbc13b5ff	-0.009015559
153	0xbcb1ae3f	-0.021689532
154	0xbc91091c	-0.017704539
155	0xbd053525	-0.032521386
156	0x3bfd34bd	0.007727234
157	0x3d146aa1	0.0362345
158	0xbc1eeee4	-0.009700511
159	0x3ca9bbdf	0.020719467
160	0xbd1a6001	-0.037689213
161	0xbcccfe10	-0.02502349
162	0xbc6fef81	-0.0146445045
163	0xbae2ef23	-0.00173137
164	0x3cfe4b43	0.031041747
165	0xbd13c29a	-0.03607426
166	0xbd06e3e6	-0.032932185
167	0x3d28f82c	0.0412523
168	0x3d1271f2	0.035753198
169	0xbc99a60a	-0.018755931
170	0x3d23d69d	0.039999593
171	0xbbd09280	-0.0063651204
172	0x3cb65746	0.022258412
173	0xbc94bd56	-0.018156689
174	0x3ca3a596	0.019976418
175	0x3cc82ce8	0.024435475
176	0x3c6761bf	0.014122426
177	0xbc4e1a35	-0.01257949
178	0xbd0c85f1	-0.034307424
179	0xbcdceb18	-0.02696757
180	0xbca67717	-0.020320458
181	0xbc53bc53	-0.012923318
182	0x39e10e93	0.00042926203
183	0x3d1a3965	0.037652392
184	0xbcb645ef	-0.022250144
185	0x3b9a7ea8	0.0047148056
186	0x3c3a16ad	0.011357945
187	0xbb9c94af	-0.0047784667
188	0xbaf06154	-0.0018339553
189	0xb86d5661	-5.658565e-05
190	0xbd67e106	-0.056611083
191	0x3d9d3553	0.076761864
192	0x3ce0aceb	0.027426204
193	0x3b7bc811	0.003841881
194	0x3c1e5684	0.009664182
195	0xbcfe765e	-0.031062301
196	0x3b7848c1	0.0037885162
197	0xbd202deb	-0.03910629
198	0x3d47137e	0.048602574
199	0xbc702af7	-0.014658681
200	0x3cdffde8	0.027342752
201	0x3c397508	0.011319406
202	0x3c1d4e34	0.009601165
203	0x3c0974f3	0.008389699
204	0xbce9d650	-0.028544575
205	0xbba5cfb5	-0.005060161
206	0x3d240da2	0.040052064
207	0xbc2c0e26	-0.01050142
208	0x3a6e4103	0.0009088667
209	0x3d1644bb	0.03668664
210	0xbcf4add4	-0.029868044
211	0x3cca48eb	0.024692973
212	0x3c7c276f	0.015390261
213	0xbcc3e3a6	-0.023912262
214	0xbc0f2525	-0.008736883
215	0xbd0872c9	-0.033312593
216	0xbcb804c3	-0.022463208
217	0x3cf75ac8	0.030194655
218	0x3cabb68d	0.02096107
219	0xbbe15ecb	-0.0068777553
220	0xbd4bfb16	-0.0498
221	0xbc20e4c1	-0.009820164
222	0xbc96cea8	-0.018409088
223	0x3a3ad9ef	0.00071278116
224	0x3c244da0	0.010028273
225	0x3d75aa1e	0.05997669
226	0x3c040893	0.008058685
227	0x3cca7ef7	0.024718745
228	0x3d1c964c	0.03822927
229	0x3d0fc90f	0.035103854
230	0x3bf0b25e	0.007345482
231	0xba9bb00e	-0.001187803
232	0x3d80f84c	0.06297359
233	0xb8b1286e	-8.447548e-05
234	0x3d103a56	0.035211883
235	0xbd2915ff	-0.041280743
236	0x3d1f7453	0.038929295
237	0xbd53c158	-0.05169806
238	0xb9e78f3b	-0.00044166468
239	0xbd2e33d7	-0.042529907
240	0xbc048a84	-0.008089665
241	0x3d6f73ae	0.05845993
242	0xbcdece98	-0.027198121
243	0xbb985117	-0.0046483385
244	0xbce711d2	-0.02820674
245	0xbb06c039	-0.002056135
246	0xbc512077	-0.012764088
247	0x3c62593e	0.013815222
248	0xbd657bbd	-0.05602621
249	0x3ccc1d26	0.024916243
250	0xbd1818c3	-0.03713299
251	0xbcdafcd7	-0.026731892
252	0x3d283055	0.041061718
253	0x3cbfeb0a	0.023427505
254	0xbc153347	-0.009106464
255	0xbd447c02	-0.047969826

classifier.bias f4 [5]
0	0x3d83c615	0.064342655
1	0x3d04c693	0.032415938
2	0x3b7d9e28	0.0038699005
3	0xbd6f46d1	-0.058417145
4	0x3d8ee592	0.06977381

net.1.weight f4 [5, 184]
0	0xbbaaf702	-0.005217434
1	0xbcfadb9a	-0.030622292
2	0xbd201c34	-0.039089397
3	0x3cbfaf8c	0.023399137
4	0xbd2618e9	-0.0405511
5	0x3cac937c	0.02106642
6	0xbd5c35db	-0.053762298
7	0xba17f4e5	-0.0005796685
8	0xbb6efa7b	-0.0036465216
9	0xbce2d33e	-0.027688619
10	0x3d259d2b	0.04043309
11	0x3baeac0a	0.0053305672
12	0xbcec9c6b	-0.02888318
13	0xbcf65ce2	-0.030073587
14	0x3d39832f	0.045291122
15	0xbc878c04	-0.016546257
16	0x3c8abfd1	0.016937168
17	0x3cc1273e	0.023578282
18	0x3d0f6ceb	0.03501598
19	0x3a77f06c	0.0009458128
20	0xbcad5b0b	-0.021161577
21	0x3ca1d5e2	0.019755308
22	0xbc820663	-0.015872186
23	0xbcb8615b	-0.02250736
24	0xbc34e8f3	-0.011041868
25	0xbbd46c6d	-0.006482652
26	0x3c2b07f0	0.010438904
27	0x3d028992	0.03186948
28	0x3d48aee9	0.048994932
29	0xbd042142	-0.03225828
30	0x3c44f06d	0.012020213
31	0x3d75e11d	0.060029138
32	0xbc18dacb	-0.009329508
33	0xbc104235	-0.0088048475
34	0xbb103630	-0.0022004955
35	0xbc821612	-0.015879665
36	0x3cbd2aa9	0.023091631
37	0xbd2766cd	-0.040869523
38	0xbd0a056b	-0.033696573
39	0xbd451d19	-0.048123453
40	0xbc7df7da	-0.015500987
41	0x3d4c526c	0.04988329
42	0x3b874422	0.004127995
43	0x3c97c8d5	0.018528381
44	0x3c66b9bb	0.0140823675
45	0x3c8d5504	0.017252453
46	0xbc2dc8d6	-0.010606965
47	0x3d697f88	0.05700639
48	0x3d25a7b6	0.040443145
49	0xbc177e51	-0.009246425
50	0x3cb7a074	0.022415377
51	0xbccdd79f	-0.02512723
52	0x3d327f91	0.043578688
53	0x3c41c05f	0.01182565
54	0x3d2943d6	0.04132446
55	0x3d23a777	0.03995463
56	0x3ca05e20	0.019576132
57	0x3d6d860f	0.057989176
58	0xbcce14df	-0.025156436
59	0xbc1a3fb0	-0.009414598
60	0x3cae65b5	0.021288732
61	0x3d337b7e	0.043818943
62	0x3c8b72c7	0.017022504
63	0xbca03895	-0.01955823
64	0x3b6ab8dc	0.0035815751
65	0xbd0a240b	-0.03372578
66	0xbc94323f	-0.018090365
67	0x3b580039	0.0032959117
68	0x3cc0e8df	0.023548542
69	0x3cfe2571	0.031023713
70	0x3d301cbe	0.04299616
71	0xbd422372	-0.047397085
72	0x3bed4ef2	0.007242077
73	0xbc91e8b2	-0.017811153
74	0xbc9f94d1	-0.01948014
75	0xbc7db5c4	-0.015485231
76	0x3cbde949	0.023182528
77	0x3c8077b2	0.015682075
78	0xbcfb1a90	-0.030652314
79	0x3d87b1d0	0.06625712
80	0xbd558281	-0.05212641
81	0xbd3e8b42	-0.046519525
82	0x3be587e1	0.0070047234
83	0x3ca4bcec	0.020109616
84	0xbd0edf84	-0.03488113
85	0xbc1ec05a	-0.009689415
86	0xbcaf52be	-0.02140176
87	0x3d123e73	0.035704087
88	0x3d527cb1	0.051388446
89	0xbce8657f	-0.02836871
90	0x3cfceebd	0.030875558
91	0x3c2e8dd7	0.010653934
92	0xbb72b794	-0.003703569
93	0x3cfe2665	0.031024167
94	0x3d9241c6	0.071414515
95	0x3cf2b91c	0.029629283
96	0x3d2c4d7b	0.04206608
97	0x3d808229	0.06274826
98	0xbd5cdf9e	-0.053924195
99	0x39258e7a	0.00015788703
100	0xbc6da6cb	-0.014505099
101	0x3b19a291	0.0023442844
102	0x3cbf8a7c	0.023381464
103	0x3ca86d27	0.02055986
104	0xba42763a	-0.000741813
105	0x3c101b46	0.008795565
106	0x3d11f419	0.03563318
107	0x3d4c6b38	0.04990694
108	0x3bd6618d	0.0065423907
109	0xbbeb7c3e	-0.0071864417
110	0x3c1d5793	0.009603399
111	0xbd94feac	-0.07275137
112	0x3cd263a0	0.02568227
113	0xbcf9c8e5	-0.030491302
114	0xbc83d6dc	-0.016093664
115	0x3bbaec95	0.0057044723
116	0xbce93114	-0.028465785
117	0x3ada1a0b	0.0016639841
118	0x3d40a977	0.047036614
119	0x3cbed808	0.023296371
120	0x3c303a38	0.010756068
121	0xbd7e041f	-0.06201565
122	0x3d5e0e99	0.05421314
123	0x3ca30ac2	0.01990259
124	0xbd5ff2f0	-0.054675043
125	0x3c12c8c7	0.008959002
126	0xbc8ece6f	-0.01743242
127	0xbd0ce465	-0.0343975
128	0x3c98e7c2	0.018665198
129	0x3d63aeb1	0.05558652
130	0x3c8bcd1b	0.017065575
131	0x3d113221	0.035448197
132	0xbcdda096	-0.027054112
133	0x3c97c225	0.018525193
134	0x3ce9e072	0.028549407
135	0xbd81078d	-0.06300268
136	0xbcf84377	-0.030305607
137	0x3d0fa105	0.03506567
138	0xbd26b4be	-0.040699713
139	0xbaa8e52b	-0.001288568
140	0xb9e60314	-0.00043871312
141	0xbca827ab	-0.020526728
142	0x3bd143e9	0.0063862693
143	0x39beb367	0.0003637329
144	0x3c2b9198	0.010471724
145	0x3cacd367	0.021096898
146	0x3c97e31e	0.018540915
147	0x3cfbb8d1	0.030727776
148	0x399503f4	0.0002842244
149	0x3c92fc02	0.017942432
150	0x3ca072c4	0.019585975
151	0xbcaf291e	-0.02138191
152	0xbc13b5ff	-0.009015559
153	0xbcb1ae3f	-0.021689532
154	0xbc91091c	-0.017704539
155	0xbd053525	-0.032521386
156	0x3bfd34bd	0.007727234
157	0x3d146aa1	0.0362345
158	0xbc1eeee4	-0.009700511
159	0x3ca9bbdf	0.020719467
160	0xbd1a6001	-0.037689213
161	0xbcccfe10	-0.02502349
162	0xbc6fef81	-0.0146445045
163	0xbae2ef23	-0.00173137
164	0x3cfe4b43	0.031041747
165	0xbd13c29a	-0.03607426
166	0xbd06e3e6	-0.032932185
167	0x3d28f82c	0.0412523
168	0x3d1271f2	0.035753198
169	0xbc99a60a	-0.018755931
170	0x3d23d69d	0.039999593
171	0xbbd09280	-0.0063651204
172	0x3cb65746	0.022258412
173	0xbc94bd56	-0.018156689
174	0x3ca3a596	0.019976418
175	0x3cc82ce8	0.024435475
176	0x3c6761bf	0.014122426
177	0xbc4e1a35	-0.01257949
178	0xbd0c85f1	-0.034307424
179	0xbcdceb18	-0.02696757
180	0xbca67717	-0.020320458
181	0xbc53bc53	-0.012923318
182	0x39e10e93	0.00042926203
183	0x3d1a3965	0.037652392
184	0xbcb645ef	-0.022250144
185	0x3b9a7ea8	0.0047148056
186	0x3c3a16ad	0.011357945
187	0xbb9c94af	-0.0047784667
188	0xbaf06154	-0.0018339553
189	0xb86d5661	-5.658565e-05
190	0xbd67e106	-0.056611083
191	0x3d9d3553	0.076761864
192	0x3ce0aceb	0.027426204
193	0x3b7bc811	0.003841881
194	0x3c1e5684	0.009664182
195	0xbcfe765e	-0.031062301
196	0x3b7848c1	0.0037885162
197	0xbd202deb	-0.03910629
198	0x3d47137e	0.048602574
199	0xbc702af7	-0.014658681
200	0x3cdffde8	0.027342752
201	0x3c397508	0.011319406
202	0x3c1d4e34	0.009601165
203	0x3c0974f3	0.008389699
204	0xbce9d650	-0.028544575
205	0xbba5cfb5	-0.005060161
206	0x3d240da2	0.040052064
207	0xbc2c0e26	-0.01050142
208	0x3a6e4103	0.0009088667
209	0x3d1644bb	0.03668664
210	0xbcf4add4	-0.029868044
211	0x3cca48eb	0.024692973
212	0x3c7c276f	0.015390261
213	0xbcc3e3a6	-0.023912262
214	0xbc0f2525	-0.008736883
215	0xbd0872c9	-0.033312593
216	0xbcb804c3	-0.022463208
217	0x3cf75ac8	0.030194655
218	0x3cabb68d	0.02096107
219	0xbbe15ecb	-0.0068777553
220	0xbd4bfb16	-0.0498
221	0xbc20e4c1	-0.009820164
222	0xbc96cea8	-0.018409088
223	0x3a3ad9ef	0.00071278116
224	0x3c244da0	0.010028273
225	0x3d75aa1e	0.05997669
226	0x3c040893	0.008058685
227	0x3cca7ef7	0.024718745
228	0x3d1c964c	0.03822927
229	0x3d0fc90f	0.035103854
230	0x3bf0b25e	0.007345482
231	0xba9bb00e	-0.001187803
232	0x3d80f84c	0.06297359
233	0xb8b1286e	-8.447548e-05
234	0x3d103a56	0.035211883
235	0xbd2915ff	-0.041280743
236	0x3d1f7453	0.038929295
237	0xbd53c158	-0.05169806
238	0xb9e78f3b	-0.00044166468
239	0xbd2e33d7	-0.042529907
240	0xbc048a84	-0.008089665
241	0x3d6f73ae	0.05845993
242	0xbcdece98	-0.027198121
243	0xbb985117	-0.0046483385
244	0xbce711d2	-0.02820674
245	0xbb06c039	-0.002056135
246	0xbc512077	-0.012764088
247	0x3c62593e	0.013815222
248	0xbd657bbd	-0.05602621
249	0x3ccc1d26	0.024916243
250	0xbd1818c3	-0.03713299
251	0xbcdafcd7	-0.026731892
252	0x3d283055	0.041061718
253	0x3cbfeb0a	0.023427505
254	0xbc153347	-0.009106464
255	0xbd447c02	-0.047969826

net.1.bias f4 [5]
0	0x3d83c615	0.064342655
1	0x3d04c693	0.032415938
2	0x3b7d9e28	0.0038699005
3	0xbd6f46d1	-0.058417145
4	0x3d8ee592	0.06977381

weight f4 [5, 184]
0	0xbbaaf702	-0.005217434
1	0xbcfadb9a	-0.030622292
2	0xbd201c34	-0.039089397
3	0x3cbfaf8c	0.023399137
4	0xbd2618e9	-0.0405511
5	0x3cac937c	0.02106642
6	0xbd5c35db	-0.053762298
7	0xba17f4e5	-0.0005796685
8	0xbb6efa7b	-0.0036465216
9	0xbce2d33e	-0.027688619
10	0x3d259d2b	0.04043309
11	0x3baeac0a	0.0053305672
12	0xbcec9c6b	-0.02888318
13	0xbcf65ce2	-0.030073587
14	0x3d39832f	0.045291122
15	0xbc878c04	-0.016546257
16	0x3c8abfd1	0.016937168
17	0x3cc1273e	0.023578282
18	0x3d0f6ceb	0.03501598
19	0x3a77f06c	0.0009458128
20	0xbcad5b0b	-0.021161577
21	0x3ca1d5e2	0.019755308
22	0xbc820663	-0.015872186
23	0xbcb8615b	-0.02250736
24	0xbc34e8f3	-0.011041868
25	0xbbd46c6d	-0.006482652
26	0x3c2b07f0	0.010438904
27	0x3d028992	0.03186948
28	0x3d48aee9	0.048994932
29	0xbd042142	-0.03225828
30	0x3c44f06d	0.012020213
31	0x3d75e11d	0.060029138
32	0xbc18dacb	-0.009329508
33	0xbc104235	-0.0088048475
34	0xbb103630	-0.0022004955
35	0xbc821612	-0.015879665
36	0x3cbd2aa9	0.023091631
37	0xbd2766cd	-0.040869523
38	0xbd0a056b	-0.033696573
39	0xbd451d19	-0.048123453
40	0xbc7df7da	-0.015500987
41	0x3d4c526c	0.04988329
42	0x3b874422	0.004127995
43	0x3c97c8d5	0.018528381
44	0x3c66b9bb	0.0140823675
45	0x3c8d5504	0.017252453
46	0xbc2dc8d6	-0.010606965
47	0x3d697f88	0.05700639
48	0x3d25a7b6	0.040443145
49	0xbc177e51	-0.009246425
50	0x3cb7a074	0.022415377
51	0xbccdd79f	-0.02512723
52	0x3d327f91	0.043578688
53	0x3c41c05f	0.01182565
54	0x3d2943d6	0.04132446
55	0x3d23a777	0.03995463
56	0x3ca05e20	0.019576132
57	0x3d6d860f	0.057989176
58	0xbcce14df	-0.025156436
59	0xbc1a3fb0	-0.009414598
60	0x3cae65b5	0.021288732
61	0x3d337b7e	0.043818943
62	0x3c8b72c7	0.017022504
63	0xbca03895	-0.01955823
64	0x3b6ab8dc	0.0035815751
65	0xbd0a240b	-0.03372578
66	0xbc94323f	-0.018090365
67	0x3b580039	0.0032959117
68	0x3cc0e8df	0.023548542
69	0x3cfe2571	0.031023713
70	0x3d301cbe	0.04299616
71	0xbd422372	-0.047397085
72	0x3bed4ef2	0.007242077
73	0xbc91e8b2	-0.017811153
74	0xbc9f94d1	-0.01948014
75	0xbc7db5c4	-0.015485231
76	0x3cbde949	0.023182528
77	0x3c8077b2	0.015682075
78	0xbcfb1a90	-0.030652314
79	0x3d87b1d0	0.06625712
80	0xbd558281	-0.05212641
81	0xbd3e8b42	-0.046519525
82	0x3be587e1	0.0070047234
83	0x3ca4bcec	0.020109616
84	0xbd0edf84	-0.03488113
85	0xbc1ec05a	-0.009689415
86	0xbcaf52be	-0.02140176
87	0x3d123e73	0.035704087
88	0x3d527cb1	0.051388446
89	0xbce8657f	-0.02836871
90	0x3cfceebd	0.030875558
91	0x3c2e8dd7	0.010653934
92	0xbb72b794	-0.003703569
93	0x3cfe2665	0.031024167
94	0x3d9241c6	0.071414515
95	0x3cf2b91c	0.029629283
96	0x3d2c4d7b	0.04206608
97	0x3d808229	0.06274826
98	0xbd5cdf9e	-0.053924195
99	0x39258e7a	0.00015788703
100	0xbc6da6cb	-0.014505099
101	0x3b19a291	0.0023442844
102	0x3cbf8a7c	0.023381464
103	0x3ca86d27	0.02055986
104	0xba42763a	-0.000741813
105	0x3c101b46	0.008795565
106	0x3d11f419	0.03563318
107	0x3d4c6b38	0.04990694
108	0x3bd6618d	0.0065423907
109	0xbbeb7c3e	-0.0071864417
110	0x3c1d5793	0.009603399
111	0xbd94feac	-0.07275137
112	0x3cd263a0	0.02568227
113	0xbcf9c8e5	-0.030491302
114	0xbc83d6dc	-0.016093664
115	0x3bbaec95	0.0057044723
116	0xbce93114	-0.028465785
117	0x3ada1a0b	0.0016639841
118	0x3d40a977	0.047036614
119	0x3cbed808	0.023296371
120	0x3c303a38	0.010756068
121	0xbd7e041f	-0.06201565
122	0x3d5e0e99	0.05421314
123	0x3ca30ac2	0.01990259
124	0xbd5ff2f0	-0.054675043
125	0x3c12c8c7	0.008959002
126	0xbc8ece6f	-0.01743242
127	0xbd0ce465	-0.0343975
128	0x3c98e7c2	0.018665198
129	0x3d63aeb1	0.05558652
130	0x3c8bcd1b	0.017065575
131	0x3d113221	0.035448197
132	0xbcdda096	-0.027054112
133	0x3c97c225	0.018525193
134	0x3ce9e072	0.028549407
135	0xbd81078d	-0.06300268
136	0xbcf84377	-0.030305607
137	0x3d0fa105	0.03506567
138	0xbd26b4be	-0.040699713
139	0xbaa8e52b	-0.001288568
140	0xb9e60314	-0.00043871312
141	0xbca827ab	-0.020526728
142	0x3bd143e9	0.0063862693
143	0x39beb367	0.0003637329
144	0x3c2b9198	0.010471724
145	0x3cacd367	0.021096898
146	0x3c97e31e	0.018540915
147	0x3cfbb8d1	0.030727776
148	0x399503f4	0.0002842244
149	0x3c92fc02	0.017942432
150	0x3ca072c4	0.019585975
151	0xbcaf291e	-0.02138191
152	0xbc13b5ff	-0.009015559
153	0xbcb1ae3f	-0.021689532
154	0xbc91091c	-0.017704539
155	0xbd053525	-0.032521386
156	0x3bfd34bd	0.007727234
157	0x3d146aa1	0.0362345
158	0xbc1eeee4	-0.009700511
159	0x3ca9bbdf	0.020719467
160	0xbd1a6001	-0.037689213
161	0xbcccfe10	-0.02502349
162	0xbc6fef81	-0.0146445045
163	0xbae2ef23	-0.00173137
164	0x3cfe4b43	0.031041747
165	0xbd13c29a	-0.03607426
166	0xbd06e3e6	-0.032932185
167	0x3d28f82c	0.0412523
168	0x3d1271f2	0.035753198
169	0xbc99a60a	-0.018755931
170	0x3d23d69d	0.039999593
171	0xbbd09280	-0.0063651204
172	0x3cb65746	0.022258412
173	0xbc94bd56	-0.018156689
174	0x3ca3a596	0.019976418
175	0x3cc82ce8	0.024435475
176	0x3c6761bf	0.014122426
177	0xbc4e1a35	-0.01257949
178	0xbd0c85f1	-0.034307424
179	0xbcdceb18	-0.02696757
180	0xbca67717	-0.020320458
181	0xbc53bc53	-0.012923318
182	0x39e10e93	0.00042926203
183	0x3d1a3965	0.037652392
184	0xbcb645ef	-0.022250144
185	0x3b9a7ea8	0.0047148056
186	0x3c3a16ad	0.011357945
187	0xbb9c94af	-0.0047784667
188	0xbaf06154	-0.0018339553
189	0xb86d5661	-5.658565e-05
190	0xbd67e106	-0.056611083
191	0x3d9d3553	0.076761864
192	0x3ce0aceb	0.027426204
193	0x3b7bc811	0.003841881
194	0x3c1e5684	0.009664182
195	0xbcfe765e	-0.031062301
196	0x3b7848c1	0.0037885162
197	0xbd202deb	-0.03910629
198	0x3d47137e	0.048602574
199	0xbc702af7	-0.014658681
200	0x3cdffde8	0.027342752
201	0x3c397508	0.011319406
202	0x3c1d4e34	0.009601165
203	0x3c0974f3	0.008389699
204	0xbce9d650	-0.028544575
205	0xbba5cfb5	-0.005060161
206	0x3d240da2	0.040052064
207	0xbc2c0e26	-0.01050142
208	0x3a6e4103	0.0009088667
209	0x3d1644bb	0.03668664
210	0xbcf4add4	-0.029868044
211	0x3cca48eb	0.024692973
212	0x3c7c276f	0.015390261
213	0xbcc3e3a6	-0.023912262
214	0xbc0f2525	-0.008736883
215	0xbd0872c9	-0.033312593
216	0xbcb804c3	-0.022463208
217	0x3cf75ac8	0.030194655
218	0x3cabb68d	0.02096107
219	0xbbe15ecb	-0.0068777553
220	0xbd4bfb16	-0.0498
221	0xbc20e4c1	-0.009820164
222	0xbc96cea8	-0.018409088
223	0x3a3ad9ef	0.00071278116
224	0x3c244da0	0.010028273
225	0x3d75aa1e	0.05997669
226	0x3c040893	0.008058685
227	0x3cca7ef7	0.024718745
228	0x3d1c964c	0.03822927
229	0x3d0fc90f	0.035103854
230	0x3bf0b25e	0.007345482
231	0xba9bb00e	-0.001187803
232	0x3d80f84c	0.06297359
233	0xb8b1286e	-8.447548e-05
234	0x3d103a56	0.035211883
235	0xbd2915ff	-0.041280743
236	0x3d1f7453	0.038929295
237	0xbd53c158	-0.05169806
238	0xb9e78f3b	-0.00044166468
239	0xbd2e33d7	-0.042529907
240	0xbc048a84	-0.008089665
241	0x3d6f73ae	0.05845993
242	0xbcdece98	-0.027198121
243	0xbb985117	-0.0046483385
244	0xbce711d2	-0.02820674
245	0xbb06c039	-0.002056135
246	0xbc512077	-0.012764088
247	0x3c62593e	0.013815222
248	0xbd657bbd	-0.05602621
249	0x3ccc1d26	0.024916243
250	0xbd1818c3	-0.03713299
251	0xbcdafcd7	-0.026731892
252	0x3d283055	0.041061718
253	0x3cbfeb0a	0.023427505
254	0xbc153347	-0.009106464
255	0xbd447c02	-0.047969826

bias f4 [5]
0	0x3d83c615	0.064342655
1	0x3d04c693	0.032415938
2	0x3b7d9e28	0.0038699005
3	0xbd6f46d1	-0.058417145
4	0x3d8ee592	0.06977381
