results/checkpoints/logistic_on_simclr/lightning_logs/version_2/checkpoints/epoch=4-step=50.ckpt (torch, 6183 bytes, 6 tensors)

classifier.weight f4 [5, 100]
0.07948839 0.08064842 -0.028983537 0.09309094 -0.02593719 0.031205289 -0.038651112 0.038307592
0.094989054 -0.04802794 0.09268813 0.030566236 0.07300213 0.01394997 0.05454047 -0.00520282
0.07234778 -0.0052100886 -0.056726407 0.0033650636 -0.040293906 0.022426175 -0.03355067 0.050373845
-0.077737615 -0.042213082 -0.0118965665 -0.042975806 -0.017342256 -0.10350822 0.08764408 -0.07021624
0.07741394 0.029078811 -0.037468784 0.06498599 -0.007898866 0.057593606 -0.0037267553 -0.052428965
0.032942105 -0.026770212 0.04999593 0.10018946 0.05782964 -0.058664933 0.07288284 0.024882834
0.052301195 -0.0777661 -0.0956753 -0.03571186 -0.07668008 0.085530624 0.057433322 0.050187342
0.033977788 -0.018386764 0.092570685 -0.074469805 0.00919318 -0.06242927 0.025973545 -0.044168554
0.045541316 -0.02322502 0.06240127 -0.06835497 -0.052869383 -0.06454257 0.081056155 0.02769218
0.102641925 -0.0756954 -0.08930407 -0.06966868 -0.082432784 0.03989201 0.042557973 0.067836456
-0.031073445 -0.06429469 0.046395976 -0.04151971 0.05238051 -0.0057000043 0.020368848 -0.07430463
-0.054087345 0.0033388343 0.029375276 0.0015514903 0.07761114 0.052703105 -0.072480634 -0.0597153
0.103384405 -0.026414672 -0.052047905 -0.09722948 -0.04975278 0.017816773 -0.0063728895 -0.078499205
0.00019291922 -0.06278795 -0.09531859 -0.04900303 -0.09731758 -0.06346783 0.09284453 0.004888816
0.019602578 -0.08843003 -0.059037644 -0.046354055 0.02227928 -0.07796935 -0.03445908 -0.04929664
-0.002976541 -0.06461224 -0.012171417 -0.0589174 -0.05607975 -0.06281521 -0.03638093 -0.08042958
0.069257125 -0.010946768 0.084679954 0.019804174 -0.0706445 0.061480142 -0.018331185 -0.023775602
-0.071452886 -0.08720813 0.037629895 -0.013968651 0.03753498 -0.06251521 0.07539142 -0.07202086
-0.02294808 0.027485438 0.04866486 0.07415197 0.09738832 -0.07042964 0.018512962 -0.045131363
-0.0067421957 -0.08020114 0.07963933 -0.078913316 0.050258853 0.03505702 0.022397043 -0.030375645
0.08171103 -0.0027870378 0.0015280978 -0.081686735 0.029095631 -0.01073319 -0.048847098 0.087302096
0.020254666 -0.042998787 -0.04196534 -0.005921375 0.05853208 -0.035188124 -0.06693507 -0.039240133
-0.06815837 0.042515185 0.07149477 -0.082811065 0.009143086 0.05276272 0.019650279 -0.028402742
0.06281348 0.039454006 0.024735622 -0.022894535 -0.020376628 0.01826072 -0.01216392 -0.05139875
0.052600894 0.08127572 -0.02542083 -0.030021796 0.00012967834 -7.5541815e-05 0.018163603 5.9014303e-05
-0.11126697 -0.03672685 0.08201578 0.034602933 -0.008588355 -0.08066217 -0.06747954 -0.06867788
-0.0346941 0.0034133773 0.062195722 0.04001975 -0.059417002 -0.038418893 -0.034339458 0.07420406
0.026231308 0.0047857277 0.045699276 -0.0065092845 -0.06450438 0.037507057 -0.05082852 -0.0032401127
-0.08007424 0.05426771 0.046822216 0.013746908 -0.053464204 -0.073381096 -0.07708569 0.056691434
0.039369628 0.06502965 0.040689033 0.008232328 0.02289722 -0.04102914 -0.0714943 -0.096512415
0.030460734 -0.044572532 -0.027108543 -0.06346773 -0.020323625 -0.053326502 -0.08432434 0.023452763
-0.03847218 0.07350281 -0.033214267 -0.06925245 -0.014466713 -0.036976412 -0.047858395 -0.11658889
00000000: cfca a23d 002b a53d e26e edbc 76a6 be3d
00000010: 3b7a d4bc 3ca2 ff3c a150 1ebd 6ce8 1c3d
00000020: 9f89 c23d f2b8 44bd 46d3 bd3d 0b66 fa3c
00000030: 2482 953d 6a8e 643c d465 5f3d 6b7c aabb
00000040: 132b 943d 64b9 aabb f359 68bd 6688 5c3b
00000050: 390b 25bd 19b7 b73c 6d6c 09bd ce54 4e3d
00000060: e634 9fbd a0e7 2cbd d1e9 42bc 6607 30bd
00000070: 5911 8ebc 1efc d3bd bd7e b33d 88cd 8fbd
00000080: 338b 9e3d b036 ee3c de78 19bd 6017 853d
00000090: 3f6a 01bc 46e7 6b3d 943c 74bb c1bf 56bd
000000a0: 4dee 063d 344d dbbc 88c8 4c3d 2230 cd3d
000000b0: c6de 6c3d a44a 70bd 9943 953d 16d7 cb3c
000000c0: c739 563d d543 9fbd 69f1 c3bd 9946 12bd
000000d0: 720a 9dbd ae2a af3d 343f 6b3d 3e91 4d3d
000000e0: 4b2c 0b3d d79f 96bc b395 bd3d a083 98bd
000000f0: fe9e 163c d6b5 7fbd 79c6 d43c 16ea 34bd
00000100: 8889 3a3d 6642 bebc 7998 7f3d b1fd 8bbd
00000110: 918d 58bd e52e 84bd c500 a63d b6da e23c
00000120: ee35 d23d 3106 9bbd 0de5 b6bd 74ae 8ebd
00000130: 85d2 a8bd ce65 233d 4551 2e3d d7ed 8a3d
00000140: bd8d febc efac 83bd b509 3e3d 9210 2abd
00000150: f28c 563d 1ac7 babb 92dc a63c 072d 98bd
00000160: b18a 5dbd 58d0 5a3b 6ba4 f03c 605b cb3a
00000170: 97f2 9e3d 36df 573d ba70 94bd 0898 74bd
00000180: 34bb d33d 9563 d8bc 2f30 55bd 4020 c7bd
00000190: 92c9 4bbd 7bf4 913c acd3 d0bb 31c4 a0bd
000001a0: 5c4a 4a39 f896 80bd 6536 c3bd 67b7 48bd
000001b0: 704e c7bd 6cfb 81bd 4625 be3d 5c32 a03b
000001c0: 9695 a03c ce1a b5bd 75d1 71bd c0dd 3dbd
000001d0: 0983 b63c 65ae 9fbd f724 0dbd 46eb 49bd
000001e0: 1212 43bb 6c53 84bd 9f6a 47bc 5f53 71bd
000001f0: e1b3 65bd 43a5 80bd 2c04 15bd 43b8 a4bd
00000200: aed6 8d3d 135a 33bc af6c ad3d 5d3c a23c
00000210: 10ae 90bd 9ad2 7b3d 482b 96bc 0dc5 c2bc
00000220: e455 92bd 2d9a b2bd ce21 1a3d c5dc 64bc
00000230: 47be 193d f907 80bd d166 9a3d ac7f 93bd
00000240: 9dfd bbbc 2429 e13c ce54 473d fddc 973d
00000250: 8773 c73d 6a3d 90bd 7fa8 973c aadb 38bd
00000260: a3ed dcbb 7f40 a4bd f219 a33d 4e9d a1bd
00000270: 3adc 4d3d f397 0f3d 017a b73c 58d6 f8bc
00000280: 1d58 a73d bca6 36bb 744a c83a 604b a7bd
00000290: f659 ee3c 43da 2fbc e513 48bd 71cb b23d
000002a0: 1ded a53c 7f1f 30bd d9e3 2bbd 1808 c2bb
000002b0: 56bf 6f3d 6c21 10bd 4115 89bd 43ba 20bd
000002c0: 9e96 8bbd 6724 2e3d da6b 923d d998 a9bd
000002d0: e2cc 153c b91d 583d 9ff9 a03c deac e8bc
000002e0: 5ba4 803d 869a 213d 5ca2 ca3c 528d bbbc
000002f0: e3ec a6bc 8197 953c 2e4b 47bc 7f87 52bd
00000300: 0974 573d e273 a63d 583f d0bc 45f0 f5bc
00000310: 44fa 0739 346c 9eb8 d6cb 943c 2086 7738
00000320: f0df e3bd e56e 16bd e4f7 a73d cebb 0d3d
00000330: 2cb6 0cbc 3532 a5bd b732 8abd fda6 8cbd
00000340: 671b 0ebd f8b2 5f3b f1c0 7e3d c0eb 233d
00000350: 3e5f 73bd 215d 1dbd 88a7 0cbd 4cf8 973d
00000360: 0ae3 d63c 98d1 9c3b 2a2f 3b3d d64b d5bb
00000370: df1a 84bd 00a1 193d 9131 50bd 1258 54bb
00000380: f7fd a3bd d147 5e3d a7c8 3f3d b63a 613c
00000390: 48fd 5abd d448 96bd 1adf 9dbd 4735 683d
000003a0: 0c42 213d 442e 853d 8ba9 263d e3e0 063c
000003b0: f392 bb3c 2c0e 28bd 9b6b 92bd 4da8 c5bd
000003c0: ca88 f93c b091 36bd bc12 debc 5ffb 81bd
000003d0: bb7d a6bc e46c 5abd 3db2 acbd 0220 c03c
000003e0: 0195 1dbd a488 963d af0b 08bd 3ad4 8dbd
000003f0: cb05 6dbc 9474 17bd 2a07 44bd 28c6 eebd

classifier.bias f4 [5]
-0.023018965 -0.054805007 0.018299306 0.08353467 0.08762383
00000000: 4592 bcbc 377b 60bd 6de8 953c 3a14 ab3d
00000010: 1f74 b33d

net.1.weight f4 [5, 100]
0.07948839 0.08064842 -0.028983537 0.09309094 -0.02593719 0.031205289 -0.038651112 0.038307592
0.094989054 -0.04802794 0.09268813 0.030566236 0.07300213 0.01394997 0.05454047 -0.00520282
0.07234778 -0.0052100886 -0.056726407 0.0033650636 -0.040293906 0.022426175 -0.03355067 0.050373845
-0.077737615 -0.042213082 -0.0118965665 -0.042975806 -0.017342256 -0.10350822 0.08764408 -0.07021624
0.07741394 0.029078811 -0.037468784 0.06498599 -0.007898866 0.057593606 -0.0037267553 -0.052428965
0.032942105 -0.026770212 0.04999593 0.10018946 0.05782964 -0.058664933 0.07288284 0.024882834
0.052301195 -0.0777661 -0.0956753 -0.03571186 -0.07668008 0.085530624 0.057433322 0.050187342
0.033977788 -0.018386764 0.092570685 -0.074469805 0.00919318 -0.06242927 0.025973545 -0.044168554
0.045541316 -0.02322502 0.06240127 -0.06835497 -0.052869383 -0.06454257 0.081056155 0.02769218
0.102641925 -0.0756954 -0.08930407 -0.06966868 -0.082432784 0.03989201 0.042557973 0.067836456
-0.031073445 -0.06429469 0.046395976 -0.04151971 0.05238051 -0.0057000043 0.020368848 -0.07430463
-0.054087345 0.0033388343 0.029375276 0.0015514903 0.07761114 0.052703105 -0.072480634 -0.0597153
0.103384405 -0.026414672 -0.052047905 -0.09722948 -0.04975278 0.017816773 -0.0063728895 -0.078499205
0.00019291922 -0.06278795 -0.09531859 -0.04900303 -0.09731758 -0.06346783 0.09284453 0.004888816
0.019602578 -0.08843003 -0.059037644 -0.046354055 0.02227928 -0.07796935 -0.03445908 -0.04929664
-0.002976541 -0.06461224 -0.012171417 -0.0589174 -0.05607975 -0.06281521 -0.03638093 -0.08042958
0.069257125 -0.010946768 0.084679954 0.019804174 -0.0706445 0.061480142 -0.018331185 -0.023775602
-0.071452886 -0.08720813 0.037629895 -0.013968651 0.03753498 -0.06251521 0.07539142 -0.07202086
-0.02294808 0.027485438 0.04866486 0.07415197 0.09738832 -0.07042964 0.018512962 -0.045131363
-0.0067421957 -0.08020114 0.07963933 -0.078913316 0.050258853 0.03505702 0.022397043 -0.030375645
0.08171103 -0.0027870378 0.0015280978 -0.081686735 0.029095631 -0.01073319 -0.048847098 0.087302096
0.020254666 -0.042998787 -0.04196534 -0.005921375 0.05853208 -0.035188124 -0.06693507 -0.039240133
-0.06815837 0.042515185 0.07149477 -0.082811065 0.009143086 0.05276272 0.019650279 -0.028402742
0.06281348 0.039454006 0.024735622 -0.022894535 -0.020376628 0.01826072 -0.01216392 -0.05139875
0.052600894 0.08127572 -0.02542083 -0.030021796 0.00012967834 -7.5541815e-05 0.018163603 5.9014303e-05
-0.11126697 -0.03672685 0.08201578 0.034602933 -0.008588355 -0.08066217 -0.06747954 -0.06867788
-0.0346941 0.0034133773 0.062195722 0.04001975 -0.059417002 -0.038418893 -0.034339458 0.07420406
0.026231308 0.0047857277 0.045699276 -0.0065092845 -0.06450438 0.037507057 -0.05082852 -0.0032401127
-0.08007424 0.05426771 0.046822216 0.013746908 -0.053464204 -0.073381096 -0.07708569 0.056691434
0.039369628 0.06502965 0.040689033 0.008232328 0.02289722 -0.04102914 -0.0714943 -0.096512415
0.030460734 -0.044572532 -0.027108543 -0.06346773 -0.020323625 -0.053326502 -0.08432434 0.023452763
-0.03847218 0.07350281 -0.033214267 -0.06925245 -0.014466713 -0.036976412 -0.047858395 -0.11658889
00000000: cfca a23d 002b a53d e26e edbc 76a6 be3d
00000010: 3b7a d4bc 3ca2 ff3c a150 1ebd 6ce8 1c3d
00000020: 9f89 c23d f2b8 44bd 46d3 bd3d 0b66 fa3c
00000030: 2482 953d 6a8e 643c d465 5f3d 6b7c aabb
00000040: 132b 943d 64b9 aabb f359 68bd 6688 5c3b
00000050: 390b 25bd 19b7 b73c 6d6c 09bd ce54 4e3d
00000060: e634 9fbd a0e7 2cbd d1e9 42bc 6607 30bd
00000070: 5911 8ebc 1efc d3bd bd7e b33d 88cd 8fbd
00000080: 338b 9e3d b036 ee3c de78 19bd 6017 853d
00000090: 3f6a 01bc 46e7 6b3d 943c 74bb c1bf 56bd
000000a0: 4dee 063d 344d dbbc 88c8 4c3d 2230 cd3d
000000b0: c6de 6c3d a44a 70bd 9943 953d 16d7 cb3c
000000c0: c739 563d d543 9fbd 69f1 c3bd 9946 12bd
000000d0: 720a 9dbd ae2a af3d 343f 6b3d 3e91 4d3d
000000e0: 4b2c 0b3d d79f 96bc b395 bd3d a083 98bd
000000f0: fe9e 163c d6b5 7fbd 79c6 d43c 16ea 34bd
00000100: 8889 3a3d 6642 bebc 7998 7f3d b1fd 8bbd
00000110: 918d 58bd e52e 84bd c500 a63d b6da e23c
00000120: ee35 d23d 3106 9bbd 0de5 b6bd 74ae 8ebd
00000130: 85d2 a8bd ce65 233d 4551 2e3d d7ed 8a3d
00000140: bd8d febc efac 83bd b509 3e3d 9210 2abd
00000150: f28c 563d 1ac7 babb 92dc a63c 072d 98bd
00000160: b18a 5dbd 58d0 5a3b 6ba4 f03c 605b cb3a
00000170: 97f2 9e3d 36df 573d ba70 94bd 0898 74bd
00000180: 34bb d33d 9563 d8bc 2f30 55bd 4020 c7bd
00000190: 92c9 4bbd 7bf4 913c acd3 d0bb 31c4 a0bd
000001a0: 5c4a 4a39 f896 80bd 6536 c3bd 67b7 48bd
000001b0: 704e c7bd 6cfb 81bd 4625 be3d 5c32 a03b
000001c0: 9695 a03c ce1a b5bd 75d1 71bd c0dd 3dbd
000001d0: 0983 b63c 65ae 9fbd f724 0dbd 46eb 49bd
000001e0: 1212 43bb 6c53 84bd 9f6a 47bc 5f53 71bd
000001f0: e1b3 65bd 43a5 80bd 2c04 15bd 43b8 a4bd
00000200: aed6 8d3d 135a 33bc af6c ad3d 5d3c a23c
00000210: 10ae 90bd 9ad2 7b3d 482b 96bc 0dc5 c2bc
00000220: e455 92bd 2d9a b2bd ce21 1a3d c5dc 64bc
00000230: 47be 193d f907 80bd d166 9a3d ac7f 93bd
00000240: 9dfd bbbc 2429 e13c ce54 473d fddc 973d
00000250: 8773 c73d 6a3d 90bd 7fa8 973c aadb 38bd
00000260: a3ed dcbb 7f40 a4bd f219 a33d 4e9d a1bd
00000270: 3adc 4d3d f397 0f3d 017a b73c 58d6 f8bc
00000280: 1d58 a73d bca6 36bb 744a c83a 604b a7bd
00000290: f659 ee3c 43da 2fbc e513 48bd 71cb b23d
000002a0: 1ded a53c 7f1f 30bd d9e3 2bbd 1808 c2bb
000002b0: 56bf 6f3d 6c21 10bd 4115 89bd 43ba 20bd
000002c0: 9e96 8bbd 6724 2e3d da6b 923d d998 a9bd
000002d0: e2cc 153c b91d 583d 9ff9 a03c deac e8bc
000002e0: 5ba4 803d 869a 213d 5ca2 ca3c 528d bbbc
000002f0: e3ec a6bc 8197 953c 2e4b 47bc 7f87 52bd
00000300: 0974 573d e273 a63d 583f d0bc 45f0 f5bc
00000310: 44fa 0739 346c 9eb8 d6cb 943c 2086 7738
00000320: f0df e3bd e56e 16bd e4f7 a73d cebb 0d3d
00000330: 2cb6 0cbc 3532 a5bd b732 8abd fda6 8cbd
00000340: 671b 0ebd f8b2 5f3b f1c0 7e3d c0eb 233d
00000350: 3e5f 73bd 215d 1dbd 88a7 0cbd 4cf8 973d
00000360: 0ae3 d63c 98d1 9c3b 2a2f 3b3d d64b d5bb
00000370: df1a 84bd 00a1 193d 9131 50bd 1258 54bb
00000380: f7fd a3bd d147 5e3d a7c8 3f3d b63a 613c
00000390: 48fd 5abd d448 96bd 1adf 9dbd 4735 683d
000003a0: 0c42 213d 442e 853d 8ba9 263d e3e0 063c
000003b0: f392 bb3c 2c0e 28bd 9b6b 92bd 4da8 c5bd
000003c0: ca88 f93c b091 36bd bc12 debc 5ffb 81bd
000003d0: bb7d a6bc e46c 5abd 3db2 acbd 0220 c03c
000003e0: 0195 1dbd a488 963d af0b 08bd 3ad4 8dbd
000003f0: cb05 6dbc 9474 17bd 2a07 44bd 28c6 eebd

net.1.bias f4 [5]
-0.023018965 -0.054805007 0.018299306 0.08353467 0.08762383
00000000: 4592 bcbc 377b 60bd 6de8 953c 3a14 ab3d
00000010: 1f74 b33d

weight f4 [5, 100]
0.07948839 0.08064842 -0.028983537 0.09309094 -0.02593719 0.031205289 -0.038651112 0.038307592
0.094989054 -0.04802794 0.09268813 0.030566236 0.07300213 0.01394997 0.05454047 -0.00520282
0.07234778 -0.0052100886 -0.056726407 0.0033650636 -0.040293906 0.022426175 -0.03355067 0.050373845
-0.077737615 -0.042213082 -0.0118965665 -0.042975806 -0.017342256 -0.10350822 0.08764408 -0.07021624
0.07741394 0.029078811 -0.037468784 0.06498599 -0.007898866 0.057593606 -0.0037267553 -0.052428965
0.032942105 -0.026770212 0.04999593 0.10018946 0.05782964 -0.058664933 0.07288284 0.024882834
0.052301195 -0.0777661 -0.0956753 -0.03571186 -0.07668008 0.085530624 0.057433322 0.050187342
0.033977788 -0.018386764 0.092570685 -0.074469805 0.00919318 -0.06242927 0.025973545 -0.044168554
0.045541316 -0.02322502 0.06240127 -0.06835497 -0.052869383 -0.06454257 0.081056155 0.02769218
0.102641925 -0.0756954 -0.08930407 -0.06966868 -0.082432784 0.03989201 0.042557973 0.067836456
-0.031073445 -0.06429469 0.046395976 -0.04151971 0.05238051 -0.0057000043 0.020368848 -0.07430463
-0.054087345 0.0033388343 0.029375276 0.0015514903 0.07761114 0.052703105 -0.072480634 -0.0597153
0.103384405 -0.026414672 -0.052047905 -0.09722948 -0.04975278 0.017816773 -0.0063728895 -0.078499205
0.00019291922 -0.06278795 -0.09531859 -0.04900303 -0.09731758 -0.06346783 0.09284453 0.004888816
0.019602578 -0.08843003 -0.059037644 -0.046354055 0.02227928 -0.07796935 -0.03445908 -0.04929664
-0.002976541 -0.06461224 -0.012171417 -0.0589174 -0.05607975 -0.06281521 -0.03638093 -0.08042958
0.069257125 -0.010946768 0.084679954 0.019804174 -0.0706445 0.061480142 -0.018331185 -0.023775602
-0.071452886 -0.08720813 0.037629895 -0.013968651 0.03753498 -0.06251521 0.07539142 -0.07202086
-0.02294808 0.027485438 0.04866486 0.07415197 0.09738832 -0.07042964 0.018512962 -0.045131363
-0.0067421957 -0.08020114 0.07963933 -0.078913316 0.050258853 0.03505702 0.022397043 -0.030375645
0.08171103 -0.0027870378 0.0015280978 -0.081686735 0.029095631 -0.01073319 -0.048847098 0.087302096
0.020254666 -0.042998787 -0.04196534 -0.005921375 0.05853208 -0.035188124 -0.06693507 -0.039240133
-0.06815837 0.042515185 0.07149477 -0.082811065 0.009143086 0.05276272 0.019650279 -0.028402742
0.06281348 0.039454006 0.024735622 -0.022894535 -0.020376628 0.01826072 -0.01216392 -0.05139875
0.052600894 0.08127572 -0.02542083 -0.030021796 0.00012967834 -7.5541815e-05 0.018163603 5.9014303e-05
-0.11126697 -0.03672685 0.08201578 0.034602933 -0.008588355 -0.08066217 -0.06747954 -0.06867788
-0.0346941 0.0034133773 0.062195722 0.04001975 -0.059417002 -0.038418893 -0.034339458 0.07420406
0.026231308 0.0047857277 0.045699276 -0.0065092845 -0.06450438 0.037507057 -0.05082852 -0.0032401127
-0.08007424 0.05426771 0.046822216 0.013746908 -0.053464204 -0.073381096 -0.07708569 0.056691434
0.039369628 0.06502965 0.040689033 0.008232328 0.02289722 -0.04102914 -0.0714943 -0.096512415
0.030460734 -0.044572532 -0.027108543 -0.06346773 -0.020323625 -0.053326502 -0.08432434 0.023452763
-0.03847218 0.07350281 -0.033214267 -0.06925245 -0.014466713 -0.036976412 -0.047858395 -0.11658889
00000000: cfca a23d 002b a53d e26e edbc 76a6 be3d
00000010: 3b7a d4bc 3ca2 ff3c a150 1ebd 6ce8 1c3d
00000020: 9f89 c23d f2b8 44bd 46d3 bd3d 0b66 fa3c
00000030: 2482 953d 6a8e 643c d465 5f3d 6b7c aabb
00000040: 132b 943d 64b9 aabb f359 68bd 6688 5c3b
00000050: 390b 25bd 19b7 b73c 6d6c 09bd ce54 4e3d
00000060: e634 9fbd a0e7 2cbd d1e9 42bc 6607 30bd
00000070: 5911 8ebc 1efc d3bd bd7e b33d 88cd 8fbd
00000080: 338b 9e3d b036 ee3c de78 19bd 6017 853d
00000090: 3f6a 01bc 46e7 6b3d 943c 74bb c1bf 56bd
000000a0: 4dee 063d 344d dbbc 88c8 4c3d 2230 cd3d
000000b0: c6de 6c3d a44a 70bd 9943 953d 16d7 cb3c
000000c0: c739 563d d543 9fbd 69f1 c3bd 9946 12bd
000000d0: 720a 9dbd ae2a af3d 343f 6b3d 3e91 4d3d
000000e0: 4b2c 0b3d d79f 96bc b395 bd3d a083 98bd
000000f0: fe9e 163c d6b5 7fbd 79c6 d43c 16ea 34bd
00000100: 8889 3a3d 6642 bebc 7998 7f3d b1fd 8bbd
00000110: 918d 58bd e52e 84bd c500 a63d b6da e23c
00000120: ee35 d23d 3106 9bbd 0de5 b6bd 74ae 8ebd
00000130: 85d2 a8bd ce65 233d 4551 2e3d d7ed 8a3d
00000140: bd8d febc efac 83bd b509 3e3d 9210 2abd
00000150: f28c 563d 1ac7 babb 92dc a63c 072d 98bd
00000160: b18a 5dbd 58d0 5a3b 6ba4 f03c 605b cb3a
00000170: 97f2 9e3d 36df 573d ba70 94bd 0898 74bd
00000180: 34bb d33d 9563 d8bc 2f30 55bd 4020 c7bd
00000190: 92c9 4bbd 7bf4 913c acd3 d0bb 31c4 a0bd
000001a0: 5c4a 4a39 f896 80bd 6536 c3bd 67b7 48bd
000001b0: 704e c7bd 6cfb 81bd 4625 be3d 5c32 a03b
000001c0: 9695 a03c ce1a b5bd 75d1 71bd c0dd 3dbd
000001d0: 0983 b63c 65ae 9fbd f724 0dbd 46eb 49bd
000001e0: 1212 43bb 6c53 84bd 9f6a 47bc 5f53 71bd
000001f0: e1b3 65bd 43a5 80bd 2c04 15bd 43b8 a4bd
00000200: aed6 8d3d 135a 33bc af6c ad3d 5d3c a23c
00000210: 10ae 90bd 9ad2 7b3d 482b 96bc 0dc5 c2bc
00000220: e455 92bd 2d9a b2bd ce21 1a3d c5dc 64bc
00000230: 47be 193d f907 80bd d166 9a3d ac7f 93bd
00000240: 9dfd bbbc 2429 e13c ce54 473d fddc 973d
00000250: 8773 c73d 6a3d 90bd 7fa8 973c aadb 38bd
00000260: a3ed dcbb 7f40 a4bd f219 a33d 4e9d a1bd
00000270: 3adc 4d3d f397 0f3d 017a b73c 58d6 f8bc
00000280: 1d58 a73d bca6 36bb 744a c83a 604b a7bd
00000290: f659 ee3c 43da 2fbc e513 48bd 71cb b23d
000002a0: 1ded a53c 7f1f 30bd d9e3 2bbd 1808 c2bb
000002b0: 56bf 6f3d 6c21 10bd 4115 89bd 43ba 20bd
000002c0: 9e96 8bbd 6724 2e3d da6b 923d d998 a9bd
000002d0: e2cc 153c b91d 583d 9ff9 a03c deac e8bc
000002e0: 5ba4 803d 869a 213d 5ca2 ca3c 528d bbbc
000002f0: e3ec a6bc 8197 953c 2e4b 47bc 7f87 52bd
00000300: 0974 573d e273 a63d 583f d0bc 45f0 f5bc
00000310: 44fa 0739 346c 9eb8 d6cb 943c 2086 7738
00000320: f0df e3bd e56e 16bd e4f7 a73d cebb 0d3d
00000330: 2cb6 0cbc 3532 a5bd b732 8abd fda6 8cbd
00000340: 671b 0ebd f8b2 5f3b f1c0 7e3d c0eb 233d
00000350: 3e5f 73bd 215d 1dbd 88a7 0cbd 4cf8 973d
00000360: 0ae3 d63c 98d1 9c3b 2a2f 3b3d d64b d5bb
00000370: df1a 84bd 00a1 193d 9131 50bd 1258 54bb
00000380: f7fd a3bd d147 5e3d a7c8 3f3d b63a 613c
00000390: 48fd 5abd d448 96bd 1adf 9dbd 4735 683d
000003a0: 0c42 213d 442e 853d 8ba9 263d e3e0 063c
000003b0: f392 bb3c 2c0e 28bd 9b6b 92bd 4da8 c5bd
000003c0: ca88 f93c b091 36bd bc12 debc 5ffb 81bd
000003d0: bb7d a6bc e46c 5abd 3db2 acbd 0220 c03c
000003e0: 0195 1dbd a488 963d af0b 08bd 3ad4 8dbd
000003f0: cb05 6dbc 9474 17bd 2a07 44bd 28c6 eebd

bias f4 [5]
-0.023018965 -0.054805007 0.018299306 0.08353467 0.08762383
00000000: 4592 bcbc 377b 60bd 6de8 953c 3a14 ab3d
00000010: 1f74 b33d
