simclr_cnn_transformer_trainings1/logistic_on_simclr_IT_5pat/lightning_logs/version_0/checkpoints/last.ckpt (torch, 7847 bytes, 6 tensors)

classifier.weight f4 [5, 184]
0.057932 -0.058799155 -0.031451527 -0.032710884 -0.04419472 -0.006121015 -0.060457543 -0.03176383
-0.04164441 0.05565356 -0.034935914 0.0023335307 0.037557505 -0.05112666 0.04119512 -0.0011985452
0.033089332 0.017185418 0.009709674 0.014680173 0.010167343 0.04657969 -0.052383173 0.06542557
0.014779111 0.028978862 -0.037640207 -0.058741692 -0.048443537 -0.031320836 -0.028931484 -0.018678842
-0.044104595 -0.0133202225 -0.06378961 -0.046231207 -0.00782639 0.0010665817 0.013927008 -0.032850545
0.053785194 -0.06971911 0.036277063 -0.019903999 0.008006379 0.08500197 -0.03386362 -0.032676674
-0.026870213 0.024687355 -0.006220626 -0.0042513167 -0.043781772 0.04768614 0.032737266 -0.004850411
0.021646302 0.012143748 -0.0164505 -0.049392037 -0.00065218 0.037791796 0.010633796 -0.0033536262
-0.012429822 0.01083394 0.016406173 0.038347825 -0.035762526 -0.07321906 -0.059808847 -0.013386639
0.05125738 0.007924793 -0.018322874 0.05192264 -0.047076847 -0.079083264 0.0031123909 0.02056056
-0.033225752 -0.071314245 0.0056520514 -0.051747836 -0.043558188 0.026669627 0.001145363 0.0098949205
-0.053878196 0.006437236 0.05927548 0.025583338 0.009530947 0.04009668 -0.02796207 0.03662316
0.045179367 0.0461019 0.014741533 0.019417519 0.021581043 0.04503831 0.03361241 -0.062075105
0.062460523 0.069137044 0.029527783 -0.028628424 0.02384929 -0.0067286678 0.026970195 -0.021923514
-0.05653529 -0.056847803 -0.024920182 0.057733633 -0.05032925 0.08670381 -0.015280441 -0.012047507
0.022500183 -0.06669727 0.0617362 -0.012446303 -0.0652013 -0.024384722 -0.018563166 0.010164915
0.019362938 -0.02916975 0.022050424 -0.06586484 0.002408646 -0.03505272 0.001985123 0.016935553
0.008656133 -7.590566e-05 -0.036010526 -0.022373743 0.005814095 -0.03541683 0.021991033 0.038058624
0.03979599 0.011926677 -0.025987305 -0.022355681 0.004663898 0.0638488 0.06264777 -0.044579234
-0.0117117 -0.026018748 -0.019930996 -0.029601421 -0.008764899 -0.058760714 0.04103671 -0.011730274
0.023211714 0.0039498205 -0.027902965 0.06764717 0.035677776 0.055363733 -0.032730326 0.010006586
-0.027700052 0.010646404 -0.05062248 0.04234063 -0.018143702 -0.015759172 0.049161255 0.059765927
0.01283826 0.04142441 -0.008317464 0.03869192 0.035561997 -0.050717402 -0.03332166 -0.06190301
0.046362348 -0.013716049 0.06595606 -0.05423302 -0.0533405 -0.051816966 -0.031575926 0.00021381746
-0.033258278 -0.018403765 0.01747075 0.0046770684 0.020850977 -0.023212785 0.031996652 0.056824137
-0.045731463 0.02679497 0.058330484 0.03264302 -0.034077436 -0.055734064 -0.052598722 0.030860087
0.032082476 -0.006922103 0.00704343 -0.044419605 0.03143584 0.0033416527 0.059349015 0.020887027
-0.0067171836 -0.036009755 -0.028648725 0.06413435 -0.040109117 -0.016448956 0.05107557 -0.041896075
-0.0037322897 0.031557467 0.058534738 -0.009897307 -0.020667097 -0.0076739537 0.014106728 -0.052775405
-0.02076491 -0.022715585 -0.016966926 -0.042820197 0.019017484 0.01582092 0.03411085 -0.003498985
0.04428858 -0.0042900993 0.0073044277 0.03351504 0.04735676 0.025062926 0.05502635 0.017581847
0.022785902 0.018876147 0.067963794 0.003178971 0.060594212 -0.039945092 -0.03430728 0.029891305
00000000: 1b4a 6d3d 62d7 70bd 51d3 00bd d9fb 05bd
00000010: 8605 35bd cc92 c8bb 54a2 77bd ca1a 02bd
00000020: 5493 2abd fdf4 633d f618 0fbd 26ee 183b
00000030: e6d5 193d 306a 51bd 37bc 283d 8118 9dba
00000040: ae88 073d 6fc8 8c3c 5315 1f3c 1c85 703c
00000050: ed94 263c 58ca 3e3d bd8f 56bd d7fd 853d
00000060: 1624 723c 1465 ed3c 9e2c 1abd 219b 70bd
00000070: bb6c 46bd 474a 00bd b801 edbc 5f04 99bc
00000080: 05a7 34bd 103d 5abc 21a4 82bd ef5c 3dbd
00000090: 423a 00bc 8bcc 8b3a 1b2e 643c 4b8e 06bd
000000a0: dd4d 5c3d e5c8 8ebd 4297 143d b60d a3bc
000000b0: 302d 033c 8315 ae3d 94b4 0abd fad7 05bd
000000c0: ec1e dcbc 233d ca3c 65d6 cbbb a14e 8bbb
000000d0: 8454 33bd 8b52 433d 8317 063d 32f0 9ebb
000000e0: 9653 b13c 92f6 463c 33c3 86bc 4e4f 4abd
000000f0: 0ff7 2aba 92cb 1a3d 6039 2e3c 83c8 5bbb
00000100: 74a6 4bbc d680 313c 3d66 863c 9c12 1d3d
00000110: ba7b 12bd e0f3 95bd 1ffa 74bd a253 5bbc
00000120: 42f3 513d fed6 013c da19 96bc d6ac 543d
00000130: a7d3 40bd 68f6 a1bd 41f9 4b3b 9f6e a83c
00000140: ba17 08bd 340d 92bd d834 b93b 8af5 53bd
00000150: 126a 32bd 437a da3c 0120 963a 4e1e 223c
00000160: 62af 5cbd 73ef d23b d9ca 723d 2694 d13c
00000170: b027 1c3c 6b3c 243d b610 e5bc 2b02 163d
00000180: 000e 393d 59d5 3c3d 7986 713c 7d11 9f3c
00000190: baca b03c 177a 383d 2bad 093d 7742 7ebd
000001a0: 9bd6 7f3d b997 8d3d 40e4 f13c 2886 eabc
000001b0: 965f c33c 287c dcbb 99f0 dc3c f198 b3bc
000001c0: 8c91 67bd 3ed9 68bd 6925 ccbc 1a7a 6c3d
000001d0: 0b26 4ebd c491 b13d d15a 7abc e862 45bc
000001e0: 4e52 b83c 9498 88bd 19df 7c3d 94eb 4bbc
000001f0: 4288 85bd 78c2 c7bc c811 98bc be8a 263c
00000200: 069f 9e3c 66f5 eebc 17a3 b43c 25e4 86bd
00000210: 60da 1d3b 7193 0fbd d618 023b 6ebc 8a3c
00000220: 74d2 0d3c 8a2f 9fb8 c67f 13bd 2449 b7bc
00000230: 2a84 be3b 3d11 11bd 8a26 b43c 5ce3 1b3d
00000240: 1f01 233d 1c68 433c 54e3 d4bc 4323 b7bc
00000250: 9dd3 983b 29c3 823d 794d 803d b798 36bd
00000260: 6ee2 3fbc 4525 d5bc 5446 a3bc ae7e f2bc
00000270: a79a 0fbc 13af 70bd 1c16 283d 5630 40bc
00000280: 7e26 be3c 7f6d 813b c294 e4bc 998a 8a3d
00000290: dc22 123d 15c5 623d 3c10 06bd aaf2 233c
000002a0: 38eb e2bc 416e 2e3c 8559 4fbd 5e6d 2d3d
000002b0: 1aa2 94bc 6119 81bc 505d 493d 1ecd 743d
000002c0: 9157 523c a4ac 293d f945 08bc 6b7b 1e3d
000002d0: 75a9 113d 0dbd 4fbd 4b7c 08bd 038e 7dbd
000002e0: 72e6 3d3d 47b9 60bc f913 873d 7123 5ebd
000002f0: 917b 5abd 073e 54bd c255 01bd 3034 6039
00000300: d539 08bd 7ec3 96bc d11e 8f3c 1842 993b
00000310: abcf aa3c bd28 bebc ec0e 033d 6dc0 683d
00000320: ea50 3bbd 2081 db3c f2eb 6e3d b0b4 053d
00000330: c894 0bbd 6749 64bd c271 57bd 4bce fc3c
00000340: ea68 033d cfd2 e2bb 93cc e63b 55f1 35bd
00000350: dec2 003d a1ff 5a3b f417 733d 451b ab3c
00000360: d21b dcbb f77e 13bd bbb0 eabc df58 833d
00000370: 7549 24bd f6bf 86bc 9e34 513d 389b 2bbd
00000380: 6e99 74bb 6742 013d 1fc2 6f3d 5028 22bc
00000390: 0b4e a9bc ca75 fbbb e81f 673c 062b 58bd
000003a0: 2c1b aabc 0916 babc 39fe 8abc 3b64 2fbd
000003b0: 8eca 9b3c e09a 813c d2b7 0b3d 3a4f 65bb
000003c0: f167 353d f693 8cbb fb59 ef3b 1147 093d
000003d0: 29f9 413d c450 cd3c 4f63 613d ce07 903c
000003e0: 80a9 ba3c 26a2 9a3c 9a30 8b3d 4856 503b
000003f0: a331 783d 779d 23bd ca85 0cbd 9cde f43c

classifier.bias f4 [5]
0.038470153 0.05922942 0.015879061 0.04151942 -0.03364344
00000000: e192 1d3d 8c9a 723d ce14 823c 4410 2a3d
00000010: b4cd 09bd

net.1.weight f4 [5, 184]
0.057932 -0.058799155 -0.031451527 -0.032710884 -0.04419472 -0.006121015 -0.060457543 -0.03176383
-0.04164441 0.05565356 -0.034935914 0.0023335307 0.037557505 -0.05112666 0.04119512 -0.0011985452
0.033089332 0.017185418 0.009709674 0.014680173 0.010167343 0.04657969 -0.052383173 0.06542557
0.014779111 0.028978862 -0.037640207 -0.058741692 -0.048443537 -0.031320836 -0.028931484 -0.018678842
-0.044104595 -0.0133202225 -0.06378961 -0.046231207 -0.00782639 0.0010665817 0.013927008 -0.032850545
0.053785194 -0.06971911 0.036277063 -0.019903999 0.008006379 0.08500197 -0.03386362 -0.032676674
-0.026870213 0.024687355 -0.006220626 -0.0042513167 -0.043781772 0.04768614 0.032737266 -0.004850411
0.021646302 0.012143748 -0.0164505 -0.049392037 -0.00065218 0.037791796 0.010633796 -0.0033536262
-0.012429822 0.01083394 0.016406173 0.038347825 -0.035762526 -0.07321906 -0.059808847 -0.013386639
0.05125738 0.007924793 -0.018322874 0.05192264 -0.047076847 -0.079083264 0.0031123909 0.02056056
-0.033225752 -0.071314245 0.0056520514 -0.051747836 -0.043558188 0.026669627 0.001145363 0.0098949205
-0.053878196 0.006437236 0.05927548 0.025583338 0.009530947 0.04009668 -0.02796207 0.03662316
0.045179367 0.0461019 0.014741533 0.019417519 0.021581043 0.04503831 0.03361241 -0.062075105
0.062460523 0.069137044 0.029527783 -0.028628424 0.02384929 -0.0067286678 0.026970195 -0.021923514
-0.05653529 -0.056847803 -0.024920182 0.057733633 -0.05032925 0.08670381 -0.015280441 -0.012047507
0.022500183 -0.06669727 0.0617362 -0.012446303 -0.0652013 -0.024384722 -0.018563166 0.010164915
0.019362938 -0.02916975 0.022050424 -0.06586484 0.002408646 -0.03505272 0.001985123 0.016935553
0.008656133 -7.590566e-05 -0.036010526 -0.022373743 0.005814095 -0.03541683 0.021991033 0.038058624
0.03979599 0.011926677 -0.025987305 -0.022355681 0.004663898 0.0638488 0.06264777 -0.044579234
-0.0117117 -0.026018748 -0.019930996 -0.029601421 -0.008764899 -0.058760714 0.04103671 -0.011730274
0.023211714 0.0039498205 -0.027902965 0.06764717 0.035677776 0.055363733 -0.032730326 0.010006586
-0.027700052 0.010646404 -0.05062248 0.04234063 -0.018143702 -0.015759172 0.049161255 0.059765927
0.01283826 0.04142441 -0.008317464 0.03869192 0.035561997 -0.050717402 -0.03332166 -0.06190301
0.046362348 -0.013716049 0.06595606 -0.05423302 -0.0533405 -0.051816966 -0.031575926 0.00021381746
-0.033258278 -0.018403765 0.01747075 0.0046770684 0.020850977 -0.023212785 0.031996652 0.056824137
-0.045731463 0.02679497 0.058330484 0.03264302 -0.034077436 -0.055734064 -0.052598722 0.030860087
0.032082476 -0.006922103 0.00704343 -0.044419605 0.03143584 0.0033416527 0.059349015 0.020887027
-0.0067171836 -0.036009755 -0.028648725 0.06413435 -0.040109117 -0.016448956 0.05107557 -0.041896075
-0.0037322897 0.031557467 0.058534738 -0.009897307 -0.020667097 -0.0076739537 0.014106728 -0.052775405
-0.02076491 -0.022715585 -0.016966926 -0.042820197 0.019017484 0.01582092 0.03411085 -0.003498985
0.04428858 -0.0042900993 0.0073044277 0.03351504 0.04735676 0.025062926 0.05502635 0.017581847
0.022785902 0.018876147 0.067963794 0.003178971 0.060594212 -0.039945092 -0.03430728 0.029891305
00000000: 1b4a 6d3d 62d7 70bd 51d3 00bd d9fb 05bd
00000010: 8605 35bd cc92 c8bb 54a2 77bd ca1a 02bd
00000020: 5493 2abd fdf4 633d f618 0fbd 26ee 183b
00000030: e6d5 193d 306a 51bd 37bc 283d 8118 9dba
00000040: ae88 073d 6fc8 8c3c 5315 1f3c 1c85 703c
00000050: ed94 263c 58ca 3e3d bd8f 56bd d7fd 853d
00000060: 1624 723c 1465 ed3c 9e2c 1abd 219b 70bd
00000070: bb6c 46bd 474a 00bd b801 edbc 5f04 99bc
00000080: 05a7 34bd 103d 5abc 21a4 82bd ef5c 3dbd
00000090: 423a 00bc 8bcc 8b3a 1b2e 643c 4b8e 06bd
000000a0: dd4d 5c3d e5c8 8ebd 4297 143d b60d a3bc
000000b0: 302d 033c 8315 ae3d 94b4 0abd fad7 05bd
000000c0: ec1e dcbc 233d ca3c 65d6 cbbb a14e 8bbb
000000d0: 8454 33bd 8b52 433d 8317 063d 32f0 9ebb
000000e0: 9653 b13c 92f6 463c 33c3 86bc 4e4f 4abd
000000f0: 0ff7 2aba 92cb 1a3d 6039 2e3c 83c8 5bbb
00000100: 74a6 4bbc d680 313c 3d66 863c 9c12 1d3d
00000110: ba7b 12bd e0f3 95bd 1ffa 74bd a253 5bbc
00000120: 42f3 513d fed6 013c da19 96bc d6ac 543d
00000130: a7d3 40bd 68f6 a1bd 41f9 4b3b 9f6e a83c
00000140: ba17 08bd 340d 92bd d834 b93b 8af5 53bd
00000150: 126a 32bd 437a da3c 0120 963a 4e1e 223c
00000160: 62af 5cbd 73ef d23b d9ca 723d 2694 d13c
00000170: b027 1c3c 6b3c 243d b610 e5bc 2b02 163d
00000180: 000e 393d 59d5 3c3d 7986 713c 7d11 9f3c
00000190: baca b03c 177a 383d 2bad 093d 7742 7ebd
000001a0: 9bd6 7f3d b997 8d3d 40e4 f13c 2886 eabc
000001b0: 965f c33c 287c dcbb 99f0 dc3c f198 b3bc
000001c0: 8c91 67bd 3ed9 68bd 6925 ccbc 1a7a 6c3d
000001d0: 0b26 4ebd c491 b13d d15a 7abc e862 45bc
000001e0: 4e52 b83c 9498 88bd 19df 7c3d 94eb 4bbc
000001f0: 4288 85bd 78c2 c7bc c811 98bc be8a 263c
00000200: 069f 9e3c 66f5 eebc 17a3 b43c 25e4 86bd
00000210: 60da 1d3b 7193 0fbd d618 023b 6ebc 8a3c
00000220: 74d2 0d3c 8a2f 9fb8 c67f 13bd 2449 b7bc
00000230: 2a84 be3b 3d11 11bd 8a26 b43c 5ce3 1b3d
00000240: 1f01 233d 1c68 433c 54e3 d4bc 4323 b7bc
00000250: 9dd3 983b 29c3 823d 794d 803d b798 36bd
00000260: 6ee2 3fbc 4525 d5bc 5446 a3bc ae7e f2bc
00000270: a79a 0fbc 13af 70bd 1c16 283d 5630 40bc
00000280: 7e26 be3c 7f6d 813b c294 e4bc 998a 8a3d
00000290: dc22 123d 15c5 623d 3c10 06bd aaf2 233c
000002a0: 38eb e2bc 416e 2e3c 8559 4fbd 5e6d 2d3d
000002b0: 1aa2 94bc 6119 81bc 505d 493d 1ecd 743d
000002c0: 9157 523c a4ac 293d f945 08bc 6b7b 1e3d
000002d0: 75a9 113d 0dbd 4fbd 4b7c 08bd 038e 7dbd
000002e0: 72e6 3d3d 47b9 60bc f913 873d 7123 5ebd
000002f0: 917b 5abd 073e 54bd c255 01bd 3034 6039
00000300: d539 08bd 7ec3 96bc d11e 8f3c 1842 993b
00000310: abcf aa3c bd28 bebc ec0e 033d 6dc0 683d
00000320: ea50 3bbd 2081 db3c f2eb 6e3d b0b4 053d
00000330: c894 0bbd 6749 64bd c271 57bd 4bce fc3c
00000340: ea68 033d cfd2 e2bb 93cc e63b 55f1 35bd
00000350: dec2 003d a1ff 5a3b f417 733d 451b ab3c
00000360: d21b dcbb f77e 13bd bbb0 eabc df58 833d
00000370: 7549 24bd f6bf 86bc 9e34 513d 389b 2bbd
00000380: 6e99 74bb 6742 013d 1fc2 6f3d 5028 22bc
00000390: 0b4e a9bc ca75 fbbb e81f 673c 062b 58bd
000003a0: 2c1b aabc 0916 babc 39fe 8abc 3b64 2fbd
000003b0: 8eca 9b3c e09a 813c d2b7 0b3d 3a4f 65bb
000003c0: f167 353d f693 8cbb fb59 ef3b 1147 093d
000003d0: 29f9 413d c450 cd3c 4f63 613d ce07 903c
000003e0: 80a9 ba3c 26a2 9a3c 9a30 8b3d 4856 503b
000003f0: a331 783d 779d 23bd ca85 0cbd 9cde f43c

net.1.bias f4 [5]
0.038470153 0.05922942 0.015879061 0.04151942 -0.03364344
00000000: e192 1d3d 8c9a 723d ce14 823c 4410 2a3d
00000010: b4cd 09bd

weight f4 [5, 184]
0.057932 -0.058799155 -0.031451527 -0.032710884 -0.04419472 -0.006121015 -0.060457543 -0.03176383
-0.04164441 0.05565356 -0.034935914 0.0023335307 0.037557505 -0.05112666 0.04119512 -0.0011985452
0.033089332 0.017185418 0.009709674 0.014680173 0.010167343 0.04657969 -0.052383173 0.06542557
0.014779111 0.028978862 -0.037640207 -0.058741692 -0.048443537 -0.031320836 -0.028931484 -0.018678842
-0.044104595 -0.0133202225 -0.06378961 -0.046231207 -0.00782639 0.0010665817 0.013927008 -0.032850545
0.053785194 -0.06971911 0.036277063 -0.019903999 0.008006379 0.08500197 -0.03386362 -0.032676674
-0.026870213 0.024687355 -0.006220626 -0.0042513167 -0.043781772 0.04768614 0.032737266 -0.004850411
0.021646302 0.012143748 -0.0164505 -0.049392037 -0.00065218 0.037791796 0.010633796 -0.0033536262
-0.012429822 0.01083394 0.016406173 0.038347825 -0.035762526 -0.07321906 -0.059808847 -0.013386639
0.05125738 0.007924793 -0.018322874 0.05192264 -0.047076847 -0.079083264 0.0031123909 0.02056056
-0.033225752 -0.071314245 0.0056520514 -0.051747836 -0.043558188 0.026669627 0.001145363 0.0098949205
-0.053878196 0.006437236 0.05927548 0.025583338 0.009530947 0.04009668 -0.02796207 0.03662316
0.045179367 0.0461019 0.014741533 0.019417519 0.021581043 0.04503831 0.03361241 -0.062075105
0.062460523 0.069137044 0.029527783 -0.028628424 0.02384929 -0.0067286678 0.026970195 -0.021923514
-0.05653529 -0.056847803 -0.024920182 0.057733633 -0.05032925 0.08670381 -0.015280441 -0.012047507
0.022500183 -0.06669727 0.0617362 -0.012446303 -0.0652013 -0.024384722 -0.018563166 0.010164915
0.019362938 -0.02916975 0.022050424 -0.06586484 0.002408646 -0.03505272 0.001985123 0.016935553
0.008656133 -7.590566e-05 -0.036010526 -0.022373743 0.005814095 -0.03541683 0.021991033 0.038058624
0.03979599 0.011926677 -0.025987305 -0.022355681 0.004663898 0.0638488 0.06264777 -0.044579234
-0.0117117 -0.026018748 -0.019930996 -0.029601421 -0.008764899 -0.058760714 0.04103671 -0.011730274
0.023211714 0.0039498205 -0.027902965 0.06764717 0.035677776 0.055363733 -0.032730326 0.010006586
-0.027700052 0.010646404 -0.05062248 0.04234063 -0.018143702 -0.015759172 0.049161255 0.059765927
0.01283826 0.04142441 -0.008317464 0.03869192 0.035561997 -0.050717402 -0.03332166 -0.06190301
0.046362348 -0.013716049 0.06595606 -0.05423302 -0.0533405 -0.051816966 -0.031575926 0.00021381746
-0.033258278 -0.018403765 0.01747075 0.0046770684 0.020850977 -0.023212785 0.031996652 0.056824137
-0.045731463 0.02679497 0.058330484 0.03264302 -0.034077436 -0.055734064 -0.052598722 0.030860087
0.032082476 -0.006922103 0.00704343 -0.044419605 0.03143584 0.0033416527 0.059349015 0.020887027
-0.0067171836 -0.036009755 -0.028648725 0.06413435 -0.040109117 -0.016448956 0.05107557 -0.041896075
-0.0037322897 0.031557467 0.058534738 -0.009897307 -0.020667097 -0.0076739537 0.014106728 -0.052775405
-0.02076491 -0.022715585 -0.016966926 -0.042820197 0.019017484 0.01582092 0.03411085 -0.003498985
0.04428858 -0.0042900993 0.0073044277 0.03351504 0.04735676 0.025062926 0.05502635 0.017581847
0.022785902 0.018876147 0.067963794 0.003178971 0.060594212 -0.039945092 -0.03430728 0.029891305
00000000: 1b4a 6d3d 62d7 70bd 51d3 00bd d9fb 05bd
00000010: 8605 35bd cc92 c8bb 54a2 77bd ca1a 02bd
00000020: 5493 2abd fdf4 633d f618 0fbd 26ee 183b
00000030: e6d5 193d 306a 51bd 37bc 283d 8118 9dba
00000040: ae88 073d 6fc8 8c3c 5315 1f3c 1c85 703c
00000050: ed94 263c 58ca 3e3d bd8f 56bd d7fd 853d
00000060: 1624 723c 1465 ed3c 9e2c 1abd 219b 70bd
00000070: bb6c 46bd 474a 00bd b801 edbc 5f04 99bc
00000080: 05a7 34bd 103d 5abc 21a4 82bd ef5c 3dbd
00000090: 423a 00bc 8bcc 8b3a 1b2e 643c 4b8e 06bd
000000a0: dd4d 5c3d e5c8 8ebd 4297 143d b60d a3bc
000000b0: 302d 033c 8315 ae3d 94b4 0abd fad7 05bd
000000c0: ec1e dcbc 233d ca3c 65d6 cbbb a14e 8bbb
000000d0: 8454 33bd 8b52 433d 8317 063d 32f0 9ebb
000000e0: 9653 b13c 92f6 463c 33c3 86bc 4e4f 4abd
000000f0: 0ff7 2aba 92cb 1a3d 6039 2e3c 83c8 5bbb
00000100: 74a6 4bbc d680 313c 3d66 863c 9c12 1d3d
00000110: ba7b 12bd e0f3 95bd 1ffa 74bd a253 5bbc
00000120: 42f3 513d fed6 013c da19 96bc d6ac 543d
00000130: a7d3 40bd 68f6 a1bd 41f9 4b3b 9f6e a83c
00000140: ba17 08bd 340d 92bd d834 b93b 8af5 53bd
00000150: 126a 32bd 437a da3c 0120 963a 4e1e 223c
00000160: 62af 5cbd 73ef d23b d9ca 723d 2694 d13c
00000170: b027 1c3c 6b3c 243d b610 e5bc 2b02 163d
00000180: 000e 393d 59d5 3c3d 7986 713c 7d11 9f3c
00000190: baca b03c 177a 383d 2bad 093d 7742 7ebd
000001a0: 9bd6 7f3d b997 8d3d 40e4 f13c 2886 eabc
000001b0: 965f c33c 287c dcbb 99f0 dc3c f198 b3bc
000001c0: 8c91 67bd 3ed9 68bd 6925 ccbc 1a7a 6c3d
000001d0: 0b26 4ebd c491 b13d d15a 7abc e862 45bc
000001e0: 4e52 b83c 9498 88bd 19df 7c3d 94eb 4bbc
000001f0: 4288 85bd 78c2 c7bc c811 98bc be8a 263c
00000200: 069f 9e3c 66f5 eebc 17a3 b43c 25e4 86bd
00000210: 60da 1d3b 7193 0fbd d618 023b 6ebc 8a3c
00000220: 74d2 0d3c 8a2f 9fb8 c67f 13bd 2449 b7bc
00000230: 2a84 be3b 3d11 11bd 8a26 b43c 5ce3 1b3d
00000240: 1f01 233d 1c68 433c 54e3 d4bc 4323 b7bc
00000250: 9dd3 983b 29c3 823d 794d 803d b798 36bd
00000260: 6ee2 3fbc 4525 d5bc 5446 a3bc ae7e f2bc
00000270: a79a 0fbc 13af 70bd 1c16 283d 5630 40bc
00000280: 7e26 be3c 7f6d 813b c294 e4bc 998a 8a3d
00000290: dc22 123d 15c5 623d 3c10 06bd aaf2 233c
000002a0: 38eb e2bc 416e 2e3c 8559 4fbd 5e6d 2d3d
000002b0: 1aa2 94bc 6119 81bc 505d 493d 1ecd 743d
000002c0: 9157 523c a4ac 293d f945 08bc 6b7b 1e3d
000002d0: 75a9 113d 0dbd 4fbd 4b7c 08bd 038e 7dbd
000002e0: 72e6 3d3d 47b9 60bc f913 873d 7123 5ebd
000002f0: 917b 5abd 073e 54bd c255 01bd 3034 6039
00000300: d539 08bd 7ec3 96bc d11e 8f3c 1842 993b
00000310: abcf aa3c bd28 bebc ec0e 033d 6dc0 683d
00000320: ea50 3bbd 2081 db3c f2eb 6e3d b0b4 053d
00000330: c894 0bbd 6749 64bd c271 57bd 4bce fc3c
00000340: ea68 033d cfd2 e2bb 93cc e63b 55f1 35bd
00000350: dec2 003d a1ff 5a3b f417 733d 451b ab3c
00000360: d21b dcbb f77e 13bd bbb0 eabc df58 833d
00000370: 7549 24bd f6bf 86bc 9e34 513d 389b 2bbd
00000380: 6e99 74bb 6742 013d 1fc2 6f3d 5028 22bc
00000390: 0b4e a9bc ca75 fbbb e81f 673c 062b 58bd
000003a0: 2c1b aabc 0916 babc 39fe 8abc 3b64 2fbd
000003b0: 8eca 9b3c e09a 813c d2b7 0b3d 3a4f 65bb
000003c0: f167 353d f693 8cbb fb59 ef3b 1147 093d
000003d0: 29f9 413d c450 cd3c 4f63 613d ce07 903c
000003e0: 80a9 ba3c 26a2 9a3c 9a30 8b3d 4856 503b
000003f0: a331 783d 779d 23bd ca85 0cbd 9cde f43c

bias f4 [5]
0.038470153 0.05922942 0.015879061 0.04151942 -0.03364344
00000000: e192 1d3d 8c9a 723d ce14 823c 4410 2a3d
00000010: b4cd 09bd
