experiments/CnnTransformer/simclr/simclr_cnn_transformer_trainings2/logistic_on_simclr_IT_50pat/lightning_logs/version_0/checkpoints/epoch=39-step=22800.ckpt (torch, 7847 bytes, 6 tensors)

classifier.weight f4 [5, 184]
00000000: afd6 773c 1d7e 8cbc 942c 733c e3ad 213c
00000010: 7f1b 773c ad2e c0bc c520 343c 9e11 8bbc
00000020: 2ca2 cdbc a909 7a3b 63bb 3fbc 597c 933c
00000030: 384d 293d a2b3 f6bc be10 8ebc 492d 533d
00000040: ff4d d43c 8cd7 213d f60c 86bc e959 8ebb
00000050: 94b7 6b3c 7e08 d53b 1aad b93c 08be 68bc
00000060: 3c6a db3c c021 75bc 525b 9d3c bd2a c53b
00000070: 8303 21ba 0b70 1ebc 2ec1 0cbc f948 d23c
00000080: 3922 47bc c088 acbc 0f3c cfba 59df 123b
00000090: ea21 8c3c 0350 5abc f9f5 22bc ffed c93c
000000a0: ae4a c13c 3787 053d b6a6 10ba d042 963c
000000b0: e93e 81bc c5c3 46bd 3af0 0cbd 541d 163c
000000c0: e093 c03c eba6 a03c 3dfa 6cbd 71e4 dcbb
000000d0: 3d8c 1e3d 49c6 40bc dafe 93bc f720 a13b
000000e0: 36a1 a8bb e4fe e83c f446 84bc dff4 e93c
000000f0: 0132 b4bc 9479 1dbc 2324 8bbc e349 1bbd
00000100: e549 f1bc 5fba 483c b9c8 b13c b47c ce3c
00000110: 1145 d03b 3e54 f1bc 1489 57bc 0994 32bb
00000120: 160f cebb 1a99 cdbc c204 933c 817d 1ebb
00000130: bcfc 87bc b77c f03c 5a80 63bb 5258 123d
00000140: d1b2 2a3d 09a3 733c c826 123d a0d2 543c
00000150: 46c4 e93c 1d9b 493d 08c8 9ebb 5848 c73c
00000160: 1774 45bc bf24 f13c afeb c63c 09eb 453b
00000170: f367 c6bc 07f1 8ebc e38d 25bd 072f 503c
00000180: 84fb 49bd b37b e9bc d2f3 ae3b d8a0 3ebb
00000190: 601a ffbc cb63 c1ba 87bb a83b c8ab 9c3c
000001a0: ffdd 533d 6f75 00bc a4f3 583c b493 663b
000001b0: 4a07 01bc a499 733b a83b a8bc b0e5 05bd
000001c0: 1b6a f43b 1e18 cf3a 0fc3 1c3c 27cf 113c
000001d0: b306 f73b 0cb0 743c 3c4b 223c 30a5 bd3b
000001e0: 8a5b d3bb 42a0 5d3c d4a9 353d 4d77 1fbb
000001f0: 56e1 6e3c 2ec5 353c 69b1 85bc c85a 67bb
00000200: d56b 2ebb d7d6 e33b c5cb 30bd 9239 123d
00000210: b3a8 76bc ff69 85bc a5eb 24bc 607c 473c
00000220: a2e5 bcbc 3d8f d4ba e45d 9abb 4765 39bc
00000230: c502 e63b ce07 bfbc 13c9 303d bdbb 1e3d
00000240: 06e5 9bbc cb4d 83bc 3868 b83b 383b c4bc
00000250: 1f9a d1bc 61a0 533d d854 08bd 4abd 883c
00000260: 1095 8ebc fbde 42bc f0b4 81bc dd78 2f3c
00000270: 7916 60bc 1658 63bb 19e8 3d3c 3e04 94bc
00000280: d1f1 5dbb 7e39 1ebd a6cf 57bd f5c5 9cbc
00000290: 28e0 c639 b836 053b a27c 263a 993a 7cbc
000002a0: ee64 503c aa08 e33c 7ca8 dc3c 3c3c 58bb
000002b0: b2a1 cf3b 2d48 923c c46d f43b 45d6 3e3c
000002c0: b4a2 f3bc eb62 fdbc 2a61 783c 231b 4bbc
000002d0: ae42 a13c 86b3 e43c bae9 a6bc 13d9 e63c
000002e0: 9865 013c 7c31 dc3a dbe8 9a3a 8898 c53b
000002f0: cf08 5f3a daa1 c0bc 59b8 393a 1508 eabc
00000300: 6783 6bbc ad59 a33c 8849 afbc 2b9b bd3c
00000310: c02b c03c dab1 bebc 8fee 91ba 46df 543c
00000320: 0377 443d b542 713d cea0 71bc 9a42 68bc
00000330: 1aa4 183d 64c7 deb9 4246 3d3c 41ed e5bc
00000340: e848 843c c96f e6bc 8a21 abbc c80c 36bc
00000350: 58ce 63bb be17 53bc 9f53 7fbc 8d4f 4dbc
00000360: 194f 443c 0ecb bbbc b31f a83c 5d90 6cbc
00000370: a3c2 0d3d ac48 cfbc 8ee5 003d 8070 283d
00000380: e499 053c f61f 6c3c a0c6 003c e004 3b3b
00000390: c269 02bd 92c4 7ebb 5454 5cbc 926e 07bc
000003a0: 28f4 d03b 117c 043c 93dc 41bd 772e 11bd
000003b0: e242 e13c 789a fbbc aa69 d0bb 87c0 f1b8
000003c0: 0a84 e93b 1789 ce3b 078d 3fbc 6d8a ab3c
000003d0: c235 2e3c 71ba c8bc 9436 08bd 1c7f 46bb
000003e0: 33ce 99bc 4e44 22bc 2c6b c93c db4e cf3c
000003f0: bf73 87bc 8ebb 28bd ea9c 503c 8644 803b
0.015126868 -0.01714998 0.014842171 0.009868118 0.015082239 -0.023459757 0.010994141 -0.016976174
-0.025101744 0.003815273 -0.011702391 0.01800363 0.041333407 -0.030114952 -0.017341968 0.05155686
0.025916098 0.039512202 -0.016363602 -0.004344214 0.01438703 0.0065012565 0.02266555 -0.014205463
0.026784055 -0.01496166 0.019208584 0.0060170577 -0.0006142186 -0.009670268 -0.0085909795 0.025669562
-0.012154155 -0.021061301 -0.0015810746 0.0022410958 0.017106015 -0.01332474 -0.00994634 0.024649618
0.02359518 0.032599654 -0.0005518006 0.018342406 -0.015777068 -0.048526544 -0.034408785 0.009162266
0.023508012 0.019610843 -0.057855833 -0.0067410995 0.03870796 -0.011766025 -0.018065859 0.00491726
-0.005146171 0.028441854 -0.016147114 0.028559146 -0.0219965 -0.009611506 -0.016985005 -0.03791226
-0.029454181 0.012251466 0.021702157 0.025205947 0.0063558896 -0.029459115 -0.013155241 -0.002724888
-0.0062884195 -0.025097419 0.017946605 -0.0024183693 -0.016600005 0.029356344 -0.0034713955 0.03572876
0.04167444 0.014870414 0.035681516 0.01298967 0.028535973 0.049220193 -0.004845623 0.024326488
-0.012051604 0.029436467 0.024282305 0.0030199906 -0.024219489 -0.017448915 -0.040418517 0.012706525
-0.04931213 -0.028501367 0.0053391242 -0.002908757 -0.031140506 -0.0014754472 0.005149308 0.01912488
0.051725384 -0.007840498 0.013241682 0.0035183253 -0.007875273 0.0037170434 -0.020536259 -0.03268975
0.007458938 0.0015800034 0.00956799 0.008899487 0.0075386404 0.014934551 0.009905633 0.005787514
-0.0064501213 0.013526978 0.044351414 -0.0024332583 0.014580091 0.011094375 -0.016319947 -0.0035301913
-0.0026614566 0.006953101 -0.04316308 0.035699435 -0.015054869 -0.016285894 -0.010065948 0.012175649
-0.023058716 -0.0016217005 -0.0047108997 -0.01131565 0.007019373 -0.023319151 0.04316051 0.03875326
-0.019030105 -0.016028306 0.005627658 -0.023954019 -0.025586186 0.05166662 -0.03328404 0.016691823
-0.017405063 -0.011893983 -0.015833348 0.010709968 -0.013677233 -0.0034689954 0.011590981 -0.01806843
-0.0033866058 -0.038629048 -0.052688263 -0.019137362 0.00037932512 0.0020326804 0.0006350969 -0.01539483
0.012719376 0.027714092 0.026935808 -0.0032994887 0.0063364143 0.017856682 0.007459374 0.0116477655
-0.029740669 -0.030930957 0.0151598845 -0.012396607 0.019685116 0.027917635 -0.020375121 0.02817968
0.007897757 0.0016799415 0.0011818664 0.006030146 0.00085080875 -0.023514677 0.000708466 -0.028568307
-0.0143745905 0.019940222 -0.021397367 0.023145279 0.023458362 -0.023278166 -0.0011133718 0.012992686
0.04796506 0.058901507 -0.0147478115 -0.014176035 0.037265874 -0.00042491697 0.011552395 -0.028067233
0.016148046 -0.028129475 -0.020890016 -0.011111446 -0.0034760442 -0.012884079 -0.015583902 -0.012531173
0.011981749 -0.022923972 0.020522928 -0.014438716 0.03460945 -0.025303207 0.03146892 0.041122913
0.008154366 0.014411917 0.007859856 0.0028536841 -0.03183914 -0.003887449 -0.01344784 -0.008266108
0.006376762 0.00808622 -0.047329497 -0.035444703 0.027497713 -0.030713305 -0.0063602524 -0.000115276365
0.007126336 0.0063029635 -0.011691338 0.02094003 0.010632934 -0.024502965 -0.033255175 -0.0030288165
-0.018775081 -0.00990398 0.024587236 0.025306156 -0.016534684 -0.04119449 0.012732724 0.0039144186

classifier.bias f4 [5]
00000000: bb1a 27bd b57b 24bd 2f2d 66bd 7498 74bd
00000010: dafb 94bd
-0.040796977 -0.04015704 -0.056195434 -0.059715703 -0.072745994

net.1.weight f4 [5, 184]
00000000: afd6 773c 1d7e 8cbc 942c 733c e3ad 213c
00000010: 7f1b 773c ad2e c0bc c520 343c 9e11 8bbc
00000020: 2ca2 cdbc a909 7a3b 63bb 3fbc 597c 933c
00000030: 384d 293d a2b3 f6bc be10 8ebc 492d 533d
00000040: ff4d d43c 8cd7 213d f60c 86bc e959 8ebb
00000050: 94b7 6b3c 7e08 d53b 1aad b93c 08be 68bc
00000060: 3c6a db3c c021 75bc 525b 9d3c bd2a c53b
00000070: 8303 21ba 0b70 1ebc 2ec1 0cbc f948 d23c
00000080: 3922 47bc c088 acbc 0f3c cfba 59df 123b
00000090: ea21 8c3c 0350 5abc f9f5 22bc ffed c93c
000000a0: ae4a c13c 3787 053d b6a6 10ba d042 963c
000000b0: e93e 81bc c5c3 46bd 3af0 0cbd 541d 163c
000000c0: e093 c03c eba6 a03c 3dfa 6cbd 71e4 dcbb
000000d0: 3d8c 1e3d 49c6 40bc dafe 93bc f720 a13b
000000e0: 36a1 a8bb e4fe e83c f446 84bc dff4 e93c
000000f0: 0132 b4bc 9479 1dbc 2324 8bbc e349 1bbd
00000100: e549 f1bc 5fba 483c b9c8 b13c b47c ce3c
00000110: 1145 d03b 3e54 f1bc 1489 57bc 0994 32bb
00000120: 160f cebb 1a99 cdbc c204 933c 817d 1ebb
00000130: bcfc 87bc b77c f03c 5a80 63bb 5258 123d
00000140: d1b2 2a3d 09a3 733c c826 123d a0d2 543c
00000150: 46c4 e93c 1d9b 493d 08c8 9ebb 5848 c73c
00000160: 1774 45bc bf24 f13c afeb c63c 09eb 453b
00000170: f367 c6bc 07f1 8ebc e38d 25bd 072f 503c
00000180: 84fb 49bd b37b e9bc d2f3 ae3b d8a0 3ebb
00000190: 601a ffbc cb63 c1ba 87bb a83b c8ab 9c3c
000001a0: ffdd 533d 6f75 00bc a4f3 583c b493 663b
000001b0: 4a07 01bc a499 733b a83b a8bc b0e5 05bd
000001c0: 1b6a f43b 1e18 cf3a 0fc3 1c3c 27cf 113c
000001d0: b306 f73b 0cb0 743c 3c4b 223c 30a5 bd3b
000001e0: 8a5b d3bb 42a0 5d3c d4a9 353d 4d77 1fbb
000001f0: 56e1 6e3c 2ec5 353c 69b1 85bc c85a 67bb
00000200: d56b 2ebb d7d6 e33b c5cb 30bd 9239 123d
00000210: b3a8 76bc ff69 85bc a5eb 24bc 607c 473c
00000220: a2e5 bcbc 3d8f d4ba e45d 9abb 4765 39bc
00000230: c502 e63b ce07 bfbc 13c9 303d bdbb 1e3d
00000240: 06e5 9bbc cb4d 83bc 3868 b83b 383b c4bc
00000250: 1f9a d1bc 61a0 533d d854 08bd 4abd 883c
00000260: 1095 8ebc fbde 42bc f0b4 81bc dd78 2f3c
00000270: 7916 60bc 1658 63bb 19e8 3d3c 3e04 94bc
00000280: d1f1 5dbb 7e39 1ebd a6cf 57bd f5c5 9cbc
00000290: 28e0 c639 b836 053b a27c 263a 993a 7cbc
000002a0: ee64 503c aa08 e33c 7ca8 dc3c 3c3c 58bb
000002b0: b2a1 cf3b 2d48 923c c46d f43b 45d6 3e3c
000002c0: b4a2 f3bc eb62 fdbc 2a61 783c 231b 4bbc
000002d0: ae42 a13c 86b3 e43c bae9 a6bc 13d9 e63c
000002e0: 9865 013c 7c31 dc3a dbe8 9a3a 8898 c53b
000002f0: cf08 5f3a daa1 c0bc 59b8 393a 1508 eabc
00000300: 6783 6bbc ad59 a33c 8849 afbc 2b9b bd3c
00000310: c02b c03c dab1 bebc 8fee 91ba 46df 543c
00000320: 0377 443d b542 713d cea0 71bc 9a42 68bc
00000330: 1aa4 183d 64c7 deb9 4246 3d3c 41ed e5bc
00000340: e848 843c c96f e6bc 8a21 abbc c80c 36bc
00000350: 58ce 63bb be17 53bc 9f53 7fbc 8d4f 4dbc
00000360: 194f 443c 0ecb bbbc b31f a83c 5d90 6cbc
00000370: a3c2 0d3d ac48 cfbc 8ee5 003d 8070 283d
00000380: e499 053c f61f 6c3c a0c6 003c e004 3b3b
00000390: c269 02bd 92c4 7ebb 5454 5cbc 926e 07bc
000003a0: 28f4 d03b 117c 043c 93dc 41bd 772e 11bd
000003b0: e242 e13c 789a fbbc aa69 d0bb 87c0 f1b8
000003c0: 0a84 e93b 1789 ce3b 078d 3fbc 6d8a ab3c
000003d0: c235 2e3c 71ba c8bc 9436 08bd 1c7f 46bb
000003e0: 33ce 99bc 4e44 22bc 2c6b c93c db4e cf3c
000003f0: bf73 87bc 8ebb 28bd ea9c 503c 8644 803b
0.015126868 -0.01714998 0.014842171 0.009868118 0.015082239 -0.023459757 0.010994141 -0.016976174
-0.025101744 0.003815273 -0.011702391 0.01800363 0.041333407 -0.030114952 -0.017341968 0.05155686
0.025916098 0.039512202 -0.016363602 -0.004344214 0.01438703 0.0065012565 0.02266555 -0.014205463
0.026784055 -0.01496166 0.019208584 0.0060170577 -0.0006142186 -0.009670268 -0.0085909795 0.025669562
-0.012154155 -0.021061301 -0.0015810746 0.0022410958 0.017106015 -0.01332474 -0.00994634 0.024649618
0.02359518 0.032599654 -0.0005518006 0.018342406 -0.015777068 -0.048526544 -0.034408785 0.009162266
0.023508012 0.019610843 -0.057855833 -0.0067410995 0.03870796 -0.011766025 -0.018065859 0.00491726
-0.005146171 0.028441854 -0.016147114 0.028559146 -0.0219965 -0.009611506 -0.016985005 -0.03791226
-0.029454181 0.012251466 0.021702157 0.025205947 0.0063558896 -0.029459115 -0.013155241 -0.002724888
-0.0062884195 -0.025097419 0.017946605 -0.0024183693 -0.016600005 0.029356344 -0.0034713955 0.03572876
0.04167444 0.014870414 0.035681516 0.01298967 0.028535973 0.049220193 -0.004845623 0.024326488
-0.012051604 0.029436467 0.024282305 0.0030199906 -0.024219489 -0.017448915 -0.040418517 0.012706525
-0.04931213 -0.028501367 0.0053391242 -0.002908757 -0.031140506 -0.0014754472 0.005149308 0.01912488
0.051725384 -0.007840498 0.013241682 0.0035183253 -0.007875273 0.0037170434 -0.020536259 -0.03268975
0.007458938 0.0015800034 0.00956799 0.008899487 0.0075386404 0.014934551 0.009905633 0.005787514
-0.0064501213 0.013526978 0.044351414 -0.0024332583 0.014580091 0.011094375 -0.016319947 -0.0035301913
-0.0026614566 0.006953101 -0.04316308 0.035699435 -0.015054869 -0.016285894 -0.010065948 0.012175649
-0.023058716 -0.0016217005 -0.0047108997 -0.01131565 0.007019373 -0.023319151 0.04316051 0.03875326
-0.019030105 -0.016028306 0.005627658 -0.023954019 -0.025586186 0.05166662 -0.03328404 0.016691823
-0.017405063 -0.011893983 -0.015833348 0.010709968 -0.013677233 -0.0034689954 0.011590981 -0.01806843
-0.0033866058 -0.038629048 -0.052688263 -0.019137362 0.00037932512 0.0020326804 0.0006350969 -0.01539483
0.012719376 0.027714092 0.026935808 -0.0032994887 0.0063364143 0.017856682 0.007459374 0.0116477655
-0.029740669 -0.030930957 0.0151598845 -0.012396607 0.019685116 0.027917635 -0.020375121 0.02817968
0.007897757 0.0016799415 0.0011818664 0.006030146 0.00085080875 -0.023514677 0.000708466 -0.028568307
-0.0143745905 0.019940222 -0.021397367 0.023145279 0.023458362 -0.023278166 -0.0011133718 0.012992686
0.04796506 0.058901507 -0.0147478115 -0.014176035 0.037265874 -0.00042491697 0.011552395 -0.028067233
0.016148046 -0.028129475 -0.020890016 -0.011111446 -0.0034760442 -0.012884079 -0.015583902 -0.012531173
0.011981749 -0.022923972 0.020522928 -0.014438716 0.03460945 -0.025303207 0.03146892 0.041122913
0.008154366 0.014411917 0.007859856 0.0028536841 -0.03183914 -0.003887449 -0.01344784 -0.008266108
0.006376762 0.00808622 -0.047329497 -0.035444703 0.027497713 -0.030713305 -0.0063602524 -0.000115276365
0.007126336 0.0063029635 -0.011691338 0.02094003 0.010632934 -0.024502965 -0.033255175 -0.0030288165
-0.018775081 -0.00990398 0.024587236 0.025306156 -0.016534684 -0.04119449 0.012732724 0.0039144186

net.1.bias f4 [5]
00000000: bb1a 27bd b57b 24bd 2f2d 66bd 7498 74bd
00000010: dafb 94bd
-0.040796977 -0.04015704 -0.056195434 -0.059715703 -0.072745994

weight f4 [5, 184]
00000000: afd6 773c 1d7e 8cbc 942c 733c e3ad 213c
00000010: 7f1b 773c ad2e c0bc c520 343c 9e11 8bbc
00000020: 2ca2 cdbc a909 7a3b 63bb 3fbc 597c 933c
00000030: 384d 293d a2b3 f6bc be10 8ebc 492d 533d
00000040: ff4d d43c 8cd7 213d f60c 86bc e959 8ebb
00000050: 94b7 6b3c 7e08 d53b 1aad b93c 08be 68bc
00000060: 3c6a db3c c021 75bc 525b 9d3c bd2a c53b
00000070: 8303 21ba 0b70 1ebc 2ec1 0cbc f948 d23c
00000080: 3922 47bc c088 acbc 0f3c cfba 59df 123b
00000090: ea21 8c3c 0350 5abc f9f5 22bc ffed c93c
000000a0: ae4a c13c 3787 053d b6a6 10ba d042 963c
000000b0: e93e 81bc c5c3 46bd 3af0 0cbd 541d 163c
000000c0: e093 c03c eba6 a03c 3dfa 6cbd 71e4 dcbb
000000d0: 3d8c 1e3d 49c6 40bc dafe 93bc f720 a13b
000000e0: 36a1 a8bb e4fe e83c f446 84bc dff4 e93c
000000f0: 0132 b4bc 9479 1dbc 2324 8bbc e349 1bbd
00000100: e549 f1bc 5fba 483c b9c8 b13c b47c ce3c
00000110: 1145 d03b 3e54 f1bc 1489 57bc 0994 32bb
00000120: 160f cebb 1a99 cdbc c204 933c 817d 1ebb
00000130: bcfc 87bc b77c f03c 5a80 63bb 5258 123d
00000140: d1b2 2a3d 09a3 733c c826 123d a0d2 543c
00000150: 46c4 e93c 1d9b 493d 08c8 9ebb 5848 c73c
00000160: 1774 45bc bf24 f13c afeb c63c 09eb 453b
00000170: f367 c6bc 07f1 8ebc e38d 25bd 072f 503c
00000180: 84fb 49bd b37b e9bc d2f3 ae3b d8a0 3ebb
00000190: 601a ffbc cb63 c1ba 87bb a83b c8ab 9c3c
000001a0: ffdd 533d 6f75 00bc a4f3 583c b493 663b
000001b0: 4a07 01bc a499 733b a83b a8bc b0e5 05bd
000001c0: 1b6a f43b 1e18 cf3a 0fc3 1c3c 27cf 113c
000001d0: b306 f73b 0cb0 743c 3c4b 223c 30a5 bd3b
000001e0: 8a5b d3bb 42a0 5d3c d4a9 353d 4d77 1fbb
000001f0: 56e1 6e3c 2ec5 353c 69b1 85bc c85a 67bb
00000200: d56b 2ebb d7d6 e33b c5cb 30bd 9239 123d
00000210: b3a8 76bc ff69 85bc a5eb 24bc 607c 473c
00000220: a2e5 bcbc 3d8f d4ba e45d 9abb 4765 39bc
00000230: c502 e63b ce07 bfbc 13c9 303d bdbb 1e3d
00000240: 06e5 9bbc cb4d 83bc 3868 b83b 383b c4bc
00000250: 1f9a d1bc 61a0 533d d854 08bd 4abd 883c
00000260: 1095 8ebc fbde 42bc f0b4 81bc dd78 2f3c
00000270: 7916 60bc 1658 63bb 19e8 3d3c 3e04 94bc
00000280: d1f1 5dbb 7e39 1ebd a6cf 57bd f5c5 9cbc
00000290: 28e0 c639 b836 053b a27c 263a 993a 7cbc
000002a0: ee64 503c aa08 e33c 7ca8 dc3c 3c3c 58bb
000002b0: b2a1 cf3b 2d48 923c c46d f43b 45d6 3e3c
000002c0: b4a2 f3bc eb62 fdbc 2a61 783c 231b 4bbc
000002d0: ae42 a13c 86b3 e43c bae9 a6bc 13d9 e63c
000002e0: 9865 013c 7c31 dc3a dbe8 9a3a 8898 c53b
000002f0: cf08 5f3a daa1 c0bc 59b8 393a 1508 eabc
00000300: 6783 6bbc ad59 a33c 8849 afbc 2b9b bd3c
00000310: c02b c03c dab1 bebc 8fee 91ba 46df 543c
00000320: 0377 443d b542 713d cea0 71bc 9a42 68bc
00000330: 1aa4 183d 64c7 deb9 4246 3d3c 41ed e5bc
00000340: e848 843c c96f e6bc 8a21 abbc c80c 36bc
00000350: 58ce 63bb be17 53bc 9f53 7fbc 8d4f 4dbc
00000360: 194f 443c 0ecb bbbc b31f a83c 5d90 6cbc
00000370: a3c2 0d3d ac48 cfbc 8ee5 003d 8070 283d
00000380: e499 053c f61f 6c3c a0c6 003c e004 3b3b
00000390: c269 02bd 92c4 7ebb 5454 5cbc 926e 07bc
000003a0: 28f4 d03b 117c 043c 93dc 41bd 772e 11bd
000003b0: e242 e13c 789a fbbc aa69 d0bb 87c0 f1b8
000003c0: 0a84 e93b 1789 ce3b 078d 3fbc 6d8a ab3c
000003d0: c235 2e3c 71ba c8bc 9436 08bd 1c7f 46bb
000003e0: 33ce 99bc 4e44 22bc 2c6b c93c db4e cf3c
000003f0: bf73 87bc 8ebb 28bd ea9c 503c 8644 803b
0.015126868 -0.01714998 0.014842171 0.009868118 0.015082239 -0.023459757 0.010994141 -0.016976174
-0.025101744 0.003815273 -0.011702391 0.01800363 0.041333407 -0.030114952 -0.017341968 0.05155686
0.025916098 0.039512202 -0.016363602 -0.004344214 0.01438703 0.0065012565 0.02266555 -0.014205463
0.026784055 -0.01496166 0.019208584 0.0060170577 -0.0006142186 -0.009670268 -0.0085909795 0.025669562
-0.012154155 -0.021061301 -0.0015810746 0.0022410958 0.017106015 -0.01332474 -0.00994634 0.024649618
0.02359518 0.032599654 -0.0005518006 0.018342406 -0.015777068 -0.048526544 -0.034408785 0.009162266
0.023508012 0.019610843 -0.057855833 -0.0067410995 0.03870796 -0.011766025 -0.018065859 0.00491726
-0.005146171 0.028441854 -0.016147114 0.028559146 -0.0219965 -0.009611506 -0.016985005 -0.03791226
-0.029454181 0.012251466 0.021702157 0.025205947 0.0063558896 -0.029459115 -0.013155241 -0.002724888
-0.0062884195 -0.025097419 0.017946605 -0.0024183693 -0.016600005 0.029356344 -0.0034713955 0.03572876
0.04167444 0.014870414 0.035681516 0.01298967 0.028535973 0.049220193 -0.004845623 0.024326488
-0.012051604 0.029436467 0.024282305 0.0030199906 -0.024219489 -0.017448915 -0.040418517 0.012706525
-0.04931213 -0.028501367 0.0053391242 -0.002908757 -0.031140506 -0.0014754472 0.005149308 0.01912488
0.051725384 -0.007840498 0.013241682 0.0035183253 -0.007875273 0.0037170434 -0.020536259 -0.03268975
0.007458938 0.0015800034 0.00956799 0.008899487 0.0075386404 0.014934551 0.009905633 0.005787514
-0.0064501213 0.013526978 0.044351414 -0.0024332583 0.014580091 0.011094375 -0.016319947 -0.0035301913
-0.0026614566 0.006953101 -0.04316308 0.035699435 -0.015054869 -0.016285894 -0.010065948 0.012175649
-0.023058716 -0.0016217005 -0.0047108997 -0.01131565 0.007019373 -0.023319151 0.04316051 0.03875326
-0.019030105 -0.016028306 0.005627658 -0.023954019 -0.025586186 0.05166662 -0.03328404 0.016691823
-0.017405063 -0.011893983 -0.015833348 0.010709968 -0.013677233 -0.0034689954 0.011590981 -0.01806843
-0.0033866058 -0.038629048 -0.052688263 -0.019137362 0.00037932512 0.0020326804 0.0006350969 -0.01539483
0.012719376 0.027714092 0.026935808 -0.0032994887 0.0063364143 0.017856682 0.007459374 0.0116477655
-0.029740669 -0.030930957 0.0151598845 -0.012396607 0.019685116 0.027917635 -0.020375121 0.02817968
0.007897757 0.0016799415 0.0011818664 0.006030146 0.00085080875 -0.023514677 0.000708466 -0.028568307
-0.0143745905 0.019940222 -0.021397367 0.023145279 0.023458362 -0.023278166 -0.0011133718 0.012992686
0.04796506 0.058901507 -0.0147478115 -0.014176035 0.037265874 -0.00042491697 0.011552395 -0.028067233
0.016148046 -0.028129475 -0.020890016 -0.011111446 -0.0034760442 -0.012884079 -0.015583902 -0.012531173
0.011981749 -0.022923972 0.020522928 -0.014438716 0.03460945 -0.025303207 0.03146892 0.041122913
0.008154366 0.014411917 0.007859856 0.0028536841 -0.03183914 -0.003887449 -0.01344784 -0.008266108
0.006376762 0.00808622 -0.047329497 -0.035444703 0.027497713 -0.030713305 -0.0063602524 -0.000115276365
0.007126336 0.0063029635 -0.011691338 0.02094003 0.010632934 -0.024502965 -0.033255175 -0.0030288165
-0.018775081 -0.00990398 0.024587236 0.025306156 -0.016534684 -0.04119449 0.012732724 0.0039144186

bias f4 [5]
00000000: bb1a 27bd b57b 24bd 2f2d 66bd 7498 74bd
00000010: dafb 94bd
-0.040796977 -0.04015704 -0.056195434 -0.059715703 -0.072745994
