trainings\simclr_cnn_encoder_trainings4/pretrained_IT_250pat4/lightning_logs/version_0/checkpoints/last.ckpt (torch, 760578 bytes, 56 tensors)

f.0.net.1.weight f4 [64, 1, 7]
-0.2799946 0.068234734 0.08094153 -0.031274788 0.13892922 -0.3911684 0.16003609 0.38470095
0.29212117 -0.09518516 0.39330584 0.3199092 -0.07353758 -0.12901321 -0.11443879 -0.24768
0.3329079 0.11465941 -0.061379097 -0.08757162 -0.2375238 -0.36860213 -0.29952988 0.015943294
0.29008082 -0.27027515 0.27702633 0.25003347 0.11474718 0.12663302 0.33606884 0.10951201
0.40143892 -0.23351115 -0.15581658 -0.2927475 0.12637115 0.17010158 -0.21795213 -0.2832355
0.2584824 -0.33029932 0.2927897 0.028566038 -0.0924844 0.24021636 0.32452488 0.014437241
-0.11392936 0.12824358 -0.39859408 0.07565348 0.07923349 -0.31432095 -0.30813035 0.08534225
-0.045417987 -0.02267622 0.34061214 -0.0087452885 -0.3802275 0.002110378 0.25533342 -0.047029242
0.23859619 0.073497914 0.21831985 0.2279051 0.086305186 -0.23018675 -0.26431805 0.25538924
0.21196635 -0.007515261 -0.051058352 0.021734292 0.17398305 0.09567526 0.12216363 0.21944411
-0.3603009 0.011870549 0.39396274 -0.054825734 0.097465776 -0.341509 -0.19928816 -0.03749727
-0.2751194 0.07819137 0.09936267 -0.08394113 0.42725122 0.394767 0.27458078 0.2610616
0.31281817 0.4436436 -0.044592336 0.119598575 0.0016224751 -0.27014843 0.12455036 -0.22469848
-0.30017284 0.238857 -0.037403848 0.25474966 -0.025247864 0.12215446 0.0720646 -0.05953276
-0.26927915 -0.020948185 -0.24782237 0.30493814 -0.10715224 0.09228613 0.30384454 0.37548143
-0.11696058 0.11014328 -0.25350678 0.39222193 -0.10258898 0.16678448 -0.31539434 -0.3040368
0.1181448 -0.4117062 -0.3956802 0.10122912 0.2846925 0.12350368 -0.04899237 -0.11197255
-0.25720567 -0.33775854 -0.330435 0.3228413 0.39087945 -0.051823556 0.33196202 -0.34385237
-0.27574277 -0.14437377 0.18671292 -0.17690767 0.076162025 0.31526548 -0.014316422 -0.25493243
-0.1869284 -0.2752583 0.19360141 -0.25728792 0.1442405 -0.28650674 0.22697397 0.29594082
0.061122682 0.30486375 0.3534196 0.05768152 -0.26173875 0.29436886 0.31979337 0.06914629
-0.3855084 -0.4366547 -0.14839847 0.34460142 0.06929252 -0.006945438 0.36836067 0.07329505
-0.057629436 -0.042699672 -0.123347744 -0.30627495 0.20817114 -0.20928699 0.18358159 -0.30345982
-0.38008374 -0.19949226 0.32072234 -0.029218188 -0.11939414 0.04932582 0.22213784 0.26410744
-0.2355144 0.06770071 0.082547 -0.30199927 -0.38325763 0.06182491 -0.09569506 -0.4456501
-0.2111318 -0.41868022 -0.28895128 0.050085142 -0.0283429 -0.19220434 0.105828084 -0.15157212
0.16511391 0.016283862 0.39120945 0.3838259 0.4507916 0.017981384 0.04829979 0.26455292
-0.29075274 -0.23446156 -0.37121597 -0.009239627 0.24630123 -0.37529537 0.04863666 -0.23494339
0.24398018 0.0028138817 0.013980494 -0.0021354784 0.2348896 0.11597536 0.25129166 0.3323111
-0.065449275 -0.19438612 0.22982328 -0.20776144 -0.07716133 -0.14174081 0.09137005 -0.16605686
0.22148137 -0.2660767 -0.29297647 0.2643642 0.3533146 0.29368645 0.33988836 0.11372977
0.021998655 0.206091 -0.08873837 -0.27403873 0.28762087 0.112215355 -0.38615537 -0.23765953
00000000: 745b 8fbe a7be 8b3d acc4 a53d fe19 00bd
00000010: 7643 0e3e 3947 c8be 80e0 233e 86f7 c43e
00000020: e890 953e 70f0 c2bd 625f c93e 23cb a33e
00000030: df9a 96bd 0a1c 04be e25e eabd d39f 7dbe
00000040: e772 aa3e 8ed2 ea3d a668 7bbd c058 b3bd
00000050: 7039 73be 6bb9 bcbe fb5b 99be 839b 823c
00000060: 7985 943e 8161 8abe 65d6 8d3e 6304 803e
00000070: 9200 eb3d 16ac 013e 3711 ac3e d547 e03d
00000080: 6789 cd3e 8c1d 6fbe 628e 1fbe 00e3 95be
00000090: 7067 013e 1c2f 2e3e d82e 5fbe 3e04 91be
000000a0: ce57 843e fe1c a9be 88e8 953e 5303 ea3c
000000b0: 7668 bdbd 47fb 753e 2028 a63e 2d8a 6c3c
000000c0: cc53 e9bd 4952 033e 8614 ccbe 36f0 9a3d
000000d0: 2b45 a23d adee a0be 43c3 9dbe ebc7 ae3d
000000e0: 3608 3abd 7bc3 b9bc b764 ae3e 6648 0fbc
000000f0: 2ead c2be 444e 0a3b 10bb 823e bca1 40bd
00000100: 8f52 743e 1386 963d 3d8f 5f3e f45f 693e
00000110: c6c0 b03d 13b6 6bbe b254 87be 61c2 823e
00000120: b50d 593e 9442 f6bb 9022 51bd 1d0c b23c
00000130: 9d28 323e 64f1 c33d ed30 fa3d f5b5 603e
00000140: 5c79 b8be b17c 423c 7cb5 c93e f390 60bd
00000150: 239c c73d 45da aebe 3212 4cbe bd96 19bd
00000160: 73dc 8cbe cc22 a03d a87e cb3d 54e9 abbd
00000170: acc0 da3e e61e ca3e da95 8c3e dea9 853e
00000180: b429 a03e 4125 e33e 74a6 36bd 19f0 f43d
00000190: 3ba9 d43a e550 8abe 4214 ff3d 5c17 66be
000001a0: 41b0 99be ee96 743e c734 19bd 8c6e 823e
000001b0: 9cd4 cebc 1e2c fa3d 9b96 933d a0d8 73bd
000001c0: f5de 89be 879b abbc 26c5 7dbe da20 9c3e
000001d0: a272 dbbd 8300 bd3d 8391 9b3e 1a3f c03e
000001e0: 0789 efbd cd92 e13d a4cb 81be 50d1 c83e
000001f0: 2c1a d2bd 8dc9 2a3e 5e7b a1be b6aa 9bbe
00000200: e7f5 f13d 28cb d2be 9896 cabe 3651 cf3d
00000210: 37c3 913e 7fef fc3d 39ac 48bd dd51 e5bd
00000220: 76b0 83be b0ee acbe c72e a9be 744b a53e
00000230: 5a21 c83e f044 54bd edf6 a93e 6b0d b0be
00000240: 282e 8dbe b8d6 13be ac31 3f3e 4927 35be
00000250: d6fa 9b3d 7a6a a13e 6d8f 6abc 8186 82be
00000260: 296a 3fbe a8ee 8cbe 733f 463e 3ebb 83be
00000270: c8b3 133e 03b1 92be dd6b 683e 8e85 973e
00000280: c75b 7a3d 1a17 9c3e 6af3 b43e 7543 6c3d
00000290: 9f02 86be 84b7 963e f5bb a33e 929c 8d3d
000002a0: 5b61 c5be 3491 dfbe c5f5 17be 996f b03e
000002b0: 3de9 8d3d 8f96 e3bb c599 bc3e b71b 963d
000002c0: d80c 6cbd dae5 2ebd be9d fcbd 12d0 9cbe
000002d0: d12a 553e 544f 56be d0fc 3b3e 165f 9bbe
000002e0: 569a c2be b347 4cbe b835 a43e fb5a efbc
000002f0: ea84 f4bd df09 4a3d 1a78 633e 1739 873e
00000300: b02a 71be aba6 8a3d 670e a93d a69f 9abe
00000310: 583a c4be 1e3c 7d3d c6fb c3bd 402c e4be
00000320: ef32 58be 415d d6be 6cf1 93be 1426 4d3d
00000330: 5f2f e8bc 37d1 44be 65bc d83d b935 1bbe
00000340: 9f13 293e bc65 853c 9b4c c83e d484 c43e
00000350: 28ce e63e b24d 933c 00d6 453d 7b73 873e
00000360: 8bdd 94be b116 70be 0510 bebe ce61 17bc
00000370: 6436 7c3e b726 c0be 3c37 473d 0095 70be
00000380: f1d5 793e 1a69 383b 710e 653c 62f3 0bbb
00000390: e686 703e 7d84 ed3d 4da9 803e ae24 aa3e
000003a0: 450a 86bd 280d 47be cb56 6b3e 6abf 54be
000003b0: c206 9ebd 8124 11be 3920 bb3d cf0a 2abe
000003c0: 03cc 623e 353b 88be 0301 96be bf5a 873e
000003d0: a7e5 b43e 125e 963e d905 ae3e 27eb e83d
000003e0: 8636 b43c 8509 533e 76bc b5bd ce4e 8cbe
000003f0: 0b43 933e 2ad1 e53d 28b6 c5be 055d 73be

f.0.net.3.weight f4 [64]
1.0600592 0.9899667 1.0235841 1.0119034 0.95245785 1.0359648 0.9842823 1.042022
1.0286648 0.99365336 0.9698063 0.99602884 0.9963049 1.0387301 1.0363632 1.0481876
1.0120447 1.0261663 1.0233047 0.9908649 0.97836936 0.95093375 1.0037105 1.0277953
1.0299731 0.9995696 0.999149 1.0159388 1.0902616 0.99666715 1.0167537 1.0288107
1.0289466 1.0181863 1.010206 1.0007036 1.001187 0.95830643 0.9794564 1.0285882
0.9972692 1.027753 1.008911 0.9694671 1.0059865 1.0113192 1.0312777 1.0213877
1.0157053 0.9920716 0.9670057 1.0163879 0.98261005 1.0279924 0.9802277 1.0311817
1.0419494 1.0379924 0.98105216 1.0462363 0.9971814 1.020217 1.0134186 1.0304344
00000000: 05b0 873f 756e 7d3f ce04 833f 0d86 813f
00000010: 47d4 733f 7f9a 843f edf9 7b3f fa60 853f
00000020: 4aab 833f 1160 7e3f 3a45 783f bffb 7e3f
00000030: d70d 7f3f 1cf5 843f 8da7 843f 032b 863f
00000040: ae8a 813f 6b59 833f a6fb 823f 52a9 7d3f
00000050: 6a76 7a3f 6570 733f 9679 803f cc8e 833f
00000060: 29d6 833f cbe3 7f3f 3bc8 7f3f 480a 823f
00000070: b18d 8b3f 9425 7f3f fc24 823f 12b0 833f
00000080: 86b4 833f ee53 823f 6e4e 813f 0e17 803f
00000090: e526 803f 9253 753f a8bd 7a3f c7a8 833f
000000a0: 094d 7f3f 698d 833f ff23 813f ff2e 783f
000000b0: 2ac4 803f e872 813f e800 843f d5bc 823f
000000c0: a202 823f 68f8 7d3f b08d 773f 0019 823f
000000d0: 558c 7b3f 4195 833f 34f0 7a3f c3fd 833f
000000e0: 995e 853f efdc 843f 3c26 7b3f 12eb 853f
000000f0: 4847 7f3f 7896 823f b3b7 813f 46e5 833f

f.0.net.3.bias f4 [64]
0.011125537 0.09272567 -0.0056053745 0.011031514 0.029688055 0.0016759271 0.07713196 0.060530346
0.031435803 0.06113515 0.10012175 0.10811743 0.015137929 0.17975527 0.01653006 0.14094073
0.014590126 -0.01043214 0.052596033 0.046689633 0.07133967 0.045552403 0.07956948 0.1446062
0.04297535 0.020392004 0.034476027 0.11558025 0.06377121 0.03172974 0.17741461 0.017684765
0.12664168 0.026799135 0.07357 0.09562689 0.08855696 0.09918356 0.08447372 0.098863654
0.060393874 0.11739151 0.087258875 0.055910047 0.042768933 0.07664944 0.0647701 0.06530068
-0.024945635 0.042013653 0.056456815 0.006163268 0.05352323 0.027249062 0.06599114 0.06348045
0.04828847 -0.023347124 -0.0043621743 -0.044040494 0.0767942 0.07295035 0.005467969 0.010216406
00000000: e247 363c f5e6 bd3d 4aad b7bb 86bd 343c
00000010: 5d34 f33c c8aa db3a 5cf7 9d3d abee 773d
00000020: d4c2 003d da68 7a3d a20c cd3d ac6c dd3d
00000030: 1305 783c c411 383e 0c6a 873c c452 103e
00000040: 6d0b 6f3c 91eb 2abc f06e 573d a13d 3f3d
00000050: 881a 923d 2895 3a3d 53f5 a23d a613 143e
00000060: ec06 303d 220d a73c bc36 0d3d 57b5 ec3d
00000070: 7b9a 823d 0bf7 013d 2dac 353e a4df 903c
00000080: 5bae 013e dc89 db3c deab 963d 08d8 c33d
00000090: 5a5d b53d c020 cb3d 8f00 ad3d 0779 ca3d
000000a0: 915f 773d f66a f03d c8b4 b23d ef01 653d
000000b0: 7a2e 2f3d 62fa 9c3d 30a6 843d 5dbc 853d
000000c0: ca5a ccbc 8216 2c3d 433f 673d 3df5 c93b
000000d0: 2d3b 5b3d 6d39 df3c 5d26 873d 0a02 823d
000000e0: 21ca 453d 7842 bfbc 92f0 8ebb ce63 34bd
000000f0: 4746 9d3d fe66 953d a62c b33b b662 273c

f.0.net.3.running_mean f4 [64]
0.026912129 0.23704524 0.046050187 0.111882485 0.15808468 0.07668979 0.116918 0.11043459
0.02977684 0.1089479 0.045254104 0.056061357 0.10862396 0.46994546 0.09673755 0.07710631
0.06703731 0.072088845 0.22073194 0.15013725 0.08019715 0.1048091 0.05968062 0.21235962
0.16375041 0.061199386 0.10245046 0.054354087 0.38861567 0.008674512 0.3089509 0.15629677
0.13432764 0.042751834 0.059104398 0.15554269 0.15374985 0.124147415 0.1116267 0.06748001
0.18989065 0.08784561 0.086590946 0.034928236 0.19184524 0.10676838 0.0182545 0.044981156
0.031064617 0.077326804 0.046505798 0.029438829 0.08068006 0.03861083 0.091387816 0.040092643
0.05279532 0.033571135 0.06820133 0.015806234 0.13327818 0.034291662 0.07597262 0.10883777
00000000: d376 dc3c fdbb 723e 1f9f 3c3d a522 e53d
00000010: f3e0 213e 890f 9d3d b472 ef3d 882b e23d
00000020: 8fee f33c 1420 df3d 5e5c 393d 98a0 653d
00000030: 3d76 de3d b19c f03e 561e c63d eae9 9d3d
00000040: db4a 893d 51a3 933d 8e07 623e 94bd 193e
00000050: 673e a43d 27a6 d63d aa73 743d cd74 593e
00000060: 30ae 273e 35ac 7a3d 8cd1 d13d 64a2 5e3d
00000070: a2f8 c63e 8a1f 0e3c d02e 9e3e 430c 203e
00000080: 2f8d 093e 8c1c 2f3d 7417 723d 9546 1f3e
00000090: 9a70 1d3e 0041 fe3d 8a9c e43d f632 8a3d
000000a0: b272 423e 66e8 b33d 9856 b13d e910 0f3d
000000b0: 1473 443e 61a9 da3d 768a 953c 293e 383d
000000c0: 397b fe3c 845d 9e3d dd7c 3e3d b329 f13c
000000d0: 963b a53d 6426 1e3d 8929 bb3d 2f38 243d
000000e0: e83f 583d e381 093d 24ad 8b3d 137c 813c
000000f0: 137a 083e 6a75 0c3d 8897 9b3d 56e6 de3d

f.0.net.3.running_var f4 [64]
0.021261375 0.38631764 0.041208748 0.12927581 0.2100914 0.07917348 0.14282128 0.12639941
0.027425868 0.12652497 0.041044578 0.054618426 0.12168265 1.1509287 0.10545645 0.083254196
0.06610768 0.07550369 0.32922328 0.18826245 0.08615107 0.11601309 0.05672058 0.33752143
0.21851446 0.05800105 0.11289804 0.050371073 0.82548803 0.005958411 0.56926084 0.21033233
0.17833196 0.036735624 0.057936132 0.20396416 0.19569506 0.14963208 0.12687 0.06920551
0.26737666 0.095691234 0.09544417 0.029458545 0.2713597 0.13030176 0.013998641 0.04014891
0.02501015 0.08249813 0.04065181 0.025881294 0.08459681 0.03496332 0.1023645 0.034764882
0.04695284 0.028788747 0.06634617 0.012987998 0.16155362 0.029244663 0.07643585 0.1241412
00000000: 562c ae3c 6dcb c53e 81ca 283d e160 043e
00000010: 3322 573e b525 a23d be3f 123e d96e 013e
00000020: 37ac e03c c38f 013e 5c1e 283d 92b7 5f3d
00000030: c134 f93d a251 933f 8df9 d73d 2d81 aa3d
00000040: 7763 873d aea1 9a3d f48f a83e dfc7 403e
00000050: f96f b03d 4598 ed3d d753 683d 9ccf ac3e
00000060: 41c2 5f3e 8292 6d3d 1637 e73d e651 4e3d
00000070: 2f53 533f c63e c33b 14bb 113f 5c61 573e
00000080: a79c 363e 1878 163d 704e 6d3d fbdb 503e
00000090: 4964 483e 2739 193e 36ea 013e 9ebb 8d3d
000000a0: 98e5 883e c4f9 c33d 3c78 c33d 0c53 f13c
000000b0: a9ef 8a3e d36d 053e 8e5a 653c 2f73 243d
000000c0: 16e2 cc3c c8f4 a83d 8382 263d 0205 d43c
000000d0: 1841 ad3d b335 0f3d 7ba4 d13d 9f65 0e3d
000000e0: 9f51 403d 61d6 eb3c 80e0 873d 9dcb 543c
000000f0: 506e 253e 8192 ef3c 668a 9c3d be3d fe3d

f.0.net.4.weight f4 [64, 64, 7]
0.04062249 0.016056746 -0.00676891 -0.025944784 0.00820414 -0.03139745 -0.02582364 -0.031882416
-0.022731973 -0.036482226 0.023821937 0.05564066 0.040229913 0.047098253 -0.01747856 -0.0073327646
-0.0062105837 -0.027346687 -0.047652088 -0.03419549 -0.043307714 0.014412163 0.045970682 0.041895773
-0.007967147 0.05402034 -0.020257864 0.015582819 0.0027002497 0.024279153 -0.01839652 0.019610973
-0.013174269 -0.001364356 0.028608322 -0.044683278 -0.0009399502 -0.04621031 -0.059729036 -0.0079613505
-0.066943355 0.006252511 -0.081106 -0.05708345 -0.01707034 0.043446165 0.018555745 -0.01567932
-0.014405147 0.01686165 -0.009283868 -0.043509636 -0.048332375 -0.07427313 -0.0010307711 -0.030864738
0.020568606 0.010675272 -0.0005866416 0.0236543 0.050814837 0.0040724482 -0.022377677 -0.038419917
0.011382566 -0.03175805 -0.029148733 0.00023334575 0.05498024 -0.006160484 -0.050986726 0.008853277
0.027607905 0.009234941 0.019820541 0.022275593 -0.04148707 0.0056951786 -0.034499377 0.022398144
-0.014725089 -0.0023433245 -0.009793384 -0.029806152 0.052825443 0.002003437 0.002789688 0.0069115916
0.003613753 -0.02449634 0.008219944 -0.033637296 -0.023016235 0.005352907 0.004545172 0.021468483
-0.036832843 -0.00081334246 -0.015688768 0.0062095653 -0.03182116 -0.058042333 -0.07771232 -0.020196144
-0.025154825 -0.10071578 0.011910311 -0.02797085 0.033959154 0.024161434 0.013129778 0.048222512
0.02157795 0.024067894 0.014226595 0.054907877 -0.005963836 0.014379995 -0.013154121 -0.07331986
-0.037949312 0.007029544 -0.024209617 0.01713378 -0.021743853 0.022911169 0.019918319 0.048209086
-0.027185107 0.010083481 0.02288949 0.0067712814 0.012244027 -0.03351327 0.021770872 -0.030133083
-0.057008564 -0.0075057433 0.023005959 -0.0538388 -0.032660615 0.016838485 0.01604632 -0.0046103634
-0.00080470653 -0.038060974 -0.025700828 -0.027726451 -0.016612573 -0.03162358 0.004637711 0.00035606878
-0.01972421 0.012338908 -0.0426034 0.017062832 -0.030258762 0.036039423 -0.020574097 -0.010472996
-0.02349135 -0.02462976 0.024731502 -0.027155103 0.034339465 0.056028187 0.037895013 0.010879285
0.034112193 0.07477318 -0.0070127365 0.0005510032 -0.016405249 -0.0116556315 -0.01367015 0.01305366
-0.01745731 -0.007916429 -0.07951639 -0.04296763 -0.080511756 0.005024956 0.06907632 -0.03129712
0.010708189 -0.016379032 -0.011144861 0.011962413 -0.0043348973 -0.045236524 -0.06353548 -0.025930943
-0.016519237 0.029332548 0.033472948 0.04127722 0.021035455 0.03752248 0.008795447 -0.04072209
-0.08162836 -0.038751576 -0.0033632645 0.00047606722 0.028875902 0.04060551 0.0354753 0.014285953
0.019061364 0.019669576 -0.07407342 -0.05530413 0.0019673358 0.0056878626 -0.0038195155 0.008758439
0.031423826 -0.04727763 0.005501148 -0.024715016 -0.020093242 -0.068417884 -0.06972547 -0.06444774
-0.0016285317 -0.020195354 0.013808321 0.033393692 0.051217455 -0.040633723 0.013405087 -0.051336437
-0.003955492 -0.058515847 -0.039685767 0.012330299 0.023195228 0.0024197572 0.06834045 0.048493747
0.03127661 -0.013345544 -0.00072904304 -0.015240678 -0.01303053 -0.036350608 -0.06740841 0.014358005
-0.038629606 -0.006882306 0.045062613 0.039857384 0.005850466 0.024261236 -0.05902336 -0.070892364
00000000: c563 263d 7089 833c bccd ddbb 288a d4bc
00000010: a86a 063c 9d9a 00bd 198c d3bc 2397 02bd
00000020: 6738 babc 636e 15bd 3926 c33c 76e7 633d
00000030: 1fc8 243d 19ea 403d 322f 8fbc b047 f0bb
00000040: 2782 cbbb 2906 e0bc d62e 43bd 9210 0cbd
00000050: 6e63 31bd fe20 6c3c c14b 3c3d e79a 2b3d
00000060: a388 02bc 6f44 5d3d d2f3 a5bc 144f 7f3c
00000070: acf6 303b 13e5 c63c 4cb4 96bc 31a7 a03c
00000080: e4d8 57bc 31d4 b2ba 005c ea3c d005 37bd
00000090: fd66 76ba 0647 3dbd 6fa6 74bd 5370 02bc
000000a0: 9919 89bd dde1 cc3b e71a a6bd 56d0 69bd
000000b0: 19d7 8bbc 9bf4 313d 3802 983c eb71 80bc
000000c0: 9103 6cbc 7121 8a3c 5d1b 18bc 2937 32bd
000000d0: 2bf8 45bd 831c 98bd f01a 87ba 0cd8 fcbc
000000e0: 7e7f a83c 56e7 2e3c dac8 19ba aac6 c13c
000000f0: 3823 503d 2c72 853b 6451 b7bc 345e 1dbd
00000100: f17d 3a3c bb14 02bd 53c9 eebc 46ae 7439
00000110: f632 613d e3dd c9bb 75d7 50bd 560d 113c
00000120: f929 e23c 264e 173c b05e a23c 4e7b b63c
00000130: 59ee 29bd 9f9e ba3b 384f 0dbd 507c b73c
00000140: 8041 71bc 7692 19bb 6e74 20bc 082c f4bc
00000150: 7e5f 583d 184c 033b 33d3 363b a27a e23b
00000160: b7d4 6c3b 8cac c8bc f2ac 063c 43c7 09bd
00000170: 8b8c bcbc 7067 af3b abef 943b acde af3c
00000180: 09de 16bd 7d36 55ba bb85 80bc 9c79 cb3b
00000190: e856 02bd ccbd 6dbd a327 9fbd 6272 a5bc
000001a0: 7e11 cebc 1344 cebd 7723 433c 2023 e5bc
000001b0: c118 0b3d 33ee c53c 481e 573c f884 453d
000001c0: 3ec4 b03c 082a c53c aa16 693c 15e7 603d
000001d0: 486c c3bb 129a 6b3c 6284 57bc b928 96bd
000001e0: bd70 1bbd 1758 e63b 3f53 c6bc 245c 8c3c
000001f0: 2a20 b2bc 34b0 bb3c be2b a33c e476 453d
00000200: 4db3 debc 2f35 253c bd82 bb3c a0e1 dd3b
00000210: 2c9b 483c 3645 09bd d458 b23c a8d9 f6bc
00000220: d081 69bd bdf2 f5bb fe76 bc3c 1386 5cbd
00000230: 23c7 05bd ddf0 893c 9273 833c 8812 97bb
00000240: f1f2 52ba d3e5 1bbd 8b8a d2bc 9522 e3bc
00000250: 1717 88bc ba87 01bd f1f7 973b beae ba39
00000260: ab94 a1bc 2229 4a3c e780 2ebd 5ac7 8b3c
00000270: 39e1 f7bc 139e 133d 028b a8bc ee96 2bbc
00000280: ee70 c0bc 5ac4 c9bc b899 ca3c 6174 debc
00000290: 8aa7 0c3d d07d 653d cd37 1b3d 073f 323c
000002a0: 3ab9 0b3d ae22 993d 19cb e5bb 3371 103a
000002b0: 4d64 86bc 43f7 3ebc c4f8 5fbc 05df 553c
000002c0: a202 8fbc e9b3 01bc 7dd9 a2bd d3fe 2fbd
000002d0: 59e3 a4bd 63a8 a43b e377 8d3d 6931 00bd
000002e0: 6671 2f3c 522d 86bc ef98 36bc fffd 433c
000002f0: c10b 8ebb ef49 39bd e41e 82bd 216d d4bc
00000300: 5a53 87bc d04a f03c ee1a 093d 4d12 293d
00000310: 8c52 ac3c 2cb1 193d c71a 103c 35cc 26bd
00000320: c52c a7bd f9b9 1ebd 376a 5cbb a998 f939
00000330: 288d ec3c f751 263d 8c4e 113d a10f 6a3c
00000340: 9426 9c3c 1722 a13c ceb3 97bd 9586 62bd
00000350: 6bee 003b 4061 ba3b d650 7abb 8e7f 0f3c
00000360: 45b6 003d 30a6 41bd f942 b43b 2577 cabc
00000370: 959a a4bc ad1e 8cbd 3acc 8ebd 2dfd 83bd
00000380: 7574 d5ba ba70 a5bc 4c3c 623c d3c7 083d
00000390: 65c9 513d 8c6f 26bd 03a1 5b3c 2846 52bd
000003a0: 129d 81bb 50ae 6fbd 8b8d 22bd 0605 4a3c
000003b0: eb03 be3c ca94 1e3b 14f6 8b3d 61a1 463d
000003c0: e71b 003d 45a7 5abc 401d 3fba 09b4 79bc
000003d0: 017e 55bc 60e4 14bd 6c0d 8abd d63d 6b3c
000003e0: 143a 1ebd f884 e1bb 9393 383d 7f41 233d
000003f0: 44b5 bf3b 80bf c63c 7bc2 71bd 0430 91bd

f.0.net.6.weight f4 [64]
1.0083019 1.0234971 0.99180436 1.0020286 1.0023625 1.0243626 0.99381095 1.0163993
0.97590226 0.94811195 0.97927004 1.0230058 1.0142919 1.0466273 1.0229384 0.9800088
1.010383 1.030416 0.9960123 1.016192 1.0451081 1.0271864 0.9520284 0.9879746
1.0458195 1.0358104 0.99887836 0.988865 0.98118454 1.0029848 1.0334327 0.9951322
1.007052 1.0194157 1.0555156 1.0259161 0.97290444 1.0142826 1.0674624 0.97600716
1.028278 0.9840251 0.9994295 0.9846719 1.0537337 1.0051004 0.9974219 1.0584439
0.9880242 1.0281215 1.0462263 0.9734543 1.016187 1.0194546 0.9884166 1.0763414
0.9331319 1.0053954 0.99125594 1.0224693 1.0396494 1.0770651 1.0216302 0.960505
00000000: 0910 813f f401 833f e4e6 7d3f 7942 803f
00000010: 6a4d 803f 501e 833f 656a 7e3f 5f19 823f
00000020: bbd4 793f 77b7 723f 71b1 7a3f dbf1 823f
00000030: 51d4 813f e2f7 853f a5ef 823f dbe1 7a3f
00000040: 3b54 813f ace4 833f a9fa 7e3f 9412 823f
00000050: 1ac6 853f d87a 833f 22b8 733f e7eb 7c3f
00000060: 6add 853f 6f95 843f 7eb6 7f3f 4226 7d3f
00000070: e92e 7b3f ce61 803f 8647 843f fcc0 7e3f
00000080: 14e7 803f 377c 823f 231b 873f 3851 833f
00000090: 4410 793f 03d4 813f 9ca2 883f 9bdb 793f
000000a0: 9d9e 833f 12e9 7b3f 9dda 7f3f 7513 7c3f
000000b0: bfe0 863f 21a7 803f 0b57 7f3f 177b 873f
000000c0: 27ef 7c3f 7c99 833f beea 853f 4d34 793f
000000d0: 6a12 823f 7d7d 823f df08 7d3f 8ec5 893f
000000e0: bbe1 6e3f ccb0 803f f3c2 7d3f 46e0 823f
000000f0: 3b13 853f 45dd 893f c7c4 823f a8e3 753f

f.0.net.6.bias f4 [64]
-0.03593769 0.06453315 -0.08067558 -0.074646674 0.022771802 0.035122827 -0.06877323 0.03263776
-0.086569734 0.032608178 0.1122331 0.016063463 0.013711781 0.00554829 -0.014776196 0.038429443
0.030025618 0.035916664 -0.12242435 8.254721e-05 -0.11081321 -0.018160844 -0.019771827 0.090653405
-0.06088706 0.00690428 -0.047425307 0.12622245 0.13355803 0.0056239334 -0.007124829 0.04557305
0.007432646 -0.005051833 0.052943747 0.010732465 0.083228536 0.016342983 -0.05189692 0.14837368
0.0055921394 -0.11170162 0.14845422 0.026814256 -0.14765929 0.011078254 -0.03933312 -0.03279257
0.027246762 -0.039478138 -0.014099848 0.11918394 -0.08829573 -0.024622362 0.035554197 -0.039917607
0.026805935 -0.013574426 0.06517467 -0.0035690132 -0.040111437 -0.03815883 0.0043971925 0.063688956
00000000: 6633 13bd f529 843d 3d39 a5bd 5be0 98bd
00000010: ee8b ba3c f4dc 0f3d fbd8 8cbd 2caf 053d
00000020: 794b b1bd 2790 053d 78da e53d 8697 833c
00000030: 61a7 603c 6ece b53b dc17 72bc 3168 1d3d
00000040: 49f8 f53c 5a1d 133d 9eb9 fabd 321d ad38
00000050: 09f2 e2bd 0dc6 94bc 87f8 a1bc 7ea8 b93d
00000060: b664 79bd 4c3d e23b 0a41 42bd 7540 013e
00000070: 70c3 083e f948 b83b 6677 e9bb ceaa 3a3d
00000080: 8e8d f33b d989 a5bb 8bdb 583d 39d7 2f3c
00000090: b973 aa3d b8e1 853c dd91 54bd 45ef 173e
000000a0: 443e b73b d2c3 e4bd 6204 183e 92a9 db3c
000000b0: ff33 17be 9181 353c c41b 21bd 8051 06bd
000000c0: 9a34 df3c d4b3 21bd 0d03 67bc b616 f43d
000000d0: 64d4 b4bd d6b4 c9bc 47a1 113d a580 23bd
000000e0: 1f98 db3c 4567 5ebc 4c7a 853d 1be6 69bb
000000f0: e44b 24bd 6f4c 1cbd 5316 903b 5b6f 823d

f.0.net.6.running_mean f4 [64]
0.8684196 0.97390956 0.30142996 0.6004827 0.49857986 0.6536226 0.17242356 0.37357718
0.40137252 1.1470912 1.1324475 0.5741339 0.78002954 0.7000205 0.3411486 0.51038605
0.75270504 0.62840194 0.6762955 0.31111056 0.6748647 0.90277165 0.45353797 0.36292925
0.37598187 0.9508003 0.3664251 0.1037273 0.6631139 0.5952529 0.70060307 0.3376434
1.0425413 0.47252724 0.041655898 0.82047224 0.17214102 1.0079947 0.47407374 0.3221995
0.73714674 0.38900223 0.35523015 0.31034234 0.52930224 0.6039465 0.09563715 1.1246508
0.3989921 0.43109855 0.6277432 0.2963944 0.48619542 0.6924541 1.8526314 0.6292894
0.4362688 0.5146607 0.4780793 0.3128127 0.6760382 0.8359565 0.2948174 0.50472355
00000000: bf50 5e3f 2352 793f 0755 9a3e 3cb9 193f
00000010: dc45 ff3e d053 273f cd8f 303e 8245 bf3e
00000020: b380 cd3e e2d3 923f 0af4 903f 70fa 123f
00000030: 04b0 473f 8b34 333f 08ab ae3e a9a8 023f
00000040: 47b1 403f f3de 203f b421 2d3f e249 9f3e
00000050: efc3 2c3f 0b1c 673f 2136 e83e ddd1 b93e
00000060: b280 c03e a667 733f 129c bb3e fb6e d43d
00000070: d5c1 293f 7e62 183f b95a 333f 99df ac3e
00000080: fe71 853f 17ef f13e 609f 2a3d 780a 523f
00000090: bc45 303e f805 813f cbb9 f23e 55f7 a43e
000000a0: a6b5 3c3f 4d2b c73e bae0 b53e 31e5 9e3e
000000b0: 5a80 073f 3d9c 1a3f 69dd c33d 8ff4 8f3f
000000c0: b148 cc3e f3b8 dc3e c7b3 203f 02c1 973e
000000d0: 9bee f83e ac44 313f 0723 ed3f 1c19 213f
000000e0: a05e df3e cec0 033f cfc6 f43e fc28 a03e
000000f0: d710 2d3f 3f01 563f 4ef2 963e 9035 013f

f.0.net.6.running_var f4 [64]
1.9983854 4.71956 0.30634773 1.0623535 0.4454846 1.6264117 0.27290174 0.3268404
0.7530977 3.8842523 6.012845 0.9872733 1.9613657 0.6660168 0.37568152 1.2037053
3.058622 0.77077144 0.97241426 0.4709956 0.63626057 2.2777402 0.5593815 0.8470126
0.28915772 1.3902472 0.7712451 0.34070435 0.96976244 1.0117966 1.5123553 0.7181416
4.160848 0.8335784 0.022776626 1.9072193 0.37883902 3.26853 0.3043856 0.8504091
3.1387298 0.50385076 0.35000935 0.4877112 0.44655108 0.66207385 0.10144898 1.246056
1.5860281 1.0137314 1.0844796 0.32568398 0.47491035 0.65870446 9.274771 0.45894587
0.49287578 0.5680093 1.0030587 0.53413886 0.64045733 1.2548455 1.0528547 1.5575225
00000000: 18cb ff3f a306 9740 9cd9 9c3e 33fb 873f
00000010: 8f16 e43e 422e d03f c7b9 8b3e a057 a73e
00000020: 03cb 403f 9797 7840 3a69 c040 f1bd 7c3f
00000030: 080e fb3f 1480 2a3f 5459 c03e 0413 9a3f
00000040: 76c0 4340 4751 453f 24f0 783f 5626 f13e
00000050: f9e1 223f 7fc6 1140 a033 0f3f d1d5 583f
00000060: 7b0c 943e 9ff3 b13f 5270 453f cd70 ae3e
00000070: 5a42 783f 8d82 813f dc94 c13f 21d8 373f
00000080: ab25 8540 6565 553f 0c96 ba3c c31f f43f
00000090: 30f7 c13e 982f 5140 6ed8 9b3e 69b4 593f
000000a0: f3e0 4840 5dfc 003f 6d34 b33e 48b5 f93e
000000b0: 58a2 e43e ac7d 293f 7cc4 cf3d c37e 9f3f
000000c0: f802 cb3f f3c1 813f 3ad0 8a3f 0dc0 a63e
000000d0: 7327 f33e dba0 283f 7665 1441 f4fa ea3e
000000e0: 375a fc3e 0f69 113f 3a64 803f 53bd 083f
000000f0: 03f5 233f c79e a03f f1c3 863f e65c c73f

f.0.net.7.weight f4 [64, 64, 7]
0.015027784 -0.049626697 -0.029217832 -0.0008919296 -0.039590135 -0.00037041894 -0.040207963 -0.0339292
-0.048312813 0.035831988 -0.006039735 0.016935948 0.014050796 -0.056592464 -0.017857693 0.017853042
-0.000989047 0.00198561 0.009902905 -0.015121315 0.012290302 -0.013037238 0.006007547 0.024502978
0.041578624 -0.014661986 -0.002848441 -0.017212396 0.017052386 -0.015980477 -0.025923613 0.01685476
-0.046392314 0.016697114 0.0011913594 -0.045920707 0.0054063126 -0.036919724 -0.039767366 0.046138715
0.010302814 0.005921979 0.01223272 0.04394936 0.027056236 -0.02396738 -0.023490924 0.03811626
-0.008400884 -0.04169221 -0.023388006 -0.056584883 -0.056469187 0.011543614 -0.036191642 -0.032177724
0.008658257 -0.03210997 -0.008326035 0.03128877 -0.018504186 -0.026005266 -0.07177587 -0.04085093
-0.044038955 -0.014768382 -0.035075918 0.012409632 0.018741522 -0.032619786 0.035520073 0.026509503
0.0062666554 0.00813669 -0.037432607 0.015210507 -0.0073017767 -0.022377959 -0.045992013 -0.029976968
0.0061371853 -0.0006239994 0.0031438842 -0.042944435 -0.046384763 -0.012868298 0.03218186 0.05225343
0.037831787 0.021340644 -0.020248787 -0.032917116 -0.054807223 -0.047961246 0.0144485915 -0.061522454
0.025815237 -0.010635573 -0.039303973 -0.10520071 -0.012354584 -0.017852042 0.010894227 -0.056036025
-0.00806886 0.01876698 -0.0219491 0.005976084 0.030519975 -0.018310467 0.002436087 -0.044972528
-0.0443841 -0.0010834833 0.0021285194 0.00045328384 0.033646952 -0.005241187 -0.011501092 -0.073564045
-0.048749376 -0.03888184 -0.045883074 -0.038966626 -0.04958583 -0.046841644 -0.0054415152 -0.053361513
-0.01222279 -0.0038534827 -0.04894762 -0.027668146 -0.010417176 -0.010799853 -0.030684281 -0.037698653
-0.039098047 -0.01894797 -0.043091293 -0.019390069 -0.042840175 -0.041934434 -0.020063095 -0.07613112
-0.09368773 -0.112127975 -0.08258697 0.047807068 0.020359991 -0.02677902 -0.031881735 0.030902555
-0.025834616 0.033933677 -0.023309363 -0.010545352 0.024514366 0.022771463 0.007374764 0.0048268517
-0.04074583 0.014426172 -0.03156111 -0.029244414 -0.038989376 0.055143975 0.04228702 0.051855374
0.008752219 0.026748013 -0.0026902026 0.039540783 0.042858437 -0.02157369 -0.013315499 0.021586003
0.0026028738 -0.03391818 -0.03846012 -0.03104813 -0.017931975 0.03755657 -0.05079872 -0.033252962
-0.04150174 -0.010064409 0.0069872905 0.027737768 -0.0022814937 0.024309881 -0.033015694 0.016036179
0.012736957 -0.029912325 0.032237966 0.038264643 0.011618885 0.019833257 0.019434525 0.0005999537
0.016754104 -0.015617299 -0.011626181 -0.037810974 0.016199907 0.0063498216 0.038940888 -0.004250283
-0.030304074 0.020114636 -0.0355585 -0.010380571 -0.019917483 -0.038561273 -0.038490746 -0.005144608
0.0011075166 -0.039003015 -0.044862904 -0.05710617 -0.026723078 0.023955831 -0.018889097 -0.030039405
0.04205111 0.022111326 -0.028844023 0.01960678 0.030569196 0.03263947 0.003159479 -0.025879357
-0.052389063 0.013395282 -0.026831066 0.006281899 0.01187916 -0.01845438 -0.06270058 -0.0037148478
-0.00042511843 -0.0327855 0.015728297 -0.049708996 -0.020706898 -0.0455087 -0.060472097 -0.017497465
-0.069852486 -0.059999023 -0.058356985 -0.05200203 -0.045084883 -0.047580928 0.034350034 -0.00608939
00000000: 1837 763c 5d45 4bbd 3c5a efbc 62d0 69ba
00000010: 4429 22bd ca34 c2b9 1bb1 24bd 58f9 0abd
00000020: a8e3 45bd 90c4 123d f8e8 c5bb 42bd 8a3c
00000030: 4f35 663c 80cd 67bd 4c4a 92bc 8b40 923c
00000040: e9a2 81ba 0221 023b cb3f 223c 64bf 77bc
00000050: 435d 493c 249a 55bc f5da c43b 78ba c83c
00000060: 594e 2a3d d438 70bc e9ac 3abb 0301 8dbc
00000070: 72b1 8b3c 7de9 82bc c25d d4bc fe12 8a3c
00000080: de05 3ebd 63c8 883c 6327 9c3a 5a17 3cbd
00000090: 7027 b13b 2339 17bd 1be3 22bd f3fb 3c3d
000000a0: 22cd 283c 290d c23b bf6b 483c 3e04 343d
000000b0: 0aa5 dd3c 3d57 c4bc 0a70 c0bc cc1f 1c3d
000000c0: dda3 09bc 73c5 2abd 3498 bfbc 8dc5 67bd
000000d0: 3c4c 67bd 6d21 3d3c b03d 14bd cacc 03bd
000000e0: 5ddb 0d3c be85 03bd ec69 08bc a728 003d
000000f0: 1796 97bc ff08 d5bc 3aff 92bd 4e53 27bd
00000100: 3162 34bd 15f7 71bc c4ab 0fbd c551 4b3c
00000110: d287 993c 539c 05bd 7f7d 113d 752a d93c
00000120: 8458 cd3b c04f 053c ef52 19bd 7e35 793c
00000130: be43 efbb fb51 b7bc 1f62 3cbd 4292 f5bc
00000140: 711a c93b e493 23ba a009 4e3b 81e6 2fbd
00000150: f3fd 3dbd 8ed5 52bc 20d1 033d b107 563d
00000160: 81f5 1a3d 93d2 ae3c c9e0 a5bc 19d4 06bd
00000170: 8a7d 60bd 0373 44bd c9b9 6c3c f8fe 7bbd
00000180: 7a7a d33c d440 2ebc 34fd 20bd 7873 d7bd
00000190: e26a 4abc 723e 92bc b37d 323c 0886 65bd
000001a0: 4033 04bc 36bd 993c 99ce b3bc 07d3 c33b
000001b0: 0705 fa3c d5ff 95bc c2a6 1f3b 1d35 38bd
000001c0: 1acc 35bd ab03 8eba a17e 0b3b baa6 ed39
000001d0: 63d1 093d 43be abbb 146f 3cbc bfa8 96bd
000001e0: 6dad 47bd 9042 1fbd e4ef 3bbd 789b 1fbd
000001f0: 831a 4bbd 06dd 3fbd bd4e b2bb 9a91 5abd
00000200: 1942 48bc b68a 7cbb 4d7d 48bd 4fa8 e2bc
00000210: ceac 2abc def1 30bc 9a5d fbbc e769 1abd
00000220: 4625 20bd c638 9bbc 7f80 30bd ecd7 9ebc
00000230: 2e79 2fbd 71c3 2bbd 5c5b a4bc a2ea 9bbd
00000240: 5adf bfbd 5aa3 e5bd 5b23 a9bd 58d1 433d
00000250: ffc9 a63c ad5f dbbc 6c96 02bd 5b27 fd3c
00000260: 1ea3 d3bc 0afe 0a3d 47f3 bebc 69c6 2cbc
00000270: 5ad2 c83c 388b ba3c 01a8 f13b 912a 9e3b
00000280: 19e5 26bd c05b 6c3c 3946 01bd fb91 efbc
00000290: 53b3 1fbd a6de 613d 2735 2d3d 4d66 543d
000002a0: 7865 0f3c a61e db3c 1c4e 30bb 84f5 213d
000002b0: 548c 2f3d 4fbb b0bc 4029 5abc 21d5 b03c
000002c0: fa94 2a3b caed 0abd 5c88 1dbd a658 febc
000002d0: 14e6 92bc ebd4 193d 5212 50bd 4234 08bd
000002e0: bbfd 29bd 31e5 24bc a4f5 e43b 513a e33c
000002f0: 1d85 15bb 8425 c73c 773b 07bd 4e5e 833c
00000300: abae 503c b10a f5bc f50b 043d 63bb 1c3d
00000310: 235d 3e3c 5b79 a23c 2735 9f3c 3646 1d3a
00000320: e73f 893c b3df 7fbc bd7b 3ebc aedf 1abd
00000330: abb5 843c 2a12 d03b 7b80 1f3d f545 8bbb
00000340: 4040 f8bc 73c7 a43c caa5 11bd 4513 2abc
00000350: fd29 a3bc 6df2 1dbd 79a8 1dbd 1a94 a8bb
00000360: 172a 913a a0c1 1fbd 2ac2 37bd 29e8 69bd
00000370: 5bea dabc 053f c43c 4fbd 9abc 3315 f6bc
00000380: c93d 2c3d d022 b53c 4d4a ecbc 669e a03c
00000390: 406c fa3c f7b0 053d 430f 4f3b f200 d4bc
000003a0: ea95 56bd e377 5b3c d3cc dbbc 63d8 cd3b
000003b0: cfa0 423c a42d 97bc 2969 80bd ce74 73bb
000003c0: 6ee2 deb9 174a 06bd a1d8 803c a99b 4bbd
000003d0: 83a1 a9bc 5567 3abd 97b1 77bd d856 8fbc
000003e0: d20e 8fbd 89c1 75bd bc07 6fbd 1500 55bd
000003f0: edaa 38bd 38e4 42bd 9fb2 0c3d 8189 c7bb

f.0.net.9.weight f4 [64]
0.9963454 0.972721 1.0267359 0.99412197 0.99069756 1.0194736 0.96582973 0.99057823
1.0452169 0.97296727 0.9947425 1.0071563 1.0021105 0.98557687 0.995002 1.0167464
0.97817785 0.978426 1.0060035 0.98145086 0.991495 1.002815 0.9725061 0.98066455
1.0152739 0.9986059 1.0188085 1.0109012 0.9974441 0.98080635 0.985351 0.98160475
1.0360551 0.9708127 1.0246756 0.9865168 1.0170869 1.0282346 0.981259 0.99340695
1.0350987 1.0101322 0.967369 1.0113143 1.0212011 0.99077624 1.0104387 1.0248134
0.97320735 1.0121495 1.0115914 0.9847681 1.0187068 0.98088944 1.0621991 0.9977432
0.99362856 1.001502 1.016815 1.0113246 1.0379627 1.0051852 1.0206628 1.0065919
00000000: 7e10 7f3f 3e04 793f 156c 833f c77e 7e3f
00000010: 5b9e 7d3f 1c7e 823f 9e40 773f 8996 7d3f
00000020: abc9 853f 6214 793f 72a7 7e3f 7fea 803f
00000030: 2845 803f c44e 7c3f 73b8 7e3f bf24 823f
00000040: dd69 7a3f 207a 7a3f b9c4 803f 5d40 7b3f
00000050: 9ed2 7d3f 3e5c 803f 29f6 783f d50c 7b3f
00000060: 7ff4 813f a3a4 7f3f 5168 823f 3665 813f
00000070: 7f58 7f3f 2016 7b3f f73f 7c3f 734a 7b3f
00000080: 749d 843f 2e87 783f 9228 833f 5d8c 7c3f
00000090: e72f 823f 319d 833f ca33 7b3f eb4f 7e3f
000000a0: 1d7e 843f 034c 813f 7fa5 773f bf72 813f
000000b0: b8b6 823f 83a3 7d3f 0e56 813f 162d 833f
000000c0: 1e24 793f 1d8e 813f d47b 813f c319 7c3f
000000d0: fc64 823f 921b 7b3f 24f6 873f 196c 7f3f
000000e0: 715e 7e3f 3831 803f fe26 823f 1673 813f
000000f0: f6db 843f e9a9 803f 14a5 823f 01d8 803f

f.0.net.9.bias f4 [64]
-0.00419275 0.0047825575 0.005853843 -0.007222437 -0.008813876 -0.014102944 -0.014029299 -0.009296643
0.005656982 -0.0018585477 -0.00994068 -0.009720762 -0.0061769467 -0.0022798644 -0.01329388 0.0040116794
-0.006200394 -0.0015970654 -0.004741664 -0.020565037 0.005695929 0.008566934 0.011868019 -0.0127105145
0.0053930697 -0.007304964 0.013483885 0.008903819 0.009077998 -0.017487762 0.0032987026 -0.0061916714
-0.005497833 0.0070330515 0.012496459 -0.013811825 -0.010768704 -0.0027218664 0.0074317493 0.005340091
0.0022720364 -0.016991159 -0.0014993438 0.0055788313 0.0126503855 -0.013253806 0.008173146 0.0014730186
0.0038313665 0.0076725236 -0.009053856 -0.0025899862 -0.008678863 -0.0073783533 -0.0005681576 0.009479912
0.0050841 -0.019186778 -0.01398451 -0.006702826 0.014819628 -0.009514587 -0.0008229769 0.0068921633
00000000: 5663 89bb 00b7 9c3b 98d1 bf3b 31aa ecbb
00000010: 1368 10bc 0910 67bc 25db 65bc f250 18bc
00000020: 345e b93b 839a f3ba 3cde 22bc d543 1fbc
00000030: fc67 cabb c769 15bb 93ce 59bc 6874 833b
00000040: ad2c cbbb 9f54 d1ba f65f 9bbb 0278 a8bc
00000050: eaa4 ba3b 535c 0c3c 1472 423c c33f 50bc
00000060: 59b8 b03b 7b5e efbb 83eb 5c3c 53e1 113c
00000070: e2bb 143c 7f42 8fbc 0c2f 583b 81e3 cabb
00000080: 2a27 b4bb 8375 e63b f3bd 4c3c fe4a 62bc
00000090: 386f 30bc 5761 32bb 0886 f33b eefb ae3b
000000a0: 72e6 143b 0b31 8bbc a185 c4ba a1ce b63b
000000b0: 9043 4f3c 7e26 59bc a9e8 053c 4d12 c13a
000000c0: aa17 7b3b cb69 fb3b a056 14bc c2bc 29bb
000000d0: ca31 0ebc 1dc6 f1bb 69f0 14ba a251 1b3c
000000e0: 8698 a63b 972d 9dbc 491f 65bc 61a3 dbbb
000000f0: 06ce 723c 12e3 1bbc 0bbd 57ba a8d7 e13b

f.0.net.9.running_mean f4 [64]
0.58883464 0.47681737 0.36243337 0.9120977 1.0248383 0.46527165 0.3783111 0.38618764
0.13712667 0.3881301 1.0695592 0.31148973 0.7897929 0.4444234 0.36915 0.34391454
0.19077918 0.16599151 1.2552255 0.22963019 0.4931663 0.6347988 0.22170676 0.6144216
1.5381305 0.5928859 0.22135252 0.7497938 0.6630395 0.33684728 0.3985828 0.60299087
1.0832101 0.3079756 0.7467747 0.32577804 0.100584365 0.23814547 0.3943049 0.14263569
0.14236361 0.30000144 0.27285302 0.2605971 0.9468271 0.96077955 0.5270383 0.2922932
0.16555107 0.5093411 0.37041217 0.20481957 0.26613703 0.38973206 0.5564982 0.2783664
0.53157204 0.8874472 0.17145644 0.3465977 0.86749053 1.0982044 0.46562675 0.31141776
00000000: debd 163f 6821 f43e de90 b93e 3c7f 693f
00000010: e72d 833f 1638 ee3e feb1 c13e 63ba c53e
00000020: ef6a 0c3e fdb8 c63e 51e7 883f 957b 9f3e
00000030: de2f 4a3f 778b e33e 3b01 bd3e 9115 b03e
00000040: 9e5b 433e aef9 293e 3bab a03f 2d24 6b3e
00000050: 4b80 fc3e 2d82 223f 1907 633e bc4a 1d3f
00000060: 76e1 c43f 5fc7 173f 3caa 623e 7df2 3f3f
00000070: f5bc 293f 3f77 ac3e 0b13 cc3e 9c5d 1a3f
00000080: a1a6 8a3f faae 9d3e a02c 3f3f 61cc a63e
00000090: 2dff cd3d 68dc 733e 55e2 c93e 170f 123e
000000a0: c4c7 113e ca99 993e 64b3 8b3e fc6c 853e
000000b0: 4363 723f a6f5 753f fbeb 063f 74a7 953e
000000c0: 3886 293e 2e64 023f aaa6 bd3e 39bc 513e
000000d0: 1d43 883e f68a c73e ab76 0e3f 0a86 8e3e
000000e0: 1b15 083f bd2f 633f 4792 2f3e 4175 b13e
000000f0: dc13 5e3f f691 8c3f a166 ee3e 2672 9f3e

f.0.net.9.running_var f4 [64]
0.5520344 0.36459956 0.23883508 3.588794 4.077694 0.4029078 0.7274939 0.6986337
0.10242415 0.7679934 3.8974593 0.85682166 1.2347661 0.6551994 0.4304838 0.25848496
0.26192322 0.13965745 3.0636027 0.49311697 1.1558586 1.175834 0.5314044 1.1860366
5.5960937 1.8455031 0.30580458 1.2864141 1.5107063 0.8444699 0.27069935 1.0519215
2.277223 0.44646433 1.9335171 0.4652359 0.33678854 0.34610078 0.6077624 0.19353688
0.13001616 0.62126034 0.23032564 0.42469016 2.1802304 2.956373 0.48257157 0.20477907
0.27066964 0.68884313 0.6369932 0.15215722 0.79817617 0.9001745 0.53527886 0.31691927
0.76410264 2.2722354 0.38686275 1.1587647 2.2652378 4.0697794 0.46997538 0.42294624
00000000: 2052 0d3f cbac ba3e 2f91 743e cdae 6540
00000010: 787c 8240 ee49 ce3e 0a3d 3a3f a8d9 323f
00000020: c1c3 d13d 379b 443f f96f 7940 aa58 5b3f
00000030: d10c 9e3f 26bb 273f 5f68 dc3e 2458 843e
00000040: cd1a 863e 5d02 0f3e 1112 4440 d479 fc3e
00000050: 2df3 933f ba81 963f 1e0a 083f 0cd0 973f
00000060: 3313 b340 7239 ec3f 6b92 9c3e 38a9 a43f
00000070: d35e c13f 2e2f 583f 1b99 8a3e 5da5 863f
00000080: 06be 1140 f996 e43e 7d7d f73f 6633 ee3e
00000090: 8c6f ac3e 1f34 b13e 5196 1b3f 882e 463e
000000a0: f522 053e eb0a 1f3f 7cda 6b3e fd70 d93e
000000b0: e588 0b40 3735 3d40 9f13 f73e 9bb1 513e
000000c0: 3695 8a3e 0658 303f fd11 233f 1acf 1b3e
000000d0: 4655 4c3f d671 663f 0908 093f 3e43 a23e
000000e0: 3b9c 433f 4e6c 1140 e012 c63e 6752 943f
000000f0: a8f9 1040 a23b 8240 9da0 f03e 698c d83e

f.0.net.10.weight f4 [32, 64, 5]
0.0007607898 0.024778036 0.054619532 0.042490907 0.07198451 0.03487114 0.0071306867 0.04032997
-0.045540657 0.014020622 -0.03281305 -0.041509632 -0.06790867 0.023523636 -0.050091635 0.03891165
-0.037137795 0.043197494 -0.043433607 0.030161317 -0.05333364 0.030249108 -0.020933025 -0.03512089
-0.00011764667 0.060290456 -0.043295372 -0.018155497 -0.0024163942 0.07287347 0.027215179 0.026588595
-0.017252715 -0.024137938 -0.019585557 0.018658774 -0.024103388 0.026913762 0.055585086 0.0040063234
-0.03994519 0.021243226 0.0320826 -0.062886 -0.07754367 -0.020528464 -0.022722611 0.043948177
-0.045331847 -0.018852023 -0.036820002 -0.0056776204 0.036869388 0.0076594073 0.020248761 0.0060952147
0.032900203 0.0013609992 -0.013687187 -0.038890682 0.040655993 -0.0424742 -0.02029108 0.020113751
-0.054958615 0.020331442 -0.024261195 0.0048975744 0.021171356 -0.022162013 0.008432399 -0.036113124
-0.018969739 0.02228913 0.030281218 0.021694126 -0.041188277 -0.0041985335 0.017490834 -0.028332548
-0.062501535 -0.0288771 -0.0150098335 -0.036097225 -0.0011937219 0.031620484 -0.036137562 -0.020735713
-0.054531183 0.022253992 0.073792204 0.031973366 -0.0037032508 -0.003972488 0.024586927 -0.05111846
0.01705199 0.028812803 0.06623008 -0.04367042 0.023235157 0.024417976 -0.082706064 -0.05523927
-0.07458147 -0.041205168 0.037413362 -0.045925923 -0.07037985 -0.05234375 -0.059413612 -0.05692909
0.009487559 -0.0023829623 0.029232092 -0.04380149 -0.029983887 0.01951706 0.014886483 0.06663436
0.022077229 -0.012121353 0.0040570884 -0.077676326 0.006010628 0.03608793 0.024009185 0.025093906
-0.014423558 -0.03672903 0.027692461 0.02044559 0.021105971 0.028304478 0.023886997 -0.048842445
-0.023038508 -0.009116683 -0.06370662 -0.039033037 -0.047578666 0.0042320234 0.042234346 -0.0247459
-0.07396898 0.03944823 -0.041993387 -0.04658805 0.030580176 -0.002500748 0.06497773 -0.037872586
-0.031259216 -0.03346972 -0.052308377 0.035511043 0.020095536 0.0214996 0.055865303 -0.043112293
-0.018837593 -0.0042883996 -0.048395228 -0.004246861 -0.022773352 0.03779891 -0.043795135 0.008768812
0.01355845 0.005904082 -0.02474071 -0.05916344 -0.03777572 -0.06295694 -0.029951088 0.020621495
-0.027448725 0.06263768 0.015459823 0.023226669 0.039588276 0.031461675 0.04773407 0.0023446428
-0.00530976 -0.00033757894 0.046524305 0.015122587 0.027972437 0.018005816 0.010655856 0.047865707
-0.01596511 0.017841958 0.045576774 0.021625787 -0.03557008 -0.016852258 -0.033356484 0.015193938
-0.040689893 0.033361327 -0.0562182 -0.025120541 -0.004806546 -0.022673747 -0.04467553 -0.013100947
0.00036984327 0.015927568 -0.04309007 0.05503231 0.064686105 0.007570391 -0.008430517 0.044402704
0.0027986437 -0.008578554 -0.0005061913 -0.018647753 -0.042172115 -0.019214705 -0.03415518 -0.0042951545
-0.06200266 0.028234001 -0.026439127 0.022401737 -0.01702779 -0.036304746 0.025575217 -0.08092438
-0.042851273 0.04891398 0.010108901 -0.102026485 -0.05498513 0.0072617326 -0.017108886 0.06130884
-0.051162496 -0.0041559823 -0.050985746 0.044997193 0.040838063 0.017816655 -0.057298094 -0.040728536
-0.058050558 -0.013886139 0.047426403 0.03675596 -0.004781432 -0.023149554 -0.008955974 -0.032347072
00000000: bd6f 473a 4ffb ca3c bbb8 5f3d f20a 2e3d
00000010: 9d6c 933d 0ad5 0e3d 89a8 e93b 0a31 253d
00000020: d788 3abd c0b6 653c fa66 06bd 0106 2abd
00000030: b313 8bbd a4b4 c03c e32c 4dbd d361 1f3d
00000040: cd1d 18bd dbef 303d 70e7 31bd de14 f73c
00000050: 6074 5abd facc f73c bc7b abbc ecda 0fbd
00000060: 13b9 f6b8 20f3 763d 7d56 31bd d6ba 94bc
00000070: 5e5c 1ebb b03e 953d 5ef2 de3c 53d0 d93c
00000080: 9155 8dbc edbc c5bc e471 a0bc 49da 983c
00000090: 7874 c5bc 407a dc3c 30ad 633d 7a47 833b
000000a0: 919d 23bd 4606 ae3c 0b69 033d 60ca 80bd
000000b0: 37cf 9ebd 4f2b a8bc c524 babc 0103 343d
000000c0: e3ad 39bd 8f6f 9abc 92d0 16bd 550b babb
000000d0: 5b04 173d c4fb fa3b bbe0 a53c 5eba c73b
000000e0: 5dc2 063d 8e63 b23a 3940 60bc d64b 1fbd
000000f0: e686 263d 6df9 2dbd 7b39 a6bc 98c5 a43c
00000100: 491c 61bd 208e a63c 6abf c6bc d57b a03b
00000110: 8d6f ad3c 1c8d b5bc 0b28 0a3c 5beb 13bd
00000120: 6d66 9bbc b297 b63c 5110 f83c e1b7 b13c
00000130: 0ab5 28bd da93 89bb f048 8f3c a919 e8bc
00000140: ce00 80bd ab8f ecbc ceeb 75bc afda 13bd
00000150: a976 9cba 7b84 013d fb04 14bd f1dd a9bc
00000160: 175c 5fbd 014e b63c 5e20 973d 81f6 023d
00000170: 3db2 72bb a52b 82bb 866a c93c 9761 51bd
00000180: 9db0 8b3c d408 ec3c a3a3 873d c1df 32bd
00000190: a857 be3c 3508 c83c cc61 a9bd 9342 62bd
000001a0: 2bbe 98bd c0c6 28bd c13e 193d d21c 3cbd
000001b0: 5023 90bd 6666 56bd b05b 73bd 7a2e 69bd
000001c0: b571 1b3c 792b 1cbb 2478 ef3c 3169 33bd
000001d0: c5a0 f5bc 3ee2 9f3c 6fe6 733c 9877 883d
000001e0: 4edb b43c a498 46bc 53f1 843b c414 9fbd
000001f0: cdf4 c43b f0d0 133d e9ae c43c bc91 cd3c
00000200: c950 6cbc 2e71 16bd 4ddb e23c 837d a73c
00000210: 6ee6 ac3c cbde e73c aaae c33c 040f 48bd
00000220: 41bb bcbc 245e 15bc 9e78 82bd 1be1 1fbd
00000230: d9e1 42bd c9ac 8a3b ecfd 2c3d eab7 cabc
00000240: 0c7d 97bd 7894 213d 4201 2cbd 1cd3 3ebd
00000250: 4783 fa3c 97e3 23bb 0b13 853d 4920 1bbd
00000260: aa09 00bd 8c17 09bd 4f41 56bd 0774 113d
00000270: 659f a43c ee1f b03c 04d3 643d 8496 30bd
00000280: 4c51 9abc b485 8cbb 133a 46bd 4129 8bbb
00000290: 2e8f babc 08d3 1a3d 8762 33bd 10ab 0f3c
000002a0: 4324 5e3c 0877 c13b 08ad cabc 5d55 72bd
000002b0: b7ba 1abd 91ef 80bd fc5b f5bc 69ee a83c
000002c0: 26dc e0bc 2f48 803d 334b 7d3c db45 be3c
000002d0: 5127 223d f5dd 003d cd84 433d 94a8 193b
000002e0: 7ffd adbb 14fd b0b9 4590 3e3d bac4 773c
000002f0: 7426 e53c ef80 933c e695 2e3c d50e 443d
00000300: 43c9 82bc 4c29 923c b6ae 3a3d 9028 b13c
00000310: efb1 11bd bf0d 8abc cfa0 08bd ffef 783c
00000320: 72aa 26bd e3a5 083d 0e45 66bd 98c9 cdbc
00000330: 3b80 9dbb 4bbe b9bc b0fd 36bd 5ba5 56bc
00000340: 86e7 c139 887a 823c 377f 30bd 8f69 613d
00000350: 267a 843d 0b11 f83b 2720 0abc 9cdf 353d
00000360: 7369 373b 108d 0cbc ecb1 04ba 2cc3 98bc
00000370: abbc 2cbd 2868 9dbc 4de6 0bbd 5ebe 8cbb
00000380: 80f6 7dbd fe4a e73c de96 d8bc d983 b73c
00000390: dd7d 8bbc 49b4 14bd 1e83 d13c aebb a5bd
000003a0: d184 2fbd 075a 483d ce9f 253c 43f3 d0bd
000003b0: 1638 61bd d4f3 ed3b ef27 8cbc fa1e 7b3d
000003c0: c48f 51bd e82e 88bb 6ed6 50bd fa4e 383d
000003d0: d045 273d 3cf4 913c 68b1 6abd f7d2 26bd
000003e0: 6cc6 6dbd b082 63bc 3042 423d 6b8d 163d
000003f0: 8fad 9cbb 22a4 bdbc 14bc 12bc 5d7e 04bd

f.0.net.11.weight f4 [32]
1.0383925 1.0096596 1.0327396 1.0257865 0.979285 0.9843662 1.0203754 1.0330677
1.0058422 1.0126015 1.0428629 1.0324845 1.0094968 1.023458 1.0375476 1.0252651
1.0115157 1.0208557 1.0315138 1.02984 1.04595 1.0309271 1.0177765 1.0300713
1.0280716 1.0291685 1.0068408 1.0167466 1.0243378 1.0128527 1.036508 1.0324758
00000000: 0cea 843f 873c 813f d030 843f f94c 833f
00000010: 6cb2 7a3f 6cff 7b3f a99b 823f 903b 843f
00000020: 70bf 803f ed9c 813f 887c 853f 7428 843f
00000030: 3137 813f ac00 833f 5cce 843f e33b 833f
00000040: 5979 813f 66ab 823f a508 843f ccd1 833f
00000050: b1e1 853f 6bf5 833f 8046 823f 60d9 833f
00000060: da97 833f cbbb 833f 29e0 803f c124 823f
00000070: 801d 833f 28a5 813f 4bac 843f 2b28 843f

f.0.net.11.bias f4 [32]
0.100658625 0.100658625 0.100658625 0.100658625 0.100658625 0.100658625 0.100658625 0.100658625
0.100658625 0.100658625 0.100658625 0.100658625 0.100658625 0.100658625 0.100658625 0.100658625
0.100658625 0.100658625 0.100658625 0.100658625 0.100658625 0.100658625 0.100658625 0.100658625
0.100658625 0.100658625 0.100658625 0.100658625 0.100658625 0.100658625 0.100658625 0.100658625
00000000: 1c26 ce3d 1c26 ce3d 1c26 ce3d 1c26 ce3d
00000010: 1c26 ce3d 1c26 ce3d 1c26 ce3d 1c26 ce3d
00000020: 1c26 ce3d 1c26 ce3d 1c26 ce3d 1c26 ce3d
00000030: 1c26 ce3d 1c26 ce3d 1c26 ce3d 1c26 ce3d
00000040: 1c26 ce3d 1c26 ce3d 1c26 ce3d 1c26 ce3d
00000050: 1c26 ce3d 1c26 ce3d 1c26 ce3d 1c26 ce3d
00000060: 1c26 ce3d 1c26 ce3d 1c26 ce3d 1c26 ce3d
00000070: 1c26 ce3d 1c26 ce3d 1c26 ce3d 1c26 ce3d

f.0.net.11.running_mean f4 [32]
-0.02048358 -0.017446773 -0.020751376 -0.014477225 -0.027501123 -0.04176293 -0.019082129 -0.014608265
-0.0193217 -0.017695742 -0.018979846 -0.021104047 -0.030728763 -0.025559172 -0.029783376 -0.026798403
-0.025121719 -0.024150923 -0.023683202 -0.020982344 -0.013822654 -0.0328462 -0.014667685 -0.016966103
-0.0181394 -0.016356489 -0.020529464 -0.029253144 -0.014445102 -0.032261945 -0.013664309 -0.032109924
00000000: 2ecd a7bc 89ec 8ebc cafe a9bc e231 6dbc
00000010: 094a e1bc 9b0f 2bbd 2052 9cbc 8157 6fbc
00000020: 8b48 9ebc a9f6 90bc 9f7b 9bbc 65e2 acbc
00000030: e3ba fbbc 7861 d1bc 44fc f3bc 5388 dbbc
00000040: 10cc cdbc 28d8 c5bc 4603 c2bc 2ae3 abbc
00000050: 6a78 62bc bd89 06bd bb50 70bc 7ffc 8abc
00000060: 1499 94bc 0bfe 85bc 682d a8bc 4aa4 efbc
00000070: 26ab 6cbc 1a25 04bd 44e0 5fbc b285 03bd

f.0.net.11.running_var f4 [32]
1.2273269 1.4416013 0.5156942 0.5689384 1.2522233 1.1189643 1.0443004 0.9946941
0.7758161 1.2088957 0.61885554 0.9300652 1.353424 0.89900863 1.3885099 1.0577164
0.82322335 1.2811788 0.67311096 0.5570629 0.48105815 0.68014944 1.3939624 0.50964975
0.5162797 0.99130815 1.3871034 1.1796563 0.67989534 0.9151632 0.57066476 1.15789
00000000: 0c19 9d3f 6486 b83f 8904 043f f2a5 113f
00000010: da48 a03f 393a 8f3f a3ab 853f 46a4 7e3f
00000020: e29b 463f 18bd 9a3f 516d 1e3f c118 6e3f
00000030: ff3c ad3f 6e25 663f b1ba b13f 4063 873f
00000040: c4be 523f abfd a33f 0051 2c3f ad9b 0e3f
00000050: 414d f63e 461e 2e3f 5c6d b23f 6878 023f
00000060: e82a 043f 5fc6 7d3f 9b8c b13f fafe 963f
00000070: 9f0d 2e3f 2348 6a3f 1617 123f bd35 943f
