results/checkpoints/logistic_on_simclr/lightning_logs/version_1/checkpoints/epoch=0-step=10.ckpt (torch, 6183 bytes, 6 tensors)

classifier.weight f4 [5, 100]
00000000: 0fa0 903d 7a5a b63d 4cba f5bc 6d03 ca3d
00000010: 644c 84bc cdf5 833c 55fb 28bd ec27 4e3d
00000020: d7dc c23d 5958 95bd 235b c03d fdd9 d43c
00000030: dde9 a53d 4f85 a53c d981 2f3d 3464 d4bb
00000040: f708 a93d 40d5 de3b a526 5dbd c4b6 8b3c
00000050: ac9f 56bd 6256 35bb 298d 09bd fbbe 703d
00000060: 2e0a a8bd db90 20bd d705 a6bc e1d5 80bd
00000070: 6028 983a e838 d8bd 2182 c63d f234 9ebd
00000080: f88f 953d 1771 c33c 8363 ddbc 7185 8c3d
00000090: fcbd 003c d37a aa3d f0ee 623b 1ac0 20bd
000000a0: 284f ae3c dc00 0cbd b334 173d 2871 c83d
000000b0: e749 843d 1a0f 53bd efea 553d 747a cd3c
000000c0: 9246 373d 3737 8cbd 577d bcbd 06bb 01bd
000000d0: ffa6 aabd 7d80 9a3d 5bca 163d 4b08 473d
000000e0: 766d 1e3d 69af 1ebc c0af af3d c8be 8abd
000000f0: bc2c d33a 9464 8dbd a9d6 c63c b983 2bbd
00000100: 62fa 1b3d d7dd debc cdb2 b03d 3146 88bd
00000110: d433 85bd 7005 8abd 2220 a93d 7125 d83c
00000120: 7101 b83d ff6d a1bd e7f7 bbbd 1eee 91bd
00000130: d25f 99bd 0b22 2c3d 94ca 303d 7e9b 9a3d
00000140: 025a 33bd 962f 94bd 2905 6f3d afd8 42bd
00000150: f99e 5c3d 3b4f 81bc 5039 463d 2f81 91bd
00000160: 95bf 6bbd ec5e b73c 8ae8 853c 434d 8abc
00000170: 0fad 673d 8c58 963d 0362 a2bd 9ccf 4abd
00000180: b394 c93d 93b7 f0bc 0c5f 16bd 62e5 cebd
00000190: ecc3 4abd 709a 8b3c 0d23 b1bb 1f54 a4bd
000001a0: 97e8 aabb 752a 77bd 149c bdbd 9b2e 4dbd
000001b0: 9e28 c3bd 2610 69bd a946 bd3d 58c4 333c
000001c0: 96e9 bf3c b439 cabd 41c8 6cbd 9183 27bd
000001d0: 6fdc 303c 8989 a5bd d0b4 11bd 5cd7 56bd
000001e0: bbe8 e83b d7c0 2fbd 3ac4 63bc 1223 77bd
000001f0: a8b6 76bd 87a9 86bd 91d5 25bd e5da 91bd
00000200: dc2b 9d3d 7bd8 3dbc 9b6c a23d bb45 be3c
00000210: 9e11 9dbd cc96 7a3d 28e4 06bd 25df 24bd
00000220: 6860 9bbd 68a1 d6bd d3bf 133d 925a 6abc
00000230: 7bd0 3b3d b5b7 96bd 166b a73d abd9 86bd
00000240: 3d10 ccbc 2a62 e43c 3eca 6f3d 9fca 953d
00000250: 1b97 ca3d 5577 92bd 4af0 8e3c f074 4cbd
00000260: 5b09 59bb c0e5 8bbd 2603 b23d 94d5 a5bd
00000270: 28fd 3b3d 35d8 273d fde7 ca3c 9ed5 67bd
00000280: 3b65 c63d e2d5 853c 455c 8a3c 6101 a5bd
00000290: bacd 0c3d 51ba f9bb b6bc 5abd cc68 bd3d
000002a0: bae2 f13c 2d2e 44bd 7b40 30bd 052d 0e3b
000002b0: 4cb0 813d 0cfa 0abd 8cbd 84bd c9ef 29bd
000002c0: 2254 89bd 22a4 1d3d bf5d 8f3d 907d afbd
000002d0: c7be 783c bbdc 6f3d f4f0 343c be0d e5bc
000002e0: 02b5 753d b112 373d 643d f23c cdde cdbc
000002f0: 361c 9cbc f912 6a3c cf20 24bc d815 13bd
00000300: 1137 903d e957 a13d 5366 bdbb b3d5 f9bc
00000310: adc2 5a3b e0bc 91bb 9d12 8c3c 45e1 c63c
00000320: e8ec bfbd 9d02 1abd 613a b53d 0e59 043d
00000330: 5303 2dbc 52e2 8bbd 1221 87bd d58f a6bd
00000340: aa57 1fbd eda5 d73c 8ca2 6a3d 1cbf 213d
00000350: b575 b4bd 6766 82bd 8f3a bcbc b4e8 b43d
00000360: a3f3 3a3c 646b 8cbc 75e9 443d 1ad4 ecbc
00000370: d02c 6fbd b477 833d 4161 53bd e266 40bc
00000380: b904 cdbd b106 733d 2e81 893d e264 083d
00000390: 4fc6 7fbd daf4 c5bd 9df9 b0bd 6086 8b3d
000003a0: 2c74 303d 3c4f 9d3d 88cc 3e3d 14d3 903c
000003b0: 4489 f73b 877c 91bd 49a2 a1bd f766 b9bd
000003c0: 211d 303d 0dd2 45bd 7ecf 8abc cce5 82bd
000003d0: ce71 cbbc 9c0c 7dbd 06f0 84bd e2cd d03c
000003e0: fcbd f3bc e674 8a3d c23a 14bd 53b7 a0bd
000003f0: 9da4 3bbc 20f9 29bd 8ade 10bd 62ed d3bd
0.07061779 0.08903976 -0.02999606 0.09863935 -0.016149707 0.016108418 -0.041255314 0.05033104
0.09514778 -0.072922416 0.09392383 0.025982851 0.081012465 0.020205168 0.04284844 -0.0064816717
0.08253663 0.0068003237 -0.053991932 0.017054923 -0.05239837 -0.0027669896 -0.033581886 0.058775883
-0.082050666 -0.039200645 -0.020266457 -0.06290794 0.0011608712 -0.10557729 0.09692789 -0.07724942
0.073028505 0.023857636 -0.02702499 0.068613894 0.007857796 0.08324208 0.003462728 -0.039245702
0.021277979 -0.034180507 0.036915492 0.09787208 0.06459408 -0.051528074 0.052226003 0.025082804
0.044745035 -0.06846469 -0.09203594 -0.0316725 -0.08332633 0.075440384 0.036814075 0.048591893
0.03867861 -0.009685376 0.085784435 -0.0677467 0.0016111354 -0.069039494 0.02427228 -0.041873667
0.03808058 -0.02720539 0.086278535 -0.06654013 -0.06504026 -0.06739318 0.08258082 0.026385041
0.0898465 -0.07882308 -0.09178143 -0.071254954 -0.074889794 0.042024653 0.043161944 0.07549189
-0.04378701 -0.07235639 0.05835453 -0.047569927 0.053862546 -0.01578485 0.0483945 -0.07104718
-0.057555754 0.02238413 0.016346235 -0.016882544 0.056561526 0.07341108 -0.079288505 -0.049514398
0.09842815 -0.02938441 -0.036711738 -0.10102345 -0.049503252 0.017041415 -0.0054057897 -0.08023857
-0.005215715 -0.060343225 -0.09258285 -0.050093275 -0.095292315 -0.056900166 0.09241993 0.010972105
0.023426812 -0.09874287 -0.057808165 -0.040896956 0.010794743 -0.080828734 -0.035572827 -0.052451476
0.0071078218 -0.042908516 -0.0139017645 -0.06033618 -0.06023279 -0.065753035 -0.040486876 -0.07121829
0.07674381 -0.0115872575 0.07930871 0.02322661 -0.07669376 0.061178967 -0.03293243 -0.04025187
-0.075867474 -0.104800045 0.03607161 -0.01430382 0.04585312 -0.07359258 0.08174722 -0.065844856
-0.024910087 0.02787884 0.058542483 0.073140375 0.09892102 -0.07151667 0.017448563 -0.049916208
-0.0033117149 -0.06830931 0.08692007 -0.080973774 0.045895725 0.040977675 0.024768824 -0.056600206
0.09687277 0.016337339 0.0168897 -0.08056904 0.034375884 -0.0076210876 -0.053402625 0.09248504
0.029527057 -0.0478956 -0.043030243 0.0021694314 0.06332454 -0.03392987 -0.06481466 -0.041488443
-0.067055 0.038486607 0.070003025 -0.08568871 0.015182204 0.058560114 0.011043776 -0.027960654
0.059987076 0.04469556 0.029570289 -0.025130654 -0.01905642 0.01428675 -0.010017588 -0.035909504
0.07041753 0.07878096 -0.0057800203 -0.030497408 0.0033380196 -0.0044475645 0.01709872 0.024277339
-0.09371358 -0.03760015 0.088490255 0.03231149 -0.010559875 -0.068302765 -0.065981045 -0.081329025
-0.038901962 0.026324237 0.057283923 0.039488897 -0.08811513 -0.06367188 -0.022977142 0.08833447
0.011410627 -0.017141052 0.048074204 -0.028909732 -0.058392346 0.06419316 -0.05160642 -0.011743279
-0.100106664 0.059332553 0.06714092 0.033299334 -0.06244498 -0.09665842 -0.0864136 0.06812739
0.04307954 0.076811284 0.046581775 0.017678775 0.007554205 -0.0710383 -0.078922816 -0.09052842
0.04299653 -0.048296023 -0.016944643 -0.063914865 -0.02483454 -0.061779603 -0.06491093 0.025488798
-0.029753678 0.06760578 -0.03618885 -0.07847466 -0.011452821 -0.04149735 -0.03536848 -0.103480116

classifier.bias f4 [5]
00000000: 4c3a 91bc 9f8c 65bd 9532 473c de49 a93d
00000010: a37e ad3d
-0.017727993 -0.05604231 0.012158056 0.08266042 0.0847142

net.1.weight f4 [5, 100]
00000000: 0fa0 903d 7a5a b63d 4cba f5bc 6d03 ca3d
00000010: 644c 84bc cdf5 833c 55fb 28bd ec27 4e3d
00000020: d7dc c23d 5958 95bd 235b c03d fdd9 d43c
00000030: dde9 a53d 4f85 a53c d981 2f3d 3464 d4bb
00000040: f708 a93d 40d5 de3b a526 5dbd c4b6 8b3c
00000050: ac9f 56bd 6256 35bb 298d 09bd fbbe 703d
00000060: 2e0a a8bd db90 20bd d705 a6bc e1d5 80bd
00000070: 6028 983a e838 d8bd 2182 c63d f234 9ebd
00000080: f88f 953d 1771 c33c 8363 ddbc 7185 8c3d
00000090: fcbd 003c d37a aa3d f0ee 623b 1ac0 20bd
000000a0: 284f ae3c dc00 0cbd b334 173d 2871 c83d
000000b0: e749 843d 1a0f 53bd efea 553d 747a cd3c
000000c0: 9246 373d 3737 8cbd 577d bcbd 06bb 01bd
000000d0: ffa6 aabd 7d80 9a3d 5bca 163d 4b08 473d
000000e0: 766d 1e3d 69af 1ebc c0af af3d c8be 8abd
000000f0: bc2c d33a 9464 8dbd a9d6 c63c b983 2bbd
00000100: 62fa 1b3d d7dd debc cdb2 b03d 3146 88bd
00000110: d433 85bd 7005 8abd 2220 a93d 7125 d83c
00000120: 7101 b83d ff6d a1bd e7f7 bbbd 1eee 91bd
00000130: d25f 99bd 0b22 2c3d 94ca 303d 7e9b 9a3d
00000140: 025a 33bd 962f 94bd 2905 6f3d afd8 42bd
00000150: f99e 5c3d 3b4f 81bc 5039 463d 2f81 91bd
00000160: 95bf 6bbd ec5e b73c 8ae8 853c 434d 8abc
00000170: 0fad 673d 8c58 963d 0362 a2bd 9ccf 4abd
00000180: b394 c93d 93b7 f0bc 0c5f 16bd 62e5 cebd
00000190: ecc3 4abd 709a 8b3c 0d23 b1bb 1f54 a4bd
000001a0: 97e8 aabb 752a 77bd 149c bdbd 9b2e 4dbd
000001b0: 9e28 c3bd 2610 69bd a946 bd3d 58c4 333c
000001c0: 96e9 bf3c b439 cabd 41c8 6cbd 9183 27bd
000001d0: 6fdc 303c 8989 a5bd d0b4 11bd 5cd7 56bd
000001e0: bbe8 e83b d7c0 2fbd 3ac4 63bc 1223 77bd
000001f0: a8b6 76bd 87a9 86bd 91d5 25bd e5da 91bd
00000200: dc2b 9d3d 7bd8 3dbc 9b6c a23d bb45 be3c
00000210: 9e11 9dbd cc96 7a3d 28e4 06bd 25df 24bd
00000220: 6860 9bbd 68a1 d6bd d3bf 133d 925a 6abc
00000230: 7bd0 3b3d b5b7 96bd 166b a73d abd9 86bd
00000240: 3d10 ccbc 2a62 e43c 3eca 6f3d 9fca 953d
00000250: 1b97 ca3d 5577 92bd 4af0 8e3c f074 4cbd
00000260: 5b09 59bb c0e5 8bbd 2603 b23d 94d5 a5bd
00000270: 28fd 3b3d 35d8 273d fde7 ca3c 9ed5 67bd
00000280: 3b65 c63d e2d5 853c 455c 8a3c 6101 a5bd
00000290: bacd 0c3d 51ba f9bb b6bc 5abd cc68 bd3d
000002a0: bae2 f13c 2d2e 44bd 7b40 30bd 052d 0e3b
000002b0: 4cb0 813d 0cfa 0abd 8cbd 84bd c9ef 29bd
000002c0: 2254 89bd 22a4 1d3d bf5d 8f3d 907d afbd
000002d0: c7be 783c bbdc 6f3d f4f0 343c be0d e5bc
000002e0: 02b5 753d b112 373d 643d f23c cdde cdbc
000002f0: 361c 9cbc f912 6a3c cf20 24bc d815 13bd
00000300: 1137 903d e957 a13d 5366 bdbb b3d5 f9bc
00000310: adc2 5a3b e0bc 91bb 9d12 8c3c 45e1 c63c
00000320: e8ec bfbd 9d02 1abd 613a b53d 0e59 043d
00000330: 5303 2dbc 52e2 8bbd 1221 87bd d58f a6bd
00000340: aa57 1fbd eda5 d73c 8ca2 6a3d 1cbf 213d
00000350: b575 b4bd 6766 82bd 8f3a bcbc b4e8 b43d
00000360: a3f3 3a3c 646b 8cbc 75e9 443d 1ad4 ecbc
00000370: d02c 6fbd b477 833d 4161 53bd e266 40bc
00000380: b904 cdbd b106 733d 2e81 893d e264 083d
00000390: 4fc6 7fbd daf4 c5bd 9df9 b0bd 6086 8b3d
000003a0: 2c74 303d 3c4f 9d3d 88cc 3e3d 14d3 903c
000003b0: 4489 f73b 877c 91bd 49a2 a1bd f766 b9bd
000003c0: 211d 303d 0dd2 45bd 7ecf 8abc cce5 82bd
000003d0: ce71 cbbc 9c0c 7dbd 06f0 84bd e2cd d03c
000003e0: fcbd f3bc e674 8a3d c23a 14bd 53b7 a0bd
000003f0: 9da4 3bbc 20f9 29bd 8ade 10bd 62ed d3bd
0.07061779 0.08903976 -0.02999606 0.09863935 -0.016149707 0.016108418 -0.041255314 0.05033104
0.09514778 -0.072922416 0.09392383 0.025982851 0.081012465 0.020205168 0.04284844 -0.0064816717
0.08253663 0.0068003237 -0.053991932 0.017054923 -0.05239837 -0.0027669896 -0.033581886 0.058775883
-0.082050666 -0.039200645 -0.020266457 -0.06290794 0.0011608712 -0.10557729 0.09692789 -0.07724942
0.073028505 0.023857636 -0.02702499 0.068613894 0.007857796 0.08324208 0.003462728 -0.039245702
0.021277979 -0.034180507 0.036915492 0.09787208 0.06459408 -0.051528074 0.052226003 0.025082804
0.044745035 -0.06846469 -0.09203594 -0.0316725 -0.08332633 0.075440384 0.036814075 0.048591893
0.03867861 -0.009685376 0.085784435 -0.0677467 0.0016111354 -0.069039494 0.02427228 -0.041873667
0.03808058 -0.02720539 0.086278535 -0.06654013 -0.06504026 -0.06739318 0.08258082 0.026385041
0.0898465 -0.07882308 -0.09178143 -0.071254954 -0.074889794 0.042024653 0.043161944 0.07549189
-0.04378701 -0.07235639 0.05835453 -0.047569927 0.053862546 -0.01578485 0.0483945 -0.07104718
-0.057555754 0.02238413 0.016346235 -0.016882544 0.056561526 0.07341108 -0.079288505 -0.049514398
0.09842815 -0.02938441 -0.036711738 -0.10102345 -0.049503252 0.017041415 -0.0054057897 -0.08023857
-0.005215715 -0.060343225 -0.09258285 -0.050093275 -0.095292315 -0.056900166 0.09241993 0.010972105
0.023426812 -0.09874287 -0.057808165 -0.040896956 0.010794743 -0.080828734 -0.035572827 -0.052451476
0.0071078218 -0.042908516 -0.0139017645 -0.06033618 -0.06023279 -0.065753035 -0.040486876 -0.07121829
0.07674381 -0.0115872575 0.07930871 0.02322661 -0.07669376 0.061178967 -0.03293243 -0.04025187
-0.075867474 -0.104800045 0.03607161 -0.01430382 0.04585312 -0.07359258 0.08174722 -0.065844856
-0.024910087 0.02787884 0.058542483 0.073140375 0.09892102 -0.07151667 0.017448563 -0.049916208
-0.0033117149 -0.06830931 0.08692007 -0.080973774 0.045895725 0.040977675 0.024768824 -0.056600206
0.09687277 0.016337339 0.0168897 -0.08056904 0.034375884 -0.0076210876 -0.053402625 0.09248504
0.029527057 -0.0478956 -0.043030243 0.0021694314 0.06332454 -0.03392987 -0.06481466 -0.041488443
-0.067055 0.038486607 0.070003025 -0.08568871 0.015182204 0.058560114 0.011043776 -0.027960654
0.059987076 0.04469556 0.029570289 -0.025130654 -0.01905642 0.01428675 -0.010017588 -0.035909504
0.07041753 0.07878096 -0.0057800203 -0.030497408 0.0033380196 -0.0044475645 0.01709872 0.024277339
-0.09371358 -0.03760015 0.088490255 0.03231149 -0.010559875 -0.068302765 -0.065981045 -0.081329025
-0.038901962 0.026324237 0.057283923 0.039488897 -0.08811513 -0.06367188 -0.022977142 0.08833447
0.011410627 -0.017141052 0.048074204 -0.028909732 -0.058392346 0.06419316 -0.05160642 -0.011743279
-0.100106664 0.059332553 0.06714092 0.033299334 -0.06244498 -0.09665842 -0.0864136 0.06812739
0.04307954 0.076811284 0.046581775 0.017678775 0.007554205 -0.0710383 -0.078922816 -0.09052842
0.04299653 -0.048296023 -0.016944643 -0.063914865 -0.02483454 -0.061779603 -0.06491093 0.025488798
-0.029753678 0.06760578 -0.03618885 -0.07847466 -0.011452821 -0.04149735 -0.03536848 -0.103480116

net.1.bias f4 [5]
00000000: 4c3a 91bc 9f8c 65bd 9532 473c de49 a93d
00000010: a37e ad3d
-0.017727993 -0.05604231 0.012158056 0.08266042 0.0847142

weight f4 [5, 100]
00000000: 0fa0 903d 7a5a b63d 4cba f5bc 6d03 ca3d
00000010: 644c 84bc cdf5 833c 55fb 28bd ec27 4e3d
00000020: d7dc c23d 5958 95bd 235b c03d fdd9 d43c
00000030: dde9 a53d 4f85 a53c d981 2f3d 3464 d4bb
00000040: f708 a93d 40d5 de3b a526 5dbd c4b6 8b3c
00000050: ac9f 56bd 6256 35bb 298d 09bd fbbe 703d
00000060: 2e0a a8bd db90 20bd d705 a6bc e1d5 80bd
00000070: 6028 983a e838 d8bd 2182 c63d f234 9ebd
00000080: f88f 953d 1771 c33c 8363 ddbc 7185 8c3d
00000090: fcbd 003c d37a aa3d f0ee 623b 1ac0 20bd
000000a0: 284f ae3c dc00 0cbd b334 173d 2871 c83d
000000b0: e749 843d 1a0f 53bd efea 553d 747a cd3c
000000c0: 9246 373d 3737 8cbd 577d bcbd 06bb 01bd
000000d0: ffa6 aabd 7d80 9a3d 5bca 163d 4b08 473d
000000e0: 766d 1e3d 69af 1ebc c0af af3d c8be 8abd
000000f0: bc2c d33a 9464 8dbd a9d6 c63c b983 2bbd
00000100: 62fa 1b3d d7dd debc cdb2 b03d 3146 88bd
00000110: d433 85bd 7005 8abd 2220 a93d 7125 d83c
00000120: 7101 b83d ff6d a1bd e7f7 bbbd 1eee 91bd
00000130: d25f 99bd 0b22 2c3d 94ca 303d 7e9b 9a3d
00000140: 025a 33bd 962f 94bd 2905 6f3d afd8 42bd
00000150: f99e 5c3d 3b4f 81bc 5039 463d 2f81 91bd
00000160: 95bf 6bbd ec5e b73c 8ae8 853c 434d 8abc
00000170: 0fad 673d 8c58 963d 0362 a2bd 9ccf 4abd
00000180: b394 c93d 93b7 f0bc 0c5f 16bd 62e5 cebd
00000190: ecc3 4abd 709a 8b3c 0d23 b1bb 1f54 a4bd
000001a0: 97e8 aabb 752a 77bd 149c bdbd 9b2e 4dbd
000001b0: 9e28 c3bd 2610 69bd a946 bd3d 58c4 333c
000001c0: 96e9 bf3c b439 cabd 41c8 6cbd 9183 27bd
000001d0: 6fdc 303c 8989 a5bd d0b4 11bd 5cd7 56bd
000001e0: bbe8 e83b d7c0 2fbd 3ac4 63bc 1223 77bd
000001f0: a8b6 76bd 87a9 86bd 91d5 25bd e5da 91bd
00000200: dc2b 9d3d 7bd8 3dbc 9b6c a23d bb45 be3c
00000210: 9e11 9dbd cc96 7a3d 28e4 06bd 25df 24bd
00000220: 6860 9bbd 68a1 d6bd d3bf 133d 925a 6abc
00000230: 7bd0 3b3d b5b7 96bd 166b a73d abd9 86bd
00000240: 3d10 ccbc 2a62 e43c 3eca 6f3d 9fca 953d
00000250: 1b97 ca3d 5577 92bd 4af0 8e3c f074 4cbd
00000260: 5b09 59bb c0e5 8bbd 2603 b23d 94d5 a5bd
00000270: 28fd 3b3d 35d8 273d fde7 ca3c 9ed5 67bd
00000280: 3b65 c63d e2d5 853c 455c 8a3c 6101 a5bd
00000290: bacd 0c3d 51ba f9bb b6bc 5abd cc68 bd3d
000002a0: bae2 f13c 2d2e 44bd 7b40 30bd 052d 0e3b
000002b0: 4cb0 813d 0cfa 0abd 8cbd 84bd c9ef 29bd
000002c0: 2254 89bd 22a4 1d3d bf5d 8f3d 907d afbd
000002d0: c7be 783c bbdc 6f3d f4f0 343c be0d e5bc
000002e0: 02b5 753d b112 373d 643d f23c cdde cdbc
000002f0: 361c 9cbc f912 6a3c cf20 24bc d815 13bd
00000300: 1137 903d e957 a13d 5366 bdbb b3d5 f9bc
00000310: adc2 5a3b e0bc 91bb 9d12 8c3c 45e1 c63c
00000320: e8ec bfbd 9d02 1abd 613a b53d 0e59 043d
00000330: 5303 2dbc 52e2 8bbd 1221 87bd d58f a6bd
00000340: aa57 1fbd eda5 d73c 8ca2 6a3d 1cbf 213d
00000350: b575 b4bd 6766 82bd 8f3a bcbc b4e8 b43d
00000360: a3f3 3a3c 646b 8cbc 75e9 443d 1ad4 ecbc
00000370: d02c 6fbd b477 833d 4161 53bd e266 40bc
00000380: b904 cdbd b106 733d 2e81 893d e264 083d
00000390: 4fc6 7fbd daf4 c5bd 9df9 b0bd 6086 8b3d
000003a0: 2c74 303d 3c4f 9d3d 88cc 3e3d 14d3 903c
000003b0: 4489 f73b 877c 91bd 49a2 a1bd f766 b9bd
000003c0: 211d 303d 0dd2 45bd 7ecf 8abc cce5 82bd
000003d0: ce71 cbbc 9c0c 7dbd 06f0 84bd e2cd d03c
000003e0: fcbd f3bc e674 8a3d c23a 14bd 53b7 a0bd
000003f0: 9da4 3bbc 20f9 29bd 8ade 10bd 62ed d3bd
0.07061779 0.08903976 -0.02999606 0.09863935 -0.016149707 0.016108418 -0.041255314 0.05033104
0.09514778 -0.072922416 0.09392383 0.025982851 0.081012465 0.020205168 0.04284844 -0.0064816717
0.08253663 0.0068003237 -0.053991932 0.017054923 -0.05239837 -0.0027669896 -0.033581886 0.058775883
-0.082050666 -0.039200645 -0.020266457 -0.06290794 0.0011608712 -0.10557729 0.09692789 -0.07724942
0.073028505 0.023857636 -0.02702499 0.068613894 0.007857796 0.08324208 0.003462728 -0.039245702
0.021277979 -0.034180507 0.036915492 0.09787208 0.06459408 -0.051528074 0.052226003 0.025082804
0.044745035 -0.06846469 -0.09203594 -0.0316725 -0.08332633 0.075440384 0.036814075 0.048591893
0.03867861 -0.009685376 0.085784435 -0.0677467 0.0016111354 -0.069039494 0.02427228 -0.041873667
0.03808058 -0.02720539 0.086278535 -0.06654013 -0.06504026 -0.06739318 0.08258082 0.026385041
0.0898465 -0.07882308 -0.09178143 -0.071254954 -0.074889794 0.042024653 0.043161944 0.07549189
-0.04378701 -0.07235639 0.05835453 -0.047569927 0.053862546 -0.01578485 0.0483945 -0.07104718
-0.057555754 0.02238413 0.016346235 -0.016882544 0.056561526 0.07341108 -0.079288505 -0.049514398
0.09842815 -0.02938441 -0.036711738 -0.10102345 -0.049503252 0.017041415 -0.0054057897 -0.08023857
-0.005215715 -0.060343225 -0.09258285 -0.050093275 -0.095292315 -0.056900166 0.09241993 0.010972105
0.023426812 -0.09874287 -0.057808165 -0.040896956 0.010794743 -0.080828734 -0.035572827 -0.052451476
0.0071078218 -0.042908516 -0.0139017645 -0.06033618 -0.06023279 -0.065753035 -0.040486876 -0.07121829
0.07674381 -0.0115872575 0.07930871 0.02322661 -0.07669376 0.061178967 -0.03293243 -0.04025187
-0.075867474 -0.104800045 0.03607161 -0.01430382 0.04585312 -0.07359258 0.08174722 -0.065844856
-0.024910087 0.02787884 0.058542483 0.073140375 0.09892102 -0.07151667 0.017448563 -0.049916208
-0.0033117149 -0.06830931 0.08692007 -0.080973774 0.045895725 0.040977675 0.024768824 -0.056600206
0.09687277 0.016337339 0.0168897 -0.08056904 0.034375884 -0.0076210876 -0.053402625 0.09248504
0.029527057 -0.0478956 -0.043030243 0.0021694314 0.06332454 -0.03392987 -0.06481466 -0.041488443
-0.067055 0.038486607 0.070003025 -0.08568871 0.015182204 0.058560114 0.011043776 -0.027960654
0.059987076 0.04469556 0.029570289 -0.025130654 -0.01905642 0.01428675 -0.010017588 -0.035909504
0.07041753 0.07878096 -0.0057800203 -0.030497408 0.0033380196 -0.0044475645 0.01709872 0.024277339
-0.09371358 -0.03760015 0.088490255 0.03231149 -0.010559875 -0.068302765 -0.065981045 -0.081329025
-0.038901962 0.026324237 0.057283923 0.039488897 -0.08811513 -0.06367188 -0.022977142 0.08833447
0.011410627 -0.017141052 0.048074204 -0.028909732 -0.058392346 0.06419316 -0.05160642 -0.011743279
-0.100106664 0.059332553 0.06714092 0.033299334 -0.06244498 -0.09665842 -0.0864136 0.06812739
0.04307954 0.076811284 0.046581775 0.017678775 0.007554205 -0.0710383 -0.078922816 -0.09052842
0.04299653 -0.048296023 -0.016944643 -0.063914865 -0.02483454 -0.061779603 -0.06491093 0.025488798
-0.029753678 0.06760578 -0.03618885 -0.07847466 -0.011452821 -0.04149735 -0.03536848 -0.103480116

bias f4 [5]
00000000: 4c3a 91bc 9f8c 65bd 9532 473c de49 a93d
00000010: a37e ad3d
-0.017727993 -0.05604231 0.012158056 0.08266042 0.0847142
