simclr_cnn_transformer_trainings1/logistic_on_simclr_IT_250pat/lightning_logs/version_0/checkpoints/epoch=29-step=83910.ckpt (torch, 7911 bytes, 6 tensors)

classifier.weight f4 [5, 184]
0	0xbd1954c6	-0.037434362
1	0xbc35a230	-0.011086032
2	0x3c447cf0	0.011992678
3	0x3c62a99b	0.013834382
4	0xbca9da93	-0.020734107
5	0x3b9178ea	0.004439463
6	0x3c3b006e	0.011413677
7	0xbca40369	-0.020021157
8	0xbc0d3bee	-0.008620245
9	0xbcbbb1a9	-0.022911863
10	0x3bfc6ebe	0.007703631
11	0xbd205681	-0.039144997
12	0xbc490944	-0.0122702755
13	0x3c55cde8	0.01304958
14	0x3a623d7e	0.0008630379
15	0xbcfa5151	-0.030556353
16	0xbcac0a29	-0.021000938
17	0xbc7cd38f	-0.015431299
18	0x3c6a3547	0.014294929
19	0xba6ecc9b	-0.0009109468
20	0xbbb8cb6c	-0.005639484
21	0xbc02b575	-0.007977833
22	0xbcec9499	-0.02887945
23	0xbd0cddc8	-0.034391195
24	0xbd4380c2	-0.047730215
25	0xbcae9395	-0.021310607
26	0xbd1e3c68	-0.038631827
27	0x3d487795	0.048942167
28	0xbce26230	-0.02763471
29	0xbc8a04be	-0.016847964
30	0x3be5550e	0.0069986647
31	0x3cb90948	0.022587433
32	0xbca6014f	-0.020264296
33	0xbbb17cc6	-0.0054164855
34	0x3d03aa50	0.032144845
35	0x3c82de59	0.015975164
36	0xbcec8aba	-0.028874744
37	0xbd1e3173	-0.038621377
38	0x3d043151	0.032273594
39	0x3cba5648	0.02274622
40	0x3c0fa717	0.008767865
41	0x3b048ca4	0.002022543
42	0xbc510cc7	-0.012759394
43	0xbca03ace	-0.01955929
44	0x3c3a583d	0.011373577
45	0xbd6d5f2a	-0.057952084
46	0x3c88e19f	0.016709147
47	0x3d26f108	0.04075721
48	0x3d002cee	0.03129285
49	0x3c4e4168	0.012588836
50	0xbc19a9e0	-0.00937888
51	0x3c15c34e	0.009140803
52	0xbc8e953e	-0.017405149
53	0xbcc2da8d	-0.023785854
54	0xbd79909f	-0.060928937
55	0x3be63434	0.007025266
56	0x3c3d8c34	0.011569072
57	0x3cd0a86e	0.025470939
58	0xbc62b09b	-0.013836051
59	0xbc999399	-0.018747138
60	0x3b0e3aa0	0.0021702424
61	0xbc965f66	-0.018356036
62	0x3c89c1f9	0.016816126
63	0x3bfff385	0.007811012
64	0x3d09364a	0.03349904
65	0xbca7ba4c	-0.020474575
66	0x3d53291c	0.051552877
67	0x3adbccb8	0.0016769385
68	0xbc818d0c	-0.015814327
69	0xbd3f5ee7	-0.046721365
70	0x3d0d4e2f	0.03449839
71	0x3c48f40a	0.012265215
72	0xbb78ce1f	-0.0037964655
73	0xbc0d57ec	-0.008626919
74	0xbc4a3781	-0.012342335
75	0xbc3125ef	-0.010812267
76	0x3ca1530b	0.019692918
77	0xbc3cb4fe	-0.011517761
78	0x3be85c31	0.007091068
79	0xbc4deaf1	-0.012568221
80	0x3d07d910	0.03316599
81	0xbc03a432	-0.008034753
82	0xbae6b4bc	-0.001760147
83	0x3d5d43a6	0.054019593
84	0x3ae20012	0.0017242453
85	0x3cab4451	0.0209066
86	0x3cf109cb	0.029423615
87	0x3af12526	0.0018397912
88	0xbc7f88ce	-0.015596582
89	0x3c94c76c	0.018161498
90	0x3b4625ef	0.0030235013
91	0xbc87968d	-0.01655128
92	0x3cec7899	0.0288661
93	0xbd35f158	-0.044419616
94	0xbc05e2e2	-0.008171769
95	0xbd1f4848	-0.038887292
96	0xbcae5876	-0.021282416
97	0xbd326aba	-0.043558814
98	0xbced971e	-0.029002722
99	0xbd12094d	-0.0356534
100	0x3d61da53	0.05513985
101	0x3b7c07d8	0.0038456824
102	0x3a8e45cd	0.0010854542
103	0xbb82c197	-0.003990363
104	0xbc77dfa5	-0.015129005
105	0xbaf211fa	-0.0018468492
106	0xbcde8809	-0.027164476
107	0x3c573177	0.013134352
108	0xbcd93d99	-0.02651863
109	0xbc4fc56b	-0.012681345
110	0x3cd3de37	0.025862796
111	0xbc2e3db3	-0.010634827
112	0xbcc3a037	-0.023880107
113	0xbcfe67b2	-0.031055305
114	0xbc6d9c02	-0.014502527
115	0xbcd3936e	-0.025827136
116	0xbb96cb13	-0.004601845
117	0xbcb32e9e	-0.021872815
118	0x3d0f0ef2	0.034926362
119	0x3d1f2100	0.03884983
120	0x3c104744	0.008806054
121	0xbcbf6746	-0.023364674
122	0x3d0afcb9	0.03393242
123	0x3b2ad5f0	0.0026067458
124	0xbc1e7a63	-0.009672734
125	0x3ca3d25f	0.019997774
126	0xbcb512a6	-0.022103619
127	0xbbebeb62	-0.0071996907
128	0xbc83f387	-0.016107334
129	0xbc52ce14	-0.012866516
130	0xbd092836	-0.033485614
131	0xbd340b3f	-0.043956038
132	0xbcde9b45	-0.027173648
133	0x3ba4af8b	0.005025809
134	0xbc679622	-0.014134916
135	0xba8be2c1	-0.0010672436
136	0x3baf2d61	0.0053459858
137	0x3c5b76e0	0.013395041
138	0xbce85d5b	-0.028364828
139	0xbabb3db1	-0.0014285353
140	0x3d2f3963	0.042779338
141	0xbc6498bf	-0.013952433
142	0x3c18e4ad	0.009331864
143	0xbab95190	-0.0014138687
144	0x3b24de73	0.0025157004
145	0xbc9e07d7	-0.019290848
146	0xbccff163	-0.025383657
147	0xbba56f11	-0.0050486405
148	0xbcb6f970	-0.022335738
149	0x3c9c87ea	0.019107778
150	0xbaa40601	-0.0012513996
151	0xbd1f142c	-0.038837597
152	0xbd0acaec	-0.033884928
153	0x3c8035c5	0.01565064
154	0xbb8fbc2b	-0.004386445
155	0x3c433d19	0.011916422
156	0x3cb3b2b6	0.021935802
157	0x3c1b6d35	0.009486486
158	0x3ce5ec81	0.028066875
159	0x3d00d7be	0.031455748
160	0x3c4347ff	0.011919021
161	0xbcefc0e1	-0.029266777
162	0x3ca63104	0.020287044
163	0x3cd82cc5	0.026388535
164	0x39cdc918	0.00039250473
165	0x3c9b7cf1	0.018980475
166	0x3cdf3ad7	0.027249737
167	0xbcde3853	-0.027126467
168	0x3900c701	0.00012281166
169	0x3c808d69	0.01569243
170	0xbd4af5f7	-0.049550977
171	0x3a91eb2f	0.0011132712
172	0xbb4c5d54	-0.0031183558
173	0xbc2153da	-0.009846652
174	0xbd2615b0	-0.040548027
175	0xbc9b81f6	-0.018982869
176	0x3c2df736	0.010618022
177	0xbc324767	-0.010881281
178	0xbd26e837	-0.0407488
179	0xbd032192	-0.032014437
180	0xba1916b9	-0.0005839873
181	0x3ca0f7c6	0.019649398
182	0x3c07759f	0.008267789
183	0xbc97bfb0	-0.01852402
184	0xbd5615d6	-0.052266918
185	0xba8d65e9	-0.0010787818
186	0x3c1ee40f	0.009697928
187	0x3d01ce75	0.031691033
188	0xbcbc962e	-0.02302083
189	0x3c02d8fd	0.007986304
190	0xbc2485a7	-0.010041631
191	0xbd0b80f3	-0.034058522
192	0xbc188c7e	-0.00931084
193	0xbd2a459c	-0.04157029
194	0xb973fa7c	-0.00023267599
195	0xbd191144	-0.03736998
196	0xbc1b7929	-0.009489336
197	0x3c96666a	0.018359382
198	0x3baba332	0.0052379603
199	0xbd34f684	-0.044180408
200	0x3a943c74	0.001130952
201	0xbb4702e7	-0.003036672
202	0x3c8ea5f1	0.017413111
203	0x3c263b70	0.010146007
204	0x3b33171c	0.0027327007
205	0xbc696f6a	-0.014247755
206	0xbcf03058	-0.029319927
207	0xbc40c5ae	-0.0117658805
208	0xbd1cee10	-0.03831297
209	0xbce98cf6	-0.028509598
210	0xbcf1153e	-0.029429074
211	0x3cab0d43	0.020880347
212	0xbd1dba1b	-0.038507562
213	0xbd02b3e9	-0.031909857
214	0xbab367fe	-0.0013687608
215	0x3d3962b0	0.04526013
216	0xbbaf51ee	-0.005350343
217	0xb9b1ce8d	-0.00033913963
218	0x3d157435	0.036487777
219	0x3ccc9875	0.02497504
220	0xbc1b56da	-0.009481156
221	0xbd28ff54	-0.041259125
222	0x3d28f97d	0.041253556
223	0x3cbcda89	0.023053424
224	0x3c9e9455	0.01935784
225	0x3bcfaf28	0.006338019
226	0xbc128da2	-0.008944901
227	0xbc9056f0	-0.01761958
228	0xbbb94e44	-0.005655082
229	0xbd29351a	-0.041310407
230	0x3ced95ea	0.029002149
231	0x3d0d61d7	0.034517135
232	0x3b784b37	0.0037886628
233	0x3ca87c0c	0.020566963
234	0xbc8f3ffb	-0.017486563
235	0x3c40af54	0.0117605515
236	0xbcd55a46	-0.026044022
237	0xbab857e0	-0.0014064275
238	0xbd466e43	-0.048444998
239	0xba9bd416	-0.0011888768
240	0x3c6aab5f	0.014323085
241	0x3ce5c5b1	0.028048368
242	0xbb44e843	-0.0030045665
243	0xbd143f70	-0.03619331
244	0x3ae884c0	0.0017739758
245	0xbceb9b4b	-0.028760573
246	0x3c36ab27	0.011149204
247	0x3cb0156b	0.021494588
248	0x3c65d398	0.014027499
249	0xbbaa25f4	-0.0051925126
250	0x3d0454cd	0.032307435
251	0x3c1d421b	0.00959828
252	0xbc1e2d4d	-0.009654355
253	0xbc9493c9	-0.018136876
254	0x3d02c8a4	0.031929627
255	0x3c6a7c6b	0.01431189

classifier.bias f4 [5]
0	0x3b8f848d	0.004379815
1	0xb9c82759	-0.0003817629
2	0x3cc4c81c	0.0240212
3	0x3d92ecbb	0.07174059
4	0xbb338e9d	-0.0027398237

net.1.weight f4 [5, 184]
0	0xbd1954c6	-0.037434362
1	0xbc35a230	-0.011086032
2	0x3c447cf0	0.011992678
3	0x3c62a99b	0.013834382
4	0xbca9da93	-0.020734107
5	0x3b9178ea	0.004439463
6	0x3c3b006e	0.011413677
7	0xbca40369	-0.020021157
8	0xbc0d3bee	-0.008620245
9	0xbcbbb1a9	-0.022911863
10	0x3bfc6ebe	0.007703631
11	0xbd205681	-0.039144997
12	0xbc490944	-0.0122702755
13	0x3c55cde8	0.01304958
14	0x3a623d7e	0.0008630379
15	0xbcfa5151	-0.030556353
16	0xbcac0a29	-0.021000938
17	0xbc7cd38f	-0.015431299
18	0x3c6a3547	0.014294929
19	0xba6ecc9b	-0.0009109468
20	0xbbb8cb6c	-0.005639484
21	0xbc02b575	-0.007977833
22	0xbcec9499	-0.02887945
23	0xbd0cddc8	-0.034391195
24	0xbd4380c2	-0.047730215
25	0xbcae9395	-0.021310607
26	0xbd1e3c68	-0.038631827
27	0x3d487795	0.048942167
28	0xbce26230	-0.02763471
29	0xbc8a04be	-0.016847964
30	0x3be5550e	0.0069986647
31	0x3cb90948	0.022587433
32	0xbca6014f	-0.020264296
33	0xbbb17cc6	-0.0054164855
34	0x3d03aa50	0.032144845
35	0x3c82de59	0.015975164
36	0xbcec8aba	-0.028874744
37	0xbd1e3173	-0.038621377
38	0x3d043151	0.032273594
39	0x3cba5648	0.02274622
40	0x3c0fa717	0.008767865
41	0x3b048ca4	0.002022543
42	0xbc510cc7	-0.012759394
43	0xbca03ace	-0.01955929
44	0x3c3a583d	0.011373577
45	0xbd6d5f2a	-0.057952084
46	0x3c88e19f	0.016709147
47	0x3d26f108	0.04075721
48	0x3d002cee	0.03129285
49	0x3c4e4168	0.012588836
50	0xbc19a9e0	-0.00937888
51	0x3c15c34e	0.009140803
52	0xbc8e953e	-0.017405149
53	0xbcc2da8d	-0.023785854
54	0xbd79909f	-0.060928937
55	0x3be63434	0.007025266
56	0x3c3d8c34	0.011569072
57	0x3cd0a86e	0.025470939
58	0xbc62b09b	-0.013836051
59	0xbc999399	-0.018747138
60	0x3b0e3aa0	0.0021702424
61	0xbc965f66	-0.018356036
62	0x3c89c1f9	0.016816126
63	0x3bfff385	0.007811012
64	0x3d09364a	0.03349904
65	0xbca7ba4c	-0.020474575
66	0x3d53291c	0.051552877
67	0x3adbccb8	0.0016769385
68	0xbc818d0c	-0.015814327
69	0xbd3f5ee7	-0.046721365
70	0x3d0d4e2f	0.03449839
71	0x3c48f40a	0.012265215
72	0xbb78ce1f	-0.0037964655
73	0xbc0d57ec	-0.008626919
74	0xbc4a3781	-0.012342335
75	0xbc3125ef	-0.010812267
76	0x3ca1530b	0.019692918
77	0xbc3cb4fe	-0.011517761
78	0x3be85c31	0.007091068
79	0xbc4deaf1	-0.012568221
80	0x3d07d910	0.03316599
81	0xbc03a432	-0.008034753
82	0xbae6b4bc	-0.001760147
83	0x3d5d43a6	0.054019593
84	0x3ae20012	0.0017242453
85	0x3cab4451	0.0209066
86	0x3cf109cb	0.029423615
87	0x3af12526	0.0018397912
88	0xbc7f88ce	-0.015596582
89	0x3c94c76c	0.018161498
90	0x3b4625ef	0.0030235013
91	0xbc87968d	-0.01655128
92	0x3cec7899	0.0288661
93	0xbd35f158	-0.044419616
94	0xbc05e2e2	-0.008171769
95	0xbd1f4848	-0.038887292
96	0xbcae5876	-0.021282416
97	0xbd326aba	-0.043558814
98	0xbced971e	-0.029002722
99	0xbd12094d	-0.0356534
100	0x3d61da53	0.05513985
101	0x3b7c07d8	0.0038456824
102	0x3a8e45cd	0.0010854542
103	0xbb82c197	-0.003990363
104	0xbc77dfa5	-0.015129005
105	0xbaf211fa	-0.0018468492
106	0xbcde8809	-0.027164476
107	0x3c573177	0.013134352
108	0xbcd93d99	-0.02651863
109	0xbc4fc56b	-0.012681345
110	0x3cd3de37	0.025862796
111	0xbc2e3db3	-0.010634827
112	0xbcc3a037	-0.023880107
113	0xbcfe67b2	-0.031055305
114	0xbc6d9c02	-0.014502527
115	0xbcd3936e	-0.025827136
116	0xbb96cb13	-0.004601845
117	0xbcb32e9e	-0.021872815
118	0x3d0f0ef2	0.034926362
119	0x3d1f2100	0.03884983
120	0x3c104744	0.008806054
121	0xbcbf6746	-0.023364674
122	0x3d0afcb9	0.03393242
123	0x3b2ad5f0	0.0026067458
124	0xbc1e7a63	-0.009672734
125	0x3ca3d25f	0.019997774
126	0xbcb512a6	-0.022103619
127	0xbbebeb62	-0.0071996907
128	0xbc83f387	-0.016107334
129	0xbc52ce14	-0.012866516
130	0xbd092836	-0.033485614
131	0xbd340b3f	-0.043956038
132	0xbcde9b45	-0.027173648
133	0x3ba4af8b	0.005025809
134	0xbc679622	-0.014134916
135	0xba8be2c1	-0.0010672436
136	0x3baf2d61	0.0053459858
137	0x3c5b76e0	0.013395041
138	0xbce85d5b	-0.028364828
139	0xbabb3db1	-0.0014285353
140	0x3d2f3963	0.042779338
141	0xbc6498bf	-0.013952433
142	0x3c18e4ad	0.009331864
143	0xbab95190	-0.0014138687
144	0x3b24de73	0.0025157004
145	0xbc9e07d7	-0.019290848
146	0xbccff163	-0.025383657
147	0xbba56f11	-0.0050486405
148	0xbcb6f970	-0.022335738
149	0x3c9c87ea	0.019107778
150	0xbaa40601	-0.0012513996
151	0xbd1f142c	-0.038837597
152	0xbd0acaec	-0.033884928
153	0x3c8035c5	0.01565064
154	0xbb8fbc2b	-0.004386445
155	0x3c433d19	0.011916422
156	0x3cb3b2b6	0.021935802
157	0x3c1b6d35	0.009486486
158	0x3ce5ec81	0.028066875
159	0x3d00d7be	0.031455748
160	0x3c4347ff	0.011919021
161	0xbcefc0e1	-0.029266777
162	0x3ca63104	0.020287044
163	0x3cd82cc5	0.026388535
164	0x39cdc918	0.00039250473
165	0x3c9b7cf1	0.018980475
166	0x3cdf3ad7	0.027249737
167	0xbcde3853	-0.027126467
168	0x3900c701	0.00012281166
169	0x3c808d69	0.01569243
170	0xbd4af5f7	-0.049550977
171	0x3a91eb2f	0.0011132712
172	0xbb4c5d54	-0.0031183558
173	0xbc2153da	-0.009846652
174	0xbd2615b0	-0.040548027
175	0xbc9b81f6	-0.018982869
176	0x3c2df736	0.010618022
177	0xbc324767	-0.010881281
178	0xbd26e837	-0.0407488
179	0xbd032192	-0.032014437
180	0xba1916b9	-0.0005839873
181	0x3ca0f7c6	0.019649398
182	0x3c07759f	0.008267789
183	0xbc97bfb0	-0.01852402
184	0xbd5615d6	-0.052266918
185	0xba8d65e9	-0.0010787818
186	0x3c1ee40f	0.009697928
187	0x3d01ce75	0.031691033
188	0xbcbc962e	-0.02302083
189	0x3c02d8fd	0.007986304
190	0xbc2485a7	-0.010041631
191	0xbd0b80f3	-0.034058522
192	0xbc188c7e	-0.00931084
193	0xbd2a459c	-0.04157029
194	0xb973fa7c	-0.00023267599
195	0xbd191144	-0.03736998
196	0xbc1b7929	-0.009489336
197	0x3c96666a	0.018359382
198	0x3baba332	0.0052379603
199	0xbd34f684	-0.044180408
200	0x3a943c74	0.001130952
201	0xbb4702e7	-0.003036672
202	0x3c8ea5f1	0.017413111
203	0x3c263b70	0.010146007
204	0x3b33171c	0.0027327007
205	0xbc696f6a	-0.014247755
206	0xbcf03058	-0.029319927
207	0xbc40c5ae	-0.0117658805
208	0xbd1cee10	-0.03831297
209	0xbce98cf6	-0.028509598
210	0xbcf1153e	-0.029429074
211	0x3cab0d43	0.020880347
212	0xbd1dba1b	-0.038507562
213	0xbd02b3e9	-0.031909857
214	0xbab367fe	-0.0013687608
215	0x3d3962b0	0.04526013
216	0xbbaf51ee	-0.005350343
217	0xb9b1ce8d	-0.00033913963
218	0x3d157435	0.036487777
219	0x3ccc9875	0.02497504
220	0xbc1b56da	-0.009481156
221	0xbd28ff54	-0.041259125
222	0x3d28f97d	0.041253556
223	0x3cbcda89	0.023053424
224	0x3c9e9455	0.01935784
225	0x3bcfaf28	0.006338019
226	0xbc128da2	-0.008944901
227	0xbc9056f0	-0.01761958
228	0xbbb94e44	-0.005655082
229	0xbd29351a	-0.041310407
230	0x3ced95ea	0.029002149
231	0x3d0d61d7	0.034517135
232	0x3b784b37	0.0037886628
233	0x3ca87c0c	0.020566963
234	0xbc8f3ffb	-0.017486563
235	0x3c40af54	0.0117605515
236	0xbcd55a46	-0.026044022
237	0xbab857e0	-0.0014064275
238	0xbd466e43	-0.048444998
239	0xba9bd416	-0.0011888768
240	0x3c6aab5f	0.014323085
241	0x3ce5c5b1	0.028048368
242	0xbb44e843	-0.0030045665
243	0xbd143f70	-0.03619331
244	0x3ae884c0	0.0017739758
245	0xbceb9b4b	-0.028760573
246	0x3c36ab27	0.011149204
247	0x3cb0156b	0.021494588
248	0x3c65d398	0.014027499
249	0xbbaa25f4	-0.0051925126
250	0x3d0454cd	0.032307435
251	0x3c1d421b	0.00959828
252	0xbc1e2d4d	-0.009654355
253	0xbc9493c9	-0.018136876
254	0x3d02c8a4	0.031929627
255	0x3c6a7c6b	0.01431189

net.1.bias f4 [5]
0	0x3b8f848d	0.004379815
1	0xb9c82759	-0.0003817629
2	0x3cc4c81c	0.0240212
3	0x3d92ecbb	0.07174059
4	0xbb338e9d	-0.0027398237

weight f4 [5, 184]
0	0xbd1954c6	-0.037434362
1	0xbc35a230	-0.011086032
2	0x3c447cf0	0.011992678
3	0x3c62a99b	0.013834382
4	0xbca9da93	-0.020734107
5	0x3b9178ea	0.004439463
6	0x3c3b006e	0.011413677
7	0xbca40369	-0.020021157
8	0xbc0d3bee	-0.008620245
9	0xbcbbb1a9	-0.022911863
10	0x3bfc6ebe	0.007703631
11	0xbd205681	-0.039144997
12	0xbc490944	-0.0122702755
13	0x3c55cde8	0.01304958
14	0x3a623d7e	0.0008630379
15	0xbcfa5151	-0.030556353
16	0xbcac0a29	-0.021000938
17	0xbc7cd38f	-0.015431299
18	0x3c6a3547	0.014294929
19	0xba6ecc9b	-0.0009109468
20	0xbbb8cb6c	-0.005639484
21	0xbc02b575	-0.007977833
22	0xbcec9499	-0.02887945
23	0xbd0cddc8	-0.034391195
24	0xbd4380c2	-0.047730215
25	0xbcae9395	-0.021310607
26	0xbd1e3c68	-0.038631827
27	0x3d487795	0.048942167
28	0xbce26230	-0.02763471
29	0xbc8a04be	-0.016847964
30	0x3be5550e	0.0069986647
31	0x3cb90948	0.022587433
32	0xbca6014f	-0.020264296
33	0xbbb17cc6	-0.0054164855
34	0x3d03aa50	0.032144845
35	0x3c82de59	0.015975164
36	0xbcec8aba	-0.028874744
37	0xbd1e3173	-0.038621377
38	0x3d043151	0.032273594
39	0x3cba5648	0.02274622
40	0x3c0fa717	0.008767865
41	0x3b048ca4	0.002022543
42	0xbc510cc7	-0.012759394
43	0xbca03ace	-0.01955929
44	0x3c3a583d	0.011373577
45	0xbd6d5f2a	-0.057952084
46	0x3c88e19f	0.016709147
47	0x3d26f108	0.04075721
48	0x3d002cee	0.03129285
49	0x3c4e4168	0.012588836
50	0xbc19a9e0	-0.00937888
51	0x3c15c34e	0.009140803
52	0xbc8e953e	-0.017405149
53	0xbcc2da8d	-0.023785854
54	0xbd79909f	-0.060928937
55	0x3be63434	0.007025266
56	0x3c3d8c34	0.011569072
57	0x3cd0a86e	0.025470939
58	0xbc62b09b	-0.013836051
59	0xbc999399	-0.018747138
60	0x3b0e3aa0	0.0021702424
61	0xbc965f66	-0.018356036
62	0x3c89c1f9	0.016816126
63	0x3bfff385	0.007811012
64	0x3d09364a	0.03349904
65	0xbca7ba4c	-0.020474575
66	0x3d53291c	0.051552877
67	0x3adbccb8	0.0016769385
68	0xbc818d0c	-0.015814327
69	0xbd3f5ee7	-0.046721365
70	0x3d0d4e2f	0.03449839
71	0x3c48f40a	0.012265215
72	0xbb78ce1f	-0.0037964655
73	0xbc0d57ec	-0.008626919
74	0xbc4a3781	-0.012342335
75	0xbc3125ef	-0.010812267
76	0x3ca1530b	0.019692918
77	0xbc3cb4fe	-0.011517761
78	0x3be85c31	0.007091068
79	0xbc4deaf1	-0.012568221
80	0x3d07d910	0.03316599
81	0xbc03a432	-0.008034753
82	0xbae6b4bc	-0.001760147
83	0x3d5d43a6	0.054019593
84	0x3ae20012	0.0017242453
85	0x3cab4451	0.0209066
86	0x3cf109cb	0.029423615
87	0x3af12526	0.0018397912
88	0xbc7f88ce	-0.015596582
89	0x3c94c76c	0.018161498
90	0x3b4625ef	0.0030235013
91	0xbc87968d	-0.01655128
92	0x3cec7899	0.0288661
93	0xbd35f158	-0.044419616
94	0xbc05e2e2	-0.008171769
95	0xbd1f4848	-0.038887292
96	0xbcae5876	-0.021282416
97	0xbd326aba	-0.043558814
98	0xbced971e	-0.029002722
99	0xbd12094d	-0.0356534
100	0x3d61da53	0.05513985
101	0x3b7c07d8	0.0038456824
102	0x3a8e45cd	0.0010854542
103	0xbb82c197	-0.003990363
104	0xbc77dfa5	-0.015129005
105	0xbaf211fa	-0.0018468492
106	0xbcde8809	-0.027164476
107	0x3c573177	0.013134352
108	0xbcd93d99	-0.02651863
109	0xbc4fc56b	-0.012681345
110	0x3cd3de37	0.025862796
111	0xbc2e3db3	-0.010634827
112	0xbcc3a037	-0.023880107
113	0xbcfe67b2	-0.031055305
114	0xbc6d9c02	-0.014502527
115	0xbcd3936e	-0.025827136
116	0xbb96cb13	-0.004601845
117	0xbcb32e9e	-0.021872815
118	0x3d0f0ef2	0.034926362
119	0x3d1f2100	0.03884983
120	0x3c104744	0.008806054
121	0xbcbf6746	-0.023364674
122	0x3d0afcb9	0.03393242
123	0x3b2ad5f0	0.0026067458
124	0xbc1e7a63	-0.009672734
125	0x3ca3d25f	0.019997774
126	0xbcb512a6	-0.022103619
127	0xbbebeb62	-0.0071996907
128	0xbc83f387	-0.016107334
129	0xbc52ce14	-0.012866516
130	0xbd092836	-0.033485614
131	0xbd340b3f	-0.043956038
132	0xbcde9b45	-0.027173648
133	0x3ba4af8b	0.005025809
134	0xbc679622	-0.014134916
135	0xba8be2c1	-0.0010672436
136	0x3baf2d61	0.0053459858
137	0x3c5b76e0	0.013395041
138	0xbce85d5b	-0.028364828
139	0xbabb3db1	-0.0014285353
140	0x3d2f3963	0.042779338
141	0xbc6498bf	-0.013952433
142	0x3c18e4ad	0.009331864
143	0xbab95190	-0.0014138687
144	0x3b24de73	0.0025157004
145	0xbc9e07d7	-0.019290848
146	0xbccff163	-0.025383657
147	0xbba56f11	-0.0050486405
148	0xbcb6f970	-0.022335738
149	0x3c9c87ea	0.019107778
150	0xbaa40601	-0.0012513996
151	0xbd1f142c	-0.038837597
152	0xbd0acaec	-0.033884928
153	0x3c8035c5	0.01565064
154	0xbb8fbc2b	-0.004386445
155	0x3c433d19	0.011916422
156	0x3cb3b2b6	0.021935802
157	0x3c1b6d35	0.009486486
158	0x3ce5ec81	0.028066875
159	0x3d00d7be	0.031455748
160	0x3c4347ff	0.011919021
161	0xbcefc0e1	-0.029266777
162	0x3ca63104	0.020287044
163	0x3cd82cc5	0.026388535
164	0x39cdc918	0.00039250473
165	0x3c9b7cf1	0.018980475
166	0x3cdf3ad7	0.027249737
167	0xbcde3853	-0.027126467
168	0x3900c701	0.00012281166
169	0x3c808d69	0.01569243
170	0xbd4af5f7	-0.049550977
171	0x3a91eb2f	0.0011132712
172	0xbb4c5d54	-0.0031183558
173	0xbc2153da	-0.009846652
174	0xbd2615b0	-0.040548027
175	0xbc9b81f6	-0.018982869
176	0x3c2df736	0.010618022
177	0xbc324767	-0.010881281
178	0xbd26e837	-0.0407488
179	0xbd032192	-0.032014437
180	0xba1916b9	-0.0005839873
181	0x3ca0f7c6	0.019649398
182	0x3c07759f	0.008267789
183	0xbc97bfb0	-0.01852402
184	0xbd5615d6	-0.052266918
185	0xba8d65e9	-0.0010787818
186	0x3c1ee40f	0.009697928
187	0x3d01ce75	0.031691033
188	0xbcbc962e	-0.02302083
189	0x3c02d8fd	0.007986304
190	0xbc2485a7	-0.010041631
191	0xbd0b80f3	-0.034058522
192	0xbc188c7e	-0.00931084
193	0xbd2a459c	-0.04157029
194	0xb973fa7c	-0.00023267599
195	0xbd191144	-0.03736998
196	0xbc1b7929	-0.009489336
197	0x3c96666a	0.018359382
198	0x3baba332	0.0052379603
199	0xbd34f684	-0.044180408
200	0x3a943c74	0.001130952
201	0xbb4702e7	-0.003036672
202	0x3c8ea5f1	0.017413111
203	0x3c263b70	0.010146007
204	0x3b33171c	0.0027327007
205	0xbc696f6a	-0.014247755
206	0xbcf03058	-0.029319927
207	0xbc40c5ae	-0.0117658805
208	0xbd1cee10	-0.03831297
209	0xbce98cf6	-0.028509598
210	0xbcf1153e	-0.029429074
211	0x3cab0d43	0.020880347
212	0xbd1dba1b	-0.038507562
213	0xbd02b3e9	-0.031909857
214	0xbab367fe	-0.0013687608
215	0x3d3962b0	0.04526013
216	0xbbaf51ee	-0.005350343
217	0xb9b1ce8d	-0.00033913963
218	0x3d157435	0.036487777
219	0x3ccc9875	0.02497504
220	0xbc1b56da	-0.009481156
221	0xbd28ff54	-0.041259125
222	0x3d28f97d	0.041253556
223	0x3cbcda89	0.023053424
224	0x3c9e9455	0.01935784
225	0x3bcfaf28	0.006338019
226	0xbc128da2	-0.008944901
227	0xbc9056f0	-0.01761958
228	0xbbb94e44	-0.005655082
229	0xbd29351a	-0.041310407
230	0x3ced95ea	0.029002149
231	0x3d0d61d7	0.034517135
232	0x3b784b37	0.0037886628
233	0x3ca87c0c	0.020566963
234	0xbc8f3ffb	-0.017486563
235	0x3c40af54	0.0117605515
236	0xbcd55a46	-0.026044022
237	0xbab857e0	-0.0014064275
238	0xbd466e43	-0.048444998
239	0xba9bd416	-0.0011888768
240	0x3c6aab5f	0.014323085
241	0x3ce5c5b1	0.028048368
242	0xbb44e843	-0.0030045665
243	0xbd143f70	-0.03619331
244	0x3ae884c0	0.0017739758
245	0xbceb9b4b	-0.028760573
246	0x3c36ab27	0.011149204
247	0x3cb0156b	0.021494588
248	0x3c65d398	0.014027499
249	0xbbaa25f4	-0.0051925126
250	0x3d0454cd	0.032307435
251	0x3c1d421b	0.00959828
252	0xbc1e2d4d	-0.009654355
253	0xbc9493c9	-0.018136876
254	0x3d02c8a4	0.031929627
255	0x3c6a7c6b	0.01431189

bias f4 [5]
0	0x3b8f848d	0.004379815
1	0xb9c82759	-0.0003817629
2	0x3cc4c81c	0.0240212
3	0x3d92ecbb	0.07174059
4	0xbb338e9d	-0.0027398237
