simclr_cnn_transformer_trainings1/logistic_on_simclr_IT_250pat/lightning_logs/version_0/checkpoints/last.ckpt (torch, 7911 bytes, 6 tensors)

classifier.weight f4 [5, 184]
-0.036814902 -0.011795189 0.011548021 0.013299152 -0.021267697 0.0051510553 0.012328363 -0.019822067
-0.008328996 -0.021989966 0.0073755654 -0.037884153 -0.012034899 0.01303437 0.0018940842 -0.030710312
-0.021988144 -0.014503375 0.013992658 -0.00046821707 -0.006373848 -0.008576445 -0.028187491 -0.034472227
-0.0474209 -0.021804933 -0.039049305 0.049327593 -0.02816658 -0.016895078 0.007046451 0.02129905
-0.020100093 -0.00510493 0.03192657 0.016079638 -0.028837368 -0.039814606 0.032137644 0.022073777
0.008163475 0.0021761786 -0.01231425 -0.019685715 0.011353832 -0.05865444 0.01729589 0.040823426
0.031347573 0.013157526 -0.008953297 0.008446962 -0.018677175 -0.022740886 -0.06153002 0.007480995
0.010946479 0.02478487 -0.0136605045 -0.01860406 0.0031070828 -0.017498607 0.016705906 0.009232153
0.033054568 -0.021085687 0.051321253 0.0028254893 -0.016235964 -0.047328215 0.035107605 0.013367108
-0.003374817 -0.0073800194 -0.012315481 -0.012005496 0.019144358 -0.010374764 0.0068653235 -0.013234191
0.032852888 -0.008481489 -0.0028521514 0.054661952 0.0016380656 0.02007434 0.029467821 0.001805092
-0.015940566 0.018000364 0.002979109 -0.015690483 0.028788934 -0.044305354 -0.0081682755 -0.039036695
-0.021291073 -0.04235858 -0.028340612 -0.03641925 0.053976838 0.0036468136 8.8777866e-05 -0.0030404786
-0.016177695 -0.0020034187 -0.026684958 0.013531794 -0.02625901 -0.01326597 0.025216838 -0.010040508
-0.024406005 -0.03063307 -0.014629532 -0.026131667 -0.0054328693 -0.021831976 0.03421549 0.04020408
0.009176826 -0.022613045 0.03380422 0.0032111383 -0.009354074 0.019324753 -0.02165532 -0.0066009723
-0.015706481 -0.012469668 -0.033511776 -0.043258056 -0.027130898 0.004265044 -0.0149531495 -0.0014842874
0.005096572 0.013334434 -0.028065737 -0.0016493199 0.043258917 -0.014039513 0.009913324 -0.0018799445
0.0029822628 -0.019883303 -0.024689695 -0.0055921893 -0.02347803 0.01778871 -0.0009075048 -0.038954385
-0.035267092 0.016395401 -0.0051049516 0.012499836 0.021440733 0.010653543 0.028827282 0.030676791
0.013009461 -0.029023347 0.01976764 0.027034206 0.00060204964 0.019858675 0.027630221 -0.027019229
-0.00062020076 0.016056757 -0.049597394 0.0011849626 -0.0037864437 -0.009383304 -0.04077659 -0.018839702
0.011324255 -0.011549074 -0.04068743 -0.0338433 -0.0016148066 0.019675575 0.007706178 -0.018029481
-0.05155801 -0.0015396286 0.009476296 0.029887846 -0.022812556 0.006180517 -0.011004958 -0.033232022
-0.008965878 -0.040743385 -0.000354788 -0.03990082 -0.010801152 0.019697666 0.004552382 -0.04284496
-0.00021572328 -0.0025482888 0.015116956 0.011482985 0.0033151924 -0.013842208 -0.030182581 -0.011562791
-0.038607076 -0.02643121 -0.02878442 0.021187786 -0.040687524 -0.031235069 -0.0022391162 0.045587834
-0.004627688 -0.0017449674 0.037090722 0.025321383 -0.010684492 -0.039447173 0.04199894 0.022416329
0.019113744 0.0052802186 -0.008965332 -0.017567182 -0.0053888056 -0.039645914 0.028719192 0.033813003
0.0059354478 0.021546833 -0.018356817 0.009907229 -0.026776742 0.0013062801 -0.048221473 0.0009493274
0.013673981 0.028296411 -0.0050881207 -0.035459287 0.0016755266 -0.028821848 0.012605481 0.021831267
0.014773058 -0.00395748 0.030525878 0.00859699 -0.008958447 -0.01724068 0.032177914 0.014427499
00000000: 39cb 16bd 9c40 41bc e933 3d3c b0e4 593c
00000010: 9839 aebc 2fca a83b e7fc 493c e361 a2bc
00000020: 5776 08bc 4d24 b4bc baae f13b 6a2c 1bbd
00000030: 062e 45bc 1c8e 553c eb42 f83a 3194 fbbc
00000040: 7b20 b4bc 909f 6dbc 7641 653c 087b f5b9
00000050: b6db d0bb 3884 0cbc 74e9 e6bc c032 0dbd
00000060: 6b3c 42bd 42a0 b2bc 2af2 1fbd bb0b 4a3d
00000070: 99bd e6bc 8c67 8abc eae5 e63b 587b ae3c
00000080: f3a8 a4bc 4247 a7bb 6fc5 023d 72b9 833c
00000090: 583c ecbc a414 23bd c3a2 033d 11d4 b43c
000000a0: 19c0 053c 389e 0e3b b5c1 49bc f043 a1bc
000000b0: 6c05 3a3c a33f 70bd 1cb0 8d3c 7736 273d
000000c0: 5066 003d aa92 573c d9b0 12bc 2065 0a3c
000000d0: e000 99bc 184b babc e706 7cbd 2223 f53b
000000e0: dc58 333c a409 cb3c 4fd0 5fbc 8b67 98bc
000000f0: 33a0 4b3b 3d59 8fbc d3da 883c 7542 173c
00000100: 3a64 073d e4bb acbc 3c36 523d d82b 393b
00000110: 4901 85bc 3bdb 41bd fecc 0f3d b701 5b3c
00000120: 092c 5dbb 17d4 f1bb dfc6 49bc b3b2 44bc
00000130: a1d4 9c3c eafa 29bc 82f6 e03b 38d4 58bc
00000140: c090 063d f1f5 0abc 29eb 3abb 36e5 5f3d
00000150: 5cb4 d63a f172 a43c 8066 f13c d698 ec3a
00000160: ca95 82bc 8075 933c 283d 433b 5489 80bc
00000170: c5d6 eb3c 8879 35bd 3bd4 05bc f1e4 1fbd
00000180: 9e6a aebc 3180 2dbd 922a e8bc 5a2c 15bd
00000190: d116 5d3d 61ff 6e3b 412e ba38 c442 47bb
000001a0: 1687 84bc ca4b 03bb 6a9a dabc 75b4 5d3c
000001b0: 231d d7bc 8359 59bc 8b93 ce3c f180 24bc
000001c0: 1aef c7bc 34f2 fabc b4b0 6fbc 1412 d6bc
000001d0: 3606 b2bb f9d8 b2bc 8b25 0c3d 09ad 243d
000001e0: 665a 163c fe3e b9bc 4b76 0a3d f671 523b
000001f0: d441 19bc f24e 9e3c 7f66 b1bc f84c d8bb
00000200: e1aa 80bc 944d 4cbc a543 09bd 5c2f 31bd
00000210: 9e41 debc c8c1 8b3b 0efe 74bc 6c8c c2ba
00000220: 2501 a73b ab78 5a3c 1eea e5bc fe2d d8ba
00000230: 4330 313d fc05 66bc 7f6b 223c 7868 f6ba
00000240: 1172 433b 4fe2 a2bc 0b42 cabc af3e b7bb
00000250: ff54 c0bc a1b9 913c 9ee5 6dba a28e 1fbd
00000260: 3a74 10bd a64f 863c 7047 a7bb 1dcc 4c3c
00000270: 7aa4 af3c 338c 2e3c 3127 ec3c e54d fb3c
00000280: a225 553c 5fc2 edbc bfef a13c d776 dd3c
00000290: ded2 1d3a a9ae a23c c658 e23c 6e57 ddbc
000002a0: f894 22ba 7689 833c a326 4bbd bf50 9b3a
000002b0: fc25 78bb 6ebc 19bc 5b05 27bd b855 9abc
000002c0: 5e89 393c 5438 3dbc dda7 26bd 469f 0abd
000002d0: eba7 d3ba ac2e a13c 1b84 fc3b 90b2 93bc
000002e0: 7e2e 53bd 5dcd c9ba 7742 1b3c 5bd7 f43c
000002f0: 66e1 babc ef85 ca3b 244e 34bc 4d1e 08bd
00000300: 9ee5 12bc 89e2 26bd d702 bab9 0b6f 23bd
00000310: 51f7 30bc 005d a13c 262c 953b 327e 2fbd
00000320: c733 62b9 3101 27bb 1cad 773c 2123 3c3c
00000330: b343 593b 6eca 62bc 7641 f7bc dc71 3dbc
00000340: 7422 1ebd 4486 d8bc 4ecd ebbc 0292 ad3c
00000350: f6a7 26bd b0e0 ffbc 23be 12bb 4fba 3a3d
00000360: dca3 97bb 64b7 e4ba 71ec 173d ca6e cf3c
00000370: 020e 2fbc 5c93 21bd 1507 2c3d 73a2 b73c
00000380: 6d94 9c3c af05 ad3b 54e3 12bc 0de9 8fbc
00000390: 9494 b0bb c163 22bd 8344 eb3c 817f 0a3d
000003a0: 257e c23b fc82 b03c 0961 96bc ee51 223c
000003b0: e65a dbbc 7d37 ab3a e183 45bd 49dc 783a
000003c0: d508 603c e0cd e73c 40ba a6bb c23d 11bd
000003d0: 589d db3a cc1b ecbc 3887 4e3c 7cd7 b23c
000003e0: b20a 723c c0ad 81bb 6811 fa3c 64da 0c3c
000003f0: 73c6 12bc 543c 8dbc fdcc 033d 5161 6c3c

classifier.bias f4 [5]
0.0051098387 -0.0070143826 0.031326838 0.07869301 -0.014737763
00000000: 6f70 a73b e8d8 e5bb 9250 003d cd29 a13d
00000010: a976 71bc

net.1.weight f4 [5, 184]
-0.036814902 -0.011795189 0.011548021 0.013299152 -0.021267697 0.0051510553 0.012328363 -0.019822067
-0.008328996 -0.021989966 0.0073755654 -0.037884153 -0.012034899 0.01303437 0.0018940842 -0.030710312
-0.021988144 -0.014503375 0.013992658 -0.00046821707 -0.006373848 -0.008576445 -0.028187491 -0.034472227
-0.0474209 -0.021804933 -0.039049305 0.049327593 -0.02816658 -0.016895078 0.007046451 0.02129905
-0.020100093 -0.00510493 0.03192657 0.016079638 -0.028837368 -0.039814606 0.032137644 0.022073777
0.008163475 0.0021761786 -0.01231425 -0.019685715 0.011353832 -0.05865444 0.01729589 0.040823426
0.031347573 0.013157526 -0.008953297 0.008446962 -0.018677175 -0.022740886 -0.06153002 0.007480995
0.010946479 0.02478487 -0.0136605045 -0.01860406 0.0031070828 -0.017498607 0.016705906 0.009232153
0.033054568 -0.021085687 0.051321253 0.0028254893 -0.016235964 -0.047328215 0.035107605 0.013367108
-0.003374817 -0.0073800194 -0.012315481 -0.012005496 0.019144358 -0.010374764 0.0068653235 -0.013234191
0.032852888 -0.008481489 -0.0028521514 0.054661952 0.0016380656 0.02007434 0.029467821 0.001805092
-0.015940566 0.018000364 0.002979109 -0.015690483 0.028788934 -0.044305354 -0.0081682755 -0.039036695
-0.021291073 -0.04235858 -0.028340612 -0.03641925 0.053976838 0.0036468136 8.8777866e-05 -0.0030404786
-0.016177695 -0.0020034187 -0.026684958 0.013531794 -0.02625901 -0.01326597 0.025216838 -0.010040508
-0.024406005 -0.03063307 -0.014629532 -0.026131667 -0.0054328693 -0.021831976 0.03421549 0.04020408
0.009176826 -0.022613045 0.03380422 0.0032111383 -0.009354074 0.019324753 -0.02165532 -0.0066009723
-0.015706481 -0.012469668 -0.033511776 -0.043258056 -0.027130898 0.004265044 -0.0149531495 -0.0014842874
0.005096572 0.013334434 -0.028065737 -0.0016493199 0.043258917 -0.014039513 0.009913324 -0.0018799445
0.0029822628 -0.019883303 -0.024689695 -0.0055921893 -0.02347803 0.01778871 -0.0009075048 -0.038954385
-0.035267092 0.016395401 -0.0051049516 0.012499836 0.021440733 0.010653543 0.028827282 0.030676791
0.013009461 -0.029023347 0.01976764 0.027034206 0.00060204964 0.019858675 0.027630221 -0.027019229
-0.00062020076 0.016056757 -0.049597394 0.0011849626 -0.0037864437 -0.009383304 -0.04077659 -0.018839702
0.011324255 -0.011549074 -0.04068743 -0.0338433 -0.0016148066 0.019675575 0.007706178 -0.018029481
-0.05155801 -0.0015396286 0.009476296 0.029887846 -0.022812556 0.006180517 -0.011004958 -0.033232022
-0.008965878 -0.040743385 -0.000354788 -0.03990082 -0.010801152 0.019697666 0.004552382 -0.04284496
-0.00021572328 -0.0025482888 0.015116956 0.011482985 0.0033151924 -0.013842208 -0.030182581 -0.011562791
-0.038607076 -0.02643121 -0.02878442 0.021187786 -0.040687524 -0.031235069 -0.0022391162 0.045587834
-0.004627688 -0.0017449674 0.037090722 0.025321383 -0.010684492 -0.039447173 0.04199894 0.022416329
0.019113744 0.0052802186 -0.008965332 -0.017567182 -0.0053888056 -0.039645914 0.028719192 0.033813003
0.0059354478 0.021546833 -0.018356817 0.009907229 -0.026776742 0.0013062801 -0.048221473 0.0009493274
0.013673981 0.028296411 -0.0050881207 -0.035459287 0.0016755266 -0.028821848 0.012605481 0.021831267
0.014773058 -0.00395748 0.030525878 0.00859699 -0.008958447 -0.01724068 0.032177914 0.014427499
00000000: 39cb 16bd 9c40 41bc e933 3d3c b0e4 593c
00000010: 9839 aebc 2fca a83b e7fc 493c e361 a2bc
00000020: 5776 08bc 4d24 b4bc baae f13b 6a2c 1bbd
00000030: 062e 45bc 1c8e 553c eb42 f83a 3194 fbbc
00000040: 7b20 b4bc 909f 6dbc 7641 653c 087b f5b9
00000050: b6db d0bb 3884 0cbc 74e9 e6bc c032 0dbd
00000060: 6b3c 42bd 42a0 b2bc 2af2 1fbd bb0b 4a3d
00000070: 99bd e6bc 8c67 8abc eae5 e63b 587b ae3c
00000080: f3a8 a4bc 4247 a7bb 6fc5 023d 72b9 833c
00000090: 583c ecbc a414 23bd c3a2 033d 11d4 b43c
000000a0: 19c0 053c 389e 0e3b b5c1 49bc f043 a1bc
000000b0: 6c05 3a3c a33f 70bd 1cb0 8d3c 7736 273d
000000c0: 5066 003d aa92 573c d9b0 12bc 2065 0a3c
000000d0: e000 99bc 184b babc e706 7cbd 2223 f53b
000000e0: dc58 333c a409 cb3c 4fd0 5fbc 8b67 98bc
000000f0: 33a0 4b3b 3d59 8fbc d3da 883c 7542 173c
00000100: 3a64 073d e4bb acbc 3c36 523d d82b 393b
00000110: 4901 85bc 3bdb 41bd fecc 0f3d b701 5b3c
00000120: 092c 5dbb 17d4 f1bb dfc6 49bc b3b2 44bc
00000130: a1d4 9c3c eafa 29bc 82f6 e03b 38d4 58bc
00000140: c090 063d f1f5 0abc 29eb 3abb 36e5 5f3d
00000150: 5cb4 d63a f172 a43c 8066 f13c d698 ec3a
00000160: ca95 82bc 8075 933c 283d 433b 5489 80bc
00000170: c5d6 eb3c 8879 35bd 3bd4 05bc f1e4 1fbd
00000180: 9e6a aebc 3180 2dbd 922a e8bc 5a2c 15bd
00000190: d116 5d3d 61ff 6e3b 412e ba38 c442 47bb
000001a0: 1687 84bc ca4b 03bb 6a9a dabc 75b4 5d3c
000001b0: 231d d7bc 8359 59bc 8b93 ce3c f180 24bc
000001c0: 1aef c7bc 34f2 fabc b4b0 6fbc 1412 d6bc
000001d0: 3606 b2bb f9d8 b2bc 8b25 0c3d 09ad 243d
000001e0: 665a 163c fe3e b9bc 4b76 0a3d f671 523b
000001f0: d441 19bc f24e 9e3c 7f66 b1bc f84c d8bb
00000200: e1aa 80bc 944d 4cbc a543 09bd 5c2f 31bd
00000210: 9e41 debc c8c1 8b3b 0efe 74bc 6c8c c2ba
00000220: 2501 a73b ab78 5a3c 1eea e5bc fe2d d8ba
00000230: 4330 313d fc05 66bc 7f6b 223c 7868 f6ba
00000240: 1172 433b 4fe2 a2bc 0b42 cabc af3e b7bb
00000250: ff54 c0bc a1b9 913c 9ee5 6dba a28e 1fbd
00000260: 3a74 10bd a64f 863c 7047 a7bb 1dcc 4c3c
00000270: 7aa4 af3c 338c 2e3c 3127 ec3c e54d fb3c
00000280: a225 553c 5fc2 edbc bfef a13c d776 dd3c
00000290: ded2 1d3a a9ae a23c c658 e23c 6e57 ddbc
000002a0: f894 22ba 7689 833c a326 4bbd bf50 9b3a
000002b0: fc25 78bb 6ebc 19bc 5b05 27bd b855 9abc
000002c0: 5e89 393c 5438 3dbc dda7 26bd 469f 0abd
000002d0: eba7 d3ba ac2e a13c 1b84 fc3b 90b2 93bc
000002e0: 7e2e 53bd 5dcd c9ba 7742 1b3c 5bd7 f43c
000002f0: 66e1 babc ef85 ca3b 244e 34bc 4d1e 08bd
00000300: 9ee5 12bc 89e2 26bd d702 bab9 0b6f 23bd
00000310: 51f7 30bc 005d a13c 262c 953b 327e 2fbd
00000320: c733 62b9 3101 27bb 1cad 773c 2123 3c3c
00000330: b343 593b 6eca 62bc 7641 f7bc dc71 3dbc
00000340: 7422 1ebd 4486 d8bc 4ecd ebbc 0292 ad3c
00000350: f6a7 26bd b0e0 ffbc 23be 12bb 4fba 3a3d
00000360: dca3 97bb 64b7 e4ba 71ec 173d ca6e cf3c
00000370: 020e 2fbc 5c93 21bd 1507 2c3d 73a2 b73c
00000380: 6d94 9c3c af05 ad3b 54e3 12bc 0de9 8fbc
00000390: 9494 b0bb c163 22bd 8344 eb3c 817f 0a3d
000003a0: 257e c23b fc82 b03c 0961 96bc ee51 223c
000003b0: e65a dbbc 7d37 ab3a e183 45bd 49dc 783a
000003c0: d508 603c e0cd e73c 40ba a6bb c23d 11bd
000003d0: 589d db3a cc1b ecbc 3887 4e3c 7cd7 b23c
000003e0: b20a 723c c0ad 81bb 6811 fa3c 64da 0c3c
000003f0: 73c6 12bc 543c 8dbc fdcc 033d 5161 6c3c

net.1.bias f4 [5]
0.0051098387 -0.0070143826 0.031326838 0.07869301 -0.014737763
00000000: 6f70 a73b e8d8 e5bb 9250 003d cd29 a13d
00000010: a976 71bc

weight f4 [5, 184]
-0.036814902 -0.011795189 0.011548021 0.013299152 -0.021267697 0.0051510553 0.012328363 -0.019822067
-0.008328996 -0.021989966 0.0073755654 -0.037884153 -0.012034899 0.01303437 0.0018940842 -0.030710312
-0.021988144 -0.014503375 0.013992658 -0.00046821707 -0.006373848 -0.008576445 -0.028187491 -0.034472227
-0.0474209 -0.021804933 -0.039049305 0.049327593 -0.02816658 -0.016895078 0.007046451 0.02129905
-0.020100093 -0.00510493 0.03192657 0.016079638 -0.028837368 -0.039814606 0.032137644 0.022073777
0.008163475 0.0021761786 -0.01231425 -0.019685715 0.011353832 -0.05865444 0.01729589 0.040823426
0.031347573 0.013157526 -0.008953297 0.008446962 -0.018677175 -0.022740886 -0.06153002 0.007480995
0.010946479 0.02478487 -0.0136605045 -0.01860406 0.0031070828 -0.017498607 0.016705906 0.009232153
0.033054568 -0.021085687 0.051321253 0.0028254893 -0.016235964 -0.047328215 0.035107605 0.013367108
-0.003374817 -0.0073800194 -0.012315481 -0.012005496 0.019144358 -0.010374764 0.0068653235 -0.013234191
0.032852888 -0.008481489 -0.0028521514 0.054661952 0.0016380656 0.02007434 0.029467821 0.001805092
-0.015940566 0.018000364 0.002979109 -0.015690483 0.028788934 -0.044305354 -0.0081682755 -0.039036695
-0.021291073 -0.04235858 -0.028340612 -0.03641925 0.053976838 0.0036468136 8.8777866e-05 -0.0030404786
-0.016177695 -0.0020034187 -0.026684958 0.013531794 -0.02625901 -0.01326597 0.025216838 -0.010040508
-0.024406005 -0.03063307 -0.014629532 -0.026131667 -0.0054328693 -0.021831976 0.03421549 0.04020408
0.009176826 -0.022613045 0.03380422 0.0032111383 -0.009354074 0.019324753 -0.02165532 -0.0066009723
-0.015706481 -0.012469668 -0.033511776 -0.043258056 -0.027130898 0.004265044 -0.0149531495 -0.0014842874
0.005096572 0.013334434 -0.028065737 -0.0016493199 0.043258917 -0.014039513 0.009913324 -0.0018799445
0.0029822628 -0.019883303 -0.024689695 -0.0055921893 -0.02347803 0.01778871 -0.0009075048 -0.038954385
-0.035267092 0.016395401 -0.0051049516 0.012499836 0.021440733 0.010653543 0.028827282 0.030676791
0.013009461 -0.029023347 0.01976764 0.027034206 0.00060204964 0.019858675 0.027630221 -0.027019229
-0.00062020076 0.016056757 -0.049597394 0.0011849626 -0.0037864437 -0.009383304 -0.04077659 -0.018839702
0.011324255 -0.011549074 -0.04068743 -0.0338433 -0.0016148066 0.019675575 0.007706178 -0.018029481
-0.05155801 -0.0015396286 0.009476296 0.029887846 -0.022812556 0.006180517 -0.011004958 -0.033232022
-0.008965878 -0.040743385 -0.000354788 -0.03990082 -0.010801152 0.019697666 0.004552382 -0.04284496
-0.00021572328 -0.0025482888 0.015116956 0.011482985 0.0033151924 -0.013842208 -0.030182581 -0.011562791
-0.038607076 -0.02643121 -0.02878442 0.021187786 -0.040687524 -0.031235069 -0.0022391162 0.045587834
-0.004627688 -0.0017449674 0.037090722 0.025321383 -0.010684492 -0.039447173 0.04199894 0.022416329
0.019113744 0.0052802186 -0.008965332 -0.017567182 -0.0053888056 -0.039645914 0.028719192 0.033813003
0.0059354478 0.021546833 -0.018356817 0.009907229 -0.026776742 0.0013062801 -0.048221473 0.0009493274
0.013673981 0.028296411 -0.0050881207 -0.035459287 0.0016755266 -0.028821848 0.012605481 0.021831267
0.014773058 -0.00395748 0.030525878 0.00859699 -0.008958447 -0.01724068 0.032177914 0.014427499
00000000: 39cb 16bd 9c40 41bc e933 3d3c b0e4 593c
00000010: 9839 aebc 2fca a83b e7fc 493c e361 a2bc
00000020: 5776 08bc 4d24 b4bc baae f13b 6a2c 1bbd
00000030: 062e 45bc 1c8e 553c eb42 f83a 3194 fbbc
00000040: 7b20 b4bc 909f 6dbc 7641 653c 087b f5b9
00000050: b6db d0bb 3884 0cbc 74e9 e6bc c032 0dbd
00000060: 6b3c 42bd 42a0 b2bc 2af2 1fbd bb0b 4a3d
00000070: 99bd e6bc 8c67 8abc eae5 e63b 587b ae3c
00000080: f3a8 a4bc 4247 a7bb 6fc5 023d 72b9 833c
00000090: 583c ecbc a414 23bd c3a2 033d 11d4 b43c
000000a0: 19c0 053c 389e 0e3b b5c1 49bc f043 a1bc
000000b0: 6c05 3a3c a33f 70bd 1cb0 8d3c 7736 273d
000000c0: 5066 003d aa92 573c d9b0 12bc 2065 0a3c
000000d0: e000 99bc 184b babc e706 7cbd 2223 f53b
000000e0: dc58 333c a409 cb3c 4fd0 5fbc 8b67 98bc
000000f0: 33a0 4b3b 3d59 8fbc d3da 883c 7542 173c
00000100: 3a64 073d e4bb acbc 3c36 523d d82b 393b
00000110: 4901 85bc 3bdb 41bd fecc 0f3d b701 5b3c
00000120: 092c 5dbb 17d4 f1bb dfc6 49bc b3b2 44bc
00000130: a1d4 9c3c eafa 29bc 82f6 e03b 38d4 58bc
00000140: c090 063d f1f5 0abc 29eb 3abb 36e5 5f3d
00000150: 5cb4 d63a f172 a43c 8066 f13c d698 ec3a
00000160: ca95 82bc 8075 933c 283d 433b 5489 80bc
00000170: c5d6 eb3c 8879 35bd 3bd4 05bc f1e4 1fbd
00000180: 9e6a aebc 3180 2dbd 922a e8bc 5a2c 15bd
00000190: d116 5d3d 61ff 6e3b 412e ba38 c442 47bb
000001a0: 1687 84bc ca4b 03bb 6a9a dabc 75b4 5d3c
000001b0: 231d d7bc 8359 59bc 8b93 ce3c f180 24bc
000001c0: 1aef c7bc 34f2 fabc b4b0 6fbc 1412 d6bc
000001d0: 3606 b2bb f9d8 b2bc 8b25 0c3d 09ad 243d
000001e0: 665a 163c fe3e b9bc 4b76 0a3d f671 523b
000001f0: d441 19bc f24e 9e3c 7f66 b1bc f84c d8bb
00000200: e1aa 80bc 944d 4cbc a543 09bd 5c2f 31bd
00000210: 9e41 debc c8c1 8b3b 0efe 74bc 6c8c c2ba
00000220: 2501 a73b ab78 5a3c 1eea e5bc fe2d d8ba
00000230: 4330 313d fc05 66bc 7f6b 223c 7868 f6ba
00000240: 1172 433b 4fe2 a2bc 0b42 cabc af3e b7bb
00000250: ff54 c0bc a1b9 913c 9ee5 6dba a28e 1fbd
00000260: 3a74 10bd a64f 863c 7047 a7bb 1dcc 4c3c
00000270: 7aa4 af3c 338c 2e3c 3127 ec3c e54d fb3c
00000280: a225 553c 5fc2 edbc bfef a13c d776 dd3c
00000290: ded2 1d3a a9ae a23c c658 e23c 6e57 ddbc
000002a0: f894 22ba 7689 833c a326 4bbd bf50 9b3a
000002b0: fc25 78bb 6ebc 19bc 5b05 27bd b855 9abc
000002c0: 5e89 393c 5438 3dbc dda7 26bd 469f 0abd
000002d0: eba7 d3ba ac2e a13c 1b84 fc3b 90b2 93bc
000002e0: 7e2e 53bd 5dcd c9ba 7742 1b3c 5bd7 f43c
000002f0: 66e1 babc ef85 ca3b 244e 34bc 4d1e 08bd
00000300: 9ee5 12bc 89e2 26bd d702 bab9 0b6f 23bd
00000310: 51f7 30bc 005d a13c 262c 953b 327e 2fbd
00000320: c733 62b9 3101 27bb 1cad 773c 2123 3c3c
00000330: b343 593b 6eca 62bc 7641 f7bc dc71 3dbc
00000340: 7422 1ebd 4486 d8bc 4ecd ebbc 0292 ad3c
00000350: f6a7 26bd b0e0 ffbc 23be 12bb 4fba 3a3d
00000360: dca3 97bb 64b7 e4ba 71ec 173d ca6e cf3c
00000370: 020e 2fbc 5c93 21bd 1507 2c3d 73a2 b73c
00000380: 6d94 9c3c af05 ad3b 54e3 12bc 0de9 8fbc
00000390: 9494 b0bb c163 22bd 8344 eb3c 817f 0a3d
000003a0: 257e c23b fc82 b03c 0961 96bc ee51 223c
000003b0: e65a dbbc 7d37 ab3a e183 45bd 49dc 783a
000003c0: d508 603c e0cd e73c 40ba a6bb c23d 11bd
000003d0: 589d db3a cc1b ecbc 3887 4e3c 7cd7 b23c
000003e0: b20a 723c c0ad 81bb 6811 fa3c 64da 0c3c
000003f0: 73c6 12bc 543c 8dbc fdcc 033d 5161 6c3c

bias f4 [5]
0.0051098387 -0.0070143826 0.031326838 0.07869301 -0.014737763
00000000: 6f70 a73b e8d8 e5bb 9250 003d cd29 a13d
00000010: a976 71bc
