simclr_cnn_transformer_trainings1/logistic_on_simclr_IT_10pat/lightning_logs/version_0/checkpoints/epoch=39-step=4920.ckpt (torch, 7847 bytes, 6 tensors)

classifier.weight f4 [5, 184]
0	0x3cc0190a	0.02344944
1	0x3d4c542c	0.04988496
2	0x3c28a595	0.010293384
3	0xbd1bba3e	-0.03801941
4	0x3ccbbced	0.02487036
5	0xbc3e23b0	-0.011605188
6	0x3c34913b	0.011020954
7	0xbb88c9cc	-0.0041744467
8	0xbb98bfa2	-0.0046615163
9	0xbd08bf9c	-0.033385858
10	0xbd4fd3b3	-0.050739
11	0x3cc0ce92	0.023536
12	0xbd3694f4	-0.044575647
13	0xbd0bed8a	-0.03416208
14	0xbcbc00fd	-0.02294969
15	0xbd0db397	-0.0345951
16	0x3c888d91	0.016669067
17	0xbd5b379e	-0.053519838
18	0xbb8ade7d	-0.0042379485
19	0x3c4e909e	0.012607722
20	0xbc9a38a8	-0.018825844
21	0x3d2ac50c	0.041691825
22	0x3d4409e7	0.047861006
23	0xbc236502	-0.009972813
24	0xbd2fc56a	-0.042912878
25	0xbd082d5e	-0.03324639
26	0x3d757b9f	0.059932347
27	0x3d144f82	0.036208637
28	0xbcf2d465	-0.029642293
29	0xb93d7733	-0.0001806885
30	0xbc907170	-0.017632216
31	0x3c3426e9	0.010995605
32	0x3cb63070	0.022239894
33	0xbcc1287c	-0.023578875
34	0x3cf078dd	0.029354507
35	0xbbfe636c	-0.007763317
36	0x3d14e05e	0.036346786
37	0xbbe6c06e	-0.0070419824
38	0xbd373ec5	-0.044737596
39	0xbd1680ae	-0.036743812
40	0xbb44228e	-0.0029927823
41	0x3c662c67	0.014048672
42	0xbd3fea30	-0.046854198
43	0xbccf9c25	-0.02534301
44	0x3cdb0b09	0.02673866
45	0x3d1362fc	0.03598307
46	0x3b8afb34	0.0042413715
47	0x3bedb394	0.0072540734
48	0xbaf29802	-0.0018508437
49	0x3c546c12	0.012965219
50	0x3ca7820e	0.020447757
51	0xbb648ccf	-0.0034873968
52	0x3cdc72ac	0.026910149
53	0x3d4e6ae8	0.050394922
54	0xbd19754f	-0.03746539
55	0x3d510693	0.05103166
56	0x3d063703	0.032767307
57	0x3cf8c268	0.030366138
58	0x3cff50cc	0.031166457
59	0x3d905c32	0.07048835
60	0xbd2db9da	-0.04241357
61	0xbba0772c	-0.004897019
62	0x3b51cce6	0.0032012998
63	0x3cd1e105	0.025619993
64	0x3c2e3814	0.010633487
65	0xb9d3cf63	-0.0004039957
66	0xbc90b9c4	-0.017666705
67	0x3cee1944	0.029064782
68	0x3cb80b2d	0.022466267
69	0xbcce8ee0	-0.025214612
70	0x3ad36af4	0.0016129897
71	0xbc572815	-0.013132115
72	0xbc8f5d87	-0.017500652
73	0xba97b5e2	-0.0011574591
74	0xba52ecc2	-0.0008046144
75	0xbd5712d8	-0.052508205
76	0x3cd93ccc	0.026518248
77	0xb90a0a64	-0.00013164576
78	0x3da0fe06	0.07860951
79	0x3cb36c6c	0.021902286
80	0x3cde90a4	0.02716858
81	0xbd50c18f	-0.05096584
82	0x3d74f3e1	0.059802894
83	0xbd2745ec	-0.040838167
84	0xbd3e9efa	-0.04653833
85	0x3c23349c	0.0099612735
86	0xbcf17c25	-0.029478142
87	0x3d0f49b9	0.034982417
88	0x3ce86ba2	0.028371636
89	0x3a73d623	0.0009301623
90	0xbd7e213d	-0.062043417
91	0x3d25c8cd	0.0404747
92	0xbbb2e71e	-0.00545968
93	0x3bcb24a9	0.0061994386
94	0xbd0e5194	-0.034745768
95	0xbc02551b	-0.007954861
96	0x3c894bdc	0.016759805
97	0xbd57fc82	-0.052731045
98	0x3cac0e68	0.021002963
99	0x3cb8e410	0.022569686
100	0xbd09583e	-0.03353142
101	0x3cb9bc6c	0.022672854
102	0xbc736564	-0.014855716
103	0xbd82b0b2	-0.06381358
104	0x3d1251e6	0.035722636
105	0xbc79ea40	-0.015253603
106	0xbd2b828f	-0.041872557
107	0xbcce8985	-0.025212059
108	0x3d17539a	0.036944963
109	0xbd0029fe	-0.031290047
110	0xbc4fc30e	-0.012680782
111	0x3ca5ee6d	0.020255292
112	0x3d0938d3	0.033501457
113	0x3c823b51	0.015897425
114	0x3d2ab9bb	0.041681033
115	0xbceaa95e	-0.028645214
116	0x3cb78402	0.022401813
117	0xbbb693b9	-0.005571809
118	0x3ceaf7c1	0.028682591
119	0xbca1008d	-0.019653583
120	0x3cfa654c	0.03056588
121	0x3c9338ed	0.01797148
122	0xbd15e71b	-0.036597352
123	0x3d0ac1d6	0.033876263
124	0xbb63d4f2	-0.0034764376
125	0x3cc112d5	0.02356855
126	0x3ba8046e	0.005127481
127	0xbbe5c85c	-0.00701241
128	0x3d192305	0.037386913
129	0xbc5c4dd9	-0.013446295
130	0xbc54ced3	-0.012988764
131	0x3ce1256d	0.027483666
132	0x3cb80deb	0.022467574
133	0x3c012ed1	0.007884697
134	0xbd3eaa8b	-0.04654936
135	0x3cb0c26e	0.021577086
136	0x3996b33d	0.00028743772
137	0x3bfc2253	0.0076945215
138	0xbc8772e5	-0.016534278
139	0x3ccdc1a6	0.025116753
140	0x3be4f106	0.00698674
141	0xbd862821	-0.06550623
142	0xbd09bc88	-0.033627063
143	0xbcbd51f7	-0.023110373
144	0xbd8da199	-0.06915588
145	0xbcbda102	-0.023148064
146	0x3a55a99b	0.00081505784
147	0x3d496d88	0.049176723
148	0x3d0ce33e	0.034396403
149	0xbd58a3e2	-0.052890666
150	0xbc3b2ead	-0.011424703
151	0x3c0ee255	0.008720954
152	0xbcbb408c	-0.022857927
153	0x3d39efe6	0.0453948
154	0xbc1424d2	-0.009041982
155	0x3d37c990	0.04486996
156	0x3c9e5c5c	0.01933115
157	0x3bb4c106	0.0055161742
158	0xbc7eac6d	-0.015544039
159	0x3bdaab16	0.006673227
160	0x3d146879	0.036232445
161	0x3cfea2e2	0.031083528
162	0x3a953600	0.0011383891
163	0x3d638151	0.055543248
164	0x3b9e2117	0.004825722
165	0x3bbdee7d	0.0057962523
166	0xbcca61b5	-0.024704793
167	0xbbdd0782	-0.0067452798
168	0xbdba6b80	-0.09102535
169	0x3c2bc472	0.010483848
170	0x3ca94800	0.020664215
171	0x3bb9dc4c	0.0056720134
172	0xbc5da650	-0.0135284215
173	0x3d131895	0.035912115
174	0xbbc90258	-0.0061343126
175	0xbd7bab72	-0.0614428
176	0xbc1abfc9	-0.009445139
177	0xba19059c	-0.00058373227
178	0x3bcacc66	0.006188917
179	0xbd00682a	-0.03134934
180	0xbc543237	-0.012951425
181	0x3c018c84	0.007907037
182	0xbc9f6b12	-0.019460235
183	0xbd8ec30e	-0.069707975
184	0xbca140b4	-0.019684173
185	0xbd24064b	-0.040045064
186	0x3d04193b	0.032250624
187	0xbd2a1a0b	-0.041528743
188	0x3d226273	0.03964467
189	0x3ca0b8b4	0.019619323
190	0x3d047176	0.032334767
191	0x3b2fe0e9	0.0026836938
192	0x3bbfd3bd	0.0058540986
193	0x3cc25b57	0.023725195
194	0xb9162cca	-0.000143218
195	0xbb42934e	-0.0029689851
196	0xbd84aee3	-0.064786695
197	0x3bb9dd32	0.0056721205
198	0x3c0eda43	0.00871903
199	0xbd10c2af	-0.035341915
200	0x3d265f76	0.040618382
201	0xbcacd544	-0.021097787
202	0xbd0daa07	-0.03458598
203	0xbd8001d5	-0.062503494
204	0xbbcc387f	-0.006232321
205	0x3d1568d6	0.036476932
206	0xbd30704a	-0.043075837
207	0xbbcf8546	-0.006333026
208	0x3cab80d4	0.020935453
209	0xbc52e0d9	-0.012870991
210	0x3d1abcc4	0.037777677
211	0x3d1c6a8f	0.03818756
212	0x3c3275d1	0.010892347
213	0xbccce03f	-0.025009273
214	0xbb22d922	-0.002484866
215	0xbc91c010	-0.017791778
216	0x3a31a721	0.00067769183
217	0xbc851eac	-0.016249977
218	0xbd28436d	-0.041079927
219	0xbd1134d0	-0.035450757
220	0x3d673efb	0.056456547
221	0xba0ce549	-0.00053747423
222	0xbc2f1555	-0.010686238
223	0x3cbc9253	0.023018992
224	0xbba58034	-0.0050506834
225	0x3cf38ea3	0.0297311
226	0xbd3ed3d5	-0.046588738
227	0xbd06c750	-0.032904923
228	0x3c05ac5d	0.00815877
229	0x3d1c27d7	0.03812393
230	0xbd5646af	-0.052313503
231	0x3ba8d032	0.005151772
232	0x3a7facf9	0.0009753253
233	0x3b860139	0.004089501
234	0x3c7cf815	0.015440007
235	0x3d2bad94	0.041913584
236	0xbcde56d7	-0.027141018
237	0xbc8e2778	-0.017352805
238	0xbc6c0299	-0.014404916
239	0xbd375551	-0.0447591
240	0x3ce922ba	0.028458942
241	0x3b319a61	0.0027100074
242	0xbc9ee2de	-0.019395288
243	0x3cf051a4	0.029335804
244	0x3cf7b4d0	0.030237585
245	0x3d5d2513	0.053990435
246	0x3c5fdf45	0.013664071
247	0x3c89bf4b	0.016814848
248	0xbb3ae519	-0.00285179
249	0xbc9538a1	-0.01821548
250	0xbc80026f	-0.01562616
251	0x3bbf6252	0.005840578
252	0x3c047937	0.0080855405
253	0xbc815f9a	-0.015792657
254	0xbcde9683	-0.027171379
255	0x3d8a4865	0.067520894

classifier.bias f4 [5]
0	0x3d505fff	0.0508728
1	0xbd854e51	-0.06509078
2	0xbd4c78ef	-0.04992002
3	0xbd1ead25	-0.038739342
4	0x3d8be0de	0.068299994

net.1.weight f4 [5, 184]
0	0x3cc0190a	0.02344944
1	0x3d4c542c	0.04988496
2	0x3c28a595	0.010293384
3	0xbd1bba3e	-0.03801941
4	0x3ccbbced	0.02487036
5	0xbc3e23b0	-0.011605188
6	0x3c34913b	0.011020954
7	0xbb88c9cc	-0.0041744467
8	0xbb98bfa2	-0.0046615163
9	0xbd08bf9c	-0.033385858
10	0xbd4fd3b3	-0.050739
11	0x3cc0ce92	0.023536
12	0xbd3694f4	-0.044575647
13	0xbd0bed8a	-0.03416208
14	0xbcbc00fd	-0.02294969
15	0xbd0db397	-0.0345951
16	0x3c888d91	0.016669067
17	0xbd5b379e	-0.053519838
18	0xbb8ade7d	-0.0042379485
19	0x3c4e909e	0.012607722
20	0xbc9a38a8	-0.018825844
21	0x3d2ac50c	0.041691825
22	0x3d4409e7	0.047861006
23	0xbc236502	-0.009972813
24	0xbd2fc56a	-0.042912878
25	0xbd082d5e	-0.03324639
26	0x3d757b9f	0.059932347
27	0x3d144f82	0.036208637
28	0xbcf2d465	-0.029642293
29	0xb93d7733	-0.0001806885
30	0xbc907170	-0.017632216
31	0x3c3426e9	0.010995605
32	0x3cb63070	0.022239894
33	0xbcc1287c	-0.023578875
34	0x3cf078dd	0.029354507
35	0xbbfe636c	-0.007763317
36	0x3d14e05e	0.036346786
37	0xbbe6c06e	-0.0070419824
38	0xbd373ec5	-0.044737596
39	0xbd1680ae	-0.036743812
40	0xbb44228e	-0.0029927823
41	0x3c662c67	0.014048672
42	0xbd3fea30	-0.046854198
43	0xbccf9c25	-0.02534301
44	0x3cdb0b09	0.02673866
45	0x3d1362fc	0.03598307
46	0x3b8afb34	0.0042413715
47	0x3bedb394	0.0072540734
48	0xbaf29802	-0.0018508437
49	0x3c546c12	0.012965219
50	0x3ca7820e	0.020447757
51	0xbb648ccf	-0.0034873968
52	0x3cdc72ac	0.026910149
53	0x3d4e6ae8	0.050394922
54	0xbd19754f	-0.03746539
55	0x3d510693	0.05103166
56	0x3d063703	0.032767307
57	0x3cf8c268	0.030366138
58	0x3cff50cc	0.031166457
59	0x3d905c32	0.07048835
60	0xbd2db9da	-0.04241357
61	0xbba0772c	-0.004897019
62	0x3b51cce6	0.0032012998
63	0x3cd1e105	0.025619993
64	0x3c2e3814	0.010633487
65	0xb9d3cf63	-0.0004039957
66	0xbc90b9c4	-0.017666705
67	0x3cee1944	0.029064782
68	0x3cb80b2d	0.022466267
69	0xbcce8ee0	-0.025214612
70	0x3ad36af4	0.0016129897
71	0xbc572815	-0.013132115
72	0xbc8f5d87	-0.017500652
73	0xba97b5e2	-0.0011574591
74	0xba52ecc2	-0.0008046144
75	0xbd5712d8	-0.052508205
76	0x3cd93ccc	0.026518248
77	0xb90a0a64	-0.00013164576
78	0x3da0fe06	0.07860951
79	0x3cb36c6c	0.021902286
80	0x3cde90a4	0.02716858
81	0xbd50c18f	-0.05096584
82	0x3d74f3e1	0.059802894
83	0xbd2745ec	-0.040838167
84	0xbd3e9efa	-0.04653833
85	0x3c23349c	0.0099612735
86	0xbcf17c25	-0.029478142
87	0x3d0f49b9	0.034982417
88	0x3ce86ba2	0.028371636
89	0x3a73d623	0.0009301623
90	0xbd7e213d	-0.062043417
91	0x3d25c8cd	0.0404747
92	0xbbb2e71e	-0.00545968
93	0x3bcb24a9	0.0061994386
94	0xbd0e5194	-0.034745768
95	0xbc02551b	-0.007954861
96	0x3c894bdc	0.016759805
97	0xbd57fc82	-0.052731045
98	0x3cac0e68	0.021002963
99	0x3cb8e410	0.022569686
100	0xbd09583e	-0.03353142
101	0x3cb9bc6c	0.022672854
102	0xbc736564	-0.014855716
103	0xbd82b0b2	-0.06381358
104	0x3d1251e6	0.035722636
105	0xbc79ea40	-0.015253603
106	0xbd2b828f	-0.041872557
107	0xbcce8985	-0.025212059
108	0x3d17539a	0.036944963
109	0xbd0029fe	-0.031290047
110	0xbc4fc30e	-0.012680782
111	0x3ca5ee6d	0.020255292
112	0x3d0938d3	0.033501457
113	0x3c823b51	0.015897425
114	0x3d2ab9bb	0.041681033
115	0xbceaa95e	-0.028645214
116	0x3cb78402	0.022401813
117	0xbbb693b9	-0.005571809
118	0x3ceaf7c1	0.028682591
119	0xbca1008d	-0.019653583
120	0x3cfa654c	0.03056588
121	0x3c9338ed	0.01797148
122	0xbd15e71b	-0.036597352
123	0x3d0ac1d6	0.033876263
124	0xbb63d4f2	-0.0034764376
125	0x3cc112d5	0.02356855
126	0x3ba8046e	0.005127481
127	0xbbe5c85c	-0.00701241
128	0x3d192305	0.037386913
129	0xbc5c4dd9	-0.013446295
130	0xbc54ced3	-0.012988764
131	0x3ce1256d	0.027483666
132	0x3cb80deb	0.022467574
133	0x3c012ed1	0.007884697
134	0xbd3eaa8b	-0.04654936
135	0x3cb0c26e	0.021577086
136	0x3996b33d	0.00028743772
137	0x3bfc2253	0.0076945215
138	0xbc8772e5	-0.016534278
139	0x3ccdc1a6	0.025116753
140	0x3be4f106	0.00698674
141	0xbd862821	-0.06550623
142	0xbd09bc88	-0.033627063
143	0xbcbd51f7	-0.023110373
144	0xbd8da199	-0.06915588
145	0xbcbda102	-0.023148064
146	0x3a55a99b	0.00081505784
147	0x3d496d88	0.049176723
148	0x3d0ce33e	0.034396403
149	0xbd58a3e2	-0.052890666
150	0xbc3b2ead	-0.011424703
151	0x3c0ee255	0.008720954
152	0xbcbb408c	-0.022857927
153	0x3d39efe6	0.0453948
154	0xbc1424d2	-0.009041982
155	0x3d37c990	0.04486996
156	0x3c9e5c5c	0.01933115
157	0x3bb4c106	0.0055161742
158	0xbc7eac6d	-0.015544039
159	0x3bdaab16	0.006673227
160	0x3d146879	0.036232445
161	0x3cfea2e2	0.031083528
162	0x3a953600	0.0011383891
163	0x3d638151	0.055543248
164	0x3b9e2117	0.004825722
165	0x3bbdee7d	0.0057962523
166	0xbcca61b5	-0.024704793
167	0xbbdd0782	-0.0067452798
168	0xbdba6b80	-0.09102535
169	0x3c2bc472	0.010483848
170	0x3ca94800	0.020664215
171	0x3bb9dc4c	0.0056720134
172	0xbc5da650	-0.0135284215
173	0x3d131895	0.035912115
174	0xbbc90258	-0.0061343126
175	0xbd7bab72	-0.0614428
176	0xbc1abfc9	-0.009445139
177	0xba19059c	-0.00058373227
178	0x3bcacc66	0.006188917
179	0xbd00682a	-0.03134934
180	0xbc543237	-0.012951425
181	0x3c018c84	0.007907037
182	0xbc9f6b12	-0.019460235
183	0xbd8ec30e	-0.069707975
184	0xbca140b4	-0.019684173
185	0xbd24064b	-0.040045064
186	0x3d04193b	0.032250624
187	0xbd2a1a0b	-0.041528743
188	0x3d226273	0.03964467
189	0x3ca0b8b4	0.019619323
190	0x3d047176	0.032334767
191	0x3b2fe0e9	0.0026836938
192	0x3bbfd3bd	0.0058540986
193	0x3cc25b57	0.023725195
194	0xb9162cca	-0.000143218
195	0xbb42934e	-0.0029689851
196	0xbd84aee3	-0.064786695
197	0x3bb9dd32	0.0056721205
198	0x3c0eda43	0.00871903
199	0xbd10c2af	-0.035341915
200	0x3d265f76	0.040618382
201	0xbcacd544	-0.021097787
202	0xbd0daa07	-0.03458598
203	0xbd8001d5	-0.062503494
204	0xbbcc387f	-0.006232321
205	0x3d1568d6	0.036476932
206	0xbd30704a	-0.043075837
207	0xbbcf8546	-0.006333026
208	0x3cab80d4	0.020935453
209	0xbc52e0d9	-0.012870991
210	0x3d1abcc4	0.037777677
211	0x3d1c6a8f	0.03818756
212	0x3c3275d1	0.010892347
213	0xbccce03f	-0.025009273
214	0xbb22d922	-0.002484866
215	0xbc91c010	-0.017791778
216	0x3a31a721	0.00067769183
217	0xbc851eac	-0.016249977
218	0xbd28436d	-0.041079927
219	0xbd1134d0	-0.035450757
220	0x3d673efb	0.056456547
221	0xba0ce549	-0.00053747423
222	0xbc2f1555	-0.010686238
223	0x3cbc9253	0.023018992
224	0xbba58034	-0.0050506834
225	0x3cf38ea3	0.0297311
226	0xbd3ed3d5	-0.046588738
227	0xbd06c750	-0.032904923
228	0x3c05ac5d	0.00815877
229	0x3d1c27d7	0.03812393
230	0xbd5646af	-0.052313503
231	0x3ba8d032	0.005151772
232	0x3a7facf9	0.0009753253
233	0x3b860139	0.004089501
234	0x3c7cf815	0.015440007
235	0x3d2bad94	0.041913584
236	0xbcde56d7	-0.027141018
237	0xbc8e2778	-0.017352805
238	0xbc6c0299	-0.014404916
239	0xbd375551	-0.0447591
240	0x3ce922ba	0.028458942
241	0x3b319a61	0.0027100074
242	0xbc9ee2de	-0.019395288
243	0x3cf051a4	0.029335804
244	0x3cf7b4d0	0.030237585
245	0x3d5d2513	0.053990435
246	0x3c5fdf45	0.013664071
247	0x3c89bf4b	0.016814848
248	0xbb3ae519	-0.00285179
249	0xbc9538a1	-0.01821548
250	0xbc80026f	-0.01562616
251	0x3bbf6252	0.005840578
252	0x3c047937	0.0080855405
253	0xbc815f9a	-0.015792657
254	0xbcde9683	-0.027171379
255	0x3d8a4865	0.067520894

net.1.bias f4 [5]
0	0x3d505fff	0.0508728
1	0xbd854e51	-0.06509078
2	0xbd4c78ef	-0.04992002
3	0xbd1ead25	-0.038739342
4	0x3d8be0de	0.068299994

weight f4 [5, 184]
0	0x3cc0190a	0.02344944
1	0x3d4c542c	0.04988496
2	0x3c28a595	0.010293384
3	0xbd1bba3e	-0.03801941
4	0x3ccbbced	0.02487036
5	0xbc3e23b0	-0.011605188
6	0x3c34913b	0.011020954
7	0xbb88c9cc	-0.0041744467
8	0xbb98bfa2	-0.0046615163
9	0xbd08bf9c	-0.033385858
10	0xbd4fd3b3	-0.050739
11	0x3cc0ce92	0.023536
12	0xbd3694f4	-0.044575647
13	0xbd0bed8a	-0.03416208
14	0xbcbc00fd	-0.02294969
15	0xbd0db397	-0.0345951
16	0x3c888d91	0.016669067
17	0xbd5b379e	-0.053519838
18	0xbb8ade7d	-0.0042379485
19	0x3c4e909e	0.012607722
20	0xbc9a38a8	-0.018825844
21	0x3d2ac50c	0.041691825
22	0x3d4409e7	0.047861006
23	0xbc236502	-0.009972813
24	0xbd2fc56a	-0.042912878
25	0xbd082d5e	-0.03324639
26	0x3d757b9f	0.059932347
27	0x3d144f82	0.036208637
28	0xbcf2d465	-0.029642293
29	0xb93d7733	-0.0001806885
30	0xbc907170	-0.017632216
31	0x3c3426e9	0.010995605
32	0x3cb63070	0.022239894
33	0xbcc1287c	-0.023578875
34	0x3cf078dd	0.029354507
35	0xbbfe636c	-0.007763317
36	0x3d14e05e	0.036346786
37	0xbbe6c06e	-0.0070419824
38	0xbd373ec5	-0.044737596
39	0xbd1680ae	-0.036743812
40	0xbb44228e	-0.0029927823
41	0x3c662c67	0.014048672
42	0xbd3fea30	-0.046854198
43	0xbccf9c25	-0.02534301
44	0x3cdb0b09	0.02673866
45	0x3d1362fc	0.03598307
46	0x3b8afb34	0.0042413715
47	0x3bedb394	0.0072540734
48	0xbaf29802	-0.0018508437
49	0x3c546c12	0.012965219
50	0x3ca7820e	0.020447757
51	0xbb648ccf	-0.0034873968
52	0x3cdc72ac	0.026910149
53	0x3d4e6ae8	0.050394922
54	0xbd19754f	-0.03746539
55	0x3d510693	0.05103166
56	0x3d063703	0.032767307
57	0x3cf8c268	0.030366138
58	0x3cff50cc	0.031166457
59	0x3d905c32	0.07048835
60	0xbd2db9da	-0.04241357
61	0xbba0772c	-0.004897019
62	0x3b51cce6	0.0032012998
63	0x3cd1e105	0.025619993
64	0x3c2e3814	0.010633487
65	0xb9d3cf63	-0.0004039957
66	0xbc90b9c4	-0.017666705
67	0x3cee1944	0.029064782
68	0x3cb80b2d	0.022466267
69	0xbcce8ee0	-0.025214612
70	0x3ad36af4	0.0016129897
71	0xbc572815	-0.013132115
72	0xbc8f5d87	-0.017500652
73	0xba97b5e2	-0.0011574591
74	0xba52ecc2	-0.0008046144
75	0xbd5712d8	-0.052508205
76	0x3cd93ccc	0.026518248
77	0xb90a0a64	-0.00013164576
78	0x3da0fe06	0.07860951
79	0x3cb36c6c	0.021902286
80	0x3cde90a4	0.02716858
81	0xbd50c18f	-0.05096584
82	0x3d74f3e1	0.059802894
83	0xbd2745ec	-0.040838167
84	0xbd3e9efa	-0.04653833
85	0x3c23349c	0.0099612735
86	0xbcf17c25	-0.029478142
87	0x3d0f49b9	0.034982417
88	0x3ce86ba2	0.028371636
89	0x3a73d623	0.0009301623
90	0xbd7e213d	-0.062043417
91	0x3d25c8cd	0.0404747
92	0xbbb2e71e	-0.00545968
93	0x3bcb24a9	0.0061994386
94	0xbd0e5194	-0.034745768
95	0xbc02551b	-0.007954861
96	0x3c894bdc	0.016759805
97	0xbd57fc82	-0.052731045
98	0x3cac0e68	0.021002963
99	0x3cb8e410	0.022569686
100	0xbd09583e	-0.03353142
101	0x3cb9bc6c	0.022672854
102	0xbc736564	-0.014855716
103	0xbd82b0b2	-0.06381358
104	0x3d1251e6	0.035722636
105	0xbc79ea40	-0.015253603
106	0xbd2b828f	-0.041872557
107	0xbcce8985	-0.025212059
108	0x3d17539a	0.036944963
109	0xbd0029fe	-0.031290047
110	0xbc4fc30e	-0.012680782
111	0x3ca5ee6d	0.020255292
112	0x3d0938d3	0.033501457
113	0x3c823b51	0.015897425
114	0x3d2ab9bb	0.041681033
115	0xbceaa95e	-0.028645214
116	0x3cb78402	0.022401813
117	0xbbb693b9	-0.005571809
118	0x3ceaf7c1	0.028682591
119	0xbca1008d	-0.019653583
120	0x3cfa654c	0.03056588
121	0x3c9338ed	0.01797148
122	0xbd15e71b	-0.036597352
123	0x3d0ac1d6	0.033876263
124	0xbb63d4f2	-0.0034764376
125	0x3cc112d5	0.02356855
126	0x3ba8046e	0.005127481
127	0xbbe5c85c	-0.00701241
128	0x3d192305	0.037386913
129	0xbc5c4dd9	-0.013446295
130	0xbc54ced3	-0.012988764
131	0x3ce1256d	0.027483666
132	0x3cb80deb	0.022467574
133	0x3c012ed1	0.007884697
134	0xbd3eaa8b	-0.04654936
135	0x3cb0c26e	0.021577086
136	0x3996b33d	0.00028743772
137	0x3bfc2253	0.0076945215
138	0xbc8772e5	-0.016534278
139	0x3ccdc1a6	0.025116753
140	0x3be4f106	0.00698674
141	0xbd862821	-0.06550623
142	0xbd09bc88	-0.033627063
143	0xbcbd51f7	-0.023110373
144	0xbd8da199	-0.06915588
145	0xbcbda102	-0.023148064
146	0x3a55a99b	0.00081505784
147	0x3d496d88	0.049176723
148	0x3d0ce33e	0.034396403
149	0xbd58a3e2	-0.052890666
150	0xbc3b2ead	-0.011424703
151	0x3c0ee255	0.008720954
152	0xbcbb408c	-0.022857927
153	0x3d39efe6	0.0453948
154	0xbc1424d2	-0.009041982
155	0x3d37c990	0.04486996
156	0x3c9e5c5c	0.01933115
157	0x3bb4c106	0.0055161742
158	0xbc7eac6d	-0.015544039
159	0x3bdaab16	0.006673227
160	0x3d146879	0.036232445
161	0x3cfea2e2	0.031083528
162	0x3a953600	0.0011383891
163	0x3d638151	0.055543248
164	0x3b9e2117	0.004825722
165	0x3bbdee7d	0.0057962523
166	0xbcca61b5	-0.024704793
167	0xbbdd0782	-0.0067452798
168	0xbdba6b80	-0.09102535
169	0x3c2bc472	0.010483848
170	0x3ca94800	0.020664215
171	0x3bb9dc4c	0.0056720134
172	0xbc5da650	-0.0135284215
173	0x3d131895	0.035912115
174	0xbbc90258	-0.0061343126
175	0xbd7bab72	-0.0614428
176	0xbc1abfc9	-0.009445139
177	0xba19059c	-0.00058373227
178	0x3bcacc66	0.006188917
179	0xbd00682a	-0.03134934
180	0xbc543237	-0.012951425
181	0x3c018c84	0.007907037
182	0xbc9f6b12	-0.019460235
183	0xbd8ec30e	-0.069707975
184	0xbca140b4	-0.019684173
185	0xbd24064b	-0.040045064
186	0x3d04193b	0.032250624
187	0xbd2a1a0b	-0.041528743
188	0x3d226273	0.03964467
189	0x3ca0b8b4	0.019619323
190	0x3d047176	0.032334767
191	0x3b2fe0e9	0.0026836938
192	0x3bbfd3bd	0.0058540986
193	0x3cc25b57	0.023725195
194	0xb9162cca	-0.000143218
195	0xbb42934e	-0.0029689851
196	0xbd84aee3	-0.064786695
197	0x3bb9dd32	0.0056721205
198	0x3c0eda43	0.00871903
199	0xbd10c2af	-0.035341915
200	0x3d265f76	0.040618382
201	0xbcacd544	-0.021097787
202	0xbd0daa07	-0.03458598
203	0xbd8001d5	-0.062503494
204	0xbbcc387f	-0.006232321
205	0x3d1568d6	0.036476932
206	0xbd30704a	-0.043075837
207	0xbbcf8546	-0.006333026
208	0x3cab80d4	0.020935453
209	0xbc52e0d9	-0.012870991
210	0x3d1abcc4	0.037777677
211	0x3d1c6a8f	0.03818756
212	0x3c3275d1	0.010892347
213	0xbccce03f	-0.025009273
214	0xbb22d922	-0.002484866
215	0xbc91c010	-0.017791778
216	0x3a31a721	0.00067769183
217	0xbc851eac	-0.016249977
218	0xbd28436d	-0.041079927
219	0xbd1134d0	-0.035450757
220	0x3d673efb	0.056456547
221	0xba0ce549	-0.00053747423
222	0xbc2f1555	-0.010686238
223	0x3cbc9253	0.023018992
224	0xbba58034	-0.0050506834
225	0x3cf38ea3	0.0297311
226	0xbd3ed3d5	-0.046588738
227	0xbd06c750	-0.032904923
228	0x3c05ac5d	0.00815877
229	0x3d1c27d7	0.03812393
230	0xbd5646af	-0.052313503
231	0x3ba8d032	0.005151772
232	0x3a7facf9	0.0009753253
233	0x3b860139	0.004089501
234	0x3c7cf815	0.015440007
235	0x3d2bad94	0.041913584
236	0xbcde56d7	-0.027141018
237	0xbc8e2778	-0.017352805
238	0xbc6c0299	-0.014404916
239	0xbd375551	-0.0447591
240	0x3ce922ba	0.028458942
241	0x3b319a61	0.0027100074
242	0xbc9ee2de	-0.019395288
243	0x3cf051a4	0.029335804
244	0x3cf7b4d0	0.030237585
245	0x3d5d2513	0.053990435
246	0x3c5fdf45	0.013664071
247	0x3c89bf4b	0.016814848
248	0xbb3ae519	-0.00285179
249	0xbc9538a1	-0.01821548
250	0xbc80026f	-0.01562616
251	0x3bbf6252	0.005840578
252	0x3c047937	0.0080855405
253	0xbc815f9a	-0.015792657
254	0xbcde9683	-0.027171379
255	0x3d8a4865	0.067520894

bias f4 [5]
0	0x3d505fff	0.0508728
1	0xbd854e51	-0.06509078
2	0xbd4c78ef	-0.04992002
3	0xbd1ead25	-0.038739342
4	0x3d8be0de	0.068299994
