experiments/CnnEncoder/simclr/simclr_cnn_encoder_trainings1/logistic_on_simclr_IT_20pat/lightning_logs/version_0/checkpoints/last.ckpt (torch, 7847 bytes, 6 tensors)

classifier.weight f4 [5, 184]
0	0x3d6c0ee0	0.057631373
1	0xbc19074d	-0.00934012
2	0xbcc5c34e	-0.02414098
3	0xbc395c09	-0.011313447
4	0x3d131e60	0.03591764
5	0x3cd697e5	0.026195476
6	0x3ca3d07c	0.019996874
7	0xbd0886aa	-0.03333155
8	0x3b2b26f2	0.0026115743
9	0x3cc537fe	0.02407455
10	0xbc33f8c0	-0.0109846
11	0x3d2728a6	0.04081025
12	0xbbbbf4b0	-0.005735956
13	0x3cf45bf6	0.029829007
14	0xbcde9551	-0.027170809
15	0x3ca9904a	0.020698685
16	0x3d12850d	0.03577142
17	0x3c590a18	0.013247035
18	0xbd10182e	-0.03517931
19	0xbcb532fa	-0.022119034
20	0x3c662b57	0.014048419
21	0xbc8879ce	-0.016659644
22	0x3c0466ea	0.008081177
23	0xbcc194fa	-0.023630608
24	0x3ce17246	0.02752031
25	0x3d360375	0.04443689
26	0x3d8f1e31	0.069881804
27	0x3d87509b	0.06607171
28	0xbc2c11dc	-0.010502305
29	0x3d23f307	0.04002669
30	0xbcc82f2b	-0.024436554
31	0xbbd183ac	-0.0063938703
32	0xbd577d34	-0.052609637
33	0xbbeba903	-0.0071917786
34	0x3af86566	0.0018951118
35	0x3d45a583	0.048253547
36	0xbd1688bc	-0.036751494
37	0x3d4fcaa4	0.050730363
38	0x3d40da02	0.04708291
39	0xbac30e7a	-0.0014881634
40	0xbd70df03	-0.05880643
41	0xbcd3ae43	-0.02583993
42	0x3c86fee8	0.01647897
43	0xbc45d94b	-0.012075732
44	0x3c8df08d	0.017326618
45	0xbca75264	-0.02042503
46	0xbcabd6cb	-0.020976445
47	0xbcd5cc2b	-0.026098331
48	0xbcc87260	-0.0244686
49	0xbcccc43f	-0.024995921
50	0x3ca149f3	0.019688582
51	0xbc94aaed	-0.01814791
52	0xbc3f4e5b	-0.011676396
53	0xbd977317	-0.073949985
54	0x3c2b7e08	0.01046706
55	0x3c88acff	0.016684053
56	0xbb879727	-0.004137892
57	0xbc3af17e	-0.011410115
58	0xbd8e919c	-0.069613665
59	0xbda17ca1	-0.07885099
60	0x3d946960	0.07246661
61	0xbd44b292	-0.04802186
62	0x3a5893e4	0.00082617835
63	0x3d6824b5	0.05667563
64	0xbce8b443	-0.028406268
65	0xbd39c647	-0.045355108
66	0xbd5d878c	-0.054084346
67	0x3cd5eaab	0.026112875
68	0xbbb06a06	-0.0053837327
69	0x3d251622	0.04030431
70	0x3ce8c4fd	0.028414244
71	0xbc5d2411	-0.013497368
72	0x3d7789f8	0.06043431
73	0x3dab18c2	0.083543316
74	0xbc72f729	-0.014829435
75	0xbd6e3db3	-0.05816431
76	0x3d1b1d48	0.03786972
77	0x3d951e59	0.07281179
78	0xbd036031	-0.032074157
79	0x3d5d0ccd	0.053967286
80	0x3d220c8d	0.03956275
81	0x3d8be6ed	0.06831155
82	0xbb494ea1	-0.0030717032
83	0xbd1c84ed	-0.038212705
84	0xbcbb2f54	-0.022849716
85	0xbd4ad0c8	-0.049515516
86	0x3acabca0	0.0015467592
87	0x3b3b77e2	0.0028605391
88	0xbc627c2e	-0.013823552
89	0x3c56a3b7	0.013100556
90	0x3cac7a1a	0.021054316
91	0xbca846b0	-0.020541519
92	0x3d1d9db5	0.03848048
93	0xbc47a568	-0.012185432
94	0x3d447fbf	0.04797339
95	0x3d491907	0.049096134
96	0x3d401bfc	0.046901688
97	0x3b8ec1c4	0.0043565948
98	0x3d46a571	0.04849762
99	0x3d5acd82	0.053418644
100	0x3d07e7dd	0.033180106
101	0x3d34c831	0.04413623
102	0x3bee5138	0.0072728656
103	0xbc8ed867	-0.017437173
104	0x3cbc5b5f	0.022992788
105	0xbcd8ed09	-0.026480215
106	0xbca9332c	-0.020654283
107	0x3daea460	0.08527446
108	0x3c5b2239	0.013374859
109	0xbcabb5a0	-0.020960629
110	0x3d28d0a1	0.04121459
111	0xbd40eee8	-0.04710284
112	0xbd59df9b	-0.053191762
113	0xbc7debaf	-0.015498086
114	0x3d68e8e2	0.05686272
115	0xbbb80f60	-0.005617067
116	0xbd4d5794	-0.05013235
117	0xbd8766ae	-0.066113815
118	0x3ce54c33	0.027990436
119	0x3d174b80	0.036937237
120	0x3bc3ec55	0.0059791007
121	0x3b6c471d	0.003605313
122	0xbc9e6504	-0.019335277
123	0x3cfedf8b	0.031112453
124	0xbc0ce772	-0.008600103
125	0x3d2f0f2d	0.042739082
126	0xbd159f2c	-0.03652875
127	0xbcb961aa	-0.022629578
128	0x3c27afe2	0.010234805
129	0xbce73f4a	-0.02822842
130	0x3d0f1a3c	0.03493713
131	0x3d8f6502	0.070016876
132	0x3c172e29	0.009227314
133	0x3c013e8e	0.007888449
134	0x3d2ab68f	0.041678008
135	0xbc5442b5	-0.012955357
136	0x3bbe9a9f	0.005816772
137	0xbd1abc80	-0.037777424
138	0xbce69839	-0.028148757
139	0x3d6af2c4	0.057360426
140	0xbce6beae	-0.028167095
141	0xbd7d07c1	-0.061774973
142	0x3cfc5fa5	0.030807326
143	0xbd01b6a7	-0.03166833
144	0xbb391569	-0.0028241521
145	0x3d70b066	0.058761977
146	0xbc3b7af7	-0.011442891
147	0xbc420b4a	-0.011843512
148	0x3b301728	0.002686927
149	0xbd1e418b	-0.038636725
150	0xbaf8143a	-0.0018926926
151	0x3c46a374	0.012123931
152	0xbd613bc4	-0.054988638
153	0xbd87eae0	-0.06636596
154	0x3d073b0b	0.033015292
155	0xbc05eac0	-0.008173645
156	0xbca24628	-0.019808844
157	0xbcd5d141	-0.026100757
158	0x3c5b2441	0.013375343
159	0xbd4a2b7d	-0.04935788
160	0x3d4b362c	0.04961221
161	0xbc56eb08	-0.013117559
162	0xbd9cf7a4	-0.07664421
163	0xb96a05bb	-0.00022318114
164	0xbce75eac	-0.028243385
165	0xbd1c8d97	-0.038220968
166	0xbc459245	-0.012058799
167	0xbc12e92f	-0.008966728
168	0xbaf80679	-0.0018922827
169	0x3ca7db90	0.020490438
170	0x3da34346	0.07971816
171	0x3d820529	0.063486405
172	0xbd5a5eb8	-0.053312987
173	0xbb9eb3e8	-0.004843224
174	0xbc6ca4ff	-0.014443635
175	0xbb808581	-0.003922165
176	0xbc0d70e8	-0.008632876
177	0x3d7f5bd2	0.062343426
178	0xbbe97278	-0.0071242414
179	0xbd243576	-0.040090047
180	0x3ccffe77	0.025389893
181	0xbd3eef42	-0.046614893
182	0xbcb5bfc2	-0.022186164
183	0xbb8656ea	-0.0040997164
184	0xbd2a57a3	-0.041587483
185	0x3ccff7b1	0.025386663
186	0xbd316712	-0.043311186
187	0xbc4f6af1	-0.012659774
188	0x3d9fdc7a	0.078057244
189	0xbd51b6e6	-0.051199816
190	0xbd7f9e94	-0.06240709
191	0x3d4b3ba5	0.04961743
192	0xbd2cfdff	-0.042234417
193	0x3d971854	0.07377687
194	0xbcaa94b8	-0.020822868
195	0xbd43eb23	-0.047831666
196	0x3c913b69	0.017728524
197	0x3d7ae1df	0.061250564
198	0xbc73497d	-0.014849064
199	0xbd02ec51	-0.03196365
200	0x3da12d1a	0.078699306
201	0x3b72ac0c	0.0037028817
202	0xbd2da6a1	-0.042395238
203	0xbd6229e4	-0.05521573
204	0xbd23462e	-0.03986185
205	0x3c04e45d	0.008111087
206	0xbd59b8aa	-0.053154625
207	0xbc38660f	-0.011254801
208	0xbd756acc	-0.059916303
209	0x3d031415	0.032001574
210	0xbd22f5f9	-0.03978536
211	0x3d1e2aee	0.03861516
212	0x3d8bbce4	0.068231374
213	0x3d5f077e	0.054450504
214	0x3cca6b75	0.024709443
215	0x3d9777dc	0.07395908
216	0xbd080a60	-0.03321302
217	0x3b4ef5c4	0.0031579593
218	0x3ba1dc76	0.004939611
219	0xbc8eefbb	-0.017448297
220	0xbd21f175	-0.039536912
221	0x3bce3144	0.006292494
222	0x3ce124ad	0.027483309
223	0x3d238022	0.03991712
224	0x3dc16ff3	0.09445181
225	0xbd2b83eb	-0.041873854
226	0x3d966e78	0.07345289
227	0xbd4e440c	-0.050357863
228	0x3cc727ea	0.024311025
229	0x3c84c2e9	0.016206222
230	0xbd8ea308	-0.069646895
231	0xbc8f30ba	-0.01747929
232	0xbd25d98a	-0.040490665
233	0x3c117375	0.008877625
234	0x3c367695	0.011136671
235	0xbc01f4bb	-0.007931883
236	0x3c036884	0.008020524
237	0x3cacc1fb	0.02108859
238	0x3d52b178	0.05143878
239	0x3d8be6a9	0.06831104
240	0xbc1cdd79	-0.009574288
241	0xbd41ddab	-0.04733054
242	0x3d2e5ee7	0.042570975
243	0x3cef7cb7	0.029234273
244	0xba89819c	-0.0010490897
245	0xbd855ca5	-0.06511811
246	0x3d1a239c	0.037631616
247	0x3c2b121f	0.010441332
248	0xbd323720	-0.043509603
249	0xbcc14622	-0.023593012
250	0xbd2643c2	-0.040591963
251	0xbd2fcad1	-0.04291803
252	0xba2ded27	-0.0006634765
253	0x3ccaba3f	0.024747012
254	0xbd10112f	-0.035172638
255	0xbcdc61be	-0.026902076

classifier.bias f4 [5]
0	0x3d9b4d7e	0.0758314
1	0xbc3be899	-0.01146903
2	0xbcc1e9d9	-0.023671078
3	0x3c3f97b6	0.011693886
4	0x3c28a2f0	0.010292754

net.1.weight f4 [5, 184]
0	0x3d6c0ee0	0.057631373
1	0xbc19074d	-0.00934012
2	0xbcc5c34e	-0.02414098
3	0xbc395c09	-0.011313447
4	0x3d131e60	0.03591764
5	0x3cd697e5	0.026195476
6	0x3ca3d07c	0.019996874
7	0xbd0886aa	-0.03333155
8	0x3b2b26f2	0.0026115743
9	0x3cc537fe	0.02407455
10	0xbc33f8c0	-0.0109846
11	0x3d2728a6	0.04081025
12	0xbbbbf4b0	-0.005735956
13	0x3cf45bf6	0.029829007
14	0xbcde9551	-0.027170809
15	0x3ca9904a	0.020698685
16	0x3d12850d	0.03577142
17	0x3c590a18	0.013247035
18	0xbd10182e	-0.03517931
19	0xbcb532fa	-0.022119034
20	0x3c662b57	0.014048419
21	0xbc8879ce	-0.016659644
22	0x3c0466ea	0.008081177
23	0xbcc194fa	-0.023630608
24	0x3ce17246	0.02752031
25	0x3d360375	0.04443689
26	0x3d8f1e31	0.069881804
27	0x3d87509b	0.06607171
28	0xbc2c11dc	-0.010502305
29	0x3d23f307	0.04002669
30	0xbcc82f2b	-0.024436554
31	0xbbd183ac	-0.0063938703
32	0xbd577d34	-0.052609637
33	0xbbeba903	-0.0071917786
34	0x3af86566	0.0018951118
35	0x3d45a583	0.048253547
36	0xbd1688bc	-0.036751494
37	0x3d4fcaa4	0.050730363
38	0x3d40da02	0.04708291
39	0xbac30e7a	-0.0014881634
40	0xbd70df03	-0.05880643
41	0xbcd3ae43	-0.02583993
42	0x3c86fee8	0.01647897
43	0xbc45d94b	-0.012075732
44	0x3c8df08d	0.017326618
45	0xbca75264	-0.02042503
46	0xbcabd6cb	-0.020976445
47	0xbcd5cc2b	-0.026098331
48	0xbcc87260	-0.0244686
49	0xbcccc43f	-0.024995921
50	0x3ca149f3	0.019688582
51	0xbc94aaed	-0.01814791
52	0xbc3f4e5b	-0.011676396
53	0xbd977317	-0.073949985
54	0x3c2b7e08	0.01046706
55	0x3c88acff	0.016684053
56	0xbb879727	-0.004137892
57	0xbc3af17e	-0.011410115
58	0xbd8e919c	-0.069613665
59	0xbda17ca1	-0.07885099
60	0x3d946960	0.07246661
61	0xbd44b292	-0.04802186
62	0x3a5893e4	0.00082617835
63	0x3d6824b5	0.05667563
64	0xbce8b443	-0.028406268
65	0xbd39c647	-0.045355108
66	0xbd5d878c	-0.054084346
67	0x3cd5eaab	0.026112875
68	0xbbb06a06	-0.0053837327
69	0x3d251622	0.04030431
70	0x3ce8c4fd	0.028414244
71	0xbc5d2411	-0.013497368
72	0x3d7789f8	0.06043431
73	0x3dab18c2	0.083543316
74	0xbc72f729	-0.014829435
75	0xbd6e3db3	-0.05816431
76	0x3d1b1d48	0.03786972
77	0x3d951e59	0.07281179
78	0xbd036031	-0.032074157
79	0x3d5d0ccd	0.053967286
80	0x3d220c8d	0.03956275
81	0x3d8be6ed	0.06831155
82	0xbb494ea1	-0.0030717032
83	0xbd1c84ed	-0.038212705
84	0xbcbb2f54	-0.022849716
85	0xbd4ad0c8	-0.049515516
86	0x3acabca0	0.0015467592
87	0x3b3b77e2	0.0028605391
88	0xbc627c2e	-0.013823552
89	0x3c56a3b7	0.013100556
90	0x3cac7a1a	0.021054316
91	0xbca846b0	-0.020541519
92	0x3d1d9db5	0.03848048
93	0xbc47a568	-0.012185432
94	0x3d447fbf	0.04797339
95	0x3d491907	0.049096134
96	0x3d401bfc	0.046901688
97	0x3b8ec1c4	0.0043565948
98	0x3d46a571	0.04849762
99	0x3d5acd82	0.053418644
100	0x3d07e7dd	0.033180106
101	0x3d34c831	0.04413623
102	0x3bee5138	0.0072728656
103	0xbc8ed867	-0.017437173
104	0x3cbc5b5f	0.022992788
105	0xbcd8ed09	-0.026480215
106	0xbca9332c	-0.020654283
107	0x3daea460	0.08527446
108	0x3c5b2239	0.013374859
109	0xbcabb5a0	-0.020960629
110	0x3d28d0a1	0.04121459
111	0xbd40eee8	-0.04710284
112	0xbd59df9b	-0.053191762
113	0xbc7debaf	-0.015498086
114	0x3d68e8e2	0.05686272
115	0xbbb80f60	-0.005617067
116	0xbd4d5794	-0.05013235
117	0xbd8766ae	-0.066113815
118	0x3ce54c33	0.027990436
119	0x3d174b80	0.036937237
120	0x3bc3ec55	0.0059791007
121	0x3b6c471d	0.003605313
122	0xbc9e6504	-0.019335277
123	0x3cfedf8b	0.031112453
124	0xbc0ce772	-0.008600103
125	0x3d2f0f2d	0.042739082
126	0xbd159f2c	-0.03652875
127	0xbcb961aa	-0.022629578
128	0x3c27afe2	0.010234805
129	0xbce73f4a	-0.02822842
130	0x3d0f1a3c	0.03493713
131	0x3d8f6502	0.070016876
132	0x3c172e29	0.009227314
133	0x3c013e8e	0.007888449
134	0x3d2ab68f	0.041678008
135	0xbc5442b5	-0.012955357
136	0x3bbe9a9f	0.005816772
137	0xbd1abc80	-0.037777424
138	0xbce69839	-0.028148757
139	0x3d6af2c4	0.057360426
140	0xbce6beae	-0.028167095
141	0xbd7d07c1	-0.061774973
142	0x3cfc5fa5	0.030807326
143	0xbd01b6a7	-0.03166833
144	0xbb391569	-0.0028241521
145	0x3d70b066	0.058761977
146	0xbc3b7af7	-0.011442891
147	0xbc420b4a	-0.011843512
148	0x3b301728	0.002686927
149	0xbd1e418b	-0.038636725
150	0xbaf8143a	-0.0018926926
151	0x3c46a374	0.012123931
152	0xbd613bc4	-0.054988638
153	0xbd87eae0	-0.06636596
154	0x3d073b0b	0.033015292
155	0xbc05eac0	-0.008173645
156	0xbca24628	-0.019808844
157	0xbcd5d141	-0.026100757
158	0x3c5b2441	0.013375343
159	0xbd4a2b7d	-0.04935788
160	0x3d4b362c	0.04961221
161	0xbc56eb08	-0.013117559
162	0xbd9cf7a4	-0.07664421
163	0xb96a05bb	-0.00022318114
164	0xbce75eac	-0.028243385
165	0xbd1c8d97	-0.038220968
166	0xbc459245	-0.012058799
167	0xbc12e92f	-0.008966728
168	0xbaf80679	-0.0018922827
169	0x3ca7db90	0.020490438
170	0x3da34346	0.07971816
171	0x3d820529	0.063486405
172	0xbd5a5eb8	-0.053312987
173	0xbb9eb3e8	-0.004843224
174	0xbc6ca4ff	-0.014443635
175	0xbb808581	-0.003922165
176	0xbc0d70e8	-0.008632876
177	0x3d7f5bd2	0.062343426
178	0xbbe97278	-0.0071242414
179	0xbd243576	-0.040090047
180	0x3ccffe77	0.025389893
181	0xbd3eef42	-0.046614893
182	0xbcb5bfc2	-0.022186164
183	0xbb8656ea	-0.0040997164
184	0xbd2a57a3	-0.041587483
185	0x3ccff7b1	0.025386663
186	0xbd316712	-0.043311186
187	0xbc4f6af1	-0.012659774
188	0x3d9fdc7a	0.078057244
189	0xbd51b6e6	-0.051199816
190	0xbd7f9e94	-0.06240709
191	0x3d4b3ba5	0.04961743
192	0xbd2cfdff	-0.042234417
193	0x3d971854	0.07377687
194	0xbcaa94b8	-0.020822868
195	0xbd43eb23	-0.047831666
196	0x3c913b69	0.017728524
197	0x3d7ae1df	0.061250564
198	0xbc73497d	-0.014849064
199	0xbd02ec51	-0.03196365
200	0x3da12d1a	0.078699306
201	0x3b72ac0c	0.0037028817
202	0xbd2da6a1	-0.042395238
203	0xbd6229e4	-0.05521573
204	0xbd23462e	-0.03986185
205	0x3c04e45d	0.008111087
206	0xbd59b8aa	-0.053154625
207	0xbc38660f	-0.011254801
208	0xbd756acc	-0.059916303
209	0x3d031415	0.032001574
210	0xbd22f5f9	-0.03978536
211	0x3d1e2aee	0.03861516
212	0x3d8bbce4	0.068231374
213	0x3d5f077e	0.054450504
214	0x3cca6b75	0.024709443
215	0x3d9777dc	0.07395908
216	0xbd080a60	-0.03321302
217	0x3b4ef5c4	0.0031579593
218	0x3ba1dc76	0.004939611
219	0xbc8eefbb	-0.017448297
220	0xbd21f175	-0.039536912
221	0x3bce3144	0.006292494
222	0x3ce124ad	0.027483309
223	0x3d238022	0.03991712
224	0x3dc16ff3	0.09445181
225	0xbd2b83eb	-0.041873854
226	0x3d966e78	0.07345289
227	0xbd4e440c	-0.050357863
228	0x3cc727ea	0.024311025
229	0x3c84c2e9	0.016206222
230	0xbd8ea308	-0.069646895
231	0xbc8f30ba	-0.01747929
232	0xbd25d98a	-0.040490665
233	0x3c117375	0.008877625
234	0x3c367695	0.011136671
235	0xbc01f4bb	-0.007931883
236	0x3c036884	0.008020524
237	0x3cacc1fb	0.02108859
238	0x3d52b178	0.05143878
239	0x3d8be6a9	0.06831104
240	0xbc1cdd79	-0.009574288
241	0xbd41ddab	-0.04733054
242	0x3d2e5ee7	0.042570975
243	0x3cef7cb7	0.029234273
244	0xba89819c	-0.0010490897
245	0xbd855ca5	-0.06511811
246	0x3d1a239c	0.037631616
247	0x3c2b121f	0.010441332
248	0xbd323720	-0.043509603
249	0xbcc14622	-0.023593012
250	0xbd2643c2	-0.040591963
251	0xbd2fcad1	-0.04291803
252	0xba2ded27	-0.0006634765
253	0x3ccaba3f	0.024747012
254	0xbd10112f	-0.035172638
255	0xbcdc61be	-0.026902076

net.1.bias f4 [5]
0	0x3d9b4d7e	0.0758314
1	0xbc3be899	-0.01146903
2	0xbcc1e9d9	-0.023671078
3	0x3c3f97b6	0.011693886
4	0x3c28a2f0	0.010292754

weight f4 [5, 184]
0	0x3d6c0ee0	0.057631373
1	0xbc19074d	-0.00934012
2	0xbcc5c34e	-0.02414098
3	0xbc395c09	-0.011313447
4	0x3d131e60	0.03591764
5	0x3cd697e5	0.026195476
6	0x3ca3d07c	0.019996874
7	0xbd0886aa	-0.03333155
8	0x3b2b26f2	0.0026115743
9	0x3cc537fe	0.02407455
10	0xbc33f8c0	-0.0109846
11	0x3d2728a6	0.04081025
12	0xbbbbf4b0	-0.005735956
13	0x3cf45bf6	0.029829007
14	0xbcde9551	-0.027170809
15	0x3ca9904a	0.020698685
16	0x3d12850d	0.03577142
17	0x3c590a18	0.013247035
18	0xbd10182e	-0.03517931
19	0xbcb532fa	-0.022119034
20	0x3c662b57	0.014048419
21	0xbc8879ce	-0.016659644
22	0x3c0466ea	0.008081177
23	0xbcc194fa	-0.023630608
24	0x3ce17246	0.02752031
25	0x3d360375	0.04443689
26	0x3d8f1e31	0.069881804
27	0x3d87509b	0.06607171
28	0xbc2c11dc	-0.010502305
29	0x3d23f307	0.04002669
30	0xbcc82f2b	-0.024436554
31	0xbbd183ac	-0.0063938703
32	0xbd577d34	-0.052609637
33	0xbbeba903	-0.0071917786
34	0x3af86566	0.0018951118
35	0x3d45a583	0.048253547
36	0xbd1688bc	-0.036751494
37	0x3d4fcaa4	0.050730363
38	0x3d40da02	0.04708291
39	0xbac30e7a	-0.0014881634
40	0xbd70df03	-0.05880643
41	0xbcd3ae43	-0.02583993
42	0x3c86fee8	0.01647897
43	0xbc45d94b	-0.012075732
44	0x3c8df08d	0.017326618
45	0xbca75264	-0.02042503
46	0xbcabd6cb	-0.020976445
47	0xbcd5cc2b	-0.026098331
48	0xbcc87260	-0.0244686
49	0xbcccc43f	-0.024995921
50	0x3ca149f3	0.019688582
51	0xbc94aaed	-0.01814791
52	0xbc3f4e5b	-0.011676396
53	0xbd977317	-0.073949985
54	0x3c2b7e08	0.01046706
55	0x3c88acff	0.016684053
56	0xbb879727	-0.004137892
57	0xbc3af17e	-0.011410115
58	0xbd8e919c	-0.069613665
59	0xbda17ca1	-0.07885099
60	0x3d946960	0.07246661
61	0xbd44b292	-0.04802186
62	0x3a5893e4	0.00082617835
63	0x3d6824b5	0.05667563
64	0xbce8b443	-0.028406268
65	0xbd39c647	-0.045355108
66	0xbd5d878c	-0.054084346
67	0x3cd5eaab	0.026112875
68	0xbbb06a06	-0.0053837327
69	0x3d251622	0.04030431
70	0x3ce8c4fd	0.028414244
71	0xbc5d2411	-0.013497368
72	0x3d7789f8	0.06043431
73	0x3dab18c2	0.083543316
74	0xbc72f729	-0.014829435
75	0xbd6e3db3	-0.05816431
76	0x3d1b1d48	0.03786972
77	0x3d951e59	0.07281179
78	0xbd036031	-0.032074157
79	0x3d5d0ccd	0.053967286
80	0x3d220c8d	0.03956275
81	0x3d8be6ed	0.06831155
82	0xbb494ea1	-0.0030717032
83	0xbd1c84ed	-0.038212705
84	0xbcbb2f54	-0.022849716
85	0xbd4ad0c8	-0.049515516
86	0x3acabca0	0.0015467592
87	0x3b3b77e2	0.0028605391
88	0xbc627c2e	-0.013823552
89	0x3c56a3b7	0.013100556
90	0x3cac7a1a	0.021054316
91	0xbca846b0	-0.020541519
92	0x3d1d9db5	0.03848048
93	0xbc47a568	-0.012185432
94	0x3d447fbf	0.04797339
95	0x3d491907	0.049096134
96	0x3d401bfc	0.046901688
97	0x3b8ec1c4	0.0043565948
98	0x3d46a571	0.04849762
99	0x3d5acd82	0.053418644
100	0x3d07e7dd	0.033180106
101	0x3d34c831	0.04413623
102	0x3bee5138	0.0072728656
103	0xbc8ed867	-0.017437173
104	0x3cbc5b5f	0.022992788
105	0xbcd8ed09	-0.026480215
106	0xbca9332c	-0.020654283
107	0x3daea460	0.08527446
108	0x3c5b2239	0.013374859
109	0xbcabb5a0	-0.020960629
110	0x3d28d0a1	0.04121459
111	0xbd40eee8	-0.04710284
112	0xbd59df9b	-0.053191762
113	0xbc7debaf	-0.015498086
114	0x3d68e8e2	0.05686272
115	0xbbb80f60	-0.005617067
116	0xbd4d5794	-0.05013235
117	0xbd8766ae	-0.066113815
118	0x3ce54c33	0.027990436
119	0x3d174b80	0.036937237
120	0x3bc3ec55	0.0059791007
121	0x3b6c471d	0.003605313
122	0xbc9e6504	-0.019335277
123	0x3cfedf8b	0.031112453
124	0xbc0ce772	-0.008600103
125	0x3d2f0f2d	0.042739082
126	0xbd159f2c	-0.03652875
127	0xbcb961aa	-0.022629578
128	0x3c27afe2	0.010234805
129	0xbce73f4a	-0.02822842
130	0x3d0f1a3c	0.03493713
131	0x3d8f6502	0.070016876
132	0x3c172e29	0.009227314
133	0x3c013e8e	0.007888449
134	0x3d2ab68f	0.041678008
135	0xbc5442b5	-0.012955357
136	0x3bbe9a9f	0.005816772
137	0xbd1abc80	-0.037777424
138	0xbce69839	-0.028148757
139	0x3d6af2c4	0.057360426
140	0xbce6beae	-0.028167095
141	0xbd7d07c1	-0.061774973
142	0x3cfc5fa5	0.030807326
143	0xbd01b6a7	-0.03166833
144	0xbb391569	-0.0028241521
145	0x3d70b066	0.058761977
146	0xbc3b7af7	-0.011442891
147	0xbc420b4a	-0.011843512
148	0x3b301728	0.002686927
149	0xbd1e418b	-0.038636725
150	0xbaf8143a	-0.0018926926
151	0x3c46a374	0.012123931
152	0xbd613bc4	-0.054988638
153	0xbd87eae0	-0.06636596
154	0x3d073b0b	0.033015292
155	0xbc05eac0	-0.008173645
156	0xbca24628	-0.019808844
157	0xbcd5d141	-0.026100757
158	0x3c5b2441	0.013375343
159	0xbd4a2b7d	-0.04935788
160	0x3d4b362c	0.04961221
161	0xbc56eb08	-0.013117559
162	0xbd9cf7a4	-0.07664421
163	0xb96a05bb	-0.00022318114
164	0xbce75eac	-0.028243385
165	0xbd1c8d97	-0.038220968
166	0xbc459245	-0.012058799
167	0xbc12e92f	-0.008966728
168	0xbaf80679	-0.0018922827
169	0x3ca7db90	0.020490438
170	0x3da34346	0.07971816
171	0x3d820529	0.063486405
172	0xbd5a5eb8	-0.053312987
173	0xbb9eb3e8	-0.004843224
174	0xbc6ca4ff	-0.014443635
175	0xbb808581	-0.003922165
176	0xbc0d70e8	-0.008632876
177	0x3d7f5bd2	0.062343426
178	0xbbe97278	-0.0071242414
179	0xbd243576	-0.040090047
180	0x3ccffe77	0.025389893
181	0xbd3eef42	-0.046614893
182	0xbcb5bfc2	-0.022186164
183	0xbb8656ea	-0.0040997164
184	0xbd2a57a3	-0.041587483
185	0x3ccff7b1	0.025386663
186	0xbd316712	-0.043311186
187	0xbc4f6af1	-0.012659774
188	0x3d9fdc7a	0.078057244
189	0xbd51b6e6	-0.051199816
190	0xbd7f9e94	-0.06240709
191	0x3d4b3ba5	0.04961743
192	0xbd2cfdff	-0.042234417
193	0x3d971854	0.07377687
194	0xbcaa94b8	-0.020822868
195	0xbd43eb23	-0.047831666
196	0x3c913b69	0.017728524
197	0x3d7ae1df	0.061250564
198	0xbc73497d	-0.014849064
199	0xbd02ec51	-0.03196365
200	0x3da12d1a	0.078699306
201	0x3b72ac0c	0.0037028817
202	0xbd2da6a1	-0.042395238
203	0xbd6229e4	-0.05521573
204	0xbd23462e	-0.03986185
205	0x3c04e45d	0.008111087
206	0xbd59b8aa	-0.053154625
207	0xbc38660f	-0.011254801
208	0xbd756acc	-0.059916303
209	0x3d031415	0.032001574
210	0xbd22f5f9	-0.03978536
211	0x3d1e2aee	0.03861516
212	0x3d8bbce4	0.068231374
213	0x3d5f077e	0.054450504
214	0x3cca6b75	0.024709443
215	0x3d9777dc	0.07395908
216	0xbd080a60	-0.03321302
217	0x3b4ef5c4	0.0031579593
218	0x3ba1dc76	0.004939611
219	0xbc8eefbb	-0.017448297
220	0xbd21f175	-0.039536912
221	0x3bce3144	0.006292494
222	0x3ce124ad	0.027483309
223	0x3d238022	0.03991712
224	0x3dc16ff3	0.09445181
225	0xbd2b83eb	-0.041873854
226	0x3d966e78	0.07345289
227	0xbd4e440c	-0.050357863
228	0x3cc727ea	0.024311025
229	0x3c84c2e9	0.016206222
230	0xbd8ea308	-0.069646895
231	0xbc8f30ba	-0.01747929
232	0xbd25d98a	-0.040490665
233	0x3c117375	0.008877625
234	0x3c367695	0.011136671
235	0xbc01f4bb	-0.007931883
236	0x3c036884	0.008020524
237	0x3cacc1fb	0.02108859
238	0x3d52b178	0.05143878
239	0x3d8be6a9	0.06831104
240	0xbc1cdd79	-0.009574288
241	0xbd41ddab	-0.04733054
242	0x3d2e5ee7	0.042570975
243	0x3cef7cb7	0.029234273
244	0xba89819c	-0.0010490897
245	0xbd855ca5	-0.06511811
246	0x3d1a239c	0.037631616
247	0x3c2b121f	0.010441332
248	0xbd323720	-0.043509603
249	0xbcc14622	-0.023593012
250	0xbd2643c2	-0.040591963
251	0xbd2fcad1	-0.04291803
252	0xba2ded27	-0.0006634765
253	0x3ccaba3f	0.024747012
254	0xbd10112f	-0.035172638
255	0xbcdc61be	-0.026902076

bias f4 [5]
0	0x3d9b4d7e	0.0758314
1	0xbc3be899	-0.01146903
2	0xbcc1e9d9	-0.023671078
3	0x3c3f97b6	0.011693886
4	0x3c28a2f0	0.010292754
