experiments/CnnEncoder/simclr/simclr_cnn_encoder_trainings1/logistic_on_simclr_IT_250pat/lightning_logs/version_0/checkpoints/epoch=36-step=103489.ckpt (torch, 7911 bytes, 6 tensors)

classifier.weight f4 [5, 184]
0	0x3d2eb084	0.042648807
1	0xbbd69cf3	-0.0065494715
2	0x3c92bdd2	0.017912779
3	0xbb75f3b3	-0.003752929
4	0x3cfc576f	0.03080341
5	0xbd7b695a	-0.061379768
6	0xbd42d30e	-0.04756456
7	0x3d8866f0	0.06660259
8	0x3c6fc844	0.014635149
9	0xbcbf3eef	-0.023345439
10	0x3d2d37a1	0.04228938
11	0xbca30bb5	-0.019903043
12	0x3d13af5d	0.03605591
13	0xba736a34	-0.000928554
14	0x3d71d69b	0.059042554
15	0x3c3f371f	0.011670857
16	0x390a849f	0.00013210111
17	0x3cb56d39	0.022146808
18	0xbcb99ffa	-0.02265929
19	0xb9ababef	-0.00032743762
20	0x3bd09aa9	0.006366093
21	0xbc8d63a6	-0.01725943
22	0x3cb773fa	0.02239417
23	0x3d626356	0.055270515
24	0xbbf906d8	-0.007599693
25	0xbd600a03	-0.054697048
26	0x3c73791a	0.014860416
27	0xbd5f4744	-0.054511324
28	0xbcc16888	-0.023609415
29	0xbd03dd08	-0.032193214
30	0xbd68f5e3	-0.05687512
31	0xbc28b803	-0.010297778
32	0xbc996b12	-0.018727813
33	0x3d2acf3b	0.041701537
34	0xbd842576	-0.064524576
35	0x3c1ebe0a	0.0096888635
36	0xbd2577d0	-0.040397465
37	0xbc87ed40	-0.016592622
38	0xbc0b8988	-0.008516677
39	0xbc803083	-0.015648132
40	0xbd083d14	-0.033261374
41	0x3d51fad3	0.051264595
42	0x3d3cb545	0.04607131
43	0x3cc2c880	0.023777246
44	0x3d7d904e	0.061905198
45	0xbc4c73a6	-0.012478745
46	0x3c47c568	0.012193061
47	0x3ce61a34	0.028088666
48	0x3cb5c334	0.022187807
49	0x3d0a6979	0.033791993
50	0x3dac97e7	0.084274106
51	0xbd020a5b	-0.031748157
52	0x3b0644a9	0.0020487702
53	0xbd9ec118	-0.077516735
54	0xbc048ba6	-0.008089935
55	0x3aa28166	0.0012398183
56	0xbca27fd2	-0.01983634
57	0xbd159a7e	-0.03652429
58	0xbbe80cf5	-0.0070816227
59	0xbb058766	-0.0020374893
60	0x3ca5e391	0.020250114
61	0xb9632786	-0.0002166313
62	0xbcace427	-0.021104885
63	0xbc11fc0a	-0.008910188
64	0x3cb43845	0.021999488
65	0x3d0ac1c1	0.033876184
66	0x3c7ad827	0.015310324
67	0x3c178341	0.009247602
68	0xbc05d3a1	-0.008168132
69	0x3d0dde55	0.03463586
70	0xbcb4cb8f	-0.02206972
71	0xbd29fa17	-0.04149827
72	0x3cc39bbc	0.02387797
73	0x3c9e05cf	0.01928988
74	0xbd48e498	-0.04904613
75	0x3cc768bf	0.024341939
76	0x3d2d0d13	0.042248797
77	0xbc91d425	-0.017801354
78	0x3bf980d0	0.0076142326
79	0x3ce02434	0.027361013
80	0x3cf1d268	0.029519275
81	0x3c3b478e	0.011430634
82	0x3d7d7ca7	0.061886456
83	0xbba450e5	-0.005014526
84	0x3cb05603	0.021525389
85	0xbbf3479e	-0.007424309
86	0xbbb35dda	-0.0054738345
87	0x3d1b7785	0.03795578
88	0xbb127e69	-0.0022353178
89	0xbd0aa55b	-0.0338491
90	0xbcc4e9e1	-0.024037303
91	0xb9348a68	-0.00017217698
92	0xbc9692cf	-0.01838055
93	0xbd096dc5	-0.03355195
94	0xbcfbc439	-0.030733215
95	0x3b089369	0.0020839816
96	0x3b4f0381	0.0031587782
97	0x3d1808d5	0.037117798
98	0xbc360923	-0.011110577
99	0x3c3cd2f4	0.0115249045
100	0x3b377c00	0.0027997494
101	0xbd0c83e4	-0.03430547
102	0xbd95f7aa	-0.07322629
103	0x3b34dead	0.0027598545
104	0xb96902a6	-0.00022221598
105	0xbc876150	-0.016525894
106	0xb9d7d7ec	-0.0004116887
107	0xbcd3a1b3	-0.02583394
108	0xbc47cba0	-0.012194544
109	0xbd29d9b2	-0.041467376
110	0x3b2a60c9	0.002599763
111	0xbbbbb4bc	-0.0057283323
112	0xbc787186	-0.015163785
113	0xbbb27a1d	-0.005446686
114	0xbd65dd8e	-0.056119494
115	0x3cde339f	0.027124224
116	0xbd13fe6f	-0.03613132
117	0xbbcfff4b	-0.006347572
118	0xbd624972	-0.055245824
119	0xbc9e084a	-0.019291062
120	0xbd27ce49	-0.040968213
121	0x3d92193e	0.07133721
122	0x3c68d628	0.014211215
123	0xbb2ee180	-0.0026684701
124	0x3b34b044	0.0027570883
125	0x3c8668c4	0.016407378
126	0x3caf2f72	0.021384928
127	0xbc9f3f60	-0.0194394
128	0xbc988e88	-0.018622652
129	0x3cdc652b	0.02690371
130	0x3d857ba1	0.06517721
131	0x3cf6c9b4	0.030125476
132	0xbd0f8105	-0.035035152
133	0xbd73f630	-0.059560955
134	0xbc8e361f	-0.017359791
135	0x3d315172	0.043290563
136	0x3b3c349c	0.002871788
137	0xbd18b65b	-0.037283283
138	0xbd994c86	-0.07485299
139	0x3d3e9e2a	0.046537556
140	0x3c127146	0.008938139
141	0xbd837ac3	-0.06419899
142	0xbd444994	-0.047921732
143	0xba0156d3	-0.0004933897
144	0xb8f63251	-0.00011739566
145	0x3c52a305	0.01285625
146	0xb8e22a9d	-0.00010784457
147	0xbc987eee	-0.018615212
148	0x3b0f6f39	0.0021886362
149	0xbcdf3bd1	-0.027250202
150	0xb905270b	-0.00012698413
151	0xbd407df4	-0.04699512
152	0xbc509753	-0.012731391
153	0xbcd10bdb	-0.025518348
154	0xbd0379d3	-0.032098603
155	0xbd0f3494	-0.03496225
156	0xbd4c009c	-0.04980527
157	0xbcf28b68	-0.02960749
158	0x3da4d8b6	0.08049147
159	0xbcc15c54	-0.023603596
160	0x3c72ec11	0.01482679
161	0x3d43e33c	0.04782413
162	0x3c9c522a	0.019082148
163	0xbd3013af	-0.04298752
164	0xbd7099a7	-0.058740284
165	0xbcef2806	-0.02919389
166	0xbc9ef2c7	-0.019402875
167	0x3d02d61f	0.031942483
168	0x3cd9138e	0.026498582
169	0xbc1d5153	-0.009601909
170	0x3b58ecba	0.0033100084
171	0x3c258002	0.01010132
172	0xbc35c5a5	-0.011094485
173	0x3d405d9d	0.046964277
174	0xbbdc4b70	-0.00672286
175	0x3befa89d	0.0073138014
176	0xbd0e58e5	-0.034752745
177	0x3c75648f	0.014977588
178	0xbc5080b4	-0.012725998
179	0xbcf3ac66	-0.029745292
180	0xbd88cb29	-0.06679375
181	0x3c874858	0.016513988
182	0x3dbe9e6f	0.093075626
183	0xbcb5d2a9	-0.022195177
184	0xbc25acdf	-0.010112016
185	0xbc6a89c6	-0.014315074
186	0xbc641fce	-0.013923598
187	0xbbace64c	-0.005276477
188	0x3beb6580	0.0071837306
189	0xbc30a72d	-0.010782045
190	0xbd7a6adc	-0.061137065
191	0x3b037b39	0.002006246
192	0xbc132d0e	-0.00898291
193	0xb9bc06af	-0.00035863134
194	0xbd4ff4d1	-0.050770584
195	0x3bd3e8b1	0.006466948
196	0x3c8ccc44	0.017187245
197	0x3c302abd	0.010752377
198	0x3cb98085	0.02264429
199	0x3d31b10d	0.04338174
200	0xbd740bd4	-0.059581593
201	0x3cb1a410	0.021684676
202	0x3b1a368a	0.0023531043
203	0xbc61650b	-0.013757001
204	0x3c96a03f	0.018386958
205	0x3c4ff640	0.012692988
206	0xbc273414	-0.0102052875
207	0x3ca3c482	0.019991163
208	0x3cab10b0	0.02088198
209	0xbc81813e	-0.015808698
210	0x3cf1a170	0.029495925
211	0xbcc5b5cf	-0.024134545
212	0x3c193d31	0.009352968
213	0xbb383881	-0.002810985
214	0xbdbb27d8	-0.09138459
215	0xbd17633a	-0.036959864
216	0xbd002cf8	-0.031292886
217	0x3d0f628a	0.035006084
218	0xbd15bb0d	-0.03655534
219	0x3baf410d	0.005348331
220	0xbb00b25c	-0.001963756
221	0xbc474e4b	-0.012164663
222	0xbc784606	-0.015153414
223	0x3c61fd8a	0.013793359
224	0xbc78fdde	-0.015197245
225	0xbca23448	-0.01980032
226	0x3cc38283	0.023865944
227	0xba654ee4	-0.00087474124
228	0x3c7fb1db	0.015606369
229	0x3d69a7dc	0.05704485
230	0xbd0f218d	-0.034944106
231	0x3d5dea7b	0.054178696
232	0xbd562caf	-0.052288707
233	0x3ccb1a36	0.024792772
234	0x3d2156fa	0.039389588
235	0x3cfeb0d7	0.031090183
236	0xbc82e6b3	-0.015979147
237	0xbd38c731	-0.04511184
238	0xbb52cdcd	-0.0032166124
239	0x3c84e55f	0.016222654
240	0x3c809580	0.015696287
241	0xbc9a2406	-0.018816005
242	0xbaafac52	-0.0013402796
243	0xbd76d18e	-0.06025844
244	0xbd0a8fe2	-0.033828624
245	0xbd872a93	-0.06599917
246	0x3c779ff3	0.015113818
247	0xbc8b797c	-0.017025702
248	0xbcb25f45	-0.021773944
249	0xbc41225a	-0.011787975
250	0xbc9cb33b	-0.019128432
251	0x3d1a87a7	0.037727024
252	0xbb49e9de	-0.0030809562
253	0x3c862da8	0.016379192
254	0xbb8c5c65	-0.004283475
255	0x3c8d522c	0.017251097

classifier.bias f4 [5]
0	0x3d89b4b8	0.067239225
1	0xbe84f0aa	-0.25964862
2	0x3ebca76a	0.36846477
3	0x3de1ce46	0.11025672
4	0xbede3835	-0.43402258

net.1.weight f4 [5, 184]
0	0x3d2eb084	0.042648807
1	0xbbd69cf3	-0.0065494715
2	0x3c92bdd2	0.017912779
3	0xbb75f3b3	-0.003752929
4	0x3cfc576f	0.03080341
5	0xbd7b695a	-0.061379768
6	0xbd42d30e	-0.04756456
7	0x3d8866f0	0.06660259
8	0x3c6fc844	0.014635149
9	0xbcbf3eef	-0.023345439
10	0x3d2d37a1	0.04228938
11	0xbca30bb5	-0.019903043
12	0x3d13af5d	0.03605591
13	0xba736a34	-0.000928554
14	0x3d71d69b	0.059042554
15	0x3c3f371f	0.011670857
16	0x390a849f	0.00013210111
17	0x3cb56d39	0.022146808
18	0xbcb99ffa	-0.02265929
19	0xb9ababef	-0.00032743762
20	0x3bd09aa9	0.006366093
21	0xbc8d63a6	-0.01725943
22	0x3cb773fa	0.02239417
23	0x3d626356	0.055270515
24	0xbbf906d8	-0.007599693
25	0xbd600a03	-0.054697048
26	0x3c73791a	0.014860416
27	0xbd5f4744	-0.054511324
28	0xbcc16888	-0.023609415
29	0xbd03dd08	-0.032193214
30	0xbd68f5e3	-0.05687512
31	0xbc28b803	-0.010297778
32	0xbc996b12	-0.018727813
33	0x3d2acf3b	0.041701537
34	0xbd842576	-0.064524576
35	0x3c1ebe0a	0.0096888635
36	0xbd2577d0	-0.040397465
37	0xbc87ed40	-0.016592622
38	0xbc0b8988	-0.008516677
39	0xbc803083	-0.015648132
40	0xbd083d14	-0.033261374
41	0x3d51fad3	0.051264595
42	0x3d3cb545	0.04607131
43	0x3cc2c880	0.023777246
44	0x3d7d904e	0.061905198
45	0xbc4c73a6	-0.012478745
46	0x3c47c568	0.012193061
47	0x3ce61a34	0.028088666
48	0x3cb5c334	0.022187807
49	0x3d0a6979	0.033791993
50	0x3dac97e7	0.084274106
51	0xbd020a5b	-0.031748157
52	0x3b0644a9	0.0020487702
53	0xbd9ec118	-0.077516735
54	0xbc048ba6	-0.008089935
55	0x3aa28166	0.0012398183
56	0xbca27fd2	-0.01983634
57	0xbd159a7e	-0.03652429
58	0xbbe80cf5	-0.0070816227
59	0xbb058766	-0.0020374893
60	0x3ca5e391	0.020250114
61	0xb9632786	-0.0002166313
62	0xbcace427	-0.021104885
63	0xbc11fc0a	-0.008910188
64	0x3cb43845	0.021999488
65	0x3d0ac1c1	0.033876184
66	0x3c7ad827	0.015310324
67	0x3c178341	0.009247602
68	0xbc05d3a1	-0.008168132
69	0x3d0dde55	0.03463586
70	0xbcb4cb8f	-0.02206972
71	0xbd29fa17	-0.04149827
72	0x3cc39bbc	0.02387797
73	0x3c9e05cf	0.01928988
74	0xbd48e498	-0.04904613
75	0x3cc768bf	0.024341939
76	0x3d2d0d13	0.042248797
77	0xbc91d425	-0.017801354
78	0x3bf980d0	0.0076142326
79	0x3ce02434	0.027361013
80	0x3cf1d268	0.029519275
81	0x3c3b478e	0.011430634
82	0x3d7d7ca7	0.061886456
83	0xbba450e5	-0.005014526
84	0x3cb05603	0.021525389
85	0xbbf3479e	-0.007424309
86	0xbbb35dda	-0.0054738345
87	0x3d1b7785	0.03795578
88	0xbb127e69	-0.0022353178
89	0xbd0aa55b	-0.0338491
90	0xbcc4e9e1	-0.024037303
91	0xb9348a68	-0.00017217698
92	0xbc9692cf	-0.01838055
93	0xbd096dc5	-0.03355195
94	0xbcfbc439	-0.030733215
95	0x3b089369	0.0020839816
96	0x3b4f0381	0.0031587782
97	0x3d1808d5	0.037117798
98	0xbc360923	-0.011110577
99	0x3c3cd2f4	0.0115249045
100	0x3b377c00	0.0027997494
101	0xbd0c83e4	-0.03430547
102	0xbd95f7aa	-0.07322629
103	0x3b34dead	0.0027598545
104	0xb96902a6	-0.00022221598
105	0xbc876150	-0.016525894
106	0xb9d7d7ec	-0.0004116887
107	0xbcd3a1b3	-0.02583394
108	0xbc47cba0	-0.012194544
109	0xbd29d9b2	-0.041467376
110	0x3b2a60c9	0.002599763
111	0xbbbbb4bc	-0.0057283323
112	0xbc787186	-0.015163785
113	0xbbb27a1d	-0.005446686
114	0xbd65dd8e	-0.056119494
115	0x3cde339f	0.027124224
116	0xbd13fe6f	-0.03613132
117	0xbbcfff4b	-0.006347572
118	0xbd624972	-0.055245824
119	0xbc9e084a	-0.019291062
120	0xbd27ce49	-0.040968213
121	0x3d92193e	0.07133721
122	0x3c68d628	0.014211215
123	0xbb2ee180	-0.0026684701
124	0x3b34b044	0.0027570883
125	0x3c8668c4	0.016407378
126	0x3caf2f72	0.021384928
127	0xbc9f3f60	-0.0194394
128	0xbc988e88	-0.018622652
129	0x3cdc652b	0.02690371
130	0x3d857ba1	0.06517721
131	0x3cf6c9b4	0.030125476
132	0xbd0f8105	-0.035035152
133	0xbd73f630	-0.059560955
134	0xbc8e361f	-0.017359791
135	0x3d315172	0.043290563
136	0x3b3c349c	0.002871788
137	0xbd18b65b	-0.037283283
138	0xbd994c86	-0.07485299
139	0x3d3e9e2a	0.046537556
140	0x3c127146	0.008938139
141	0xbd837ac3	-0.06419899
142	0xbd444994	-0.047921732
143	0xba0156d3	-0.0004933897
144	0xb8f63251	-0.00011739566
145	0x3c52a305	0.01285625
146	0xb8e22a9d	-0.00010784457
147	0xbc987eee	-0.018615212
148	0x3b0f6f39	0.0021886362
149	0xbcdf3bd1	-0.027250202
150	0xb905270b	-0.00012698413
151	0xbd407df4	-0.04699512
152	0xbc509753	-0.012731391
153	0xbcd10bdb	-0.025518348
154	0xbd0379d3	-0.032098603
155	0xbd0f3494	-0.03496225
156	0xbd4c009c	-0.04980527
157	0xbcf28b68	-0.02960749
158	0x3da4d8b6	0.08049147
159	0xbcc15c54	-0.023603596
160	0x3c72ec11	0.01482679
161	0x3d43e33c	0.04782413
162	0x3c9c522a	0.019082148
163	0xbd3013af	-0.04298752
164	0xbd7099a7	-0.058740284
165	0xbcef2806	-0.02919389
166	0xbc9ef2c7	-0.019402875
167	0x3d02d61f	0.031942483
168	0x3cd9138e	0.026498582
169	0xbc1d5153	-0.009601909
170	0x3b58ecba	0.0033100084
171	0x3c258002	0.01010132
172	0xbc35c5a5	-0.011094485
173	0x3d405d9d	0.046964277
174	0xbbdc4b70	-0.00672286
175	0x3befa89d	0.0073138014
176	0xbd0e58e5	-0.034752745
177	0x3c75648f	0.014977588
178	0xbc5080b4	-0.012725998
179	0xbcf3ac66	-0.029745292
180	0xbd88cb29	-0.06679375
181	0x3c874858	0.016513988
182	0x3dbe9e6f	0.093075626
183	0xbcb5d2a9	-0.022195177
184	0xbc25acdf	-0.010112016
185	0xbc6a89c6	-0.014315074
186	0xbc641fce	-0.013923598
187	0xbbace64c	-0.005276477
188	0x3beb6580	0.0071837306
189	0xbc30a72d	-0.010782045
190	0xbd7a6adc	-0.061137065
191	0x3b037b39	0.002006246
192	0xbc132d0e	-0.00898291
193	0xb9bc06af	-0.00035863134
194	0xbd4ff4d1	-0.050770584
195	0x3bd3e8b1	0.006466948
196	0x3c8ccc44	0.017187245
197	0x3c302abd	0.010752377
198	0x3cb98085	0.02264429
199	0x3d31b10d	0.04338174
200	0xbd740bd4	-0.059581593
201	0x3cb1a410	0.021684676
202	0x3b1a368a	0.0023531043
203	0xbc61650b	-0.013757001
204	0x3c96a03f	0.018386958
205	0x3c4ff640	0.012692988
206	0xbc273414	-0.0102052875
207	0x3ca3c482	0.019991163
208	0x3cab10b0	0.02088198
209	0xbc81813e	-0.015808698
210	0x3cf1a170	0.029495925
211	0xbcc5b5cf	-0.024134545
212	0x3c193d31	0.009352968
213	0xbb383881	-0.002810985
214	0xbdbb27d8	-0.09138459
215	0xbd17633a	-0.036959864
216	0xbd002cf8	-0.031292886
217	0x3d0f628a	0.035006084
218	0xbd15bb0d	-0.03655534
219	0x3baf410d	0.005348331
220	0xbb00b25c	-0.001963756
221	0xbc474e4b	-0.012164663
222	0xbc784606	-0.015153414
223	0x3c61fd8a	0.013793359
224	0xbc78fdde	-0.015197245
225	0xbca23448	-0.01980032
226	0x3cc38283	0.023865944
227	0xba654ee4	-0.00087474124
228	0x3c7fb1db	0.015606369
229	0x3d69a7dc	0.05704485
230	0xbd0f218d	-0.034944106
231	0x3d5dea7b	0.054178696
232	0xbd562caf	-0.052288707
233	0x3ccb1a36	0.024792772
234	0x3d2156fa	0.039389588
235	0x3cfeb0d7	0.031090183
236	0xbc82e6b3	-0.015979147
237	0xbd38c731	-0.04511184
238	0xbb52cdcd	-0.0032166124
239	0x3c84e55f	0.016222654
240	0x3c809580	0.015696287
241	0xbc9a2406	-0.018816005
242	0xbaafac52	-0.0013402796
243	0xbd76d18e	-0.06025844
244	0xbd0a8fe2	-0.033828624
245	0xbd872a93	-0.06599917
246	0x3c779ff3	0.015113818
247	0xbc8b797c	-0.017025702
248	0xbcb25f45	-0.021773944
249	0xbc41225a	-0.011787975
250	0xbc9cb33b	-0.019128432
251	0x3d1a87a7	0.037727024
252	0xbb49e9de	-0.0030809562
253	0x3c862da8	0.016379192
254	0xbb8c5c65	-0.004283475
255	0x3c8d522c	0.017251097

net.1.bias f4 [5]
0	0x3d89b4b8	0.067239225
1	0xbe84f0aa	-0.25964862
2	0x3ebca76a	0.36846477
3	0x3de1ce46	0.11025672
4	0xbede3835	-0.43402258

weight f4 [5, 184]
0	0x3d2eb084	0.042648807
1	0xbbd69cf3	-0.0065494715
2	0x3c92bdd2	0.017912779
3	0xbb75f3b3	-0.003752929
4	0x3cfc576f	0.03080341
5	0xbd7b695a	-0.061379768
6	0xbd42d30e	-0.04756456
7	0x3d8866f0	0.06660259
8	0x3c6fc844	0.014635149
9	0xbcbf3eef	-0.023345439
10	0x3d2d37a1	0.04228938
11	0xbca30bb5	-0.019903043
12	0x3d13af5d	0.03605591
13	0xba736a34	-0.000928554
14	0x3d71d69b	0.059042554
15	0x3c3f371f	0.011670857
16	0x390a849f	0.00013210111
17	0x3cb56d39	0.022146808
18	0xbcb99ffa	-0.02265929
19	0xb9ababef	-0.00032743762
20	0x3bd09aa9	0.006366093
21	0xbc8d63a6	-0.01725943
22	0x3cb773fa	0.02239417
23	0x3d626356	0.055270515
24	0xbbf906d8	-0.007599693
25	0xbd600a03	-0.054697048
26	0x3c73791a	0.014860416
27	0xbd5f4744	-0.054511324
28	0xbcc16888	-0.023609415
29	0xbd03dd08	-0.032193214
30	0xbd68f5e3	-0.05687512
31	0xbc28b803	-0.010297778
32	0xbc996b12	-0.018727813
33	0x3d2acf3b	0.041701537
34	0xbd842576	-0.064524576
35	0x3c1ebe0a	0.0096888635
36	0xbd2577d0	-0.040397465
37	0xbc87ed40	-0.016592622
38	0xbc0b8988	-0.008516677
39	0xbc803083	-0.015648132
40	0xbd083d14	-0.033261374
41	0x3d51fad3	0.051264595
42	0x3d3cb545	0.04607131
43	0x3cc2c880	0.023777246
44	0x3d7d904e	0.061905198
45	0xbc4c73a6	-0.012478745
46	0x3c47c568	0.012193061
47	0x3ce61a34	0.028088666
48	0x3cb5c334	0.022187807
49	0x3d0a6979	0.033791993
50	0x3dac97e7	0.084274106
51	0xbd020a5b	-0.031748157
52	0x3b0644a9	0.0020487702
53	0xbd9ec118	-0.077516735
54	0xbc048ba6	-0.008089935
55	0x3aa28166	0.0012398183
56	0xbca27fd2	-0.01983634
57	0xbd159a7e	-0.03652429
58	0xbbe80cf5	-0.0070816227
59	0xbb058766	-0.0020374893
60	0x3ca5e391	0.020250114
61	0xb9632786	-0.0002166313
62	0xbcace427	-0.021104885
63	0xbc11fc0a	-0.008910188
64	0x3cb43845	0.021999488
65	0x3d0ac1c1	0.033876184
66	0x3c7ad827	0.015310324
67	0x3c178341	0.009247602
68	0xbc05d3a1	-0.008168132
69	0x3d0dde55	0.03463586
70	0xbcb4cb8f	-0.02206972
71	0xbd29fa17	-0.04149827
72	0x3cc39bbc	0.02387797
73	0x3c9e05cf	0.01928988
74	0xbd48e498	-0.04904613
75	0x3cc768bf	0.024341939
76	0x3d2d0d13	0.042248797
77	0xbc91d425	-0.017801354
78	0x3bf980d0	0.0076142326
79	0x3ce02434	0.027361013
80	0x3cf1d268	0.029519275
81	0x3c3b478e	0.011430634
82	0x3d7d7ca7	0.061886456
83	0xbba450e5	-0.005014526
84	0x3cb05603	0.021525389
85	0xbbf3479e	-0.007424309
86	0xbbb35dda	-0.0054738345
87	0x3d1b7785	0.03795578
88	0xbb127e69	-0.0022353178
89	0xbd0aa55b	-0.0338491
90	0xbcc4e9e1	-0.024037303
91	0xb9348a68	-0.00017217698
92	0xbc9692cf	-0.01838055
93	0xbd096dc5	-0.03355195
94	0xbcfbc439	-0.030733215
95	0x3b089369	0.0020839816
96	0x3b4f0381	0.0031587782
97	0x3d1808d5	0.037117798
98	0xbc360923	-0.011110577
99	0x3c3cd2f4	0.0115249045
100	0x3b377c00	0.0027997494
101	0xbd0c83e4	-0.03430547
102	0xbd95f7aa	-0.07322629
103	0x3b34dead	0.0027598545
104	0xb96902a6	-0.00022221598
105	0xbc876150	-0.016525894
106	0xb9d7d7ec	-0.0004116887
107	0xbcd3a1b3	-0.02583394
108	0xbc47cba0	-0.012194544
109	0xbd29d9b2	-0.041467376
110	0x3b2a60c9	0.002599763
111	0xbbbbb4bc	-0.0057283323
112	0xbc787186	-0.015163785
113	0xbbb27a1d	-0.005446686
114	0xbd65dd8e	-0.056119494
115	0x3cde339f	0.027124224
116	0xbd13fe6f	-0.03613132
117	0xbbcfff4b	-0.006347572
118	0xbd624972	-0.055245824
119	0xbc9e084a	-0.019291062
120	0xbd27ce49	-0.040968213
121	0x3d92193e	0.07133721
122	0x3c68d628	0.014211215
123	0xbb2ee180	-0.0026684701
124	0x3b34b044	0.0027570883
125	0x3c8668c4	0.016407378
126	0x3caf2f72	0.021384928
127	0xbc9f3f60	-0.0194394
128	0xbc988e88	-0.018622652
129	0x3cdc652b	0.02690371
130	0x3d857ba1	0.06517721
131	0x3cf6c9b4	0.030125476
132	0xbd0f8105	-0.035035152
133	0xbd73f630	-0.059560955
134	0xbc8e361f	-0.017359791
135	0x3d315172	0.043290563
136	0x3b3c349c	0.002871788
137	0xbd18b65b	-0.037283283
138	0xbd994c86	-0.07485299
139	0x3d3e9e2a	0.046537556
140	0x3c127146	0.008938139
141	0xbd837ac3	-0.06419899
142	0xbd444994	-0.047921732
143	0xba0156d3	-0.0004933897
144	0xb8f63251	-0.00011739566
145	0x3c52a305	0.01285625
146	0xb8e22a9d	-0.00010784457
147	0xbc987eee	-0.018615212
148	0x3b0f6f39	0.0021886362
149	0xbcdf3bd1	-0.027250202
150	0xb905270b	-0.00012698413
151	0xbd407df4	-0.04699512
152	0xbc509753	-0.012731391
153	0xbcd10bdb	-0.025518348
154	0xbd0379d3	-0.032098603
155	0xbd0f3494	-0.03496225
156	0xbd4c009c	-0.04980527
157	0xbcf28b68	-0.02960749
158	0x3da4d8b6	0.08049147
159	0xbcc15c54	-0.023603596
160	0x3c72ec11	0.01482679
161	0x3d43e33c	0.04782413
162	0x3c9c522a	0.019082148
163	0xbd3013af	-0.04298752
164	0xbd7099a7	-0.058740284
165	0xbcef2806	-0.02919389
166	0xbc9ef2c7	-0.019402875
167	0x3d02d61f	0.031942483
168	0x3cd9138e	0.026498582
169	0xbc1d5153	-0.009601909
170	0x3b58ecba	0.0033100084
171	0x3c258002	0.01010132
172	0xbc35c5a5	-0.011094485
173	0x3d405d9d	0.046964277
174	0xbbdc4b70	-0.00672286
175	0x3befa89d	0.0073138014
176	0xbd0e58e5	-0.034752745
177	0x3c75648f	0.014977588
178	0xbc5080b4	-0.012725998
179	0xbcf3ac66	-0.029745292
180	0xbd88cb29	-0.06679375
181	0x3c874858	0.016513988
182	0x3dbe9e6f	0.093075626
183	0xbcb5d2a9	-0.022195177
184	0xbc25acdf	-0.010112016
185	0xbc6a89c6	-0.014315074
186	0xbc641fce	-0.013923598
187	0xbbace64c	-0.005276477
188	0x3beb6580	0.0071837306
189	0xbc30a72d	-0.010782045
190	0xbd7a6adc	-0.061137065
191	0x3b037b39	0.002006246
192	0xbc132d0e	-0.00898291
193	0xb9bc06af	-0.00035863134
194	0xbd4ff4d1	-0.050770584
195	0x3bd3e8b1	0.006466948
196	0x3c8ccc44	0.017187245
197	0x3c302abd	0.010752377
198	0x3cb98085	0.02264429
199	0x3d31b10d	0.04338174
200	0xbd740bd4	-0.059581593
201	0x3cb1a410	0.021684676
202	0x3b1a368a	0.0023531043
203	0xbc61650b	-0.013757001
204	0x3c96a03f	0.018386958
205	0x3c4ff640	0.012692988
206	0xbc273414	-0.0102052875
207	0x3ca3c482	0.019991163
208	0x3cab10b0	0.02088198
209	0xbc81813e	-0.015808698
210	0x3cf1a170	0.029495925
211	0xbcc5b5cf	-0.024134545
212	0x3c193d31	0.009352968
213	0xbb383881	-0.002810985
214	0xbdbb27d8	-0.09138459
215	0xbd17633a	-0.036959864
216	0xbd002cf8	-0.031292886
217	0x3d0f628a	0.035006084
218	0xbd15bb0d	-0.03655534
219	0x3baf410d	0.005348331
220	0xbb00b25c	-0.001963756
221	0xbc474e4b	-0.012164663
222	0xbc784606	-0.015153414
223	0x3c61fd8a	0.013793359
224	0xbc78fdde	-0.015197245
225	0xbca23448	-0.01980032
226	0x3cc38283	0.023865944
227	0xba654ee4	-0.00087474124
228	0x3c7fb1db	0.015606369
229	0x3d69a7dc	0.05704485
230	0xbd0f218d	-0.034944106
231	0x3d5dea7b	0.054178696
232	0xbd562caf	-0.052288707
233	0x3ccb1a36	0.024792772
234	0x3d2156fa	0.039389588
235	0x3cfeb0d7	0.031090183
236	0xbc82e6b3	-0.015979147
237	0xbd38c731	-0.04511184
238	0xbb52cdcd	-0.0032166124
239	0x3c84e55f	0.016222654
240	0x3c809580	0.015696287
241	0xbc9a2406	-0.018816005
242	0xbaafac52	-0.0013402796
243	0xbd76d18e	-0.06025844
244	0xbd0a8fe2	-0.033828624
245	0xbd872a93	-0.06599917
246	0x3c779ff3	0.015113818
247	0xbc8b797c	-0.017025702
248	0xbcb25f45	-0.021773944
249	0xbc41225a	-0.011787975
250	0xbc9cb33b	-0.019128432
251	0x3d1a87a7	0.037727024
252	0xbb49e9de	-0.0030809562
253	0x3c862da8	0.016379192
254	0xbb8c5c65	-0.004283475
255	0x3c8d522c	0.017251097

bias f4 [5]
0	0x3d89b4b8	0.067239225
1	0xbe84f0aa	-0.25964862
2	0x3ebca76a	0.36846477
3	0x3de1ce46	0.11025672
4	0xbede3835	-0.43402258
