results/checkpoints/logistic_on_simclr/lightning_logs/version_4/checkpoints/last.ckpt (torch, 6183 bytes, 6 tensors)

classifier.weight f4 [5, 100]
0	0x3d933176	0.07187168
1	0x3db4ca3f	0.08827638
2	0xbcf9ebf5	-0.03050802
3	0x3dca83c3	0.09888413
4	0xbc88b3a8	-0.01668723
5	0x3c9de48d	0.01927402
6	0xbd245eb4	-0.04012938
7	0x3d4444c4	0.047917143
8	0x3dc2c23c	0.095097035
9	0xbd8c848d	-0.068612196
10	0x3dc1257d	0.094309784
11	0x3ce9ad65	0.028525064
12	0x3da6598a	0.08122547
13	0x3ca2cc9e	0.01987296
14	0x3d2f8528	0.042851597
15	0xbbc6b906	-0.006064537
16	0x3da7fd75	0.0820264
17	0x3bc2c64b	0.0059440485
18	0xbd5e77c5	-0.05431344
19	0x3c821c3e	0.015882608
20	0xbd55b6b6	-0.0521762
21	0xbad027ca	-0.0015880999
22	0xbd05e63c	-0.03269027
23	0x3d6b98a5	0.05751862
24	0xbda7531a	-0.08170147
25	0xbd1fd17d	-0.039018143
26	0xbc9bd84e	-0.01902404
27	0xbd756810	-0.059913695
28	0x3a1190c4	0.0005552883
29	0xbdd84a69	-0.105610676
30	0x3dc8867c	0.09791276
31	0xbd9beede	-0.0761392
32	0x3d95d96e	0.07316862
33	0x3cc725ad	0.024309957
34	0xbcea70c2	-0.02861822
35	0x3d8fce58	0.07021779
36	0x3bcd1c5d	0.0062594847
37	0x3daa97a5	0.08329705
38	0x3b111918	0.0022140201
39	0xbd241a53	-0.040064167
40	0x3cae8c86	0.021307241
41	0xbd06c03d	-0.032898176
42	0x3d178548	0.03699234
43	0x3dc2e6eb	0.095167
44	0x3d83f4c6	0.06443171
45	0xbd5439f7	-0.051813092
46	0x3d625b62	0.05526293
47	0x3cd18913	0.025578057
48	0x3d3d5f77	0.04623362
49	0xbd8d4c82	-0.06899358
50	0xbdbd9148	-0.09256226
51	0xbcfefe3d	-0.03112709
52	0xbdaa886b	-0.08326801
53	0x3d9bc6fb	0.07606312
54	0x3d0f6850	0.03501159
55	0x3d48d01d	0.049026597
56	0x3d1e6b16	0.038676344
57	0xbc3f7a92	-0.011686938
58	0x3db14fad	0.08657775
59	0xbd87e148	-0.06634766
60	0x3a50ca25	0.0007964692
61	0xbd93d63c	-0.07218596
62	0x3cc067f7	0.023487074
63	0xbd2d6b31	-0.042338554
64	0x3d20a39c	0.03921853
65	0xbce0642b	-0.027391514
66	0x3dab3446	0.0835958
67	0xbd891b29	-0.066946335
68	0xbd8413c3	-0.06449082
69	0xbd8b673e	-0.06806801
70	0x3da78708	0.08180052
71	0x3cce124e	0.025155213
72	0x3db994a6	0.090615556
73	0xbd9fbeda	-0.07800074
74	0xbdbc5552	-0.09195961
75	0xbd911821	-0.0708468
76	0xbd996af6	-0.07491104
77	0x3d07cbf7	0.0331535
78	0x3d32a5b4	0.043615058
79	0x3d9accc8	0.0755859
80	0xbd3213d0	-0.043475926
81	0xbd91ee79	-0.07125563
82	0x3d6e82bc	0.058230147
83	0xbd424c26	-0.047435902
84	0x3d5cf318	0.05394277
85	0xbc70b33d	-0.014691171
86	0x3d3b1be2	0.045680888
87	0xbd917ce5	-0.071039
88	0xbd6de112	-0.058075972
89	0x3c9adea4	0.018904991
90	0x3c8b7907	0.017025484
91	0xbc66fa3d	-0.014097747
92	0x3d73aefb	0.059493046
93	0x3d927cd9	0.07152719
94	0xbda61545	-0.081095256
95	0xbd4cdb5e	-0.050013892
96	0x3dc10263	0.09424283
97	0xbcf80b9f	-0.030278979
98	0xbd0f61c1	-0.035005335
99	0xbdc67f0c	-0.09692201
100	0xbd481272	-0.048845716
101	0x3c86c64d	0.016451979
102	0xbb919e15	-0.0044438937
103	0xbda63d95	-0.081172146
104	0xbbb786fe	-0.005600809
105	0xbd780db1	-0.060559932
106	0xbdbee89e	-0.09321712
107	0xbd4dc689	-0.050238166
108	0xbdc51696	-0.096234486
109	0xbd68fe00	-0.05688286
110	0x3dbb7bbe	0.09154461
111	0x3c22e05e	0.009941189
112	0x3cb4a64f	0.022051958
113	0xbdcadda9	-0.099055596
114	0xbd69c93b	-0.057076674
115	0xbd2d8c68	-0.04237023
116	0x3c352dfd	0.011058328
117	0xbda23d4a	-0.07921846
118	0xbd0e03ab	-0.034671467
119	0xbd52937c	-0.051410183
120	0x3be6af67	0.0070399526
121	0xbd29ec06	-0.041484855
122	0xbc6affd3	-0.01434322
123	0xbd715937	-0.058922973
124	0xbd736a88	-0.059427768
125	0xbd887c77	-0.06664365
126	0xbd2a2cfa	-0.0415468
127	0xbd938016	-0.07202165
128	0x3d97d9aa	0.07414563
129	0xbc31fc04	-0.010863308
130	0x3da15f03	0.0787945
131	0x3cb7d4b6	0.022440296
132	0xbd9a374c	-0.07530078
133	0x3d7731d8	0.06035027
134	0xbd088f29	-0.033339653
135	0xbd11d2c3	-0.03560139
136	0xbd974916	-0.07386987
137	0xbdd83153	-0.10556283
138	0x3d1a2cbd	0.037640322
139	0xbc5e6d0f	-0.013575806
140	0x3d3e19e3	0.046411406
141	0xbd94ae90	-0.07259858
142	0x3da91dfe	0.08257674
143	0xbd882d16	-0.066492245
144	0xbcd0ba65	-0.025479505
145	0x3cef145b	0.029184511
146	0x3d6a6edc	0.05723463
147	0x3d94167f	0.07230853
148	0x3dcc0b9f	0.09963154
149	0xbd8f2e94	-0.06991306
150	0x3c8ae422	0.016954485
151	0xbd4c7654	-0.049917534
152	0xbb27bd67	-0.002559507
153	0xbd8d10a7	-0.06887942
154	0x3db1cc60	0.086815596
155	0xbda7af6d	-0.08187757
156	0x3d3a87b5	0.045539577
157	0x3d29a005	0.041412372
158	0x3cc1c3be	0.023652907
159	0xbd76b8c4	-0.0602348
160	0x3dc8dd0e	0.09807788
161	0x3cc10584	0.0235622
162	0x3c66b95c	0.014082279
163	0xbda35c3f	-0.07976579
164	0x3d06e745	0.0329354
165	0xbbdcdb14	-0.0067399833
166	0xbd5bb4e5	-0.05363931
167	0x3dbf5ba1	0.09343649
168	0x3cf59ab0	0.029980987
169	0xbd3ed5a6	-0.04659047
170	0xbd2c4c7b	-0.042065125
171	0x3b1bb626	0.0023759692
172	0x3d81b45f	0.06333231
173	0xbd0cac86	-0.03434422
174	0xbd86743d	-0.065651394
175	0xbd2d7137	-0.0423443
176	0xbd87727f	-0.06613635
177	0x3d37aec7	0.044844415
178	0x3d8da3a2	0.06915976
179	0xbdaddb6f	-0.08489119
180	0x3c66d620	0.014089137
181	0x3d75798e	0.059930377
182	0x3c2c023e	0.010498581
183	0xbcdea51d	-0.027178342
184	0x3d77a377	0.060458627
185	0x3d31c25b	0.043398242
186	0x3cec2f84	0.028831251
187	0xbcd49a5c	-0.02595251
188	0xbc95cca0	-0.01828605
189	0x3c4e03f0	0.012574181
190	0xbc1260e5	-0.008934234
191	0xbd008980	-0.03138113
192	0x3d8cbfb3	0.06872501
193	0x3da1fc24	0.0790942
194	0xbbd2c06c	-0.00643163
195	0xbd00a169	-0.031403933
196	0x3be0645b	0.006847901
197	0xba936504	-0.0011245315
198	0x3c800d63	0.015631383
199	0x3c98dec9	0.01866092
200	0xbdbd345f	-0.092385046
201	0xbd259129	-0.04042164
202	0x3db544ab	0.08850988
203	0x3d0d7ed1	0.03454477
204	0xbc14df29	-0.009086409
205	0xbd89d57e	-0.067301735
206	0xbd8d4179	-0.068972535
207	0xbda73453	-0.08164277
208	0xbd14275a	-0.03617034
209	0x3cc67df0	0.024229974
210	0x3d702e7e	0.05863809
211	0x3d174189	0.036927734
212	0xbda49a80	-0.08037281
213	0xbd7648bd	-0.060127962
214	0xbcb3f952	-0.021969471
215	0x3db53bd4	0.08849302
216	0x3c4f662a	0.012658635
217	0xbc8a6580	-0.016894102
218	0x3d3ab5b4	0.04558344
219	0xbce2480a	-0.027622242
220	0xbd6f178a	-0.058372058
221	0x3d80f01f	0.062957995
222	0xbd55ab95	-0.052165587
223	0xbc371331	-0.011174009
224	0xbdc68e0b	-0.09695061
225	0x3d77933f	0.06044316
226	0x3d85f25a	0.065403655
227	0x3d094ccf	0.033520516
228	0xbd7b1e58	-0.061308235
229	0xbdc1d248	-0.09463936
230	0xbdac8846	-0.084244296
231	0x3d85c8b8	0.06532425
232	0x3d3d6a96	0.046244226
233	0x3d9faf6b	0.0779713
234	0x3d46a5a0	0.048497796
235	0x3c81d28d	0.015847469
236	0x3bfdb228	0.007742185
237	0xbd93a5ef	-0.07209384
238	0xbda1050f	-0.07862293
239	0xbdba81e4	-0.09106806
240	0x3d2a9d73	0.04165406
241	0xbd585080	-0.052811146
242	0xbca88e5c	-0.020575695
243	0xbd759aa8	-0.059961945
244	0xbcb83047	-0.022483958
245	0xbd819d5c	-0.06328842
246	0xbd8d8dd5	-0.06911818
247	0x3cd9389d	0.026516253
248	0xbcf18adc	-0.029485159
249	0x3d850afa	0.06496234
250	0xbd0bffb5	-0.034179408
251	0xbd9f0a04	-0.07765582
252	0xbc601dc3	-0.013678971
253	0xbd29d3b3	-0.041461658
254	0xbd0ad1ac	-0.033891365
255	0xbdd1a104	-0.102357894

classifier.bias f4 [5]
0	0xbc93259f	-0.017962275
1	0xbd68f966	-0.05687847
2	0x3c6ed44b	0.014576982
3	0x3da37dd2	0.07982983
4	0x3dac73a0	0.08420491

net.1.weight f4 [5, 100]
0	0x3d933176	0.07187168
1	0x3db4ca3f	0.08827638
2	0xbcf9ebf5	-0.03050802
3	0x3dca83c3	0.09888413
4	0xbc88b3a8	-0.01668723
5	0x3c9de48d	0.01927402
6	0xbd245eb4	-0.04012938
7	0x3d4444c4	0.047917143
8	0x3dc2c23c	0.095097035
9	0xbd8c848d	-0.068612196
10	0x3dc1257d	0.094309784
11	0x3ce9ad65	0.028525064
12	0x3da6598a	0.08122547
13	0x3ca2cc9e	0.01987296
14	0x3d2f8528	0.042851597
15	0xbbc6b906	-0.006064537
16	0x3da7fd75	0.0820264
17	0x3bc2c64b	0.0059440485
18	0xbd5e77c5	-0.05431344
19	0x3c821c3e	0.015882608
20	0xbd55b6b6	-0.0521762
21	0xbad027ca	-0.0015880999
22	0xbd05e63c	-0.03269027
23	0x3d6b98a5	0.05751862
24	0xbda7531a	-0.08170147
25	0xbd1fd17d	-0.039018143
26	0xbc9bd84e	-0.01902404
27	0xbd756810	-0.059913695
28	0x3a1190c4	0.0005552883
29	0xbdd84a69	-0.105610676
30	0x3dc8867c	0.09791276
31	0xbd9beede	-0.0761392
32	0x3d95d96e	0.07316862
33	0x3cc725ad	0.024309957
34	0xbcea70c2	-0.02861822
35	0x3d8fce58	0.07021779
36	0x3bcd1c5d	0.0062594847
37	0x3daa97a5	0.08329705
38	0x3b111918	0.0022140201
39	0xbd241a53	-0.040064167
40	0x3cae8c86	0.021307241
41	0xbd06c03d	-0.032898176
42	0x3d178548	0.03699234
43	0x3dc2e6eb	0.095167
44	0x3d83f4c6	0.06443171
45	0xbd5439f7	-0.051813092
46	0x3d625b62	0.05526293
47	0x3cd18913	0.025578057
48	0x3d3d5f77	0.04623362
49	0xbd8d4c82	-0.06899358
50	0xbdbd9148	-0.09256226
51	0xbcfefe3d	-0.03112709
52	0xbdaa886b	-0.08326801
53	0x3d9bc6fb	0.07606312
54	0x3d0f6850	0.03501159
55	0x3d48d01d	0.049026597
56	0x3d1e6b16	0.038676344
57	0xbc3f7a92	-0.011686938
58	0x3db14fad	0.08657775
59	0xbd87e148	-0.06634766
60	0x3a50ca25	0.0007964692
61	0xbd93d63c	-0.07218596
62	0x3cc067f7	0.023487074
63	0xbd2d6b31	-0.042338554
64	0x3d20a39c	0.03921853
65	0xbce0642b	-0.027391514
66	0x3dab3446	0.0835958
67	0xbd891b29	-0.066946335
68	0xbd8413c3	-0.06449082
69	0xbd8b673e	-0.06806801
70	0x3da78708	0.08180052
71	0x3cce124e	0.025155213
72	0x3db994a6	0.090615556
73	0xbd9fbeda	-0.07800074
74	0xbdbc5552	-0.09195961
75	0xbd911821	-0.0708468
76	0xbd996af6	-0.07491104
77	0x3d07cbf7	0.0331535
78	0x3d32a5b4	0.043615058
79	0x3d9accc8	0.0755859
80	0xbd3213d0	-0.043475926
81	0xbd91ee79	-0.07125563
82	0x3d6e82bc	0.058230147
83	0xbd424c26	-0.047435902
84	0x3d5cf318	0.05394277
85	0xbc70b33d	-0.014691171
86	0x3d3b1be2	0.045680888
87	0xbd917ce5	-0.071039
88	0xbd6de112	-0.058075972
89	0x3c9adea4	0.018904991
90	0x3c8b7907	0.017025484
91	0xbc66fa3d	-0.014097747
92	0x3d73aefb	0.059493046
93	0x3d927cd9	0.07152719
94	0xbda61545	-0.081095256
95	0xbd4cdb5e	-0.050013892
96	0x3dc10263	0.09424283
97	0xbcf80b9f	-0.030278979
98	0xbd0f61c1	-0.035005335
99	0xbdc67f0c	-0.09692201
100	0xbd481272	-0.048845716
101	0x3c86c64d	0.016451979
102	0xbb919e15	-0.0044438937
103	0xbda63d95	-0.081172146
104	0xbbb786fe	-0.005600809
105	0xbd780db1	-0.060559932
106	0xbdbee89e	-0.09321712
107	0xbd4dc689	-0.050238166
108	0xbdc51696	-0.096234486
109	0xbd68fe00	-0.05688286
110	0x3dbb7bbe	0.09154461
111	0x3c22e05e	0.009941189
112	0x3cb4a64f	0.022051958
113	0xbdcadda9	-0.099055596
114	0xbd69c93b	-0.057076674
115	0xbd2d8c68	-0.04237023
116	0x3c352dfd	0.011058328
117	0xbda23d4a	-0.07921846
118	0xbd0e03ab	-0.034671467
119	0xbd52937c	-0.051410183
120	0x3be6af67	0.0070399526
121	0xbd29ec06	-0.041484855
122	0xbc6affd3	-0.01434322
123	0xbd715937	-0.058922973
124	0xbd736a88	-0.059427768
125	0xbd887c77	-0.06664365
126	0xbd2a2cfa	-0.0415468
127	0xbd938016	-0.07202165
128	0x3d97d9aa	0.07414563
129	0xbc31fc04	-0.010863308
130	0x3da15f03	0.0787945
131	0x3cb7d4b6	0.022440296
132	0xbd9a374c	-0.07530078
133	0x3d7731d8	0.06035027
134	0xbd088f29	-0.033339653
135	0xbd11d2c3	-0.03560139
136	0xbd974916	-0.07386987
137	0xbdd83153	-0.10556283
138	0x3d1a2cbd	0.037640322
139	0xbc5e6d0f	-0.013575806
140	0x3d3e19e3	0.046411406
141	0xbd94ae90	-0.07259858
142	0x3da91dfe	0.08257674
143	0xbd882d16	-0.066492245
144	0xbcd0ba65	-0.025479505
145	0x3cef145b	0.029184511
146	0x3d6a6edc	0.05723463
147	0x3d94167f	0.07230853
148	0x3dcc0b9f	0.09963154
149	0xbd8f2e94	-0.06991306
150	0x3c8ae422	0.016954485
151	0xbd4c7654	-0.049917534
152	0xbb27bd67	-0.002559507
153	0xbd8d10a7	-0.06887942
154	0x3db1cc60	0.086815596
155	0xbda7af6d	-0.08187757
156	0x3d3a87b5	0.045539577
157	0x3d29a005	0.041412372
158	0x3cc1c3be	0.023652907
159	0xbd76b8c4	-0.0602348
160	0x3dc8dd0e	0.09807788
161	0x3cc10584	0.0235622
162	0x3c66b95c	0.014082279
163	0xbda35c3f	-0.07976579
164	0x3d06e745	0.0329354
165	0xbbdcdb14	-0.0067399833
166	0xbd5bb4e5	-0.05363931
167	0x3dbf5ba1	0.09343649
168	0x3cf59ab0	0.029980987
169	0xbd3ed5a6	-0.04659047
170	0xbd2c4c7b	-0.042065125
171	0x3b1bb626	0.0023759692
172	0x3d81b45f	0.06333231
173	0xbd0cac86	-0.03434422
174	0xbd86743d	-0.065651394
175	0xbd2d7137	-0.0423443
176	0xbd87727f	-0.06613635
177	0x3d37aec7	0.044844415
178	0x3d8da3a2	0.06915976
179	0xbdaddb6f	-0.08489119
180	0x3c66d620	0.014089137
181	0x3d75798e	0.059930377
182	0x3c2c023e	0.010498581
183	0xbcdea51d	-0.027178342
184	0x3d77a377	0.060458627
185	0x3d31c25b	0.043398242
186	0x3cec2f84	0.028831251
187	0xbcd49a5c	-0.02595251
188	0xbc95cca0	-0.01828605
189	0x3c4e03f0	0.012574181
190	0xbc1260e5	-0.008934234
191	0xbd008980	-0.03138113
192	0x3d8cbfb3	0.06872501
193	0x3da1fc24	0.0790942
194	0xbbd2c06c	-0.00643163
195	0xbd00a169	-0.031403933
196	0x3be0645b	0.006847901
197	0xba936504	-0.0011245315
198	0x3c800d63	0.015631383
199	0x3c98dec9	0.01866092
200	0xbdbd345f	-0.092385046
201	0xbd259129	-0.04042164
202	0x3db544ab	0.08850988
203	0x3d0d7ed1	0.03454477
204	0xbc14df29	-0.009086409
205	0xbd89d57e	-0.067301735
206	0xbd8d4179	-0.068972535
207	0xbda73453	-0.08164277
208	0xbd14275a	-0.03617034
209	0x3cc67df0	0.024229974
210	0x3d702e7e	0.05863809
211	0x3d174189	0.036927734
212	0xbda49a80	-0.08037281
213	0xbd7648bd	-0.060127962
214	0xbcb3f952	-0.021969471
215	0x3db53bd4	0.08849302
216	0x3c4f662a	0.012658635
217	0xbc8a6580	-0.016894102
218	0x3d3ab5b4	0.04558344
219	0xbce2480a	-0.027622242
220	0xbd6f178a	-0.058372058
221	0x3d80f01f	0.062957995
222	0xbd55ab95	-0.052165587
223	0xbc371331	-0.011174009
224	0xbdc68e0b	-0.09695061
225	0x3d77933f	0.06044316
226	0x3d85f25a	0.065403655
227	0x3d094ccf	0.033520516
228	0xbd7b1e58	-0.061308235
229	0xbdc1d248	-0.09463936
230	0xbdac8846	-0.084244296
231	0x3d85c8b8	0.06532425
232	0x3d3d6a96	0.046244226
233	0x3d9faf6b	0.0779713
234	0x3d46a5a0	0.048497796
235	0x3c81d28d	0.015847469
236	0x3bfdb228	0.007742185
237	0xbd93a5ef	-0.07209384
238	0xbda1050f	-0.07862293
239	0xbdba81e4	-0.09106806
240	0x3d2a9d73	0.04165406
241	0xbd585080	-0.052811146
242	0xbca88e5c	-0.020575695
243	0xbd759aa8	-0.059961945
244	0xbcb83047	-0.022483958
245	0xbd819d5c	-0.06328842
246	0xbd8d8dd5	-0.06911818
247	0x3cd9389d	0.026516253
248	0xbcf18adc	-0.029485159
249	0x3d850afa	0.06496234
250	0xbd0bffb5	-0.034179408
251	0xbd9f0a04	-0.07765582
252	0xbc601dc3	-0.013678971
253	0xbd29d3b3	-0.041461658
254	0xbd0ad1ac	-0.033891365
255	0xbdd1a104	-0.102357894

net.1.bias f4 [5]
0	0xbc93259f	-0.017962275
1	0xbd68f966	-0.05687847
2	0x3c6ed44b	0.014576982
3	0x3da37dd2	0.07982983
4	0x3dac73a0	0.08420491

weight f4 [5, 100]
0	0x3d933176	0.07187168
1	0x3db4ca3f	0.08827638
2	0xbcf9ebf5	-0.03050802
3	0x3dca83c3	0.09888413
4	0xbc88b3a8	-0.01668723
5	0x3c9de48d	0.01927402
6	0xbd245eb4	-0.04012938
7	0x3d4444c4	0.047917143
8	0x3dc2c23c	0.095097035
9	0xbd8c848d	-0.068612196
10	0x3dc1257d	0.094309784
11	0x3ce9ad65	0.028525064
12	0x3da6598a	0.08122547
13	0x3ca2cc9e	0.01987296
14	0x3d2f8528	0.042851597
15	0xbbc6b906	-0.006064537
16	0x3da7fd75	0.0820264
17	0x3bc2c64b	0.0059440485
18	0xbd5e77c5	-0.05431344
19	0x3c821c3e	0.015882608
20	0xbd55b6b6	-0.0521762
21	0xbad027ca	-0.0015880999
22	0xbd05e63c	-0.03269027
23	0x3d6b98a5	0.05751862
24	0xbda7531a	-0.08170147
25	0xbd1fd17d	-0.039018143
26	0xbc9bd84e	-0.01902404
27	0xbd756810	-0.059913695
28	0x3a1190c4	0.0005552883
29	0xbdd84a69	-0.105610676
30	0x3dc8867c	0.09791276
31	0xbd9beede	-0.0761392
32	0x3d95d96e	0.07316862
33	0x3cc725ad	0.024309957
34	0xbcea70c2	-0.02861822
35	0x3d8fce58	0.07021779
36	0x3bcd1c5d	0.0062594847
37	0x3daa97a5	0.08329705
38	0x3b111918	0.0022140201
39	0xbd241a53	-0.040064167
40	0x3cae8c86	0.021307241
41	0xbd06c03d	-0.032898176
42	0x3d178548	0.03699234
43	0x3dc2e6eb	0.095167
44	0x3d83f4c6	0.06443171
45	0xbd5439f7	-0.051813092
46	0x3d625b62	0.05526293
47	0x3cd18913	0.025578057
48	0x3d3d5f77	0.04623362
49	0xbd8d4c82	-0.06899358
50	0xbdbd9148	-0.09256226
51	0xbcfefe3d	-0.03112709
52	0xbdaa886b	-0.08326801
53	0x3d9bc6fb	0.07606312
54	0x3d0f6850	0.03501159
55	0x3d48d01d	0.049026597
56	0x3d1e6b16	0.038676344
57	0xbc3f7a92	-0.011686938
58	0x3db14fad	0.08657775
59	0xbd87e148	-0.06634766
60	0x3a50ca25	0.0007964692
61	0xbd93d63c	-0.07218596
62	0x3cc067f7	0.023487074
63	0xbd2d6b31	-0.042338554
64	0x3d20a39c	0.03921853
65	0xbce0642b	-0.027391514
66	0x3dab3446	0.0835958
67	0xbd891b29	-0.066946335
68	0xbd8413c3	-0.06449082
69	0xbd8b673e	-0.06806801
70	0x3da78708	0.08180052
71	0x3cce124e	0.025155213
72	0x3db994a6	0.090615556
73	0xbd9fbeda	-0.07800074
74	0xbdbc5552	-0.09195961
75	0xbd911821	-0.0708468
76	0xbd996af6	-0.07491104
77	0x3d07cbf7	0.0331535
78	0x3d32a5b4	0.043615058
79	0x3d9accc8	0.0755859
80	0xbd3213d0	-0.043475926
81	0xbd91ee79	-0.07125563
82	0x3d6e82bc	0.058230147
83	0xbd424c26	-0.047435902
84	0x3d5cf318	0.05394277
85	0xbc70b33d	-0.014691171
86	0x3d3b1be2	0.045680888
87	0xbd917ce5	-0.071039
88	0xbd6de112	-0.058075972
89	0x3c9adea4	0.018904991
90	0x3c8b7907	0.017025484
91	0xbc66fa3d	-0.014097747
92	0x3d73aefb	0.059493046
93	0x3d927cd9	0.07152719
94	0xbda61545	-0.081095256
95	0xbd4cdb5e	-0.050013892
96	0x3dc10263	0.09424283
97	0xbcf80b9f	-0.030278979
98	0xbd0f61c1	-0.035005335
99	0xbdc67f0c	-0.09692201
100	0xbd481272	-0.048845716
101	0x3c86c64d	0.016451979
102	0xbb919e15	-0.0044438937
103	0xbda63d95	-0.081172146
104	0xbbb786fe	-0.005600809
105	0xbd780db1	-0.060559932
106	0xbdbee89e	-0.09321712
107	0xbd4dc689	-0.050238166
108	0xbdc51696	-0.096234486
109	0xbd68fe00	-0.05688286
110	0x3dbb7bbe	0.09154461
111	0x3c22e05e	0.009941189
112	0x3cb4a64f	0.022051958
113	0xbdcadda9	-0.099055596
114	0xbd69c93b	-0.057076674
115	0xbd2d8c68	-0.04237023
116	0x3c352dfd	0.011058328
117	0xbda23d4a	-0.07921846
118	0xbd0e03ab	-0.034671467
119	0xbd52937c	-0.051410183
120	0x3be6af67	0.0070399526
121	0xbd29ec06	-0.041484855
122	0xbc6affd3	-0.01434322
123	0xbd715937	-0.058922973
124	0xbd736a88	-0.059427768
125	0xbd887c77	-0.06664365
126	0xbd2a2cfa	-0.0415468
127	0xbd938016	-0.07202165
128	0x3d97d9aa	0.07414563
129	0xbc31fc04	-0.010863308
130	0x3da15f03	0.0787945
131	0x3cb7d4b6	0.022440296
132	0xbd9a374c	-0.07530078
133	0x3d7731d8	0.06035027
134	0xbd088f29	-0.033339653
135	0xbd11d2c3	-0.03560139
136	0xbd974916	-0.07386987
137	0xbdd83153	-0.10556283
138	0x3d1a2cbd	0.037640322
139	0xbc5e6d0f	-0.013575806
140	0x3d3e19e3	0.046411406
141	0xbd94ae90	-0.07259858
142	0x3da91dfe	0.08257674
143	0xbd882d16	-0.066492245
144	0xbcd0ba65	-0.025479505
145	0x3cef145b	0.029184511
146	0x3d6a6edc	0.05723463
147	0x3d94167f	0.07230853
148	0x3dcc0b9f	0.09963154
149	0xbd8f2e94	-0.06991306
150	0x3c8ae422	0.016954485
151	0xbd4c7654	-0.049917534
152	0xbb27bd67	-0.002559507
153	0xbd8d10a7	-0.06887942
154	0x3db1cc60	0.086815596
155	0xbda7af6d	-0.08187757
156	0x3d3a87b5	0.045539577
157	0x3d29a005	0.041412372
158	0x3cc1c3be	0.023652907
159	0xbd76b8c4	-0.0602348
160	0x3dc8dd0e	0.09807788
161	0x3cc10584	0.0235622
162	0x3c66b95c	0.014082279
163	0xbda35c3f	-0.07976579
164	0x3d06e745	0.0329354
165	0xbbdcdb14	-0.0067399833
166	0xbd5bb4e5	-0.05363931
167	0x3dbf5ba1	0.09343649
168	0x3cf59ab0	0.029980987
169	0xbd3ed5a6	-0.04659047
170	0xbd2c4c7b	-0.042065125
171	0x3b1bb626	0.0023759692
172	0x3d81b45f	0.06333231
173	0xbd0cac86	-0.03434422
174	0xbd86743d	-0.065651394
175	0xbd2d7137	-0.0423443
176	0xbd87727f	-0.06613635
177	0x3d37aec7	0.044844415
178	0x3d8da3a2	0.06915976
179	0xbdaddb6f	-0.08489119
180	0x3c66d620	0.014089137
181	0x3d75798e	0.059930377
182	0x3c2c023e	0.010498581
183	0xbcdea51d	-0.027178342
184	0x3d77a377	0.060458627
185	0x3d31c25b	0.043398242
186	0x3cec2f84	0.028831251
187	0xbcd49a5c	-0.02595251
188	0xbc95cca0	-0.01828605
189	0x3c4e03f0	0.012574181
190	0xbc1260e5	-0.008934234
191	0xbd008980	-0.03138113
192	0x3d8cbfb3	0.06872501
193	0x3da1fc24	0.0790942
194	0xbbd2c06c	-0.00643163
195	0xbd00a169	-0.031403933
196	0x3be0645b	0.006847901
197	0xba936504	-0.0011245315
198	0x3c800d63	0.015631383
199	0x3c98dec9	0.01866092
200	0xbdbd345f	-0.092385046
201	0xbd259129	-0.04042164
202	0x3db544ab	0.08850988
203	0x3d0d7ed1	0.03454477
204	0xbc14df29	-0.009086409
205	0xbd89d57e	-0.067301735
206	0xbd8d4179	-0.068972535
207	0xbda73453	-0.08164277
208	0xbd14275a	-0.03617034
209	0x3cc67df0	0.024229974
210	0x3d702e7e	0.05863809
211	0x3d174189	0.036927734
212	0xbda49a80	-0.08037281
213	0xbd7648bd	-0.060127962
214	0xbcb3f952	-0.021969471
215	0x3db53bd4	0.08849302
216	0x3c4f662a	0.012658635
217	0xbc8a6580	-0.016894102
218	0x3d3ab5b4	0.04558344
219	0xbce2480a	-0.027622242
220	0xbd6f178a	-0.058372058
221	0x3d80f01f	0.062957995
222	0xbd55ab95	-0.052165587
223	0xbc371331	-0.011174009
224	0xbdc68e0b	-0.09695061
225	0x3d77933f	0.06044316
226	0x3d85f25a	0.065403655
227	0x3d094ccf	0.033520516
228	0xbd7b1e58	-0.061308235
229	0xbdc1d248	-0.09463936
230	0xbdac8846	-0.084244296
231	0x3d85c8b8	0.06532425
232	0x3d3d6a96	0.046244226
233	0x3d9faf6b	0.0779713
234	0x3d46a5a0	0.048497796
235	0x3c81d28d	0.015847469
236	0x3bfdb228	0.007742185
237	0xbd93a5ef	-0.07209384
238	0xbda1050f	-0.07862293
239	0xbdba81e4	-0.09106806
240	0x3d2a9d73	0.04165406
241	0xbd585080	-0.052811146
242	0xbca88e5c	-0.020575695
243	0xbd759aa8	-0.059961945
244	0xbcb83047	-0.022483958
245	0xbd819d5c	-0.06328842
246	0xbd8d8dd5	-0.06911818
247	0x3cd9389d	0.026516253
248	0xbcf18adc	-0.029485159
249	0x3d850afa	0.06496234
250	0xbd0bffb5	-0.034179408
251	0xbd9f0a04	-0.07765582
252	0xbc601dc3	-0.013678971
253	0xbd29d3b3	-0.041461658
254	0xbd0ad1ac	-0.033891365
255	0xbdd1a104	-0.102357894

bias f4 [5]
0	0xbc93259f	-0.017962275
1	0xbd68f966	-0.05687847
2	0x3c6ed44b	0.014576982
3	0x3da37dd2	0.07982983
4	0x3dac73a0	0.08420491
