experiments/CnnTransformer/simclr/simclr_cnn_transformer_trainings2/logistic_on_simclr_IT_250pat/lightning_logs/version_0/checkpoints/epoch=29-step=83910.ckpt (torch, 7911 bytes, 6 tensors)

classifier.weight f4 [5, 184]
000000 2f 24 f1 bc 28 0a 1f bc 9d d3 a8 bc 9f e5 8e 39
       -0.029436199 -0.009707011 -0.020608718 0.00027255432
000010 b1 a1 f7 bb a6 2f 20 bb 4c 3f 1b 3d d3 d8 8c 3c
       -0.007557117 -0.0024442463 0.03790216 0.017193234
000020 40 d0 36 bd e2 67 1d 3c c0 b2 04 3a 73 bc a0 3b
       -0.044632196 0.009607287 0.0005062036 0.0049052774
000030 7a 10 01 3d 1c 3b c6 3b 51 ef 65 bc 77 95 b3 bc
       0.031509854 0.006049527 -0.014034108 -0.021921856
000040 e5 de c8 bc b7 7a e1 bc 4a 63 e9 bc f8 41 76 3b
       -0.024520347 -0.027524335 -0.028489728 0.0037575942
000050 4b ba 09 bc 63 4c 20 bd cf 82 49 bc 51 23 ca bb
       -0.008406232 -0.039135348 -0.012299254 -0.006168761
000060 36 b9 14 3a c1 dd 97 3c 73 e4 92 bc c3 6b 3d bb
       0.00056733505 0.018538358 -0.017931199 -0.0028903342
000070 70 58 40 bc 83 0b 4d 3c 41 2c f0 3c 2e 49 24 bc
       -0.011739835 0.012514952 0.029317977 -0.010027213
000080 f1 36 70 3b d3 7e 4a bc 03 53 0e bd 7f 4f 64 3c
       0.0036653841 -0.012359339 -0.034747135 0.013934969
000090 47 40 af 3c 74 fd ba bb 9b 26 01 3d 07 6d 19 3d
       0.021392955 -0.0057064835 0.031530958 0.037457492
0000a0 0d bd 84 bc 19 68 94 bc 88 86 48 bc 32 4a 9e bc
       -0.016203428 -0.018116044 -0.012239106 -0.019322488
0000b0 1d c5 e2 3c 11 99 01 3d 42 ab 7c ba 5f c4 06 3d
       0.027681882 0.031640116 -0.00096385565 0.032902118
0000c0 f5 50 12 bd 91 92 0b bd 20 a6 da bc 5e 0b 12 bd
       -0.035721738 -0.034075323 -0.026690543 -0.03565537
0000d0 64 e2 d8 bc e8 67 27 bc 7b 71 8d bb 72 3c ae 3c
       -0.026475139 -0.010217644 -0.0043165064 0.021269057
0000e0 d2 c0 a6 3c 43 da 2e 3c 15 82 e5 bb 70 fb f2 3c
       0.020355616 0.010672155 -0.0070040324 0.02966091
0000f0 8c ce 08 bc d6 31 6e 3c de 79 6f bb 87 7a e6 bc
       -0.008350026 0.014538249 -0.0036541144 -0.028134597
000100 0f 1e 1b 3c 4a 32 e0 3c 48 30 9a bc 9a 6b 85 3d
       0.009467616 0.02736773 -0.01882185 0.06514664
000110 1c eb c4 bb 67 aa 55 bd 34 30 05 3d d5 7a 4f 3c
       -0.0060094725 -0.05216446 0.032516673 0.012663563
000120 63 e4 2c 37 e6 45 82 3c 3a 7f 2d 3d 58 d1 27 bb
       1.0305174e-05 0.01590247 0.04235766 -0.0025606956
000130 dc 9e 8c 3c c3 07 5c 3c 34 f6 a7 bb 12 04 fa bc
       0.017165594 0.013429585 -0.0051257852 -0.030519519
000140 e2 97 3d bd 1b 3a d6 3c 83 19 07 bc 55 08 b7 bc
       -0.046287425 0.026150754 -0.008245829 -0.02234284
000150 c4 7f fb 3c 52 08 0a bd b7 d2 04 bc ca da 24 bc
       0.030700572 -0.03369934 -0.008106879 -0.010061929
000160 9b ae 51 3c d5 d1 b6 bb 75 a0 2d bc 3f 9d d1 3c
       0.012797977 -0.005579213 -0.010597338 0.025587676
000170 d6 0f 71 bc 83 5f 5d 3b 49 ab f0 3b 03 41 97 3c
       -0.014713248 0.0033778853 0.0073446375 0.018463617
000180 5c 26 45 bc c5 fc 17 bc 60 75 72 bb 3e 52 ac bc
       -0.012033071 -0.009276574 -0.003699623 -0.02103531
000190 06 0a 8a b9 66 66 dd 3c 6a 38 36 3d ec 10 b0 3c
       -0.0002632888 0.027026366 0.044487394 0.021492444
0001a0 c8 21 c4 3c 5f 0f 00 bb c8 7c ba bc 66 a4 26 3d
       0.02394189 -0.0019540412 -0.022764578 0.040684126
0001b0 e0 8a 97 bb 20 f3 6e 3c 9f 0e 48 bc e8 5b e9 3b
       -0.0046247095 0.014584333 -0.012210517 0.007121552
0001c0 97 7a a6 3c 2c 23 94 bb 80 98 0b 3c ea 1f c0 bb
       0.020322127 -0.0045207944 0.008520246 -0.0058631795
0001d0 36 f3 1f 3b e5 11 d4 3c 7f bc e5 bc 94 29 80 bc
       0.002440644 0.025887439 -0.028043984 -0.015644826
0001e0 bd 8b b5 bc 24 3c 9d 3c 21 11 9a bc 93 42 87 bb
       -0.022161359 0.019193716 -0.018806996 -0.0041278093
0001f0 86 91 9e bb 21 f6 38 3d 25 9f 23 bc ac 6f e0 3c
       -0.004839125 0.0451566 -0.0099866735 0.027397
000200 b2 cb 96 bc 56 f1 82 3c 2b c0 0c bc 27 3e 8f bc
       -0.018407676 0.015984219 -0.008590738 -0.017485691
000210 3d 9b 45 3c 83 23 4c bc e4 5a ba bc 23 bf 0f bd
       0.0120609375 -0.0124596385 -0.022748418 -0.03509439
000220 9c 21 55 3c e1 1e 50 3d 66 0a 9c bb c5 49 77 bc
       0.013008501 0.0508107 -0.004761982 -0.015093272
000230 de 19 08 3c bd 85 fb bb 30 ae 0b 3d 1b f6 21 3d
       0.0083069485 -0.007675855 0.034101665 0.039541345
000240 3b db 10 3d 28 9f af 3c 63 4e 31 3d e8 26 ab b9
       0.035365324 0.021438196 0.043287646 -0.0003264465
000250 d9 e1 26 bd 07 e9 b9 bb b4 2f f0 bb 8b a2 8c 3c
       -0.04074273 -0.005673531 -0.0073299054 0.01716735
000260 be 7d 92 bc d4 37 6f bb ab c4 f6 bb e4 ab c0 3a
       -0.017882224 -0.0036501782 -0.007530769 0.0014699665
000270 96 6e cc bb db e3 81 bc b9 83 05 bd 53 15 70 bc
       -0.006238769 -0.01585572 -0.032596324 -0.014653522
000280 8c c0 1d bd a1 25 b8 3c ec ec 31 3c 73 0e 21 bc
       -0.038513705 0.02247888 0.010859709 -0.009830105
000290 c5 af e8 3c 7c 74 ce bc f7 17 84 bb 1a 5c bb 3a
       0.028404126 -0.025202028 -0.004031177 0.0014294416
0002a0 45 65 f8 3b 02 2d 84 ba 66 7d a4 3c 8a b1 92 bd
       0.0075804316 -0.0010084214 0.020079326 -0.07162769
0002b0 2d 4d 70 bc 86 f7 63 3c 5a 85 72 3c 5d c7 ae 3b
       -0.014666838 0.013913995 0.014802301 0.0053338245
0002c0 c9 ae fc bb fc a9 8e bc d1 04 19 3d 80 a2 b3 bb
       -0.0077112657 -0.01741504 0.03735811 -0.005482018
0002d0 51 14 0d bc 0a de dc bc ac 80 0c 3b f3 89 79 3c
       -0.008610801 -0.026961345 0.0021439 0.015230644
0002e0 9d 72 0a bd 59 9d 76 bb 41 9b dd bc e9 07 a5 3b
       -0.03380071 -0.0037630408 -0.02705157 0.0050363434
0002f0 8c fe b0 bc 12 58 5f bc fa 25 9e 3c 9d cd 0a 3d
       -0.021605752 -0.013631837 0.019305218 0.033887494
000300 20 8c 1a bd dd 69 29 3b e0 27 27 ba 82 4a 2c 3b
       -0.03773129 0.0025850453 -0.0006376486 0.0026289527
000310 ff ad d4 3c 87 8c 2f 3c 62 e3 82 bc 3e 64 0f bd
       0.025961874 0.010714657 -0.015977565 -0.035007708
000320 f8 6d 1c bc c9 72 89 bc ae dd 03 bd 82 78 9a bc
       -0.009547703 -0.016778367 -0.032193832 -0.01885629
000330 c6 65 6e bc 30 e6 15 bd de bb 50 bc 9b 28 6b ba
       -0.014550632 -0.036596477 -0.0127401035 -0.0008970589
000340 be 59 1f 3c c7 e3 fe 3b 9c eb ae bc 18 67 04 bb
       0.009725986 0.007778618 -0.021352582 -0.002020305
000350 c8 af da ba 19 65 1d 3c 1a 3e e1 3c 77 7b 90 bc
       -0.0016684467 0.009606623 0.027495433 -0.017636998
000360 b9 7b 23 3c f6 0c 50 bc 50 1c e9 bc be 4f 1e bc
       0.009978228 -0.012698403 -0.028455883 -0.009662567
000370 7c 54 e8 3c f8 2e 9c bc 71 19 50 3d 3d 13 fb 3c
       0.028360598 -0.019065365 0.050805513 0.030648822
000380 f3 20 fc bc c7 d8 64 bc d2 a5 01 bd 7c 05 56 bc
       -0.03077743 -0.013967699 -0.03165228 -0.013062831
000390 9c 46 ba 3c 25 4a 5f 3d bb 5a 13 bc 64 5e f9 3c
       0.022738747 0.05451407 -0.0089938 0.030440517
0003a0 49 9a 1f bd 16 31 29 bd f3 48 85 bc 44 cf 14 bd
       -0.038965497 -0.041306578 -0.016270136 -0.036330476
0003b0 50 b8 bb bc 79 54 b5 bc b1 aa 24 bc 27 d1 ea 3c
       -0.022915035 -0.022135006 -0.010050462 0.028664185
0003c0 98 a1 9b 3b 78 46 05 3c 97 4d 89 ba 4f ca e8 3c
       0.004749488 0.008134477 -0.0010475394 0.02841678
0003d0 88 2a 14 bc 68 81 a6 bb aa 90 8a bc a1 82 88 bc
       -0.009043343 -0.0050813444 -0.016914684 -0.016663851
0003e0 6e ba 22 3c d1 2b 40 3b 8c 1b 9c bc 81 96 57 3d
       0.009932144 0.0029322992 -0.019056104 0.052633766
0003f0 47 13 f3 bc 72 e4 4e bd 12 2c b4 3b e1 ce 81 3c
       -0.029672278 -0.05051083 0.0054984177 0.015845718

classifier.bias f4 [5]
000000 68 48 8e 3d a2 84 81 bd 42 b1 ca 3d 7e 07 19 3c
       0.06947404 -0.06324126 0.098970905 0.009340165
000010 13 d6 e8 bc
       -0.028422391

net.1.weight f4 [5, 184]
000000 2f 24 f1 bc 28 0a 1f bc 9d d3 a8 bc 9f e5 8e 39
       -0.029436199 -0.009707011 -0.020608718 0.00027255432
000010 b1 a1 f7 bb a6 2f 20 bb 4c 3f 1b 3d d3 d8 8c 3c
       -0.007557117 -0.0024442463 0.03790216 0.017193234
000020 40 d0 36 bd e2 67 1d 3c c0 b2 04 3a 73 bc a0 3b
       -0.044632196 0.009607287 0.0005062036 0.0049052774
000030 7a 10 01 3d 1c 3b c6 3b 51 ef 65 bc 77 95 b3 bc
       0.031509854 0.006049527 -0.014034108 -0.021921856
000040 e5 de c8 bc b7 7a e1 bc 4a 63 e9 bc f8 41 76 3b
       -0.024520347 -0.027524335 -0.028489728 0.0037575942
000050 4b ba 09 bc 63 4c 20 bd cf 82 49 bc 51 23 ca bb
       -0.008406232 -0.039135348 -0.012299254 -0.006168761
000060 36 b9 14 3a c1 dd 97 3c 73 e4 92 bc c3 6b 3d bb
       0.00056733505 0.018538358 -0.017931199 -0.0028903342
000070 70 58 40 bc 83 0b 4d 3c 41 2c f0 3c 2e 49 24 bc
       -0.011739835 0.012514952 0.029317977 -0.010027213
000080 f1 36 70 3b d3 7e 4a bc 03 53 0e bd 7f 4f 64 3c
       0.0036653841 -0.012359339 -0.034747135 0.013934969
000090 47 40 af 3c 74 fd ba bb 9b 26 01 3d 07 6d 19 3d
       0.021392955 -0.0057064835 0.031530958 0.037457492
0000a0 0d bd 84 bc 19 68 94 bc 88 86 48 bc 32 4a 9e bc
       -0.016203428 -0.018116044 -0.012239106 -0.019322488
0000b0 1d c5 e2 3c 11 99 01 3d 42 ab 7c ba 5f c4 06 3d
       0.027681882 0.031640116 -0.00096385565 0.032902118
0000c0 f5 50 12 bd 91 92 0b bd 20 a6 da bc 5e 0b 12 bd
       -0.035721738 -0.034075323 -0.026690543 -0.03565537
0000d0 64 e2 d8 bc e8 67 27 bc 7b 71 8d bb 72 3c ae 3c
       -0.026475139 -0.010217644 -0.0043165064 0.021269057
0000e0 d2 c0 a6 3c 43 da 2e 3c 15 82 e5 bb 70 fb f2 3c
       0.020355616 0.010672155 -0.0070040324 0.02966091
0000f0 8c ce 08 bc d6 31 6e 3c de 79 6f bb 87 7a e6 bc
       -0.008350026 0.014538249 -0.0036541144 -0.028134597
000100 0f 1e 1b 3c 4a 32 e0 3c 48 30 9a bc 9a 6b 85 3d
       0.009467616 0.02736773 -0.01882185 0.06514664
000110 1c eb c4 bb 67 aa 55 bd 34 30 05 3d d5 7a 4f 3c
       -0.0060094725 -0.05216446 0.032516673 0.012663563
000120 63 e4 2c 37 e6 45 82 3c 3a 7f 2d 3d 58 d1 27 bb
       1.0305174e-05 0.01590247 0.04235766 -0.0025606956
000130 dc 9e 8c 3c c3 07 5c 3c 34 f6 a7 bb 12 04 fa bc
       0.017165594 0.013429585 -0.0051257852 -0.030519519
000140 e2 97 3d bd 1b 3a d6 3c 83 19 07 bc 55 08 b7 bc
       -0.046287425 0.026150754 -0.008245829 -0.02234284
000150 c4 7f fb 3c 52 08 0a bd b7 d2 04 bc ca da 24 bc
       0.030700572 -0.03369934 -0.008106879 -0.010061929
000160 9b ae 51 3c d5 d1 b6 bb 75 a0 2d bc 3f 9d d1 3c
       0.012797977 -0.005579213 -0.010597338 0.025587676
000170 d6 0f 71 bc 83 5f 5d 3b 49 ab f0 3b 03 41 97 3c
       -0.014713248 0.0033778853 0.0073446375 0.018463617
000180 5c 26 45 bc c5 fc 17 bc 60 75 72 bb 3e 52 ac bc
       -0.012033071 -0.009276574 -0.003699623 -0.02103531
000190 06 0a 8a b9 66 66 dd 3c 6a 38 36 3d ec 10 b0 3c
       -0.0002632888 0.027026366 0.044487394 0.021492444
0001a0 c8 21 c4 3c 5f 0f 00 bb c8 7c ba bc 66 a4 26 3d
       0.02394189 -0.0019540412 -0.022764578 0.040684126
0001b0 e0 8a 97 bb 20 f3 6e 3c 9f 0e 48 bc e8 5b e9 3b
       -0.0046247095 0.014584333 -0.012210517 0.007121552
0001c0 97 7a a6 3c 2c 23 94 bb 80 98 0b 3c ea 1f c0 bb
       0.020322127 -0.0045207944 0.008520246 -0.0058631795
0001d0 36 f3 1f 3b e5 11 d4 3c 7f bc e5 bc 94 29 80 bc
       0.002440644 0.025887439 -0.028043984 -0.015644826
0001e0 bd 8b b5 bc 24 3c 9d 3c 21 11 9a bc 93 42 87 bb
       -0.022161359 0.019193716 -0.018806996 -0.0041278093
0001f0 86 91 9e bb 21 f6 38 3d 25 9f 23 bc ac 6f e0 3c
       -0.004839125 0.0451566 -0.0099866735 0.027397
000200 b2 cb 96 bc 56 f1 82 3c 2b c0 0c bc 27 3e 8f bc
       -0.018407676 0.015984219 -0.008590738 -0.017485691
000210 3d 9b 45 3c 83 23 4c bc e4 5a ba bc 23 bf 0f bd
       0.0120609375 -0.0124596385 -0.022748418 -0.03509439
000220 9c 21 55 3c e1 1e 50 3d 66 0a 9c bb c5 49 77 bc
       0.013008501 0.0508107 -0.004761982 -0.015093272
000230 de 19 08 3c bd 85 fb bb 30 ae 0b 3d 1b f6 21 3d
       0.0083069485 -0.007675855 0.034101665 0.039541345
000240 3b db 10 3d 28 9f af 3c 63 4e 31 3d e8 26 ab b9
       0.035365324 0.021438196 0.043287646 -0.0003264465
000250 d9 e1 26 bd 07 e9 b9 bb b4 2f f0 bb 8b a2 8c 3c
       -0.04074273 -0.005673531 -0.0073299054 0.01716735
000260 be 7d 92 bc d4 37 6f bb ab c4 f6 bb e4 ab c0 3a
       -0.017882224 -0.0036501782 -0.007530769 0.0014699665
000270 96 6e cc bb db e3 81 bc b9 83 05 bd 53 15 70 bc
       -0.006238769 -0.01585572 -0.032596324 -0.014653522
000280 8c c0 1d bd a1 25 b8 3c ec ec 31 3c 73 0e 21 bc
       -0.038513705 0.02247888 0.010859709 -0.009830105
000290 c5 af e8 3c 7c 74 ce bc f7 17 84 bb 1a 5c bb 3a
       0.028404126 -0.025202028 -0.004031177 0.0014294416
0002a0 45 65 f8 3b 02 2d 84 ba 66 7d a4 3c 8a b1 92 bd
       0.0075804316 -0.0010084214 0.020079326 -0.07162769
0002b0 2d 4d 70 bc 86 f7 63 3c 5a 85 72 3c 5d c7 ae 3b
       -0.014666838 0.013913995 0.014802301 0.0053338245
0002c0 c9 ae fc bb fc a9 8e bc d1 04 19 3d 80 a2 b3 bb
       -0.0077112657 -0.01741504 0.03735811 -0.005482018
0002d0 51 14 0d bc 0a de dc bc ac 80 0c 3b f3 89 79 3c
       -0.008610801 -0.026961345 0.0021439 0.015230644
0002e0 9d 72 0a bd 59 9d 76 bb 41 9b dd bc e9 07 a5 3b
       -0.03380071 -0.0037630408 -0.02705157 0.0050363434
0002f0 8c fe b0 bc 12 58 5f bc fa 25 9e 3c 9d cd 0a 3d
       -0.021605752 -0.013631837 0.019305218 0.033887494
000300 20 8c 1a bd dd 69 29 3b e0 27 27 ba 82 4a 2c 3b
       -0.03773129 0.0025850453 -0.0006376486 0.0026289527
000310 ff ad d4 3c 87 8c 2f 3c 62 e3 82 bc 3e 64 0f bd
       0.025961874 0.010714657 -0.015977565 -0.035007708
000320 f8 6d 1c bc c9 72 89 bc ae dd 03 bd 82 78 9a bc
       -0.009547703 -0.016778367 -0.032193832 -0.01885629
000330 c6 65 6e bc 30 e6 15 bd de bb 50 bc 9b 28 6b ba
       -0.014550632 -0.036596477 -0.0127401035 -0.0008970589
000340 be 59 1f 3c c7 e3 fe 3b 9c eb ae bc 18 67 04 bb
       0.009725986 0.007778618 -0.021352582 -0.002020305
000350 c8 af da ba 19 65 1d 3c 1a 3e e1 3c 77 7b 90 bc
       -0.0016684467 0.009606623 0.027495433 -0.017636998
000360 b9 7b 23 3c f6 0c 50 bc 50 1c e9 bc be 4f 1e bc
       0.009978228 -0.012698403 -0.028455883 -0.009662567
000370 7c 54 e8 3c f8 2e 9c bc 71 19 50 3d 3d 13 fb 3c
       0.028360598 -0.019065365 0.050805513 0.030648822
000380 f3 20 fc bc c7 d8 64 bc d2 a5 01 bd 7c 05 56 bc
       -0.03077743 -0.013967699 -0.03165228 -0.013062831
000390 9c 46 ba 3c 25 4a 5f 3d bb 5a 13 bc 64 5e f9 3c
       0.022738747 0.05451407 -0.0089938 0.030440517
0003a0 49 9a 1f bd 16 31 29 bd f3 48 85 bc 44 cf 14 bd
       -0.038965497 -0.041306578 -0.016270136 -0.036330476
0003b0 50 b8 bb bc 79 54 b5 bc b1 aa 24 bc 27 d1 ea 3c
       -0.022915035 -0.022135006 -0.010050462 0.028664185
0003c0 98 a1 9b 3b 78 46 05 3c 97 4d 89 ba 4f ca e8 3c
       0.004749488 0.008134477 -0.0010475394 0.02841678
0003d0 88 2a 14 bc 68 81 a6 bb aa 90 8a bc a1 82 88 bc
       -0.009043343 -0.0050813444 -0.016914684 -0.016663851
0003e0 6e ba 22 3c d1 2b 40 3b 8c 1b 9c bc 81 96 57 3d
       0.009932144 0.0029322992 -0.019056104 0.052633766
0003f0 47 13 f3 bc 72 e4 4e bd 12 2c b4 3b e1 ce 81 3c
       -0.029672278 -0.05051083 0.0054984177 0.015845718

net.1.bias f4 [5]
000000 68 48 8e 3d a2 84 81 bd 42 b1 ca 3d 7e 07 19 3c
       0.06947404 -0.06324126 0.098970905 0.009340165
000010 13 d6 e8 bc
       -0.028422391

weight f4 [5, 184]
000000 2f 24 f1 bc 28 0a 1f bc 9d d3 a8 bc 9f e5 8e 39
       -0.029436199 -0.009707011 -0.020608718 0.00027255432
000010 b1 a1 f7 bb a6 2f 20 bb 4c 3f 1b 3d d3 d8 8c 3c
       -0.007557117 -0.0024442463 0.03790216 0.017193234
000020 40 d0 36 bd e2 67 1d 3c c0 b2 04 3a 73 bc a0 3b
       -0.044632196 0.009607287 0.0005062036 0.0049052774
000030 7a 10 01 3d 1c 3b c6 3b 51 ef 65 bc 77 95 b3 bc
       0.031509854 0.006049527 -0.014034108 -0.021921856
000040 e5 de c8 bc b7 7a e1 bc 4a 63 e9 bc f8 41 76 3b
       -0.024520347 -0.027524335 -0.028489728 0.0037575942
000050 4b ba 09 bc 63 4c 20 bd cf 82 49 bc 51 23 ca bb
       -0.008406232 -0.039135348 -0.012299254 -0.006168761
000060 36 b9 14 3a c1 dd 97 3c 73 e4 92 bc c3 6b 3d bb
       0.00056733505 0.018538358 -0.017931199 -0.0028903342
000070 70 58 40 bc 83 0b 4d 3c 41 2c f0 3c 2e 49 24 bc
       -0.011739835 0.012514952 0.029317977 -0.010027213
000080 f1 36 70 3b d3 7e 4a bc 03 53 0e bd 7f 4f 64 3c
       0.0036653841 -0.012359339 -0.034747135 0.013934969
000090 47 40 af 3c 74 fd ba bb 9b 26 01 3d 07 6d 19 3d
       0.021392955 -0.0057064835 0.031530958 0.037457492
0000a0 0d bd 84 bc 19 68 94 bc 88 86 48 bc 32 4a 9e bc
       -0.016203428 -0.018116044 -0.012239106 -0.019322488
0000b0 1d c5 e2 3c 11 99 01 3d 42 ab 7c ba 5f c4 06 3d
       0.027681882 0.031640116 -0.00096385565 0.032902118
0000c0 f5 50 12 bd 91 92 0b bd 20 a6 da bc 5e 0b 12 bd
       -0.035721738 -0.034075323 -0.026690543 -0.03565537
0000d0 64 e2 d8 bc e8 67 27 bc 7b 71 8d bb 72 3c ae 3c
       -0.026475139 -0.010217644 -0.0043165064 0.021269057
0000e0 d2 c0 a6 3c 43 da 2e 3c 15 82 e5 bb 70 fb f2 3c
       0.020355616 0.010672155 -0.0070040324 0.02966091
0000f0 8c ce 08 bc d6 31 6e 3c de 79 6f bb 87 7a e6 bc
       -0.008350026 0.014538249 -0.0036541144 -0.028134597
000100 0f 1e 1b 3c 4a 32 e0 3c 48 30 9a bc 9a 6b 85 3d
       0.009467616 0.02736773 -0.01882185 0.06514664
000110 1c eb c4 bb 67 aa 55 bd 34 30 05 3d d5 7a 4f 3c
       -0.0060094725 -0.05216446 0.032516673 0.012663563
000120 63 e4 2c 37 e6 45 82 3c 3a 7f 2d 3d 58 d1 27 bb
       1.0305174e-05 0.01590247 0.04235766 -0.0025606956
000130 dc 9e 8c 3c c3 07 5c 3c 34 f6 a7 bb 12 04 fa bc
       0.017165594 0.013429585 -0.0051257852 -0.030519519
000140 e2 97 3d bd 1b 3a d6 3c 83 19 07 bc 55 08 b7 bc
       -0.046287425 0.026150754 -0.008245829 -0.02234284
000150 c4 7f fb 3c 52 08 0a bd b7 d2 04 bc ca da 24 bc
       0.030700572 -0.03369934 -0.008106879 -0.010061929
000160 9b ae 51 3c d5 d1 b6 bb 75 a0 2d bc 3f 9d d1 3c
       0.012797977 -0.005579213 -0.010597338 0.025587676
000170 d6 0f 71 bc 83 5f 5d 3b 49 ab f0 3b 03 41 97 3c
       -0.014713248 0.0033778853 0.0073446375 0.018463617
000180 5c 26 45 bc c5 fc 17 bc 60 75 72 bb 3e 52 ac bc
       -0.012033071 -0.009276574 -0.003699623 -0.02103531
000190 06 0a 8a b9 66 66 dd 3c 6a 38 36 3d ec 10 b0 3c
       -0.0002632888 0.027026366 0.044487394 0.021492444
0001a0 c8 21 c4 3c 5f 0f 00 bb c8 7c ba bc 66 a4 26 3d
       0.02394189 -0.0019540412 -0.022764578 0.040684126
0001b0 e0 8a 97 bb 20 f3 6e 3c 9f 0e 48 bc e8 5b e9 3b
       -0.0046247095 0.014584333 -0.012210517 0.007121552
0001c0 97 7a a6 3c 2c 23 94 bb 80 98 0b 3c ea 1f c0 bb
       0.020322127 -0.0045207944 0.008520246 -0.0058631795
0001d0 36 f3 1f 3b e5 11 d4 3c 7f bc e5 bc 94 29 80 bc
       0.002440644 0.025887439 -0.028043984 -0.015644826
0001e0 bd 8b b5 bc 24 3c 9d 3c 21 11 9a bc 93 42 87 bb
       -0.022161359 0.019193716 -0.018806996 -0.0041278093
0001f0 86 91 9e bb 21 f6 38 3d 25 9f 23 bc ac 6f e0 3c
       -0.004839125 0.0451566 -0.0099866735 0.027397
000200 b2 cb 96 bc 56 f1 82 3c 2b c0 0c bc 27 3e 8f bc
       -0.018407676 0.015984219 -0.008590738 -0.017485691
000210 3d 9b 45 3c 83 23 4c bc e4 5a ba bc 23 bf 0f bd
       0.0120609375 -0.0124596385 -0.022748418 -0.03509439
000220 9c 21 55 3c e1 1e 50 3d 66 0a 9c bb c5 49 77 bc
       0.013008501 0.0508107 -0.004761982 -0.015093272
000230 de 19 08 3c bd 85 fb bb 30 ae 0b 3d 1b f6 21 3d
       0.0083069485 -0.007675855 0.034101665 0.039541345
000240 3b db 10 3d 28 9f af 3c 63 4e 31 3d e8 26 ab b9
       0.035365324 0.021438196 0.043287646 -0.0003264465
000250 d9 e1 26 bd 07 e9 b9 bb b4 2f f0 bb 8b a2 8c 3c
       -0.04074273 -0.005673531 -0.0073299054 0.01716735
000260 be 7d 92 bc d4 37 6f bb ab c4 f6 bb e4 ab c0 3a
       -0.017882224 -0.0036501782 -0.007530769 0.0014699665
000270 96 6e cc bb db e3 81 bc b9 83 05 bd 53 15 70 bc
       -0.006238769 -0.01585572 -0.032596324 -0.014653522
000280 8c c0 1d bd a1 25 b8 3c ec ec 31 3c 73 0e 21 bc
       -0.038513705 0.02247888 0.010859709 -0.009830105
000290 c5 af e8 3c 7c 74 ce bc f7 17 84 bb 1a 5c bb 3a
       0.028404126 -0.025202028 -0.004031177 0.0014294416
0002a0 45 65 f8 3b 02 2d 84 ba 66 7d a4 3c 8a b1 92 bd
       0.0075804316 -0.0010084214 0.020079326 -0.07162769
0002b0 2d 4d 70 bc 86 f7 63 3c 5a 85 72 3c 5d c7 ae 3b
       -0.014666838 0.013913995 0.014802301 0.0053338245
0002c0 c9 ae fc bb fc a9 8e bc d1 04 19 3d 80 a2 b3 bb
       -0.0077112657 -0.01741504 0.03735811 -0.005482018
0002d0 51 14 0d bc 0a de dc bc ac 80 0c 3b f3 89 79 3c
       -0.008610801 -0.026961345 0.0021439 0.015230644
0002e0 9d 72 0a bd 59 9d 76 bb 41 9b dd bc e9 07 a5 3b
       -0.03380071 -0.0037630408 -0.02705157 0.0050363434
0002f0 8c fe b0 bc 12 58 5f bc fa 25 9e 3c 9d cd 0a 3d
       -0.021605752 -0.013631837 0.019305218 0.033887494
000300 20 8c 1a bd dd 69 29 3b e0 27 27 ba 82 4a 2c 3b
       -0.03773129 0.0025850453 -0.0006376486 0.0026289527
000310 ff ad d4 3c 87 8c 2f 3c 62 e3 82 bc 3e 64 0f bd
       0.025961874 0.010714657 -0.015977565 -0.035007708
000320 f8 6d 1c bc c9 72 89 bc ae dd 03 bd 82 78 9a bc
       -0.009547703 -0.016778367 -0.032193832 -0.01885629
000330 c6 65 6e bc 30 e6 15 bd de bb 50 bc 9b 28 6b ba
       -0.014550632 -0.036596477 -0.0127401035 -0.0008970589
000340 be 59 1f 3c c7 e3 fe 3b 9c eb ae bc 18 67 04 bb
       0.009725986 0.007778618 -0.021352582 -0.002020305
000350 c8 af da ba 19 65 1d 3c 1a 3e e1 3c 77 7b 90 bc
       -0.0016684467 0.009606623 0.027495433 -0.017636998
000360 b9 7b 23 3c f6 0c 50 bc 50 1c e9 bc be 4f 1e bc
       0.009978228 -0.012698403 -0.028455883 -0.009662567
000370 7c 54 e8 3c f8 2e 9c bc 71 19 50 3d 3d 13 fb 3c
       0.028360598 -0.019065365 0.050805513 0.030648822
000380 f3 20 fc bc c7 d8 64 bc d2 a5 01 bd 7c 05 56 bc
       -0.03077743 -0.013967699 -0.03165228 -0.013062831
000390 9c 46 ba 3c 25 4a 5f 3d bb 5a 13 bc 64 5e f9 3c
       0.022738747 0.05451407 -0.0089938 0.030440517
0003a0 49 9a 1f bd 16 31 29 bd f3 48 85 bc 44 cf 14 bd
       -0.038965497 -0.041306578 -0.016270136 -0.036330476
0003b0 50 b8 bb bc 79 54 b5 bc b1 aa 24 bc 27 d1 ea 3c
       -0.022915035 -0.022135006 -0.010050462 0.028664185
0003c0 98 a1 9b 3b 78 46 05 3c 97 4d 89 ba 4f ca e8 3c
       0.004749488 0.008134477 -0.0010475394 0.02841678
0003d0 88 2a 14 bc 68 81 a6 bb aa 90 8a bc a1 82 88 bc
       -0.009043343 -0.0050813444 -0.016914684 -0.016663851
0003e0 6e ba 22 3c d1 2b 40 3b 8c 1b 9c bc 81 96 57 3d
       0.009932144 0.0029322992 -0.019056104 0.052633766
0003f0 47 13 f3 bc 72 e4 4e bd 12 2c b4 3b e1 ce 81 3c
       -0.029672278 -0.05051083 0.0054984177 0.015845718

bias f4 [5]
000000 68 48 8e 3d a2 84 81 bd 42 b1 ca 3d 7e 07 19 3c
       0.06947404 -0.06324126 0.098970905 0.009340165
000010 13 d6 e8 bc
       -0.028422391
