experiments/CnnTransformer/simclr/simclr_cnn_transformer_trainings2/logistic_on_simclr_IT_250pat/lightning_logs/version_0/checkpoints/last.ckpt (torch, 7911 bytes, 6 tensors)

classifier.weight f4 [5, 184]
0	0xbcf514f5	-0.02991722
1	0xbc222128	-0.0098956
2	0xbca7c2e9	-0.020478683
3	0xb9e2fe67	-0.00043295624
4	0xbc104045	-0.008804386
5	0xbb083a03	-0.002078653
6	0x3d1c20d9	0.038117263
7	0x3c8c51a6	0.017128777
8	0xbd33c585	-0.04388954
9	0x3c1ba284	0.009499196
10	0x3a58d6c3	0.0008271748
11	0x3b8f03cd	0.0043644668
12	0x3cfe63dd	0.031053478
13	0x3bb2a504	0.0054518003
14	0xbc7ee5e1	-0.015557737
15	0xbcaf7c42	-0.021421555
16	0xbcd5baf6	-0.026090126
17	0xbce37f12	-0.027770553
18	0xbceb88af	-0.0287517
19	0x3b56ff75	0.0032806073
20	0xbbfc6d80	-0.007703483
21	0xbd1d14ba	-0.038349845
22	0xbc3c3988	-0.011488326
23	0xbbbf34a8	-0.0058351345
24	0x3a201d75	0.0006107905
25	0x3ca4db91	0.020124229
26	0xbc940d5e	-0.01807278
27	0xbb08e4ed	-0.0020888404
28	0xbc3c1f4b	-0.01148207
29	0x3c5d43ce	0.013504935
30	0x3cf08bb2	0.029363487
31	0xbc26b984	-0.010176066
32	0x3b806add	0.003918989
33	0xbc3e2651	-0.011605815
34	0xbd09acfe	-0.033612244
35	0x3c5a5566	0.013326025
36	0x3caa3539	0.020777332
37	0xbbb1fc8b	-0.005431717
38	0x3d038c97	0.0321165
39	0x3d19f51f	0.03758728
40	0xbc76e9b0	-0.015070364
41	0xbc93300f	-0.017967252
42	0xbc526f80	-0.0128439665
43	0xbc9bc775	-0.019016007
44	0x3cd58359	0.026063608
45	0x3d0002bc	0.031252608
46	0xba4ef13b	-0.00078942225
47	0x3d03bd60	0.032163024
48	0xbd0be572	-0.034154363
49	0xbd0bd212	-0.034135886
50	0xbcdadebc	-0.026717536
51	0xbd13eead	-0.03611629
52	0xbce1c7d2	-0.027561102
53	0xbc1aef18	-0.009456418
54	0xbb950345	-0.004547509
55	0x3cad4bf8	0.021154389
56	0x3ca2f042	0.019889954
57	0x3c26383c	0.010145243
58	0xbbf22a91	-0.007390328
59	0x3cf3c0d3	0.029755032
60	0xbc019ca8	-0.007910885
61	0x3c7fd578	0.01561486
62	0xbb571bee	-0.0032823044
63	0xbce59e33	-0.028029537
64	0x3c12a283	0.008949879
65	0x3ce1c814	0.027561225
66	0xbc89d781	-0.016826393
67	0x3d856d3c	0.065149754
68	0xbbc180f5	-0.0059052655
69	0xbd523241	-0.051317457
70	0x3d0323f5	0.032016713
71	0x3c45cbd8	0.012072526
72	0xb9cd381d	-0.00039142455
73	0x3c81dc27	0.015852047
74	0x3d2db572	0.042409368
75	0xbb318650	-0.0027088113
76	0x3c8ef7fb	0.01745223
77	0x3c52a635	0.01285701
78	0xbbafbd4a	-0.005363141
79	0xbcf94da8	-0.030432537
80	0xbd3f930c	-0.046771094
81	0x3cd0beda	0.02548163
82	0xbc06db57	-0.008231006
83	0xbcbb7c4f	-0.022886423
84	0x3cfa9b04	0.030591495
85	0xbd0a4aa3	-0.033762585
86	0xbc0ed380	-0.008717418
87	0xbc230cd8	-0.009951793
88	0x3c50fb50	0.01275523
89	0xbba005f0	-0.0048835203
90	0xbc339383	-0.0109604625
91	0x3ccb715c	0.024834327
92	0xbc83d95b	-0.016094854
93	0x3b1bbfb9	0.0023765399
94	0x3bbded38	0.005796101
95	0x3c963150	0.01833406
96	0xbc4187f8	-0.011812203
97	0xbc192a63	-0.009348485
98	0xbb7bd6e4	-0.0038427645
99	0xbca9af44	-0.020713456
100	0xb9be8f01	-0.0003634617
101	0x3cda518c	0.026650213
102	0x3d3773af	0.04478806
103	0x3caee0ef	0.021347491
104	0x3cc5ba80	0.024136782
105	0xbae2d48e	-0.0017305778
106	0xbcb1f36f	-0.021722523
107	0x3d25e3c6	0.040500425
108	0xbb9b5c17	-0.0047412026
109	0x3c5e569c	0.013570454
110	0xbc4d9dd6	-0.012549838
111	0x3bd740fa	0.006569025
112	0x3ca2ae51	0.019858511
113	0xbb9120a5	-0.0044289404
114	0x3c0f89ba	0.008760864
115	0xbbaded56	-0.0053078337
116	0x3b18e1ec	0.002332802
117	0x3cd15cd0	0.025556952
118	0xbce224b7	-0.027605398
119	0xbc7bb6cc	-0.015363406
120	0xbcba5bfa	-0.022748936
121	0x3ca226bb	0.019793859
122	0xbca10c16	-0.019659083
123	0xbb94cbeb	-0.0045409105
124	0xbb97e3b3	-0.004635298
125	0x3d351c4c	0.04421644
126	0xbc1e3f04	-0.009658579
127	0x3ce126b9	0.027484285
128	0xbc97002b	-0.018432697
129	0x3c83b617	0.016078038
130	0xbc08af24	-0.008342538
131	0xbc93f765	-0.018062303
132	0x3c4e88ee	0.012605889
133	0xbc58c774	-0.013231147
134	0xbcb0754e	-0.02154031
135	0xbd0c7fe7	-0.034301665
136	0x3c48b547	0.012250251
137	0x3d513b88	0.051082164
138	0xbbb184a7	-0.0054174247
139	0xbc6b60db	-0.014366354
140	0x3bf61156	0.007509391
141	0xbbd1fe0a	-0.0064084576
142	0x3d093550	0.03349811
143	0x3d250c65	0.040295023
144	0x3d12836d	0.03576987
145	0x3caf5360	0.021402061
146	0x3d316af4	0.04331489
147	0xb9114e66	-0.00013857483
148	0xbd23eaac	-0.040018722
149	0xbbbbd7d1	-0.0057325144
150	0xbbe27d2e	-0.0069118952
151	0x3c910510	0.01770261
152	0xbc8f47da	-0.017490316
153	0xbb7fd3d6	-0.0039036176
154	0xbbd8d024	-0.006616609
155	0x3a086150	0.0005202489
156	0xbbf1a82e	-0.007374785
157	0xbc8331a2	-0.016014878
158	0xbd051b35	-0.03249665
159	0xbc6a751f	-0.01431015
160	0xbd1d68b7	-0.038429942
161	0x3cbad7d2	0.02280799
162	0x3c38710f	0.011257424
163	0xbc1df947	-0.009641952
164	0x3ce9b3a6	0.028528046
165	0xbcc5e4ec	-0.02415701
166	0xbb987512	-0.0046526277
167	0x3b0b0792	0.002121423
168	0x3bf87e82	0.0075834403
169	0xb961a42e	-0.00021518834
170	0x3ca0261e	0.019549426
171	0xbd937733	-0.0720047
172	0xbc6b65d7	-0.014367542
173	0x3c530176	0.012878766
174	0x3c7ae06b	0.0153122945
175	0x3b5bab16	0.0033518723
176	0xbc00f796	-0.007871529
177	0xbc8c6384	-0.017137296
178	0x3d19697e	0.03745412
179	0xbba98f19	-0.0051745293
180	0xbc0cf990	-0.008604422
181	0xbcd18118	-0.025574252
182	0x3af2b9db	0.0018518524
183	0x3c78152a	0.015141765
184	0xbd09a1e9	-0.033601675
185	0xbb949d5c	-0.0045353603
186	0xbce012fa	-0.027352799
187	0x3bda9cf5	0.006671543
188	0xbcafd9ed	-0.02146622
189	0xbc5d1981	-0.01349485
190	0x3c97dfbe	0.018539306
191	0x3d02f465	0.031971354
192	0xbd15beb5	-0.036558826
193	0x3b556662	0.0032562246
194	0xbb794cbe	-0.0038040127
195	0x3aec38ff	0.0018022357
196	0x3ccb3df9	0.024809824
197	0x3c372322	0.01117781
198	0xbc78deee	-0.015189869
199	0xbd0a930e	-0.03383165
200	0xbc41f1ea	-0.011837462
201	0xbc825c75	-0.015913228
202	0xbd0609d8	-0.03272423
203	0xbc9e8f63	-0.019355481
204	0xbc8230aa	-0.015892345
205	0xbd178ec3	-0.037001383
206	0xbc576aef	-0.013148054
207	0xb96c380d	-0.00022527594
208	0x3bf2c565	0.007408785
209	0x3c130f21	0.008975775
210	0xbcacb529	-0.021082478
211	0xbb1594e6	-0.0022824346
212	0xbb2592c4	-0.002526448
213	0x3bf47cde	0.0074611744
214	0x3ce9b589	0.028528946
215	0xbc848447	-0.016176356
216	0x3c2008e5	0.009767746
217	0xbc5f6939	-0.013635927
218	0xbcf1d771	-0.029521676
219	0xbbfef2dd	-0.0077804164
220	0x3cda8158	0.026673004
221	0xbc996800	-0.018726349
222	0x3d4fc490	0.050724566
223	0x3cf80ca0	0.030279458
224	0xbcebd3fd	-0.028787607
225	0xbc8b84cd	-0.017031098
226	0xbcfb1b97	-0.030652804
227	0xbc514b74	-0.012774337
228	0x3cc4286e	0.02394506
229	0x3d5e44ec	0.054264948
230	0xbc1cfc78	-0.009581678
231	0x3d02652e	0.031834774
232	0xbd1f7d35	-0.038937766
233	0xbd2a3f8a	-0.0415645
234	0xbc802406	-0.015642177
235	0xbd171314	-0.03688343
236	0xbcc420e0	-0.023941457
237	0xbcacb44c	-0.021082066
238	0xbc217ce3	-0.0098564355
239	0x3ce6690c	0.028126262
240	0x3ba69f6b	0.005084922
241	0x3c154bb6	0.009112289
242	0x39ec263d	0.00045041917
243	0x3cea14f3	0.028574442
244	0xbc0dd162	-0.008655878
245	0xbbedaa25	-0.007252949
246	0xbc8919b5	-0.01673589
247	0xbc7f0231	-0.015564487
248	0x3c1a2535	0.009408285
249	0x3b1b2790	0.0023674704
250	0xbcaa610f	-0.020798234
251	0x3d568c6d	0.052380014
252	0xbcea0f24	-0.028571673
253	0xbd56de76	-0.05245825
254	0x3bd120df	0.0063820924
255	0x3c78241b	0.015145327

classifier.bias f4 [5]
0	0x3d927842	0.071518436
1	0xbd8426b9	-0.06452698
2	0x3dd6b431	0.104835875
3	0x3c16d1b9	0.009205275
4	0xbd19a93a	-0.037514903

net.1.weight f4 [5, 184]
0	0xbcf514f5	-0.02991722
1	0xbc222128	-0.0098956
2	0xbca7c2e9	-0.020478683
3	0xb9e2fe67	-0.00043295624
4	0xbc104045	-0.008804386
5	0xbb083a03	-0.002078653
6	0x3d1c20d9	0.038117263
7	0x3c8c51a6	0.017128777
8	0xbd33c585	-0.04388954
9	0x3c1ba284	0.009499196
10	0x3a58d6c3	0.0008271748
11	0x3b8f03cd	0.0043644668
12	0x3cfe63dd	0.031053478
13	0x3bb2a504	0.0054518003
14	0xbc7ee5e1	-0.015557737
15	0xbcaf7c42	-0.021421555
16	0xbcd5baf6	-0.026090126
17	0xbce37f12	-0.027770553
18	0xbceb88af	-0.0287517
19	0x3b56ff75	0.0032806073
20	0xbbfc6d80	-0.007703483
21	0xbd1d14ba	-0.038349845
22	0xbc3c3988	-0.011488326
23	0xbbbf34a8	-0.0058351345
24	0x3a201d75	0.0006107905
25	0x3ca4db91	0.020124229
26	0xbc940d5e	-0.01807278
27	0xbb08e4ed	-0.0020888404
28	0xbc3c1f4b	-0.01148207
29	0x3c5d43ce	0.013504935
30	0x3cf08bb2	0.029363487
31	0xbc26b984	-0.010176066
32	0x3b806add	0.003918989
33	0xbc3e2651	-0.011605815
34	0xbd09acfe	-0.033612244
35	0x3c5a5566	0.013326025
36	0x3caa3539	0.020777332
37	0xbbb1fc8b	-0.005431717
38	0x3d038c97	0.0321165
39	0x3d19f51f	0.03758728
40	0xbc76e9b0	-0.015070364
41	0xbc93300f	-0.017967252
42	0xbc526f80	-0.0128439665
43	0xbc9bc775	-0.019016007
44	0x3cd58359	0.026063608
45	0x3d0002bc	0.031252608
46	0xba4ef13b	-0.00078942225
47	0x3d03bd60	0.032163024
48	0xbd0be572	-0.034154363
49	0xbd0bd212	-0.034135886
50	0xbcdadebc	-0.026717536
51	0xbd13eead	-0.03611629
52	0xbce1c7d2	-0.027561102
53	0xbc1aef18	-0.009456418
54	0xbb950345	-0.004547509
55	0x3cad4bf8	0.021154389
56	0x3ca2f042	0.019889954
57	0x3c26383c	0.010145243
58	0xbbf22a91	-0.007390328
59	0x3cf3c0d3	0.029755032
60	0xbc019ca8	-0.007910885
61	0x3c7fd578	0.01561486
62	0xbb571bee	-0.0032823044
63	0xbce59e33	-0.028029537
64	0x3c12a283	0.008949879
65	0x3ce1c814	0.027561225
66	0xbc89d781	-0.016826393
67	0x3d856d3c	0.065149754
68	0xbbc180f5	-0.0059052655
69	0xbd523241	-0.051317457
70	0x3d0323f5	0.032016713
71	0x3c45cbd8	0.012072526
72	0xb9cd381d	-0.00039142455
73	0x3c81dc27	0.015852047
74	0x3d2db572	0.042409368
75	0xbb318650	-0.0027088113
76	0x3c8ef7fb	0.01745223
77	0x3c52a635	0.01285701
78	0xbbafbd4a	-0.005363141
79	0xbcf94da8	-0.030432537
80	0xbd3f930c	-0.046771094
81	0x3cd0beda	0.02548163
82	0xbc06db57	-0.008231006
83	0xbcbb7c4f	-0.022886423
84	0x3cfa9b04	0.030591495
85	0xbd0a4aa3	-0.033762585
86	0xbc0ed380	-0.008717418
87	0xbc230cd8	-0.009951793
88	0x3c50fb50	0.01275523
89	0xbba005f0	-0.0048835203
90	0xbc339383	-0.0109604625
91	0x3ccb715c	0.024834327
92	0xbc83d95b	-0.016094854
93	0x3b1bbfb9	0.0023765399
94	0x3bbded38	0.005796101
95	0x3c963150	0.01833406
96	0xbc4187f8	-0.011812203
97	0xbc192a63	-0.009348485
98	0xbb7bd6e4	-0.0038427645
99	0xbca9af44	-0.020713456
100	0xb9be8f01	-0.0003634617
101	0x3cda518c	0.026650213
102	0x3d3773af	0.04478806
103	0x3caee0ef	0.021347491
104	0x3cc5ba80	0.024136782
105	0xbae2d48e	-0.0017305778
106	0xbcb1f36f	-0.021722523
107	0x3d25e3c6	0.040500425
108	0xbb9b5c17	-0.0047412026
109	0x3c5e569c	0.013570454
110	0xbc4d9dd6	-0.012549838
111	0x3bd740fa	0.006569025
112	0x3ca2ae51	0.019858511
113	0xbb9120a5	-0.0044289404
114	0x3c0f89ba	0.008760864
115	0xbbaded56	-0.0053078337
116	0x3b18e1ec	0.002332802
117	0x3cd15cd0	0.025556952
118	0xbce224b7	-0.027605398
119	0xbc7bb6cc	-0.015363406
120	0xbcba5bfa	-0.022748936
121	0x3ca226bb	0.019793859
122	0xbca10c16	-0.019659083
123	0xbb94cbeb	-0.0045409105
124	0xbb97e3b3	-0.004635298
125	0x3d351c4c	0.04421644
126	0xbc1e3f04	-0.009658579
127	0x3ce126b9	0.027484285
128	0xbc97002b	-0.018432697
129	0x3c83b617	0.016078038
130	0xbc08af24	-0.008342538
131	0xbc93f765	-0.018062303
132	0x3c4e88ee	0.012605889
133	0xbc58c774	-0.013231147
134	0xbcb0754e	-0.02154031
135	0xbd0c7fe7	-0.034301665
136	0x3c48b547	0.012250251
137	0x3d513b88	0.051082164
138	0xbbb184a7	-0.0054174247
139	0xbc6b60db	-0.014366354
140	0x3bf61156	0.007509391
141	0xbbd1fe0a	-0.0064084576
142	0x3d093550	0.03349811
143	0x3d250c65	0.040295023
144	0x3d12836d	0.03576987
145	0x3caf5360	0.021402061
146	0x3d316af4	0.04331489
147	0xb9114e66	-0.00013857483
148	0xbd23eaac	-0.040018722
149	0xbbbbd7d1	-0.0057325144
150	0xbbe27d2e	-0.0069118952
151	0x3c910510	0.01770261
152	0xbc8f47da	-0.017490316
153	0xbb7fd3d6	-0.0039036176
154	0xbbd8d024	-0.006616609
155	0x3a086150	0.0005202489
156	0xbbf1a82e	-0.007374785
157	0xbc8331a2	-0.016014878
158	0xbd051b35	-0.03249665
159	0xbc6a751f	-0.01431015
160	0xbd1d68b7	-0.038429942
161	0x3cbad7d2	0.02280799
162	0x3c38710f	0.011257424
163	0xbc1df947	-0.009641952
164	0x3ce9b3a6	0.028528046
165	0xbcc5e4ec	-0.02415701
166	0xbb987512	-0.0046526277
167	0x3b0b0792	0.002121423
168	0x3bf87e82	0.0075834403
169	0xb961a42e	-0.00021518834
170	0x3ca0261e	0.019549426
171	0xbd937733	-0.0720047
172	0xbc6b65d7	-0.014367542
173	0x3c530176	0.012878766
174	0x3c7ae06b	0.0153122945
175	0x3b5bab16	0.0033518723
176	0xbc00f796	-0.007871529
177	0xbc8c6384	-0.017137296
178	0x3d19697e	0.03745412
179	0xbba98f19	-0.0051745293
180	0xbc0cf990	-0.008604422
181	0xbcd18118	-0.025574252
182	0x3af2b9db	0.0018518524
183	0x3c78152a	0.015141765
184	0xbd09a1e9	-0.033601675
185	0xbb949d5c	-0.0045353603
186	0xbce012fa	-0.027352799
187	0x3bda9cf5	0.006671543
188	0xbcafd9ed	-0.02146622
189	0xbc5d1981	-0.01349485
190	0x3c97dfbe	0.018539306
191	0x3d02f465	0.031971354
192	0xbd15beb5	-0.036558826
193	0x3b556662	0.0032562246
194	0xbb794cbe	-0.0038040127
195	0x3aec38ff	0.0018022357
196	0x3ccb3df9	0.024809824
197	0x3c372322	0.01117781
198	0xbc78deee	-0.015189869
199	0xbd0a930e	-0.03383165
200	0xbc41f1ea	-0.011837462
201	0xbc825c75	-0.015913228
202	0xbd0609d8	-0.03272423
203	0xbc9e8f63	-0.019355481
204	0xbc8230aa	-0.015892345
205	0xbd178ec3	-0.037001383
206	0xbc576aef	-0.013148054
207	0xb96c380d	-0.00022527594
208	0x3bf2c565	0.007408785
209	0x3c130f21	0.008975775
210	0xbcacb529	-0.021082478
211	0xbb1594e6	-0.0022824346
212	0xbb2592c4	-0.002526448
213	0x3bf47cde	0.0074611744
214	0x3ce9b589	0.028528946
215	0xbc848447	-0.016176356
216	0x3c2008e5	0.009767746
217	0xbc5f6939	-0.013635927
218	0xbcf1d771	-0.029521676
219	0xbbfef2dd	-0.0077804164
220	0x3cda8158	0.026673004
221	0xbc996800	-0.018726349
222	0x3d4fc490	0.050724566
223	0x3cf80ca0	0.030279458
224	0xbcebd3fd	-0.028787607
225	0xbc8b84cd	-0.017031098
226	0xbcfb1b97	-0.030652804
227	0xbc514b74	-0.012774337
228	0x3cc4286e	0.02394506
229	0x3d5e44ec	0.054264948
230	0xbc1cfc78	-0.009581678
231	0x3d02652e	0.031834774
232	0xbd1f7d35	-0.038937766
233	0xbd2a3f8a	-0.0415645
234	0xbc802406	-0.015642177
235	0xbd171314	-0.03688343
236	0xbcc420e0	-0.023941457
237	0xbcacb44c	-0.021082066
238	0xbc217ce3	-0.0098564355
239	0x3ce6690c	0.028126262
240	0x3ba69f6b	0.005084922
241	0x3c154bb6	0.009112289
242	0x39ec263d	0.00045041917
243	0x3cea14f3	0.028574442
244	0xbc0dd162	-0.008655878
245	0xbbedaa25	-0.007252949
246	0xbc8919b5	-0.01673589
247	0xbc7f0231	-0.015564487
248	0x3c1a2535	0.009408285
249	0x3b1b2790	0.0023674704
250	0xbcaa610f	-0.020798234
251	0x3d568c6d	0.052380014
252	0xbcea0f24	-0.028571673
253	0xbd56de76	-0.05245825
254	0x3bd120df	0.0063820924
255	0x3c78241b	0.015145327

net.1.bias f4 [5]
0	0x3d927842	0.071518436
1	0xbd8426b9	-0.06452698
2	0x3dd6b431	0.104835875
3	0x3c16d1b9	0.009205275
4	0xbd19a93a	-0.037514903

weight f4 [5, 184]
0	0xbcf514f5	-0.02991722
1	0xbc222128	-0.0098956
2	0xbca7c2e9	-0.020478683
3	0xb9e2fe67	-0.00043295624
4	0xbc104045	-0.008804386
5	0xbb083a03	-0.002078653
6	0x3d1c20d9	0.038117263
7	0x3c8c51a6	0.017128777
8	0xbd33c585	-0.04388954
9	0x3c1ba284	0.009499196
10	0x3a58d6c3	0.0008271748
11	0x3b8f03cd	0.0043644668
12	0x3cfe63dd	0.031053478
13	0x3bb2a504	0.0054518003
14	0xbc7ee5e1	-0.015557737
15	0xbcaf7c42	-0.021421555
16	0xbcd5baf6	-0.026090126
17	0xbce37f12	-0.027770553
18	0xbceb88af	-0.0287517
19	0x3b56ff75	0.0032806073
20	0xbbfc6d80	-0.007703483
21	0xbd1d14ba	-0.038349845
22	0xbc3c3988	-0.011488326
23	0xbbbf34a8	-0.0058351345
24	0x3a201d75	0.0006107905
25	0x3ca4db91	0.020124229
26	0xbc940d5e	-0.01807278
27	0xbb08e4ed	-0.0020888404
28	0xbc3c1f4b	-0.01148207
29	0x3c5d43ce	0.013504935
30	0x3cf08bb2	0.029363487
31	0xbc26b984	-0.010176066
32	0x3b806add	0.003918989
33	0xbc3e2651	-0.011605815
34	0xbd09acfe	-0.033612244
35	0x3c5a5566	0.013326025
36	0x3caa3539	0.020777332
37	0xbbb1fc8b	-0.005431717
38	0x3d038c97	0.0321165
39	0x3d19f51f	0.03758728
40	0xbc76e9b0	-0.015070364
41	0xbc93300f	-0.017967252
42	0xbc526f80	-0.0128439665
43	0xbc9bc775	-0.019016007
44	0x3cd58359	0.026063608
45	0x3d0002bc	0.031252608
46	0xba4ef13b	-0.00078942225
47	0x3d03bd60	0.032163024
48	0xbd0be572	-0.034154363
49	0xbd0bd212	-0.034135886
50	0xbcdadebc	-0.026717536
51	0xbd13eead	-0.03611629
52	0xbce1c7d2	-0.027561102
53	0xbc1aef18	-0.009456418
54	0xbb950345	-0.004547509
55	0x3cad4bf8	0.021154389
56	0x3ca2f042	0.019889954
57	0x3c26383c	0.010145243
58	0xbbf22a91	-0.007390328
59	0x3cf3c0d3	0.029755032
60	0xbc019ca8	-0.007910885
61	0x3c7fd578	0.01561486
62	0xbb571bee	-0.0032823044
63	0xbce59e33	-0.028029537
64	0x3c12a283	0.008949879
65	0x3ce1c814	0.027561225
66	0xbc89d781	-0.016826393
67	0x3d856d3c	0.065149754
68	0xbbc180f5	-0.0059052655
69	0xbd523241	-0.051317457
70	0x3d0323f5	0.032016713
71	0x3c45cbd8	0.012072526
72	0xb9cd381d	-0.00039142455
73	0x3c81dc27	0.015852047
74	0x3d2db572	0.042409368
75	0xbb318650	-0.0027088113
76	0x3c8ef7fb	0.01745223
77	0x3c52a635	0.01285701
78	0xbbafbd4a	-0.005363141
79	0xbcf94da8	-0.030432537
80	0xbd3f930c	-0.046771094
81	0x3cd0beda	0.02548163
82	0xbc06db57	-0.008231006
83	0xbcbb7c4f	-0.022886423
84	0x3cfa9b04	0.030591495
85	0xbd0a4aa3	-0.033762585
86	0xbc0ed380	-0.008717418
87	0xbc230cd8	-0.009951793
88	0x3c50fb50	0.01275523
89	0xbba005f0	-0.0048835203
90	0xbc339383	-0.0109604625
91	0x3ccb715c	0.024834327
92	0xbc83d95b	-0.016094854
93	0x3b1bbfb9	0.0023765399
94	0x3bbded38	0.005796101
95	0x3c963150	0.01833406
96	0xbc4187f8	-0.011812203
97	0xbc192a63	-0.009348485
98	0xbb7bd6e4	-0.0038427645
99	0xbca9af44	-0.020713456
100	0xb9be8f01	-0.0003634617
101	0x3cda518c	0.026650213
102	0x3d3773af	0.04478806
103	0x3caee0ef	0.021347491
104	0x3cc5ba80	0.024136782
105	0xbae2d48e	-0.0017305778
106	0xbcb1f36f	-0.021722523
107	0x3d25e3c6	0.040500425
108	0xbb9b5c17	-0.0047412026
109	0x3c5e569c	0.013570454
110	0xbc4d9dd6	-0.012549838
111	0x3bd740fa	0.006569025
112	0x3ca2ae51	0.019858511
113	0xbb9120a5	-0.0044289404
114	0x3c0f89ba	0.008760864
115	0xbbaded56	-0.0053078337
116	0x3b18e1ec	0.002332802
117	0x3cd15cd0	0.025556952
118	0xbce224b7	-0.027605398
119	0xbc7bb6cc	-0.015363406
120	0xbcba5bfa	-0.022748936
121	0x3ca226bb	0.019793859
122	0xbca10c16	-0.019659083
123	0xbb94cbeb	-0.0045409105
124	0xbb97e3b3	-0.004635298
125	0x3d351c4c	0.04421644
126	0xbc1e3f04	-0.009658579
127	0x3ce126b9	0.027484285
128	0xbc97002b	-0.018432697
129	0x3c83b617	0.016078038
130	0xbc08af24	-0.008342538
131	0xbc93f765	-0.018062303
132	0x3c4e88ee	0.012605889
133	0xbc58c774	-0.013231147
134	0xbcb0754e	-0.02154031
135	0xbd0c7fe7	-0.034301665
136	0x3c48b547	0.012250251
137	0x3d513b88	0.051082164
138	0xbbb184a7	-0.0054174247
139	0xbc6b60db	-0.014366354
140	0x3bf61156	0.007509391
141	0xbbd1fe0a	-0.0064084576
142	0x3d093550	0.03349811
143	0x3d250c65	0.040295023
144	0x3d12836d	0.03576987
145	0x3caf5360	0.021402061
146	0x3d316af4	0.04331489
147	0xb9114e66	-0.00013857483
148	0xbd23eaac	-0.040018722
149	0xbbbbd7d1	-0.0057325144
150	0xbbe27d2e	-0.0069118952
151	0x3c910510	0.01770261
152	0xbc8f47da	-0.017490316
153	0xbb7fd3d6	-0.0039036176
154	0xbbd8d024	-0.006616609
155	0x3a086150	0.0005202489
156	0xbbf1a82e	-0.007374785
157	0xbc8331a2	-0.016014878
158	0xbd051b35	-0.03249665
159	0xbc6a751f	-0.01431015
160	0xbd1d68b7	-0.038429942
161	0x3cbad7d2	0.02280799
162	0x3c38710f	0.011257424
163	0xbc1df947	-0.009641952
164	0x3ce9b3a6	0.028528046
165	0xbcc5e4ec	-0.02415701
166	0xbb987512	-0.0046526277
167	0x3b0b0792	0.002121423
168	0x3bf87e82	0.0075834403
169	0xb961a42e	-0.00021518834
170	0x3ca0261e	0.019549426
171	0xbd937733	-0.0720047
172	0xbc6b65d7	-0.014367542
173	0x3c530176	0.012878766
174	0x3c7ae06b	0.0153122945
175	0x3b5bab16	0.0033518723
176	0xbc00f796	-0.007871529
177	0xbc8c6384	-0.017137296
178	0x3d19697e	0.03745412
179	0xbba98f19	-0.0051745293
180	0xbc0cf990	-0.008604422
181	0xbcd18118	-0.025574252
182	0x3af2b9db	0.0018518524
183	0x3c78152a	0.015141765
184	0xbd09a1e9	-0.033601675
185	0xbb949d5c	-0.0045353603
186	0xbce012fa	-0.027352799
187	0x3bda9cf5	0.006671543
188	0xbcafd9ed	-0.02146622
189	0xbc5d1981	-0.01349485
190	0x3c97dfbe	0.018539306
191	0x3d02f465	0.031971354
192	0xbd15beb5	-0.036558826
193	0x3b556662	0.0032562246
194	0xbb794cbe	-0.0038040127
195	0x3aec38ff	0.0018022357
196	0x3ccb3df9	0.024809824
197	0x3c372322	0.01117781
198	0xbc78deee	-0.015189869
199	0xbd0a930e	-0.03383165
200	0xbc41f1ea	-0.011837462
201	0xbc825c75	-0.015913228
202	0xbd0609d8	-0.03272423
203	0xbc9e8f63	-0.019355481
204	0xbc8230aa	-0.015892345
205	0xbd178ec3	-0.037001383
206	0xbc576aef	-0.013148054
207	0xb96c380d	-0.00022527594
208	0x3bf2c565	0.007408785
209	0x3c130f21	0.008975775
210	0xbcacb529	-0.021082478
211	0xbb1594e6	-0.0022824346
212	0xbb2592c4	-0.002526448
213	0x3bf47cde	0.0074611744
214	0x3ce9b589	0.028528946
215	0xbc848447	-0.016176356
216	0x3c2008e5	0.009767746
217	0xbc5f6939	-0.013635927
218	0xbcf1d771	-0.029521676
219	0xbbfef2dd	-0.0077804164
220	0x3cda8158	0.026673004
221	0xbc996800	-0.018726349
222	0x3d4fc490	0.050724566
223	0x3cf80ca0	0.030279458
224	0xbcebd3fd	-0.028787607
225	0xbc8b84cd	-0.017031098
226	0xbcfb1b97	-0.030652804
227	0xbc514b74	-0.012774337
228	0x3cc4286e	0.02394506
229	0x3d5e44ec	0.054264948
230	0xbc1cfc78	-0.009581678
231	0x3d02652e	0.031834774
232	0xbd1f7d35	-0.038937766
233	0xbd2a3f8a	-0.0415645
234	0xbc802406	-0.015642177
235	0xbd171314	-0.03688343
236	0xbcc420e0	-0.023941457
237	0xbcacb44c	-0.021082066
238	0xbc217ce3	-0.0098564355
239	0x3ce6690c	0.028126262
240	0x3ba69f6b	0.005084922
241	0x3c154bb6	0.009112289
242	0x39ec263d	0.00045041917
243	0x3cea14f3	0.028574442
244	0xbc0dd162	-0.008655878
245	0xbbedaa25	-0.007252949
246	0xbc8919b5	-0.01673589
247	0xbc7f0231	-0.015564487
248	0x3c1a2535	0.009408285
249	0x3b1b2790	0.0023674704
250	0xbcaa610f	-0.020798234
251	0x3d568c6d	0.052380014
252	0xbcea0f24	-0.028571673
253	0xbd56de76	-0.05245825
254	0x3bd120df	0.0063820924
255	0x3c78241b	0.015145327

bias f4 [5]
0	0x3d927842	0.071518436
1	0xbd8426b9	-0.06452698
2	0x3dd6b431	0.104835875
3	0x3c16d1b9	0.009205275
4	0xbd19a93a	-0.037514903
