experiments/CnnTransformer/simclr/simclr_cnn_transformer_trainings2/logistic_on_simclr_IT_5pat/lightning_logs/version_0/checkpoints/epoch=39-step=2360.ckpt (torch, 7847 bytes, 6 tensors)

classifier.weight f4 [5, 184]
000000 49 df a5 bc 09 48 8f bd 20 ad d9 3b a2 04 ca ba
       -0.020248072 -0.069961615 0.0066429526 -0.0015412758
000010 fc 19 69 3c 0e 2b f1 bc 7d 0e e0 bb db 73 88 bd
       0.014227387 -0.029439475 -0.0068376646 -0.06662723
000020 25 7b b6 3c 48 e7 bd bc 71 27 13 3d 64 ff af bc
       0.022275517 -0.023181573 0.035926286 -0.021484084
000030 ef 44 d2 3c cb 5e 0b bd 19 89 c2 3a 39 38 f6 bc
       0.025667636 -0.03402595 0.0014841884 -0.030056106
000040 84 81 19 3d 08 5b 3f bc 3c d7 be bc 70 e7 09 bc
       0.03747703 -0.011679418 -0.023295991 -0.008416995
000050 43 fd 0e 3d 8f 67 10 bb 98 2d 29 3d f0 50 a1 bc
       0.034909498 -0.0022034382 0.041303247 -0.019691914
000060 57 b1 1d bd df cc c5 3c 00 df 5f 3d 20 f7 88 bd
       -0.038499203 0.024145542 0.05465603 -0.0668776
000070 13 2a 0f bd fd e2 35 3b b6 a0 64 bc 3e 9a 47 3c
       -0.034952234 0.0027753704 -0.013954332 0.01218277
000080 80 f7 cb bc ad 63 11 3d f1 e1 bb 3c 2d 93 81 bc
       -0.02489829 0.03549545 0.022934886 -0.01581725
000090 b3 1e 2a 3d a4 6b 31 3c f4 bd 84 ba 4d 02 d6 3c
       0.041533183 0.010828886 -0.0010127411 0.026124144
0000a0 94 32 3f 3d ba d2 e5 3c 69 8f 8f bc 6e 40 f6 bb
       0.046679094 0.028054584 -0.017524438 -0.007515005
0000b0 27 72 03 bd ca d0 3e bd 08 ff ee bc ed 44 5b 3d
       -0.032091286 -0.046585836 -0.029174343 0.05353253
0000c0 86 16 d0 bb cc 85 aa bc 82 cc d2 bb 85 21 87 3c
       -0.0063503413 -0.020815752 -0.0064330706 0.016495476
0000d0 ca 27 66 3b 94 dc 57 3d ad df 16 3c f0 4f fa 3c
       0.003511893 0.052700594 0.009208602 0.030555695
0000e0 12 e0 70 3d d5 3b 81 3c d9 4b 77 bd f4 d0 5c bc
       0.05880744 0.0157756 -0.06037507 -0.013477553
0000f0 ac f5 7f bc d3 bd 80 3d 0f d2 8f bd 98 70 83 bc
       -0.015622538 0.06286206 -0.07022487 -0.0160449
000100 1c aa c8 3c 91 74 8f 3d 10 fe f1 3c 53 3c 81 3c
       0.024495177 0.07004655 0.029540092 0.015775835
000110 b6 d6 10 bd 9b 29 09 3d 89 a4 19 bb b5 8d 4e bb
       -0.035361014 0.033486944 -0.0023444018 -0.003151757
000120 f4 7d 87 3c 21 e8 d0 bc 58 cf 88 bb d5 14 4e 3d
       0.016539551 -0.025501313 -0.004175108 0.050312836
000130 de 1c 1a bc 7f 5b 04 3d c0 7b e3 bc 8f a2 32 bc
       -0.009406297 0.03231382 -0.02776897 -0.010903015
000140 65 78 1c 3d bd 1c 37 bd 5f cb 74 3d 8f 6f 33 bd
       0.038200755 -0.04470514 0.059764262 -0.043807562
000150 5c 6a d3 bc 5e 23 51 3d af 90 a3 3c 98 00 65 bd
       -0.025807552 0.05105912 0.019966451 -0.05590877
000160 2b 14 3e bb f0 8f 13 bd aa ec 31 bd 38 d9 0b bd
       -0.002900372 -0.03602594 -0.04343859 -0.034142703
000170 76 d9 7c bd 6c 18 46 bb c9 32 28 3d 59 33 7b bd
       -0.061730824 -0.003022696 0.041064057 -0.061328266
000180 5a 8c c4 bc 6b 40 45 bc 60 b0 38 bc ac 72 a4 3c
       -0.023992706 -0.012039284 -0.01127252 0.020074211
000190 41 74 8f 3c 10 7c 9c 3d e7 fb 75 bc cc 99 41 3d
       0.017511489 0.076408505 -0.0150136715 0.047265813
0001a0 e0 d5 18 bd 83 e0 4f bc 4d ba 24 bc e9 99 5c bd
       -0.037313342 -0.012687805 -0.010054183 -0.053857718
0001b0 a8 6e 83 bc dd 47 e9 bc 0c 64 1e 3d bd 5d 50 bd
       -0.016043976 -0.02847665 0.03866963 -0.050870646
0001c0 cb b2 a0 3c a4 4d bd 39 a2 df 71 3d 21 58 24 bd
       0.019616505 0.00036106736 0.059051163 -0.04012311
0001d0 8b 34 21 3c 68 0d 25 3d d2 9a 56 bd 59 3b fc bc
       0.009839187 0.04029599 -0.052393742 -0.030790018
0001e0 86 79 36 3b 1e ea 08 bd c3 5c 26 3b 62 17 a2 3c
       0.002784343 -0.033426397 0.002538488 0.01978654
0001f0 26 89 35 bd 54 42 50 bd f5 e7 5f bd e5 af 81 3d
       -0.044320248 -0.050844505 -0.05466457 0.06332377
000200 ec 68 b9 bc 1c 5d 8f bd f2 77 0a bd a7 05 c3 3c
       -0.022633038 -0.07000181 -0.033805795 0.023806406
000210 f9 1e 58 3c 99 c0 f1 3b 0a 88 0e bd 40 bc 4d 3b
       0.013190978 0.0073776958 -0.034797706 0.0031392723
000220 4c 2f 79 3d 04 3d 4a 3c 9a 82 8a bd a9 f9 05 bd
       0.06083612 0.012343649 -0.067631915 -0.032708798
000230 d8 6f 84 bd 49 37 ae bc 1c 63 4b bc 7b ca 8b bc
       -0.06466645 -0.021266596 -0.012413766 -0.017064324
000240 ef 93 73 bd 11 f1 5d bd 38 43 5d bd 31 50 8e bc
       -0.059467252 -0.054184977 -0.054019183 -0.017372223
000250 59 4c d6 ba 2a 35 a5 bb d7 8b 8f 3d 9c 3f 40 bd
       -0.0016349658 -0.005041738 0.07009094 -0.046935663
000260 ec a1 04 3d 24 32 a1 bc a8 54 aa 3c 52 62 2a bd
       0.032380983 -0.01967723 0.02079232 -0.04159767
000270 25 ad 72 3b 8f 40 88 bc 1e 23 57 bd a6 7b 4e bd
       0.0037029472 -0.016632346 -0.052523725 -0.05041089
000280 b8 b6 dd bc 2a 37 62 bc 5e 8b 5f bd 52 8e 0d 3d
       -0.027064666 -0.013807097 -0.05457627 0.034559555
000290 f2 a4 76 3c 8a 68 95 bd 4c 09 cd bb 55 25 5c bd
       0.015053974 -0.0729533 -0.006257212 -0.05374654
0002a0 7f 26 6e 3c 42 36 41 bd 57 dc a1 ba a9 2a 2e bd
       0.014535545 -0.047170885 -0.0012348992 -0.042521153
0002b0 ec 7e 11 3d bf e9 d6 3c 0a 74 9f bb 54 c6 92 3d
       0.035521433 0.026234506 -0.004866128 0.07166734
0002c0 ab e0 b7 bc 7d 39 2e bd 6a de d0 3c d3 a9 08 bc
       -0.022445997 -0.042535294 0.02549668 -0.0083412705
0002d0 29 b2 3b bc 70 b0 5b 3b b6 94 1b 3d f6 a0 e7 3c
       -0.011456051 0.0033521913 0.03798362 0.028274994
0002e0 bd c2 0d 3c 9e 96 91 3c 71 af fa ba 6a 96 26 3c
       0.008652386 0.017772015 -0.0019125772 0.010167697
0002f0 78 b0 91 bc 30 4d 6a ba 94 90 17 bd a0 7b 02 3d
       -0.017784342 -0.00089378934 -0.037003115 0.03185618
000300 9c 52 1e bd 47 43 27 3d 38 45 19 bc 3b 51 1f bc
       -0.038653 0.040835645 -0.009354882 -0.009723957
000310 d8 08 4d bd 2b 8c 47 3c cd 59 a6 3c a8 d7 60 3d
       -0.050057262 0.012179415 0.020306492 0.054893166
000320 1d 97 3e 3c 7b 9b ca bc 40 4f 87 ba 93 17 0a 3d
       0.011632708 -0.024732342 -0.0010323301 0.03371389
000330 87 f4 cf 3c 9a 0c c6 3b 5d f8 21 3c 44 ed 8c 3d
       0.025385154 0.0060439827 0.009885875 0.06881192
000340 91 34 03 3d 2a 4b 63 3d 8c a8 d2 bc 91 2b 6d bd
       0.032032553 0.055491604 -0.025715135 -0.057902876
000350 f2 64 51 3c 47 40 4d 3d 49 43 3c 3b 0f cf 40 bd
       0.012780415 0.050110128 0.0028726629 -0.047072466
000360 a7 a9 81 3b 74 24 65 bd 6d 04 b5 3c ec c5 f7 bc
       0.0039569917 -0.055942968 0.022096837 -0.030245744
000370 29 cd 00 3d 04 f2 73 3d a8 c3 f6 bb 1c 46 ed 3c
       0.031445656 0.059556976 -0.0075306483 0.028964095
000380 93 57 9e bc 08 fc 31 bd f4 01 ce 3a 94 92 37 bc
       -0.019328868 -0.043453246 0.0015717135 -0.011204381
000390 e3 53 53 bb 39 01 0b bd 8b ac 57 bd c5 68 f8 3a
       -0.0032246045 -0.033936713 -0.052654784 0.0018952122
0003a0 6a 40 01 bd a5 49 75 3c 59 54 cc bc 8d f6 91 3c
       -0.03155557 0.0149711715 -0.024942564 0.01781776
0003b0 f5 3f 14 bd 68 ac da 3b 44 b9 51 3c c3 b4 89 bb
       -0.036193807 0.0066733845 0.012800518 -0.0042024567
0003c0 7d 28 b3 3c 76 4d 18 bd 30 d6 ab bc ed 8a 4f bd
       0.021869892 -0.037183248 -0.020976156 -0.0506696
0003d0 ec a6 e0 3c 2d 1b 11 bc 30 0f 3b 3d 56 e8 c9 3b
       0.027423345 -0.008856577 0.04566878 0.00616173
0003e0 ba 03 84 bb 73 4c a6 bc a1 4b 86 ba c5 0a 83 3d
       -0.0040287646 -0.020300126 -0.0010245928 0.063985385
0003f0 0d 76 27 bd 02 3b 9b bc 8b d0 99 bd 0f 06 ca 3c
       -0.040884066 -0.018949036 -0.075104795 0.024661092

classifier.bias f4 [5]
000000 ec 2f 35 bd 5e b9 3c bc 73 d9 4b 3d 94 03 5d 3b
       -0.044235155 -0.011518804 0.049767923 0.0033724057
000010 7f 37 bc 3b
       0.0057439203

net.1.weight f4 [5, 184]
000000 49 df a5 bc 09 48 8f bd 20 ad d9 3b a2 04 ca ba
       -0.020248072 -0.069961615 0.0066429526 -0.0015412758
000010 fc 19 69 3c 0e 2b f1 bc 7d 0e e0 bb db 73 88 bd
       0.014227387 -0.029439475 -0.0068376646 -0.06662723
000020 25 7b b6 3c 48 e7 bd bc 71 27 13 3d 64 ff af bc
       0.022275517 -0.023181573 0.035926286 -0.021484084
000030 ef 44 d2 3c cb 5e 0b bd 19 89 c2 3a 39 38 f6 bc
       0.025667636 -0.03402595 0.0014841884 -0.030056106
000040 84 81 19 3d 08 5b 3f bc 3c d7 be bc 70 e7 09 bc
       0.03747703 -0.011679418 -0.023295991 -0.008416995
000050 43 fd 0e 3d 8f 67 10 bb 98 2d 29 3d f0 50 a1 bc
       0.034909498 -0.0022034382 0.041303247 -0.019691914
000060 57 b1 1d bd df cc c5 3c 00 df 5f 3d 20 f7 88 bd
       -0.038499203 0.024145542 0.05465603 -0.0668776
000070 13 2a 0f bd fd e2 35 3b b6 a0 64 bc 3e 9a 47 3c
       -0.034952234 0.0027753704 -0.013954332 0.01218277
000080 80 f7 cb bc ad 63 11 3d f1 e1 bb 3c 2d 93 81 bc
       -0.02489829 0.03549545 0.022934886 -0.01581725
000090 b3 1e 2a 3d a4 6b 31 3c f4 bd 84 ba 4d 02 d6 3c
       0.041533183 0.010828886 -0.0010127411 0.026124144
0000a0 94 32 3f 3d ba d2 e5 3c 69 8f 8f bc 6e 40 f6 bb
       0.046679094 0.028054584 -0.017524438 -0.007515005
0000b0 27 72 03 bd ca d0 3e bd 08 ff ee bc ed 44 5b 3d
       -0.032091286 -0.046585836 -0.029174343 0.05353253
0000c0 86 16 d0 bb cc 85 aa bc 82 cc d2 bb 85 21 87 3c
       -0.0063503413 -0.020815752 -0.0064330706 0.016495476
0000d0 ca 27 66 3b 94 dc 57 3d ad df 16 3c f0 4f fa 3c
       0.003511893 0.052700594 0.009208602 0.030555695
0000e0 12 e0 70 3d d5 3b 81 3c d9 4b 77 bd f4 d0 5c bc
       0.05880744 0.0157756 -0.06037507 -0.013477553
0000f0 ac f5 7f bc d3 bd 80 3d 0f d2 8f bd 98 70 83 bc
       -0.015622538 0.06286206 -0.07022487 -0.0160449
000100 1c aa c8 3c 91 74 8f 3d 10 fe f1 3c 53 3c 81 3c
       0.024495177 0.07004655 0.029540092 0.015775835
000110 b6 d6 10 bd 9b 29 09 3d 89 a4 19 bb b5 8d 4e bb
       -0.035361014 0.033486944 -0.0023444018 -0.003151757
000120 f4 7d 87 3c 21 e8 d0 bc 58 cf 88 bb d5 14 4e 3d
       0.016539551 -0.025501313 -0.004175108 0.050312836
000130 de 1c 1a bc 7f 5b 04 3d c0 7b e3 bc 8f a2 32 bc
       -0.009406297 0.03231382 -0.02776897 -0.010903015
000140 65 78 1c 3d bd 1c 37 bd 5f cb 74 3d 8f 6f 33 bd
       0.038200755 -0.04470514 0.059764262 -0.043807562
000150 5c 6a d3 bc 5e 23 51 3d af 90 a3 3c 98 00 65 bd
       -0.025807552 0.05105912 0.019966451 -0.05590877
000160 2b 14 3e bb f0 8f 13 bd aa ec 31 bd 38 d9 0b bd
       -0.002900372 -0.03602594 -0.04343859 -0.034142703
000170 76 d9 7c bd 6c 18 46 bb c9 32 28 3d 59 33 7b bd
       -0.061730824 -0.003022696 0.041064057 -0.061328266
000180 5a 8c c4 bc 6b 40 45 bc 60 b0 38 bc ac 72 a4 3c
       -0.023992706 -0.012039284 -0.01127252 0.020074211
000190 41 74 8f 3c 10 7c 9c 3d e7 fb 75 bc cc 99 41 3d
       0.017511489 0.076408505 -0.0150136715 0.047265813
0001a0 e0 d5 18 bd 83 e0 4f bc 4d ba 24 bc e9 99 5c bd
       -0.037313342 -0.012687805 -0.010054183 -0.053857718
0001b0 a8 6e 83 bc dd 47 e9 bc 0c 64 1e 3d bd 5d 50 bd
       -0.016043976 -0.02847665 0.03866963 -0.050870646
0001c0 cb b2 a0 3c a4 4d bd 39 a2 df 71 3d 21 58 24 bd
       0.019616505 0.00036106736 0.059051163 -0.04012311
0001d0 8b 34 21 3c 68 0d 25 3d d2 9a 56 bd 59 3b fc bc
       0.009839187 0.04029599 -0.052393742 -0.030790018
0001e0 86 79 36 3b 1e ea 08 bd c3 5c 26 3b 62 17 a2 3c
       0.002784343 -0.033426397 0.002538488 0.01978654
0001f0 26 89 35 bd 54 42 50 bd f5 e7 5f bd e5 af 81 3d
       -0.044320248 -0.050844505 -0.05466457 0.06332377
000200 ec 68 b9 bc 1c 5d 8f bd f2 77 0a bd a7 05 c3 3c
       -0.022633038 -0.07000181 -0.033805795 0.023806406
000210 f9 1e 58 3c 99 c0 f1 3b 0a 88 0e bd 40 bc 4d 3b
       0.013190978 0.0073776958 -0.034797706 0.0031392723
000220 4c 2f 79 3d 04 3d 4a 3c 9a 82 8a bd a9 f9 05 bd
       0.06083612 0.012343649 -0.067631915 -0.032708798
000230 d8 6f 84 bd 49 37 ae bc 1c 63 4b bc 7b ca 8b bc
       -0.06466645 -0.021266596 -0.012413766 -0.017064324
000240 ef 93 73 bd 11 f1 5d bd 38 43 5d bd 31 50 8e bc
       -0.059467252 -0.054184977 -0.054019183 -0.017372223
000250 59 4c d6 ba 2a 35 a5 bb d7 8b 8f 3d 9c 3f 40 bd
       -0.0016349658 -0.005041738 0.07009094 -0.046935663
000260 ec a1 04 3d 24 32 a1 bc a8 54 aa 3c 52 62 2a bd
       0.032380983 -0.01967723 0.02079232 -0.04159767
000270 25 ad 72 3b 8f 40 88 bc 1e 23 57 bd a6 7b 4e bd
       0.0037029472 -0.016632346 -0.052523725 -0.05041089
000280 b8 b6 dd bc 2a 37 62 bc 5e 8b 5f bd 52 8e 0d 3d
       -0.027064666 -0.013807097 -0.05457627 0.034559555
000290 f2 a4 76 3c 8a 68 95 bd 4c 09 cd bb 55 25 5c bd
       0.015053974 -0.0729533 -0.006257212 -0.05374654
0002a0 7f 26 6e 3c 42 36 41 bd 57 dc a1 ba a9 2a 2e bd
       0.014535545 -0.047170885 -0.0012348992 -0.042521153
0002b0 ec 7e 11 3d bf e9 d6 3c 0a 74 9f bb 54 c6 92 3d
       0.035521433 0.026234506 -0.004866128 0.07166734
0002c0 ab e0 b7 bc 7d 39 2e bd 6a de d0 3c d3 a9 08 bc
       -0.022445997 -0.042535294 0.02549668 -0.0083412705
0002d0 29 b2 3b bc 70 b0 5b 3b b6 94 1b 3d f6 a0 e7 3c
       -0.011456051 0.0033521913 0.03798362 0.028274994
0002e0 bd c2 0d 3c 9e 96 91 3c 71 af fa ba 6a 96 26 3c
       0.008652386 0.017772015 -0.0019125772 0.010167697
0002f0 78 b0 91 bc 30 4d 6a ba 94 90 17 bd a0 7b 02 3d
       -0.017784342 -0.00089378934 -0.037003115 0.03185618
000300 9c 52 1e bd 47 43 27 3d 38 45 19 bc 3b 51 1f bc
       -0.038653 0.040835645 -0.009354882 -0.009723957
000310 d8 08 4d bd 2b 8c 47 3c cd 59 a6 3c a8 d7 60 3d
       -0.050057262 0.012179415 0.020306492 0.054893166
000320 1d 97 3e 3c 7b 9b ca bc 40 4f 87 ba 93 17 0a 3d
       0.011632708 -0.024732342 -0.0010323301 0.03371389
000330 87 f4 cf 3c 9a 0c c6 3b 5d f8 21 3c 44 ed 8c 3d
       0.025385154 0.0060439827 0.009885875 0.06881192
000340 91 34 03 3d 2a 4b 63 3d 8c a8 d2 bc 91 2b 6d bd
       0.032032553 0.055491604 -0.025715135 -0.057902876
000350 f2 64 51 3c 47 40 4d 3d 49 43 3c 3b 0f cf 40 bd
       0.012780415 0.050110128 0.0028726629 -0.047072466
000360 a7 a9 81 3b 74 24 65 bd 6d 04 b5 3c ec c5 f7 bc
       0.0039569917 -0.055942968 0.022096837 -0.030245744
000370 29 cd 00 3d 04 f2 73 3d a8 c3 f6 bb 1c 46 ed 3c
       0.031445656 0.059556976 -0.0075306483 0.028964095
000380 93 57 9e bc 08 fc 31 bd f4 01 ce 3a 94 92 37 bc
       -0.019328868 -0.043453246 0.0015717135 -0.011204381
000390 e3 53 53 bb 39 01 0b bd 8b ac 57 bd c5 68 f8 3a
       -0.0032246045 -0.033936713 -0.052654784 0.0018952122
0003a0 6a 40 01 bd a5 49 75 3c 59 54 cc bc 8d f6 91 3c
       -0.03155557 0.0149711715 -0.024942564 0.01781776
0003b0 f5 3f 14 bd 68 ac da 3b 44 b9 51 3c c3 b4 89 bb
       -0.036193807 0.0066733845 0.012800518 -0.0042024567
0003c0 7d 28 b3 3c 76 4d 18 bd 30 d6 ab bc ed 8a 4f bd
       0.021869892 -0.037183248 -0.020976156 -0.0506696
0003d0 ec a6 e0 3c 2d 1b 11 bc 30 0f 3b 3d 56 e8 c9 3b
       0.027423345 -0.008856577 0.04566878 0.00616173
0003e0 ba 03 84 bb 73 4c a6 bc a1 4b 86 ba c5 0a 83 3d
       -0.0040287646 -0.020300126 -0.0010245928 0.063985385
0003f0 0d 76 27 bd 02 3b 9b bc 8b d0 99 bd 0f 06 ca 3c
       -0.040884066 -0.018949036 -0.075104795 0.024661092

net.1.bias f4 [5]
000000 ec 2f 35 bd 5e b9 3c bc 73 d9 4b 3d 94 03 5d 3b
       -0.044235155 -0.011518804 0.049767923 0.0033724057
000010 7f 37 bc 3b
       0.0057439203

weight f4 [5, 184]
000000 49 df a5 bc 09 48 8f bd 20 ad d9 3b a2 04 ca ba
       -0.020248072 -0.069961615 0.0066429526 -0.0015412758
000010 fc 19 69 3c 0e 2b f1 bc 7d 0e e0 bb db 73 88 bd
       0.014227387 -0.029439475 -0.0068376646 -0.06662723
000020 25 7b b6 3c 48 e7 bd bc 71 27 13 3d 64 ff af bc
       0.022275517 -0.023181573 0.035926286 -0.021484084
000030 ef 44 d2 3c cb 5e 0b bd 19 89 c2 3a 39 38 f6 bc
       0.025667636 -0.03402595 0.0014841884 -0.030056106
000040 84 81 19 3d 08 5b 3f bc 3c d7 be bc 70 e7 09 bc
       0.03747703 -0.011679418 -0.023295991 -0.008416995
000050 43 fd 0e 3d 8f 67 10 bb 98 2d 29 3d f0 50 a1 bc
       0.034909498 -0.0022034382 0.041303247 -0.019691914
000060 57 b1 1d bd df cc c5 3c 00 df 5f 3d 20 f7 88 bd
       -0.038499203 0.024145542 0.05465603 -0.0668776
000070 13 2a 0f bd fd e2 35 3b b6 a0 64 bc 3e 9a 47 3c
       -0.034952234 0.0027753704 -0.013954332 0.01218277
000080 80 f7 cb bc ad 63 11 3d f1 e1 bb 3c 2d 93 81 bc
       -0.02489829 0.03549545 0.022934886 -0.01581725
000090 b3 1e 2a 3d a4 6b 31 3c f4 bd 84 ba 4d 02 d6 3c
       0.041533183 0.010828886 -0.0010127411 0.026124144
0000a0 94 32 3f 3d ba d2 e5 3c 69 8f 8f bc 6e 40 f6 bb
       0.046679094 0.028054584 -0.017524438 -0.007515005
0000b0 27 72 03 bd ca d0 3e bd 08 ff ee bc ed 44 5b 3d
       -0.032091286 -0.046585836 -0.029174343 0.05353253
0000c0 86 16 d0 bb cc 85 aa bc 82 cc d2 bb 85 21 87 3c
       -0.0063503413 -0.020815752 -0.0064330706 0.016495476
0000d0 ca 27 66 3b 94 dc 57 3d ad df 16 3c f0 4f fa 3c
       0.003511893 0.052700594 0.009208602 0.030555695
0000e0 12 e0 70 3d d5 3b 81 3c d9 4b 77 bd f4 d0 5c bc
       0.05880744 0.0157756 -0.06037507 -0.013477553
0000f0 ac f5 7f bc d3 bd 80 3d 0f d2 8f bd 98 70 83 bc
       -0.015622538 0.06286206 -0.07022487 -0.0160449
000100 1c aa c8 3c 91 74 8f 3d 10 fe f1 3c 53 3c 81 3c
       0.024495177 0.07004655 0.029540092 0.015775835
000110 b6 d6 10 bd 9b 29 09 3d 89 a4 19 bb b5 8d 4e bb
       -0.035361014 0.033486944 -0.0023444018 -0.003151757
000120 f4 7d 87 3c 21 e8 d0 bc 58 cf 88 bb d5 14 4e 3d
       0.016539551 -0.025501313 -0.004175108 0.050312836
000130 de 1c 1a bc 7f 5b 04 3d c0 7b e3 bc 8f a2 32 bc
       -0.009406297 0.03231382 -0.02776897 -0.010903015
000140 65 78 1c 3d bd 1c 37 bd 5f cb 74 3d 8f 6f 33 bd
       0.038200755 -0.04470514 0.059764262 -0.043807562
000150 5c 6a d3 bc 5e 23 51 3d af 90 a3 3c 98 00 65 bd
       -0.025807552 0.05105912 0.019966451 -0.05590877
000160 2b 14 3e bb f0 8f 13 bd aa ec 31 bd 38 d9 0b bd
       -0.002900372 -0.03602594 -0.04343859 -0.034142703
000170 76 d9 7c bd 6c 18 46 bb c9 32 28 3d 59 33 7b bd
       -0.061730824 -0.003022696 0.041064057 -0.061328266
000180 5a 8c c4 bc 6b 40 45 bc 60 b0 38 bc ac 72 a4 3c
       -0.023992706 -0.012039284 -0.01127252 0.020074211
000190 41 74 8f 3c 10 7c 9c 3d e7 fb 75 bc cc 99 41 3d
       0.017511489 0.076408505 -0.0150136715 0.047265813
0001a0 e0 d5 18 bd 83 e0 4f bc 4d ba 24 bc e9 99 5c bd
       -0.037313342 -0.012687805 -0.010054183 -0.053857718
0001b0 a8 6e 83 bc dd 47 e9 bc 0c 64 1e 3d bd 5d 50 bd
       -0.016043976 -0.02847665 0.03866963 -0.050870646
0001c0 cb b2 a0 3c a4 4d bd 39 a2 df 71 3d 21 58 24 bd
       0.019616505 0.00036106736 0.059051163 -0.04012311
0001d0 8b 34 21 3c 68 0d 25 3d d2 9a 56 bd 59 3b fc bc
       0.009839187 0.04029599 -0.052393742 -0.030790018
0001e0 86 79 36 3b 1e ea 08 bd c3 5c 26 3b 62 17 a2 3c
       0.002784343 -0.033426397 0.002538488 0.01978654
0001f0 26 89 35 bd 54 42 50 bd f5 e7 5f bd e5 af 81 3d
       -0.044320248 -0.050844505 -0.05466457 0.06332377
000200 ec 68 b9 bc 1c 5d 8f bd f2 77 0a bd a7 05 c3 3c
       -0.022633038 -0.07000181 -0.033805795 0.023806406
000210 f9 1e 58 3c 99 c0 f1 3b 0a 88 0e bd 40 bc 4d 3b
       0.013190978 0.0073776958 -0.034797706 0.0031392723
000220 4c 2f 79 3d 04 3d 4a 3c 9a 82 8a bd a9 f9 05 bd
       0.06083612 0.012343649 -0.067631915 -0.032708798
000230 d8 6f 84 bd 49 37 ae bc 1c 63 4b bc 7b ca 8b bc
       -0.06466645 -0.021266596 -0.012413766 -0.017064324
000240 ef 93 73 bd 11 f1 5d bd 38 43 5d bd 31 50 8e bc
       -0.059467252 -0.054184977 -0.054019183 -0.017372223
000250 59 4c d6 ba 2a 35 a5 bb d7 8b 8f 3d 9c 3f 40 bd
       -0.0016349658 -0.005041738 0.07009094 -0.046935663
000260 ec a1 04 3d 24 32 a1 bc a8 54 aa 3c 52 62 2a bd
       0.032380983 -0.01967723 0.02079232 -0.04159767
000270 25 ad 72 3b 8f 40 88 bc 1e 23 57 bd a6 7b 4e bd
       0.0037029472 -0.016632346 -0.052523725 -0.05041089
000280 b8 b6 dd bc 2a 37 62 bc 5e 8b 5f bd 52 8e 0d 3d
       -0.027064666 -0.013807097 -0.05457627 0.034559555
000290 f2 a4 76 3c 8a 68 95 bd 4c 09 cd bb 55 25 5c bd
       0.015053974 -0.0729533 -0.006257212 -0.05374654
0002a0 7f 26 6e 3c 42 36 41 bd 57 dc a1 ba a9 2a 2e bd
       0.014535545 -0.047170885 -0.0012348992 -0.042521153
0002b0 ec 7e 11 3d bf e9 d6 3c 0a 74 9f bb 54 c6 92 3d
       0.035521433 0.026234506 -0.004866128 0.07166734
0002c0 ab e0 b7 bc 7d 39 2e bd 6a de d0 3c d3 a9 08 bc
       -0.022445997 -0.042535294 0.02549668 -0.0083412705
0002d0 29 b2 3b bc 70 b0 5b 3b b6 94 1b 3d f6 a0 e7 3c
       -0.011456051 0.0033521913 0.03798362 0.028274994
0002e0 bd c2 0d 3c 9e 96 91 3c 71 af fa ba 6a 96 26 3c
       0.008652386 0.017772015 -0.0019125772 0.010167697
0002f0 78 b0 91 bc 30 4d 6a ba 94 90 17 bd a0 7b 02 3d
       -0.017784342 -0.00089378934 -0.037003115 0.03185618
000300 9c 52 1e bd 47 43 27 3d 38 45 19 bc 3b 51 1f bc
       -0.038653 0.040835645 -0.009354882 -0.009723957
000310 d8 08 4d bd 2b 8c 47 3c cd 59 a6 3c a8 d7 60 3d
       -0.050057262 0.012179415 0.020306492 0.054893166
000320 1d 97 3e 3c 7b 9b ca bc 40 4f 87 ba 93 17 0a 3d
       0.011632708 -0.024732342 -0.0010323301 0.03371389
000330 87 f4 cf 3c 9a 0c c6 3b 5d f8 21 3c 44 ed 8c 3d
       0.025385154 0.0060439827 0.009885875 0.06881192
000340 91 34 03 3d 2a 4b 63 3d 8c a8 d2 bc 91 2b 6d bd
       0.032032553 0.055491604 -0.025715135 -0.057902876
000350 f2 64 51 3c 47 40 4d 3d 49 43 3c 3b 0f cf 40 bd
       0.012780415 0.050110128 0.0028726629 -0.047072466
000360 a7 a9 81 3b 74 24 65 bd 6d 04 b5 3c ec c5 f7 bc
       0.0039569917 -0.055942968 0.022096837 -0.030245744
000370 29 cd 00 3d 04 f2 73 3d a8 c3 f6 bb 1c 46 ed 3c
       0.031445656 0.059556976 -0.0075306483 0.028964095
000380 93 57 9e bc 08 fc 31 bd f4 01 ce 3a 94 92 37 bc
       -0.019328868 -0.043453246 0.0015717135 -0.011204381
000390 e3 53 53 bb 39 01 0b bd 8b ac 57 bd c5 68 f8 3a
       -0.0032246045 -0.033936713 -0.052654784 0.0018952122
0003a0 6a 40 01 bd a5 49 75 3c 59 54 cc bc 8d f6 91 3c
       -0.03155557 0.0149711715 -0.024942564 0.01781776
0003b0 f5 3f 14 bd 68 ac da 3b 44 b9 51 3c c3 b4 89 bb
       -0.036193807 0.0066733845 0.012800518 -0.0042024567
0003c0 7d 28 b3 3c 76 4d 18 bd 30 d6 ab bc ed 8a 4f bd
       0.021869892 -0.037183248 -0.020976156 -0.0506696
0003d0 ec a6 e0 3c 2d 1b 11 bc 30 0f 3b 3d 56 e8 c9 3b
       0.027423345 -0.008856577 0.04566878 0.00616173
0003e0 ba 03 84 bb 73 4c a6 bc a1 4b 86 ba c5 0a 83 3d
       -0.0040287646 -0.020300126 -0.0010245928 0.063985385
0003f0 0d 76 27 bd 02 3b 9b bc 8b d0 99 bd 0f 06 ca 3c
       -0.040884066 -0.018949036 -0.075104795 0.024661092

bias f4 [5]
000000 ec 2f 35 bd 5e b9 3c bc 73 d9 4b 3d 94 03 5d 3b
       -0.044235155 -0.011518804 0.049767923 0.0033724057
000010 7f 37 bc 3b
       0.0057439203
