results/checkpoints/logistic_on_simclr/lightning_logs/version_0/checkpoints/epoch=11-step=1716.ckpt (torch, 5927 bytes, 4 tensors)

net.1.weight f4 [5, 100]
00000000: 81ab b53d 21b0 b93c 642d 2abd 374c 4e3d
00000010: b1fb c3bc ede1 0ebd 1c61 2c3d 38ec 353c
00000020: 54a2 f7bc feeb 5abc 9c45 e53a 3346 6f3c
00000030: 29b9 803d 5a8b 1cbd 03b8 d13c f8d2 703b
00000040: 11fd 113d f3d0 063d 1916 71bd 20bc ac3c
00000050: 65cd e8bd 7fa2 993c 46a5 5cbc 724c 093e
00000060: 575a 3ebd 2ab5 d0b9 330f 92bc 8be4 00bd
00000070: f210 2dbc c2b7 79bd 2571 cd3b 9207 4dbd
00000080: fc45 9a3d fd42 f93c e8b9 bcbd ed02 4e3d
00000090: 1835 ebbc afe5 013d ac30 3d3d e9d6 46bd
000000a0: 8bfd c73c 981b f5bc 261a e73b 9080 2bbd
000000b0: a431 633d 607c 17bd e91d a03c 7c7c 6e3d
000000c0: c353 a43c 067a 6abd 590e 64bd 22ef b2bc
000000d0: df5f 80bd 6c4a 293d 5375 393d 0775 05bd
000000e0: 915c 243d 408b 073d 7f8f 9c3d 3f84 98bd
000000f0: 06ed 2c3d 6eb3 8abd 10ec 843c 591b 0abd
00000100: 64f8 273c 8297 7ebd 9cb0 713d 741e 8fbd
00000110: 72c7 9dbd 045d aabc a5f0 da3d a243 613d
00000120: 7aab b13d ca3a a9bd cf5a ebbb ec1a f1bc
00000130: 4c1f adbd 4e86 293d b77c 593c 6059 99bd
00000140: fd63 7bbc c147 b7bd 69ed c33c e629 42bc
00000150: 4c2d 203b 0040 563b 2f24 303c 6452 0e3d
00000160: 9b0c 0abc d8c8 23bc 824e b2bc 31e2 13bd
00000170: d008 673d 2ed9 e8bc 5dd7 1a3d e0a6 9fbd
00000180: 2d42 633d 21ed 36bd 8050 cb3b 31a6 d1bd
00000190: 5934 d8bc b33e 853d b621 73ba 666f fa3c
000001a0: eef7 05bc 6a52 c0bc b4af a5bd 3d58 59bd
000001b0: 388d c7bd 38e0 d5bc 1f70 803d eb89 7b3d
000001c0: 441d 2d3c ed80 0abd 2cbe ebbc b6c1 113d
000001d0: 5398 963d 2e7a febb 7d5a 99bd 6190 34bd
000001e0: 39db 43bd 858c f1bb 8a2b 983a 6518 04bd
000001f0: bc9f 03bd 9b65 213d 864a 1abc c1c0 8cbd
00000200: af18 2b3d 2a70 98bd f052 1fbd 7a75 503d
00000210: c98f 9bbc 65b2 983c 4516 063d 45c3 93bc
00000220: b323 fcbb 7bb2 6ebd 726d 2a3d 0a31 8fbb
00000230: 7b1c 243d d99a b6bd 771d a93d 7e83 05bd
00000240: 9b7c 20bd b729 0d3b 68e7 803d ed49 423d
00000250: 8940 913d 8583 fcbb 18dc c1bc a873 a9bd
00000260: 4382 71bd 10aa 7cbd 9c07 8a3d 7452 7cbd
00000270: 82b4 543d 9f65 a63b ccec ff3c 40db a3bd
00000280: 8127 5c3d 588b 01bd b1be 3a3d 6318 a4bd
00000290: aecd 843d 6013 5bbb 3b99 d3bc 45e1 533d
000002a0: 0c24 fe3c 090f f23b 726c e0bc 4d75 2bbc
000002b0: 6986 663d 1350 9bbc da91 2bbd dd71 89ba
000002c0: a3f9 5abd a252 2a3d 04bf d23d eb26 11bd
000002d0: d1d3 adbc 73c7 89bb 2362 ac3c c080 59bc
000002e0: 6c58 fb3c 9f7c bb3c daa7 81bc 5199 953c
000002f0: 566c d6bc a126 a0bc 94ed 023c 1674 afbd
00000300: 8589 0b3d cebd 0d3d 21de 013c 47aa febb
00000310: 4459 003c 27e5 893c bddc 333c 4ae1 acbb
00000320: 7b78 97bd 7bbd 9e3d c3a4 523d b54a a83c
00000330: 4191 d6bc 7f30 0abd a0cf eabd 61dd c2bc
00000340: 5b84 adbc f4c5 f83c b1dd 533d 2714 103d
00000350: ccb4 a9bd 2221 c23c 06ee 873c 92fe bb3d
00000360: 3a3d 6f3d 5868 3cbd 3c8f 033d c330 c2bc
00000370: 09cf 0bbd 9a9e 0d3d b0da 06bd 6789 28bd
00000380: 154f a0bd fc43 4cbd 2509 003d 13f5 11bd
00000390: 9941 7fbd fcb1 93bd 64de 163d f216 52ba
000003a0: 04cb 1cbc 5871 963d 1226 35bc dc9a c93c
000003b0: 319d 7a3b 695b 18bd 7127 6fbd a5df acbd
000003c0: 8667 3e3d 1066 d4bc ca79 07bc a179 3abd
000003d0: e830 55bc 100c 15bd 9a4a 50bc 03bc 0f3d
000003e0: db27 9abb 5eb6 733d 1a9c 693c 3032 b5bd
000003f0: b876 293d d234 15bc c67e b8bc 48f1 dcbc
0.088706024 0.022666993 -0.041547194 0.050365653 -0.023923727 -0.03488343 0.0420848 0.011103682
-0.030228771 -0.013361929 0.0017492059 0.014604139 0.062853165 -0.038218834 0.025600439 0.003674684
0.035641734 0.032914113 -0.058858965 0.021085799 -0.11367301 0.018754242 -0.013467139 0.13408068
-0.046472874 -0.0003980783 -0.017829513 -0.031467956 -0.010563122 -0.06096626 0.0062695914 -0.050056048
0.0753288 0.03042745 -0.09215146 0.05029576 -0.02871184 0.031713184 0.046188995 -0.048544798
0.02441289 -0.029920384 0.0070526777 -0.041870654 0.055467263 -0.036983848 0.019545512 0.058224186
0.020059472 -0.057245277 -0.055677745 -0.021842543 -0.06268286 0.04133074 0.045277905 -0.03258231
0.04012734 0.033091784 0.07644557 -0.07447099 0.04221823 -0.06772505 0.016225845 -0.033717487
0.010252092 -0.062156208 0.05900632 -0.0698823 -0.07704057 -0.020796306 0.106904306 0.05499614
0.08675285 -0.08263166 -0.007182456 -0.029431783 -0.08453235 0.04138785 0.013274363 -0.0748775
-0.015343663 -0.08949233 0.023916917 -0.01185081 0.0024441062 0.0032691956 0.010750814 0.034746543
-0.008425857 -0.009996615 -0.021765951 -0.036104385 0.05640489 -0.028423872 0.037803043 -0.07795501
0.055483032 -0.044659737 0.0062046647 -0.102367766 -0.026392149 0.065060996 -0.00092747377 0.030570697
-0.008176787 -0.023476798 -0.08090153 -0.053062666 -0.09743732 -0.026107892 0.062713854 0.061410826
0.0105660595 -0.03381436 -0.028777204 0.035585128 0.07353272 -0.00776603 -0.074879624 -0.044083003
-0.04781649 -0.0073714876 0.0011609655 -0.032249827 -0.032134756 0.03940354 -0.009417182 -0.068727024
0.041771587 -0.074432686 -0.038897455 0.050893284 -0.01898946 0.018639753 0.03273608 -0.018037448
-0.0076946854 -0.05827568 0.04160828 -0.0043698596 0.040066224 -0.089162536 0.08257573 -0.032596104
-0.039181333 0.0021539757 0.06294137 0.047433782 0.07092387 -0.007706108 -0.02366452 -0.08274013
-0.058962118 -0.06168562 0.067397326 -0.06160207 0.05192996 0.005078032 0.031240843 -0.08000803
0.05374861 -0.03162703 0.045592014 -0.08012464 0.06484543 -0.0033428296 -0.025829902 0.051728506
0.031023048 0.0073870462 -0.02739546 -0.010464978 0.056280527 -0.01895908 -0.04188714 -0.0010486204
-0.05346073 0.04158271 0.102903396 -0.035437506 -0.021219166 -0.0042046844 0.021042889 -0.013275325
0.030681811 0.022886572 -0.015827108 0.018261584 -0.026174705 -0.01954967 0.007991213 -0.085670635
0.034066696 0.03460484 0.007926495 -0.0077717635 0.007833783 0.016832901 0.010977921 -0.00527588
-0.07396027 0.07750984 0.05142666 0.020543436 -0.02619231 -0.033737656 -0.114653826 -0.023787202
-0.021181276 0.030367829 0.051725093 0.03517547 -0.082864374 0.02369744 0.01659299 0.09179415
0.058408 -0.045997947 0.03211902 -0.023704892 -0.03413299 0.034575082 -0.0329234 -0.041146662
-0.07827584 -0.049869522 0.03125872 -0.03563411 -0.06231842 -0.07211682 0.036833182 -0.00080142834
-0.009569887 0.07345837 -0.01105644 0.024609976 0.0038240666 -0.03719655 -0.058387224 -0.08441094
0.046485446 -0.025927573 -0.008268783 -0.04552615 -0.013012148 -0.036388457 -0.012713099 0.03509141
-0.004704458 0.05950009 0.014258409 -0.08847463 0.041372985 -0.009106832 -0.022521388 -0.02697052

net.1.bias f4 [5]
00000000: f458 cabb ee00 8bbd f55b 5f3d 592f f73c
00000010: 52a0 613d
-0.006175155 -0.06787287 0.054531056 0.030173944 0.055084534

weight f4 [5, 100]
00000000: 81ab b53d 21b0 b93c 642d 2abd 374c 4e3d
00000010: b1fb c3bc ede1 0ebd 1c61 2c3d 38ec 353c
00000020: 54a2 f7bc feeb 5abc 9c45 e53a 3346 6f3c
00000030: 29b9 803d 5a8b 1cbd 03b8 d13c f8d2 703b
00000040: 11fd 113d f3d0 063d 1916 71bd 20bc ac3c
00000050: 65cd e8bd 7fa2 993c 46a5 5cbc 724c 093e
00000060: 575a 3ebd 2ab5 d0b9 330f 92bc 8be4 00bd
00000070: f210 2dbc c2b7 79bd 2571 cd3b 9207 4dbd
00000080: fc45 9a3d fd42 f93c e8b9 bcbd ed02 4e3d
00000090: 1835 ebbc afe5 013d ac30 3d3d e9d6 46bd
000000a0: 8bfd c73c 981b f5bc 261a e73b 9080 2bbd
000000b0: a431 633d 607c 17bd e91d a03c 7c7c 6e3d
000000c0: c353 a43c 067a 6abd 590e 64bd 22ef b2bc
000000d0: df5f 80bd 6c4a 293d 5375 393d 0775 05bd
000000e0: 915c 243d 408b 073d 7f8f 9c3d 3f84 98bd
000000f0: 06ed 2c3d 6eb3 8abd 10ec 843c 591b 0abd
00000100: 64f8 273c 8297 7ebd 9cb0 713d 741e 8fbd
00000110: 72c7 9dbd 045d aabc a5f0 da3d a243 613d
00000120: 7aab b13d ca3a a9bd cf5a ebbb ec1a f1bc
00000130: 4c1f adbd 4e86 293d b77c 593c 6059 99bd
00000140: fd63 7bbc c147 b7bd 69ed c33c e629 42bc
00000150: 4c2d 203b 0040 563b 2f24 303c 6452 0e3d
00000160: 9b0c 0abc d8c8 23bc 824e b2bc 31e2 13bd
00000170: d008 673d 2ed9 e8bc 5dd7 1a3d e0a6 9fbd
00000180: 2d42 633d 21ed 36bd 8050 cb3b 31a6 d1bd
00000190: 5934 d8bc b33e 853d b621 73ba 666f fa3c
000001a0: eef7 05bc 6a52 c0bc b4af a5bd 3d58 59bd
000001b0: 388d c7bd 38e0 d5bc 1f70 803d eb89 7b3d
000001c0: 441d 2d3c ed80 0abd 2cbe ebbc b6c1 113d
000001d0: 5398 963d 2e7a febb 7d5a 99bd 6190 34bd
000001e0: 39db 43bd 858c f1bb 8a2b 983a 6518 04bd
000001f0: bc9f 03bd 9b65 213d 864a 1abc c1c0 8cbd
00000200: af18 2b3d 2a70 98bd f052 1fbd 7a75 503d
00000210: c98f 9bbc 65b2 983c 4516 063d 45c3 93bc
00000220: b323 fcbb 7bb2 6ebd 726d 2a3d 0a31 8fbb
00000230: 7b1c 243d d99a b6bd 771d a93d 7e83 05bd
00000240: 9b7c 20bd b729 0d3b 68e7 803d ed49 423d
00000250: 8940 913d 8583 fcbb 18dc c1bc a873 a9bd
00000260: 4382 71bd 10aa 7cbd 9c07 8a3d 7452 7cbd
00000270: 82b4 543d 9f65 a63b ccec ff3c 40db a3bd
00000280: 8127 5c3d 588b 01bd b1be 3a3d 6318 a4bd
00000290: aecd 843d 6013 5bbb 3b99 d3bc 45e1 533d
000002a0: 0c24 fe3c 090f f23b 726c e0bc 4d75 2bbc
000002b0: 6986 663d 1350 9bbc da91 2bbd dd71 89ba
000002c0: a3f9 5abd a252 2a3d 04bf d23d eb26 11bd
000002d0: d1d3 adbc 73c7 89bb 2362 ac3c c080 59bc
000002e0: 6c58 fb3c 9f7c bb3c daa7 81bc 5199 953c
000002f0: 566c d6bc a126 a0bc 94ed 023c 1674 afbd
00000300: 8589 0b3d cebd 0d3d 21de 013c 47aa febb
00000310: 4459 003c 27e5 893c bddc 333c 4ae1 acbb
00000320: 7b78 97bd 7bbd 9e3d c3a4 523d b54a a83c
00000330: 4191 d6bc 7f30 0abd a0cf eabd 61dd c2bc
00000340: 5b84 adbc f4c5 f83c b1dd 533d 2714 103d
00000350: ccb4 a9bd 2221 c23c 06ee 873c 92fe bb3d
00000360: 3a3d 6f3d 5868 3cbd 3c8f 033d c330 c2bc
00000370: 09cf 0bbd 9a9e 0d3d b0da 06bd 6789 28bd
00000380: 154f a0bd fc43 4cbd 2509 003d 13f5 11bd
00000390: 9941 7fbd fcb1 93bd 64de 163d f216 52ba
000003a0: 04cb 1cbc 5871 963d 1226 35bc dc9a c93c
000003b0: 319d 7a3b 695b 18bd 7127 6fbd a5df acbd
000003c0: 8667 3e3d 1066 d4bc ca79 07bc a179 3abd
000003d0: e830 55bc 100c 15bd 9a4a 50bc 03bc 0f3d
000003e0: db27 9abb 5eb6 733d 1a9c 693c 3032 b5bd
000003f0: b876 293d d234 15bc c67e b8bc 48f1 dcbc
0.088706024 0.022666993 -0.041547194 0.050365653 -0.023923727 -0.03488343 0.0420848 0.011103682
-0.030228771 -0.013361929 0.0017492059 0.014604139 0.062853165 -0.038218834 0.025600439 0.003674684
0.035641734 0.032914113 -0.058858965 0.021085799 -0.11367301 0.018754242 -0.013467139 0.13408068
-0.046472874 -0.0003980783 -0.017829513 -0.031467956 -0.010563122 -0.06096626 0.0062695914 -0.050056048
0.0753288 0.03042745 -0.09215146 0.05029576 -0.02871184 0.031713184 0.046188995 -0.048544798
0.02441289 -0.029920384 0.0070526777 -0.041870654 0.055467263 -0.036983848 0.019545512 0.058224186
0.020059472 -0.057245277 -0.055677745 -0.021842543 -0.06268286 0.04133074 0.045277905 -0.03258231
0.04012734 0.033091784 0.07644557 -0.07447099 0.04221823 -0.06772505 0.016225845 -0.033717487
0.010252092 -0.062156208 0.05900632 -0.0698823 -0.07704057 -0.020796306 0.106904306 0.05499614
0.08675285 -0.08263166 -0.007182456 -0.029431783 -0.08453235 0.04138785 0.013274363 -0.0748775
-0.015343663 -0.08949233 0.023916917 -0.01185081 0.0024441062 0.0032691956 0.010750814 0.034746543
-0.008425857 -0.009996615 -0.021765951 -0.036104385 0.05640489 -0.028423872 0.037803043 -0.07795501
0.055483032 -0.044659737 0.0062046647 -0.102367766 -0.026392149 0.065060996 -0.00092747377 0.030570697
-0.008176787 -0.023476798 -0.08090153 -0.053062666 -0.09743732 -0.026107892 0.062713854 0.061410826
0.0105660595 -0.03381436 -0.028777204 0.035585128 0.07353272 -0.00776603 -0.074879624 -0.044083003
-0.04781649 -0.0073714876 0.0011609655 -0.032249827 -0.032134756 0.03940354 -0.009417182 -0.068727024
0.041771587 -0.074432686 -0.038897455 0.050893284 -0.01898946 0.018639753 0.03273608 -0.018037448
-0.0076946854 -0.05827568 0.04160828 -0.0043698596 0.040066224 -0.089162536 0.08257573 -0.032596104
-0.039181333 0.0021539757 0.06294137 0.047433782 0.07092387 -0.007706108 -0.02366452 -0.08274013
-0.058962118 -0.06168562 0.067397326 -0.06160207 0.05192996 0.005078032 0.031240843 -0.08000803
0.05374861 -0.03162703 0.045592014 -0.08012464 0.06484543 -0.0033428296 -0.025829902 0.051728506
0.031023048 0.0073870462 -0.02739546 -0.010464978 0.056280527 -0.01895908 -0.04188714 -0.0010486204
-0.05346073 0.04158271 0.102903396 -0.035437506 -0.021219166 -0.0042046844 0.021042889 -0.013275325
0.030681811 0.022886572 -0.015827108 0.018261584 -0.026174705 -0.01954967 0.007991213 -0.085670635
0.034066696 0.03460484 0.007926495 -0.0077717635 0.007833783 0.016832901 0.010977921 -0.00527588
-0.07396027 0.07750984 0.05142666 0.020543436 -0.02619231 -0.033737656 -0.114653826 -0.023787202
-0.021181276 0.030367829 0.051725093 0.03517547 -0.082864374 0.02369744 0.01659299 0.09179415
0.058408 -0.045997947 0.03211902 -0.023704892 -0.03413299 0.034575082 -0.0329234 -0.041146662
-0.07827584 -0.049869522 0.03125872 -0.03563411 -0.06231842 -0.07211682 0.036833182 -0.00080142834
-0.009569887 0.07345837 -0.01105644 0.024609976 0.0038240666 -0.03719655 -0.058387224 -0.08441094
0.046485446 -0.025927573 -0.008268783 -0.04552615 -0.013012148 -0.036388457 -0.012713099 0.03509141
-0.004704458 0.05950009 0.014258409 -0.08847463 0.041372985 -0.009106832 -0.022521388 -0.02697052

bias f4 [5]
00000000: f458 cabb ee00 8bbd f55b 5f3d 592f f73c
00000010: 52a0 613d
-0.006175155 -0.06787287 0.054531056 0.030173944 0.055084534
