results/checkpoints/logistic_on_simclr/lightning_logs/version_0/checkpoints/last.ckpt (torch, 5927 bytes, 4 tensors)

net.1.weight f4 [5, 100]
00000000: e0a4 a63d 409e c93c e5ef 3fbd 09c5 523d
00000010: 8fa0 c1bc e4a0 23bd a8e7 003d f315 1e3c
00000020: c3fd f5bc b6c7 39bc eefd 89bb f7e9 193c
00000030: fce2 8b3d 235b f3bc d3ff c73c 213b 103c
00000040: af85 0c3d b86d f03c bf85 7cbd 1113 9b3c
00000050: bc91 e5bd 11b1 af3c c93a 8ebc 1159 0a3e
00000060: ee08 5bbd 2c1e 36bc 19da 9abc 4144 05bd
00000070: 3d13 46bc 5714 72bd 59e0 e5ba 79e3 40bd
00000080: 446a 923d 753c 153d 80bc b2bd 9d45 5a3d
00000090: 2d1f fcbc 81b7 c63c b267 523d e4f7 5ebd
000000a0: 1c40 e83c 9571 e5bc 3fda ea3b 30cc 3abd
000000b0: 1231 5e3d 27f4 18bd e6d1 763c 09a7 743d
000000c0: 7fb0 973c 8e6d 67bd 84b2 5dbd bd4e bcbc
000000d0: e55e 65bd 3748 3a3d e48f 473d 43d6 0cbd
000000e0: 0867 263d 8a80 f43c b6c4 a13d 9537 90bd
000000f0: ff49 153d 409d 83bd 11ef 8d3c ce6b 15bd
00000100: 18cc 353c 0e67 7cbd f8b7 7c3d 0fb6 8cbd
00000110: 0401 adbd e47b 58bc ca4e d93d 6079 773d
00000120: 9a58 b53d 2a36 afbd 6ca6 7bbb 37cc e7bc
00000130: 4c0a b9bd 8a2b 133d c978 263c c651 a1bd
00000140: 66a1 37bc 666c b8bd cacb bd3c 6490 57bc
00000150: f625 45ba ee92 293b c851 d13b 63b7 2d3d
00000160: ef7e 17bc 3ea7 46bc 79a8 8abc 0e2c 05bd
00000170: 1e5b 593d 6b10 29bd 29b4 3a3d fed9 a3bd
00000180: 4d5a 593d a980 25bd dff6 383c 95ad cabd
00000190: 0a46 adbc a1a7 833d 1771 e8ba b832 043d
000001a0: f34a fdbb beca b1bc 7937 99bd 4462 4fbd
000001b0: 32f6 c9bd ea51 c0bc 95e4 703d ca12 783d
000001c0: 37c8 8d3b 34db 0dbd c46d 86bc c67a 1e3d
000001d0: 57de 953d 1e04 21bc 513f 9cbd fc1e 2ebd
000001e0: a5f5 5bbd 8bd2 d2bb fbca e43b 90e2 f9bc
000001f0: 71c0 09bd 9572 353d 5501 d0bb eef8 83bd
00000200: 23e3 293d 3f50 91bd 5d75 15bd b185 5d3d
00000210: 4ce4 8fbc 7749 703c 69a0 0a3d f6b8 85bc
00000220: 152d 36bc 78d3 63bd 73a9 393d 9967 fdba
00000230: 5245 143d 17fa afbd 56d5 a93d 6f9d e4bc
00000240: 63ae 26bd ef0a e83a aae4 7e3d 14e9 433d
00000250: 6ddd 923d c812 57bb 3c00 d0bc d8eb abbd
00000260: 4c79 7dbd f3c2 81bd 5353 853d e5f4 67bd
00000270: 4c40 4b3d e6b5 eb3b eea2 023d 65cb aabd
00000280: 0f05 613d 83ff ffbc c50d 3c3d 6d32 a5bd
00000290: cfa5 863d 32cf 163b 2e27 d2bc c997 573d
000002a0: 8a17 063d bbc4 113c 217c abbc 4eef 22bc
000002b0: 6ed9 773d 79db 99bc cfe7 24bd 8fcd be3b
000002c0: a79b 42bd c456 273d b184 cc3d f986 17bd
000002d0: 2c96 c6bc e384 25bc ae84 a13c 0ec3 2cbc
000002e0: f021 f43c d1fc a63c 0bfb 94bc 4d49 a53c
000002f0: 1d06 d2bc 3429 8cbc c876 a23b ceb3 adbd
00000300: c5a2 f13c f7a0 f23c 5bf2 233c 9223 30bc
00000310: 0ed6 133c 9968 683c 6286 023c e879 f4bb
00000320: de5a 92bd 6ef7 993d 5c15 4f3d d082 a73c
00000330: 07ec f4bc 2ca1 08bd 1a99 e0bd f796 b9bc
00000340: 4473 92bc 9716 dd3c 157c 573d cdf8 1c3d
00000350: ec32 a4bd 6378 de3c 84cc 843c 8a70 bb3d
00000360: 27a7 5d3d 5048 32bd 7ca4 133d 4dd2 9bbc
00000370: 061e 0ebd bf96 003d b9eb fcbc 1391 30bd
00000380: ca55 96bd 5c0c 49bd 6e7e f63c 7c67 26bd
00000390: 28ac 77bd e35c 96bd f059 393d 3b02 c5bb
000003a0: 6ab1 38bc 2ec2 933d 7aab 7abc d152 c13c
000003b0: c602 bb3b 8335 f3bc 050d 6fbd fa49 a9bd
000003c0: ed51 413d 4949 e2bc 7234 08bc f920 3abd
000003d0: 5c4b 47bc 96ef f1bc c673 dbbb 0625 0a3d
000003e0: 0f3a a3ba 889b 743d 7724 833c b3bc b7bd
000003f0: b02d 2c3d af30 3ebc 8a41 adbc 0bd2 b9bc
0.08136916 0.024611592 -0.04685964 0.05145744 -0.02363613 -0.03994836 0.031470925 0.009648788
-0.03002823 -0.011339119 -0.004211179 0.0093941605 0.06830403 -0.029706543 0.024413979 0.00880316
0.034307178 0.029349193 -0.061650988 0.01892999 -0.11209437 0.021446737 -0.017362015 0.13510539
-0.053475313 -0.011115592 -0.018902825 -0.032535795 -0.012089548 -0.05910143 -0.0017538174 -0.047091935
0.07149175 0.03643461 -0.0872736 0.053289045 -0.030776585 0.024257423 0.051368423 -0.054435626
0.028350882 -0.028008262 0.0071671302 -0.045604885 0.054246016 -0.037342217 0.015064692 0.05972961
0.018516777 -0.056500964 -0.054125324 -0.022986764 -0.0559987 0.045479026 0.04872121 -0.034384023
0.040625602 0.029846448 0.07898848 -0.070418514 0.03644752 -0.064264774 0.01732591 -0.036479764
0.011096023 -0.061621718 0.061698884 -0.068706624 -0.08447459 -0.013213132 0.10610731 0.060418487
0.0885479 -0.08555253 -0.0038398756 -0.02829562 -0.09035167 0.035930194 0.010160633 -0.07876925
-0.011207914 -0.0900505 0.023168463 -0.013156984 -0.000752061 0.002587493 0.006387923 0.04241122
-0.009246572 -0.012124835 -0.016926037 -0.032512717 0.05306541 -0.041275423 0.04558197 -0.08000563
0.053064633 -0.040405903 0.011289327 -0.098963894 -0.021151561 0.06428457 -0.0017733899 0.03227493
-0.007729882 -0.02170312 -0.07481284 -0.050630823 -0.09861411 -0.02347656 0.058811743 0.060564794
0.004326846 -0.034632877 -0.016409762 0.038691305 0.073177986 -0.009827642 -0.07629264 -0.042510018
-0.05370106 -0.00643379 0.006982205 -0.030503541 -0.033630792 0.044298727 -0.006347815 -0.06443964
0.04147638 -0.07095384 -0.03648888 0.054082576 -0.017564915 0.014665953 0.033844385 -0.016323548
-0.011119147 -0.055621594 0.045327615 -0.0019333243 0.03619892 -0.08592623 0.08292644 -0.027907101
-0.040693652 0.0017703454 0.06222979 0.047829702 0.0717114 -0.003281759 -0.025390737 -0.08394593
-0.061883256 -0.06336012 0.065100335 -0.056630034 0.049621865 0.007193315 0.031893663 -0.08339576
0.054936465 -0.031249767 0.04591157 -0.080662586 0.06574594 0.0023011682 -0.025653448 0.052634988
0.032737292 0.008897002 -0.020933213 -0.00994475 0.06051009 -0.01878141 -0.040260132 0.0058228443
-0.047511723 0.04085423 0.099862464 -0.036993954 -0.02424153 -0.010102483 0.019716587 -0.010544552
0.029801339 0.020384224 -0.018186113 0.020176554 -0.02563768 -0.01710949 0.0049580075 -0.08481561
0.02949656 0.02961777 0.0100065125 -0.010750668 0.009023203 0.014185094 0.00796661 -0.0074608214
-0.07146238 0.075178966 0.05055748 0.020448118 -0.029897703 -0.03335683 -0.10966702 -0.022654993
-0.017877229 0.02698831 0.05260857 0.038323212 -0.08017525 0.027157014 0.016210802 0.091523245
0.054114487 -0.043525994 0.036045536 -0.019021178 -0.0346966 0.031393763 -0.03087412 -0.043107104
-0.07340582 -0.049084052 0.030089583 -0.040626034 -0.060466915 -0.073419355 0.045251787 -0.006012229
-0.011272768 0.07214771 -0.015299672 0.02359906 0.0057071177 -0.029688602 -0.058362026 -0.08266063
0.04719727 -0.027622836 -0.008313285 -0.0454416 -0.012163963 -0.029533189 -0.006697151 0.033726715
-0.0012453216 0.05971864 0.016008599 -0.089715384 0.04203576 -0.011608287 -0.021149416 -0.022683164

net.1.bias f4 [5]
00000000: 5b3e 90bb 8d68 8dbd 78b2 743d bee5 bf3c
00000010: 09c6 563d
-0.0044019646 -0.06904707 0.059740514 0.02342498 0.052434955

weight f4 [5, 100]
00000000: e0a4 a63d 409e c93c e5ef 3fbd 09c5 523d
00000010: 8fa0 c1bc e4a0 23bd a8e7 003d f315 1e3c
00000020: c3fd f5bc b6c7 39bc eefd 89bb f7e9 193c
00000030: fce2 8b3d 235b f3bc d3ff c73c 213b 103c
00000040: af85 0c3d b86d f03c bf85 7cbd 1113 9b3c
00000050: bc91 e5bd 11b1 af3c c93a 8ebc 1159 0a3e
00000060: ee08 5bbd 2c1e 36bc 19da 9abc 4144 05bd
00000070: 3d13 46bc 5714 72bd 59e0 e5ba 79e3 40bd
00000080: 446a 923d 753c 153d 80bc b2bd 9d45 5a3d
00000090: 2d1f fcbc 81b7 c63c b267 523d e4f7 5ebd
000000a0: 1c40 e83c 9571 e5bc 3fda ea3b 30cc 3abd
000000b0: 1231 5e3d 27f4 18bd e6d1 763c 09a7 743d
000000c0: 7fb0 973c 8e6d 67bd 84b2 5dbd bd4e bcbc
000000d0: e55e 65bd 3748 3a3d e48f 473d 43d6 0cbd
000000e0: 0867 263d 8a80 f43c b6c4 a13d 9537 90bd
000000f0: ff49 153d 409d 83bd 11ef 8d3c ce6b 15bd
00000100: 18cc 353c 0e67 7cbd f8b7 7c3d 0fb6 8cbd
00000110: 0401 adbd e47b 58bc ca4e d93d 6079 773d
00000120: 9a58 b53d 2a36 afbd 6ca6 7bbb 37cc e7bc
00000130: 4c0a b9bd 8a2b 133d c978 263c c651 a1bd
00000140: 66a1 37bc 666c b8bd cacb bd3c 6490 57bc
00000150: f625 45ba ee92 293b c851 d13b 63b7 2d3d
00000160: ef7e 17bc 3ea7 46bc 79a8 8abc 0e2c 05bd
00000170: 1e5b 593d 6b10 29bd 29b4 3a3d fed9 a3bd
00000180: 4d5a 593d a980 25bd dff6 383c 95ad cabd
00000190: 0a46 adbc a1a7 833d 1771 e8ba b832 043d
000001a0: f34a fdbb beca b1bc 7937 99bd 4462 4fbd
000001b0: 32f6 c9bd ea51 c0bc 95e4 703d ca12 783d
000001c0: 37c8 8d3b 34db 0dbd c46d 86bc c67a 1e3d
000001d0: 57de 953d 1e04 21bc 513f 9cbd fc1e 2ebd
000001e0: a5f5 5bbd 8bd2 d2bb fbca e43b 90e2 f9bc
000001f0: 71c0 09bd 9572 353d 5501 d0bb eef8 83bd
00000200: 23e3 293d 3f50 91bd 5d75 15bd b185 5d3d
00000210: 4ce4 8fbc 7749 703c 69a0 0a3d f6b8 85bc
00000220: 152d 36bc 78d3 63bd 73a9 393d 9967 fdba
00000230: 5245 143d 17fa afbd 56d5 a93d 6f9d e4bc
00000240: 63ae 26bd ef0a e83a aae4 7e3d 14e9 433d
00000250: 6ddd 923d c812 57bb 3c00 d0bc d8eb abbd
00000260: 4c79 7dbd f3c2 81bd 5353 853d e5f4 67bd
00000270: 4c40 4b3d e6b5 eb3b eea2 023d 65cb aabd
00000280: 0f05 613d 83ff ffbc c50d 3c3d 6d32 a5bd
00000290: cfa5 863d 32cf 163b 2e27 d2bc c997 573d
000002a0: 8a17 063d bbc4 113c 217c abbc 4eef 22bc
000002b0: 6ed9 773d 79db 99bc cfe7 24bd 8fcd be3b
000002c0: a79b 42bd c456 273d b184 cc3d f986 17bd
000002d0: 2c96 c6bc e384 25bc ae84 a13c 0ec3 2cbc
000002e0: f021 f43c d1fc a63c 0bfb 94bc 4d49 a53c
000002f0: 1d06 d2bc 3429 8cbc c876 a23b ceb3 adbd
00000300: c5a2 f13c f7a0 f23c 5bf2 233c 9223 30bc
00000310: 0ed6 133c 9968 683c 6286 023c e879 f4bb
00000320: de5a 92bd 6ef7 993d 5c15 4f3d d082 a73c
00000330: 07ec f4bc 2ca1 08bd 1a99 e0bd f796 b9bc
00000340: 4473 92bc 9716 dd3c 157c 573d cdf8 1c3d
00000350: ec32 a4bd 6378 de3c 84cc 843c 8a70 bb3d
00000360: 27a7 5d3d 5048 32bd 7ca4 133d 4dd2 9bbc
00000370: 061e 0ebd bf96 003d b9eb fcbc 1391 30bd
00000380: ca55 96bd 5c0c 49bd 6e7e f63c 7c67 26bd
00000390: 28ac 77bd e35c 96bd f059 393d 3b02 c5bb
000003a0: 6ab1 38bc 2ec2 933d 7aab 7abc d152 c13c
000003b0: c602 bb3b 8335 f3bc 050d 6fbd fa49 a9bd
000003c0: ed51 413d 4949 e2bc 7234 08bc f920 3abd
000003d0: 5c4b 47bc 96ef f1bc c673 dbbb 0625 0a3d
000003e0: 0f3a a3ba 889b 743d 7724 833c b3bc b7bd
000003f0: b02d 2c3d af30 3ebc 8a41 adbc 0bd2 b9bc
0.08136916 0.024611592 -0.04685964 0.05145744 -0.02363613 -0.03994836 0.031470925 0.009648788
-0.03002823 -0.011339119 -0.004211179 0.0093941605 0.06830403 -0.029706543 0.024413979 0.00880316
0.034307178 0.029349193 -0.061650988 0.01892999 -0.11209437 0.021446737 -0.017362015 0.13510539
-0.053475313 -0.011115592 -0.018902825 -0.032535795 -0.012089548 -0.05910143 -0.0017538174 -0.047091935
0.07149175 0.03643461 -0.0872736 0.053289045 -0.030776585 0.024257423 0.051368423 -0.054435626
0.028350882 -0.028008262 0.0071671302 -0.045604885 0.054246016 -0.037342217 0.015064692 0.05972961
0.018516777 -0.056500964 -0.054125324 -0.022986764 -0.0559987 0.045479026 0.04872121 -0.034384023
0.040625602 0.029846448 0.07898848 -0.070418514 0.03644752 -0.064264774 0.01732591 -0.036479764
0.011096023 -0.061621718 0.061698884 -0.068706624 -0.08447459 -0.013213132 0.10610731 0.060418487
0.0885479 -0.08555253 -0.0038398756 -0.02829562 -0.09035167 0.035930194 0.010160633 -0.07876925
-0.011207914 -0.0900505 0.023168463 -0.013156984 -0.000752061 0.002587493 0.006387923 0.04241122
-0.009246572 -0.012124835 -0.016926037 -0.032512717 0.05306541 -0.041275423 0.04558197 -0.08000563
0.053064633 -0.040405903 0.011289327 -0.098963894 -0.021151561 0.06428457 -0.0017733899 0.03227493
-0.007729882 -0.02170312 -0.07481284 -0.050630823 -0.09861411 -0.02347656 0.058811743 0.060564794
0.004326846 -0.034632877 -0.016409762 0.038691305 0.073177986 -0.009827642 -0.07629264 -0.042510018
-0.05370106 -0.00643379 0.006982205 -0.030503541 -0.033630792 0.044298727 -0.006347815 -0.06443964
0.04147638 -0.07095384 -0.03648888 0.054082576 -0.017564915 0.014665953 0.033844385 -0.016323548
-0.011119147 -0.055621594 0.045327615 -0.0019333243 0.03619892 -0.08592623 0.08292644 -0.027907101
-0.040693652 0.0017703454 0.06222979 0.047829702 0.0717114 -0.003281759 -0.025390737 -0.08394593
-0.061883256 -0.06336012 0.065100335 -0.056630034 0.049621865 0.007193315 0.031893663 -0.08339576
0.054936465 -0.031249767 0.04591157 -0.080662586 0.06574594 0.0023011682 -0.025653448 0.052634988
0.032737292 0.008897002 -0.020933213 -0.00994475 0.06051009 -0.01878141 -0.040260132 0.0058228443
-0.047511723 0.04085423 0.099862464 -0.036993954 -0.02424153 -0.010102483 0.019716587 -0.010544552
0.029801339 0.020384224 -0.018186113 0.020176554 -0.02563768 -0.01710949 0.0049580075 -0.08481561
0.02949656 0.02961777 0.0100065125 -0.010750668 0.009023203 0.014185094 0.00796661 -0.0074608214
-0.07146238 0.075178966 0.05055748 0.020448118 -0.029897703 -0.03335683 -0.10966702 -0.022654993
-0.017877229 0.02698831 0.05260857 0.038323212 -0.08017525 0.027157014 0.016210802 0.091523245
0.054114487 -0.043525994 0.036045536 -0.019021178 -0.0346966 0.031393763 -0.03087412 -0.043107104
-0.07340582 -0.049084052 0.030089583 -0.040626034 -0.060466915 -0.073419355 0.045251787 -0.006012229
-0.011272768 0.07214771 -0.015299672 0.02359906 0.0057071177 -0.029688602 -0.058362026 -0.08266063
0.04719727 -0.027622836 -0.008313285 -0.0454416 -0.012163963 -0.029533189 -0.006697151 0.033726715
-0.0012453216 0.05971864 0.016008599 -0.089715384 0.04203576 -0.011608287 -0.021149416 -0.022683164

bias f4 [5]
00000000: 5b3e 90bb 8d68 8dbd 78b2 743d bee5 bf3c
00000010: 09c6 563d
-0.0044019646 -0.06904707 0.059740514 0.02342498 0.052434955
