simclr_cnn_transformer_trainings1/logistic_on_simclr_IT_100pat/lightning_logs/version_0/checkpoints/epoch=38-step=43953.ckpt (torch, 7847 bytes, 6 tensors)

classifier.weight f4 [5, 184]
0.016782815 -0.04655719 0.013521417 -0.008181173 -0.009352602 -0.0064620837 0.030680455 0.02811664
-0.02137573 -0.030995667 -0.023107287 -0.011585337 -0.020216778 0.014052533 0.026685648 -0.0039984784
0.002332195 -0.011350738 -0.0017263212 0.013704908 0.02088472 -0.01810401 -0.018617356 -0.007632656
-0.005295911 -0.0009476794 -0.019213032 0.013334279 0.047282733 0.014543473 0.012384312 0.014626703
-0.0008407066 0.044560056 0.005178984 -0.008306016 -0.035403974 0.010876488 -0.0010925381 0.003262252
0.020747963 0.031083824 0.015354606 0.027286783 0.02720615 0.008852561 -0.0026173808 0.012629496
0.016338687 -0.02581292 -0.0003851846 -0.02555284 -0.020217685 -0.006243995 -0.01779151 0.016970698
-0.009985994 0.02700059 -0.025687251 0.0036284535 -0.007267695 -0.0033736855 -0.023068046 0.018722555
0.0067258286 0.00029293567 0.0054834816 0.031356223 -0.04194823 -0.023262348 -0.011054038 0.002649703
-0.03080261 0.02755863 0.0025274795 -0.005072171 -0.016699731 0.00722222 0.02834755 -0.024071854
0.016220858 0.013844812 -0.009801028 0.004248429 0.0069800024 0.009992668 -0.013491706 -0.0061103757
-0.0012531541 -0.033377826 -0.008036884 -0.0060923113 0.0043852082 -0.026388183 0.015451533 -0.0035028767
-0.03166924 0.0114553375 -0.026171809 -0.026640713 0.044737034 -0.022404438 0.004127046 0.0038467655
-0.03713119 -0.0022548256 0.019624751 0.0150937615 -0.027291458 0.0027238028 -0.0023035046 0.0053226114
-0.00881451 -0.015235847 0.020444945 -0.02618809 -0.016755985 0.0056397347 -0.015346897 -0.02065146
-0.022735585 0.0041285134 0.020060925 0.05831186 -0.017054284 -0.014956573 0.0029812828 -0.014803843
-0.009739086 -0.0022733554 -0.013781937 -0.005286565 -0.00942024 -0.0076336702 -0.01543879 -0.015255618
0.019402528 -0.0014495491 0.0086728735 0.0134873 0.04708227 -0.011645872 0.005857036 -0.005724107
-0.010340573 -0.046488054 -0.011348532 -0.01465296 0.004438818 0.019423112 -0.009966141 -0.009404647
-0.029840812 0.030090556 0.002207141 -0.01573477 0.0019039499 0.008560745 0.045719903 0.026199685
-0.008826274 0.005176865 -0.0026363905 0.0064572175 0.015336129 -0.011466776 -0.009868674 -0.02338856
0.046622872 -0.01583417 -0.025238946 -0.01798364 -0.006831917 0.009494756 0.0006982809 0.002011769
0.037790675 -0.052027706 0.018149821 -0.032360487 -0.028023819 0.016955122 -0.034056086 -0.013571004
0.011023057 -0.0270897 0.005862368 0.0068190927 -0.008317616 -0.009935237 0.020100856 -0.00049773493
-0.01771748 -0.057523765 -0.017407818 -0.008344218 -0.015650697 0.016938942 0.027202398 -0.013316916
0.014108675 0.0031752703 -0.029781424 0.03210956 0.018212136 -0.0076042055 -0.029467953 0.004999643
-0.003042276 -0.0067741247 -0.015240504 -0.024815321 0.017246464 0.020567624 -0.018251088 0.025231997
0.0061628763 0.03222933 0.01779636 -0.014812279 -0.020374686 0.010634031 0.02134773 0.016947363
0.028540175 0.02244512 0.017948728 0.024172885 0.010204735 0.02287175 0.0036035848 0.0060328105
-0.014916942 -0.022369934 -0.012755784 -0.015664022 -0.0216163 0.0069571086 0.008655346 0.015637137
-0.006564674 0.034339514 -0.019259026 0.0041783256 -0.019719262 -0.023835644 -0.015355552 -0.010220554
0.005209522 0.013401981 -0.011116057 0.030204846 -0.039008133 -0.0070312303 -0.020619946 0.012521475
00000000: 1d7c 893c c1b2 3ebd ef88 5d3c 540a 06bc
00000010: a83b 19bc e3bf d3bb 9455 fb3c de54 e63c
00000020: 281c afbc a0ea fdbc 7e4b bdbc 6dd0 3dbc
00000030: a89d a5bc 983c 663c dc9b da3c ab05 83bb
00000040: bdd7 183b 72f8 39bc ba45 e2ba 8d8a 603c
00000050: 6f16 ab3c dc4e 94bc 6d83 98bc 5c1b fabb
00000060: 5289 adbb b06d 78ba a664 9dbc 0578 5a3c
00000070: 8aab 413d bf47 6e3c 92e7 4a3c d7a4 6f3c
00000080: dd62 5cba 9b84 363d 77b4 a93b f515 08bc
00000090: c203 11bd 4c33 323c 7f33 8fba 82cb 553b
000000a0: a2f7 a93c 81a3 fe3c e391 7b3c 8888 df3c
000000b0: 6fdf de3c 550a 113c 5d88 2bbb f2eb 4e3c
000000c0: b6d8 853c 9e75 d3bc 9af2 c9b9 3154 d1bc
000000d0: 8f9f a5bc 6d9a ccbb 80bf 91bc 2206 8b3c
000000e0: 4b9c 23bc 5730 dd3c 126e d2bc 59cb 6d3b
000000f0: d825 eebb 0d19 5dbb 33f9 bcbc 0b60 993c
00000100: 5764 dc3b 2995 9939 c7ae b33b 626f 003d
00000110: e8d1 2bbd ae90 bebc ff1b 35bc a4a6 2d3b
00000120: c155 fcbc a3c2 e13c 12a4 253b 7434 a6bb
00000130: e0cd 88bc 5fa8 ec3b 1f39 e83c 5632 c5bc
00000140: 9be1 843c 5ad5 623c 7e94 20bc 6836 8b3b
00000150: 81b8 e43b 4ab8 233c 510c 5dbc 8c39 c8bb
00000160: e040 a4ba 30b7 08bd 22ad 03bc 03a2 c7bb
00000170: cbb1 8f3b 082c d8bc 6d28 7d3c 8590 65bb
00000180: 9bb7 01bd 2baf 3b3c 4366 d6bc a03d dabc
00000190: 2e3e 373d 8389 b7bc 2c3c 873b 041a 7c3b
000001a0: e016 18bd b2c5 13bb 16c4 a03c d34b 773c
000001b0: 5692 dfbc d481 323b 65f6 16bb 4d69 ae3b
000001c0: bc6a 10bc c69f 79bc 287c a73c 6888 d6bc
000001d0: d943 89bc 86cd b83b 8d71 7bbc 402d a9bc
000001e0: fa3f babc 7b48 873b cf56 a43c 6bd8 6e3d
000001f0: 6db5 8bbc 6a0c 75bc a061 433b d18b 72bc
00000200: b090 1fbc 93fc 14bb a2cd 61bc ec3a adbb
00000210: 5a57 1abc de23 fabb fbf2 7cbc b3f2 79bc
00000220: 0df2 9e3c ccfe bdba ab18 0e3c d6f9 5c3c
00000230: 57d9 403d 54ce 3ebc 61ec bf3b 4a91 bbbb
00000240: 826b 29bc 426a 3ebd 31ef 39bc f812 70bc
00000250: 8173 913b 381d 9f3c 0649 23bc f315 1abc
00000260: b874 f4bc 7880 f63c aea5 103b 34e6 80bc
00000270: f58d f93a 5e42 0c3c cb44 3b3d b9a0 d63c
00000280: 149c 10bc b1a2 a93b 4bc7 2cbb 1197 d33b
00000290: 6344 7b3c 25df 3bbc 38b0 21bc 5e99 bfbc
000002a0: a0f7 3e3d a9b6 81bc e8c1 cebc 6d52 93bc
000002b0: 46de dfbb e58f 1b3c d70c 373a e2d7 033b
000002c0: 65ca 1a3d 011b 55bd efae 943c 6e8c 04bd
000002d0: 3592 e5bc 78e5 8a3c 657e 0bbd eb58 5ebc
000002e0: 0d9a 343c 38eb ddbc 1b19 c03b b272 df3b
000002f0: 9c46 08bc 67c7 22bc 8daa a43c 6d7a 02ba
00000300: 4024 91bc 0a9e 6bbd d79a 8ebc 30b6 08bc
00000310: e435 80bc 89c3 8a3c 90d7 de3c 322f 5abc
00000320: 1228 673c 3218 503b 2cf8 f3bc 5085 033d
00000330: 9e31 953c b32c f9bb c766 f1bc 0cd4 a33b
00000340: ec60 47bb 7af9 ddbb 4fb3 79bc 8049 cbbc
00000350: 7548 8d3c 6f7d a83c 4e83 95bc 55b3 ce3c
00000360: f4f1 c93b e702 043d acc9 913c 33af 72bc
00000370: d0e8 a6bc 5c3a 2e3c 6fe1 ae3c 32d5 8a3c
00000380: 16cd e93c d4de b73c 3609 933c 3706 c63c
00000390: c331 273c 895d bb3c 1f2a 6c3b e2ae c53b
000003a0: 3166 74bc 2741 b7bc a3fd 50bc d651 80bc
000003b0: ab14 b1bc 75f8 e33b 27cf 0d3c 7419 803c
000003c0: 7a1c d7bb 97a7 0c3d 1bc5 9dbc 56ea 883b
000003d0: 4a8a a1bc f842 c3bc da95 7bbc 1c74 27bc
000003e0: a3b4 aa3b fc93 5b3c 1f20 36bc 2770 f73c
000003f0: fec6 1fbd 3c66 e6bb 29eb a8bc df26 4d3c

classifier.bias f4 [5]
0.04894655 -0.03266084 -0.045783248 -0.013067126 -0.02355055
00000000: 2d7c 483d 5fc7 05bd 3787 3bbd 8017 56bc
00000010: 15ed c0bc

net.1.weight f4 [5, 184]
0.016782815 -0.04655719 0.013521417 -0.008181173 -0.009352602 -0.0064620837 0.030680455 0.02811664
-0.02137573 -0.030995667 -0.023107287 -0.011585337 -0.020216778 0.014052533 0.026685648 -0.0039984784
0.002332195 -0.011350738 -0.0017263212 0.013704908 0.02088472 -0.01810401 -0.018617356 -0.007632656
-0.005295911 -0.0009476794 -0.019213032 0.013334279 0.047282733 0.014543473 0.012384312 0.014626703
-0.0008407066 0.044560056 0.005178984 -0.008306016 -0.035403974 0.010876488 -0.0010925381 0.003262252
0.020747963 0.031083824 0.015354606 0.027286783 0.02720615 0.008852561 -0.0026173808 0.012629496
0.016338687 -0.02581292 -0.0003851846 -0.02555284 -0.020217685 -0.006243995 -0.01779151 0.016970698
-0.009985994 0.02700059 -0.025687251 0.0036284535 -0.007267695 -0.0033736855 -0.023068046 0.018722555
0.0067258286 0.00029293567 0.0054834816 0.031356223 -0.04194823 -0.023262348 -0.011054038 0.002649703
-0.03080261 0.02755863 0.0025274795 -0.005072171 -0.016699731 0.00722222 0.02834755 -0.024071854
0.016220858 0.013844812 -0.009801028 0.004248429 0.0069800024 0.009992668 -0.013491706 -0.0061103757
-0.0012531541 -0.033377826 -0.008036884 -0.0060923113 0.0043852082 -0.026388183 0.015451533 -0.0035028767
-0.03166924 0.0114553375 -0.026171809 -0.026640713 0.044737034 -0.022404438 0.004127046 0.0038467655
-0.03713119 -0.0022548256 0.019624751 0.0150937615 -0.027291458 0.0027238028 -0.0023035046 0.0053226114
-0.00881451 -0.015235847 0.020444945 -0.02618809 -0.016755985 0.0056397347 -0.015346897 -0.02065146
-0.022735585 0.0041285134 0.020060925 0.05831186 -0.017054284 -0.014956573 0.0029812828 -0.014803843
-0.009739086 -0.0022733554 -0.013781937 -0.005286565 -0.00942024 -0.0076336702 -0.01543879 -0.015255618
0.019402528 -0.0014495491 0.0086728735 0.0134873 0.04708227 -0.011645872 0.005857036 -0.005724107
-0.010340573 -0.046488054 -0.011348532 -0.01465296 0.004438818 0.019423112 -0.009966141 -0.009404647
-0.029840812 0.030090556 0.002207141 -0.01573477 0.0019039499 0.008560745 0.045719903 0.026199685
-0.008826274 0.005176865 -0.0026363905 0.0064572175 0.015336129 -0.011466776 -0.009868674 -0.02338856
0.046622872 -0.01583417 -0.025238946 -0.01798364 -0.006831917 0.009494756 0.0006982809 0.002011769
0.037790675 -0.052027706 0.018149821 -0.032360487 -0.028023819 0.016955122 -0.034056086 -0.013571004
0.011023057 -0.0270897 0.005862368 0.0068190927 -0.008317616 -0.009935237 0.020100856 -0.00049773493
-0.01771748 -0.057523765 -0.017407818 -0.008344218 -0.015650697 0.016938942 0.027202398 -0.013316916
0.014108675 0.0031752703 -0.029781424 0.03210956 0.018212136 -0.0076042055 -0.029467953 0.004999643
-0.003042276 -0.0067741247 -0.015240504 -0.024815321 0.017246464 0.020567624 -0.018251088 0.025231997
0.0061628763 0.03222933 0.01779636 -0.014812279 -0.020374686 0.010634031 0.02134773 0.016947363
0.028540175 0.02244512 0.017948728 0.024172885 0.010204735 0.02287175 0.0036035848 0.0060328105
-0.014916942 -0.022369934 -0.012755784 -0.015664022 -0.0216163 0.0069571086 0.008655346 0.015637137
-0.006564674 0.034339514 -0.019259026 0.0041783256 -0.019719262 -0.023835644 -0.015355552 -0.010220554
0.005209522 0.013401981 -0.011116057 0.030204846 -0.039008133 -0.0070312303 -0.020619946 0.012521475
00000000: 1d7c 893c c1b2 3ebd ef88 5d3c 540a 06bc
00000010: a83b 19bc e3bf d3bb 9455 fb3c de54 e63c
00000020: 281c afbc a0ea fdbc 7e4b bdbc 6dd0 3dbc
00000030: a89d a5bc 983c 663c dc9b da3c ab05 83bb
00000040: bdd7 183b 72f8 39bc ba45 e2ba 8d8a 603c
00000050: 6f16 ab3c dc4e 94bc 6d83 98bc 5c1b fabb
00000060: 5289 adbb b06d 78ba a664 9dbc 0578 5a3c
00000070: 8aab 413d bf47 6e3c 92e7 4a3c d7a4 6f3c
00000080: dd62 5cba 9b84 363d 77b4 a93b f515 08bc
00000090: c203 11bd 4c33 323c 7f33 8fba 82cb 553b
000000a0: a2f7 a93c 81a3 fe3c e391 7b3c 8888 df3c
000000b0: 6fdf de3c 550a 113c 5d88 2bbb f2eb 4e3c
000000c0: b6d8 853c 9e75 d3bc 9af2 c9b9 3154 d1bc
000000d0: 8f9f a5bc 6d9a ccbb 80bf 91bc 2206 8b3c
000000e0: 4b9c 23bc 5730 dd3c 126e d2bc 59cb 6d3b
000000f0: d825 eebb 0d19 5dbb 33f9 bcbc 0b60 993c
00000100: 5764 dc3b 2995 9939 c7ae b33b 626f 003d
00000110: e8d1 2bbd ae90 bebc ff1b 35bc a4a6 2d3b
00000120: c155 fcbc a3c2 e13c 12a4 253b 7434 a6bb
00000130: e0cd 88bc 5fa8 ec3b 1f39 e83c 5632 c5bc
00000140: 9be1 843c 5ad5 623c 7e94 20bc 6836 8b3b
00000150: 81b8 e43b 4ab8 233c 510c 5dbc 8c39 c8bb
00000160: e040 a4ba 30b7 08bd 22ad 03bc 03a2 c7bb
00000170: cbb1 8f3b 082c d8bc 6d28 7d3c 8590 65bb
00000180: 9bb7 01bd 2baf 3b3c 4366 d6bc a03d dabc
00000190: 2e3e 373d 8389 b7bc 2c3c 873b 041a 7c3b
000001a0: e016 18bd b2c5 13bb 16c4 a03c d34b 773c
000001b0: 5692 dfbc d481 323b 65f6 16bb 4d69 ae3b
000001c0: bc6a 10bc c69f 79bc 287c a73c 6888 d6bc
000001d0: d943 89bc 86cd b83b 8d71 7bbc 402d a9bc
000001e0: fa3f babc 7b48 873b cf56 a43c 6bd8 6e3d
000001f0: 6db5 8bbc 6a0c 75bc a061 433b d18b 72bc
00000200: b090 1fbc 93fc 14bb a2cd 61bc ec3a adbb
00000210: 5a57 1abc de23 fabb fbf2 7cbc b3f2 79bc
00000220: 0df2 9e3c ccfe bdba ab18 0e3c d6f9 5c3c
00000230: 57d9 403d 54ce 3ebc 61ec bf3b 4a91 bbbb
00000240: 826b 29bc 426a 3ebd 31ef 39bc f812 70bc
00000250: 8173 913b 381d 9f3c 0649 23bc f315 1abc
00000260: b874 f4bc 7880 f63c aea5 103b 34e6 80bc
00000270: f58d f93a 5e42 0c3c cb44 3b3d b9a0 d63c
00000280: 149c 10bc b1a2 a93b 4bc7 2cbb 1197 d33b
00000290: 6344 7b3c 25df 3bbc 38b0 21bc 5e99 bfbc
000002a0: a0f7 3e3d a9b6 81bc e8c1 cebc 6d52 93bc
000002b0: 46de dfbb e58f 1b3c d70c 373a e2d7 033b
000002c0: 65ca 1a3d 011b 55bd efae 943c 6e8c 04bd
000002d0: 3592 e5bc 78e5 8a3c 657e 0bbd eb58 5ebc
000002e0: 0d9a 343c 38eb ddbc 1b19 c03b b272 df3b
000002f0: 9c46 08bc 67c7 22bc 8daa a43c 6d7a 02ba
00000300: 4024 91bc 0a9e 6bbd d79a 8ebc 30b6 08bc
00000310: e435 80bc 89c3 8a3c 90d7 de3c 322f 5abc
00000320: 1228 673c 3218 503b 2cf8 f3bc 5085 033d
00000330: 9e31 953c b32c f9bb c766 f1bc 0cd4 a33b
00000340: ec60 47bb 7af9 ddbb 4fb3 79bc 8049 cbbc
00000350: 7548 8d3c 6f7d a83c 4e83 95bc 55b3 ce3c
00000360: f4f1 c93b e702 043d acc9 913c 33af 72bc
00000370: d0e8 a6bc 5c3a 2e3c 6fe1 ae3c 32d5 8a3c
00000380: 16cd e93c d4de b73c 3609 933c 3706 c63c
00000390: c331 273c 895d bb3c 1f2a 6c3b e2ae c53b
000003a0: 3166 74bc 2741 b7bc a3fd 50bc d651 80bc
000003b0: ab14 b1bc 75f8 e33b 27cf 0d3c 7419 803c
000003c0: 7a1c d7bb 97a7 0c3d 1bc5 9dbc 56ea 883b
000003d0: 4a8a a1bc f842 c3bc da95 7bbc 1c74 27bc
000003e0: a3b4 aa3b fc93 5b3c 1f20 36bc 2770 f73c
000003f0: fec6 1fbd 3c66 e6bb 29eb a8bc df26 4d3c

net.1.bias f4 [5]
0.04894655 -0.03266084 -0.045783248 -0.013067126 -0.02355055
00000000: 2d7c 483d 5fc7 05bd 3787 3bbd 8017 56bc
00000010: 15ed c0bc

weight f4 [5, 184]
0.016782815 -0.04655719 0.013521417 -0.008181173 -0.009352602 -0.0064620837 0.030680455 0.02811664
-0.02137573 -0.030995667 -0.023107287 -0.011585337 -0.020216778 0.014052533 0.026685648 -0.0039984784
0.002332195 -0.011350738 -0.0017263212 0.013704908 0.02088472 -0.01810401 -0.018617356 -0.007632656
-0.005295911 -0.0009476794 -0.019213032 0.013334279 0.047282733 0.014543473 0.012384312 0.014626703
-0.0008407066 0.044560056 0.005178984 -0.008306016 -0.035403974 0.010876488 -0.0010925381 0.003262252
0.020747963 0.031083824 0.015354606 0.027286783 0.02720615 0.008852561 -0.0026173808 0.012629496
0.016338687 -0.02581292 -0.0003851846 -0.02555284 -0.020217685 -0.006243995 -0.01779151 0.016970698
-0.009985994 0.02700059 -0.025687251 0.0036284535 -0.007267695 -0.0033736855 -0.023068046 0.018722555
0.0067258286 0.00029293567 0.0054834816 0.031356223 -0.04194823 -0.023262348 -0.011054038 0.002649703
-0.03080261 0.02755863 0.0025274795 -0.005072171 -0.016699731 0.00722222 0.02834755 -0.024071854
0.016220858 0.013844812 -0.009801028 0.004248429 0.0069800024 0.009992668 -0.013491706 -0.0061103757
-0.0012531541 -0.033377826 -0.008036884 -0.0060923113 0.0043852082 -0.026388183 0.015451533 -0.0035028767
-0.03166924 0.0114553375 -0.026171809 -0.026640713 0.044737034 -0.022404438 0.004127046 0.0038467655
-0.03713119 -0.0022548256 0.019624751 0.0150937615 -0.027291458 0.0027238028 -0.0023035046 0.0053226114
-0.00881451 -0.015235847 0.020444945 -0.02618809 -0.016755985 0.0056397347 -0.015346897 -0.02065146
-0.022735585 0.0041285134 0.020060925 0.05831186 -0.017054284 -0.014956573 0.0029812828 -0.014803843
-0.009739086 -0.0022733554 -0.013781937 -0.005286565 -0.00942024 -0.0076336702 -0.01543879 -0.015255618
0.019402528 -0.0014495491 0.0086728735 0.0134873 0.04708227 -0.011645872 0.005857036 -0.005724107
-0.010340573 -0.046488054 -0.011348532 -0.01465296 0.004438818 0.019423112 -0.009966141 -0.009404647
-0.029840812 0.030090556 0.002207141 -0.01573477 0.0019039499 0.008560745 0.045719903 0.026199685
-0.008826274 0.005176865 -0.0026363905 0.0064572175 0.015336129 -0.011466776 -0.009868674 -0.02338856
0.046622872 -0.01583417 -0.025238946 -0.01798364 -0.006831917 0.009494756 0.0006982809 0.002011769
0.037790675 -0.052027706 0.018149821 -0.032360487 -0.028023819 0.016955122 -0.034056086 -0.013571004
0.011023057 -0.0270897 0.005862368 0.0068190927 -0.008317616 -0.009935237 0.020100856 -0.00049773493
-0.01771748 -0.057523765 -0.017407818 -0.008344218 -0.015650697 0.016938942 0.027202398 -0.013316916
0.014108675 0.0031752703 -0.029781424 0.03210956 0.018212136 -0.0076042055 -0.029467953 0.004999643
-0.003042276 -0.0067741247 -0.015240504 -0.024815321 0.017246464 0.020567624 -0.018251088 0.025231997
0.0061628763 0.03222933 0.01779636 -0.014812279 -0.020374686 0.010634031 0.02134773 0.016947363
0.028540175 0.02244512 0.017948728 0.024172885 0.010204735 0.02287175 0.0036035848 0.0060328105
-0.014916942 -0.022369934 -0.012755784 -0.015664022 -0.0216163 0.0069571086 0.008655346 0.015637137
-0.006564674 0.034339514 -0.019259026 0.0041783256 -0.019719262 -0.023835644 -0.015355552 -0.010220554
0.005209522 0.013401981 -0.011116057 0.030204846 -0.039008133 -0.0070312303 -0.020619946 0.012521475
00000000: 1d7c 893c c1b2 3ebd ef88 5d3c 540a 06bc
00000010: a83b 19bc e3bf d3bb 9455 fb3c de54 e63c
00000020: 281c afbc a0ea fdbc 7e4b bdbc 6dd0 3dbc
00000030: a89d a5bc 983c 663c dc9b da3c ab05 83bb
00000040: bdd7 183b 72f8 39bc ba45 e2ba 8d8a 603c
00000050: 6f16 ab3c dc4e 94bc 6d83 98bc 5c1b fabb
00000060: 5289 adbb b06d 78ba a664 9dbc 0578 5a3c
00000070: 8aab 413d bf47 6e3c 92e7 4a3c d7a4 6f3c
00000080: dd62 5cba 9b84 363d 77b4 a93b f515 08bc
00000090: c203 11bd 4c33 323c 7f33 8fba 82cb 553b
000000a0: a2f7 a93c 81a3 fe3c e391 7b3c 8888 df3c
000000b0: 6fdf de3c 550a 113c 5d88 2bbb f2eb 4e3c
000000c0: b6d8 853c 9e75 d3bc 9af2 c9b9 3154 d1bc
000000d0: 8f9f a5bc 6d9a ccbb 80bf 91bc 2206 8b3c
000000e0: 4b9c 23bc 5730 dd3c 126e d2bc 59cb 6d3b
000000f0: d825 eebb 0d19 5dbb 33f9 bcbc 0b60 993c
00000100: 5764 dc3b 2995 9939 c7ae b33b 626f 003d
00000110: e8d1 2bbd ae90 bebc ff1b 35bc a4a6 2d3b
00000120: c155 fcbc a3c2 e13c 12a4 253b 7434 a6bb
00000130: e0cd 88bc 5fa8 ec3b 1f39 e83c 5632 c5bc
00000140: 9be1 843c 5ad5 623c 7e94 20bc 6836 8b3b
00000150: 81b8 e43b 4ab8 233c 510c 5dbc 8c39 c8bb
00000160: e040 a4ba 30b7 08bd 22ad 03bc 03a2 c7bb
00000170: cbb1 8f3b 082c d8bc 6d28 7d3c 8590 65bb
00000180: 9bb7 01bd 2baf 3b3c 4366 d6bc a03d dabc
00000190: 2e3e 373d 8389 b7bc 2c3c 873b 041a 7c3b
000001a0: e016 18bd b2c5 13bb 16c4 a03c d34b 773c
000001b0: 5692 dfbc d481 323b 65f6 16bb 4d69 ae3b
000001c0: bc6a 10bc c69f 79bc 287c a73c 6888 d6bc
000001d0: d943 89bc 86cd b83b 8d71 7bbc 402d a9bc
000001e0: fa3f babc 7b48 873b cf56 a43c 6bd8 6e3d
000001f0: 6db5 8bbc 6a0c 75bc a061 433b d18b 72bc
00000200: b090 1fbc 93fc 14bb a2cd 61bc ec3a adbb
00000210: 5a57 1abc de23 fabb fbf2 7cbc b3f2 79bc
00000220: 0df2 9e3c ccfe bdba ab18 0e3c d6f9 5c3c
00000230: 57d9 403d 54ce 3ebc 61ec bf3b 4a91 bbbb
00000240: 826b 29bc 426a 3ebd 31ef 39bc f812 70bc
00000250: 8173 913b 381d 9f3c 0649 23bc f315 1abc
00000260: b874 f4bc 7880 f63c aea5 103b 34e6 80bc
00000270: f58d f93a 5e42 0c3c cb44 3b3d b9a0 d63c
00000280: 149c 10bc b1a2 a93b 4bc7 2cbb 1197 d33b
00000290: 6344 7b3c 25df 3bbc 38b0 21bc 5e99 bfbc
000002a0: a0f7 3e3d a9b6 81bc e8c1 cebc 6d52 93bc
000002b0: 46de dfbb e58f 1b3c d70c 373a e2d7 033b
000002c0: 65ca 1a3d 011b 55bd efae 943c 6e8c 04bd
000002d0: 3592 e5bc 78e5 8a3c 657e 0bbd eb58 5ebc
000002e0: 0d9a 343c 38eb ddbc 1b19 c03b b272 df3b
000002f0: 9c46 08bc 67c7 22bc 8daa a43c 6d7a 02ba
00000300: 4024 91bc 0a9e 6bbd d79a 8ebc 30b6 08bc
00000310: e435 80bc 89c3 8a3c 90d7 de3c 322f 5abc
00000320: 1228 673c 3218 503b 2cf8 f3bc 5085 033d
00000330: 9e31 953c b32c f9bb c766 f1bc 0cd4 a33b
00000340: ec60 47bb 7af9 ddbb 4fb3 79bc 8049 cbbc
00000350: 7548 8d3c 6f7d a83c 4e83 95bc 55b3 ce3c
00000360: f4f1 c93b e702 043d acc9 913c 33af 72bc
00000370: d0e8 a6bc 5c3a 2e3c 6fe1 ae3c 32d5 8a3c
00000380: 16cd e93c d4de b73c 3609 933c 3706 c63c
00000390: c331 273c 895d bb3c 1f2a 6c3b e2ae c53b
000003a0: 3166 74bc 2741 b7bc a3fd 50bc d651 80bc
000003b0: ab14 b1bc 75f8 e33b 27cf 0d3c 7419 803c
000003c0: 7a1c d7bb 97a7 0c3d 1bc5 9dbc 56ea 883b
000003d0: 4a8a a1bc f842 c3bc da95 7bbc 1c74 27bc
000003e0: a3b4 aa3b fc93 5b3c 1f20 36bc 2770 f73c
000003f0: fec6 1fbd 3c66 e6bb 29eb a8bc df26 4d3c

bias f4 [5]
0.04894655 -0.03266084 -0.045783248 -0.013067126 -0.02355055
00000000: 2d7c 483d 5fc7 05bd 3787 3bbd 8017 56bc
00000010: 15ed c0bc
