simclr_cnn_transformer_trainings1/logistic_on_simclr_IT_100pat/lightning_logs/version_0/checkpoints/last.ckpt (torch, 7847 bytes, 6 tensors)

classifier.weight f4 [5, 184]
0	0x3c8d1d27	0.017225815
1	0xbd3f3492	-0.046680994
2	0x3c5ee10e	0.013603462
3	0xbc093001	-0.008373261
4	0xbc156159	-0.009117448
5	0xbbdec7cc	-0.00679872
6	0x3cf7802c	0.030212484
7	0x3ce84e8c	0.028357767
8	0xbcae48e4	-0.021274991
9	0xbcffd671	-0.031230183
10	0xbcb6ea95	-0.022328654
11	0xbc3c197c	-0.011480685
12	0xbca5d84c	-0.02024474
13	0x3c5d4665	0.013505553
14	0x3cd8d7ed	0.026470149
15	0xbb93e4e7	-0.0045133713
16	0x3b11322e	0.0022155154
17	0xbc32f96a	-0.010923723
18	0xbabc6d44	-0.0014375825
19	0x3c67222b	0.014107267
20	0x3ca03366	0.019555759
21	0xbc93073c	-0.017947786
22	0xbc9a72bd	-0.01885354
23	0xbbf52dce	-0.007482267
24	0xbb97da13	-0.004634151
25	0xbabf159f	-0.0014578587
26	0xbc9bac09	-0.019002931
27	0x3c616eff	0.013759374
28	0x3d41462b	0.047186058
29	0x3c7d30d3	0.015453535
30	0x3c4d5f68	0.012534954
31	0x3c776311	0.015099303
32	0xb8e7fcf1	-0.00011062052
33	0x3d35ad42	0.044354685
34	0x3b91ee9b	0.004453493
35	0xbc00277a	-0.007821912
36	0xbd10e5de	-0.03537547
37	0x3c381822	0.011236222
38	0xbb4a071f	-0.0030826998
39	0x3b675a88	0.0035301764
40	0x3c9f238a	0.019426126
41	0x3cfbf0a3	0.030754393
42	0x3c7bcfa2	0.015369328
43	0x3cdeb849	0.027187483
44	0x3cdfbf80	0.027312994
45	0x3c0c6661	0.008569331
46	0xbb4e790d	-0.0031505257
47	0x3c506218	0.0127187
48	0x3c80f4d2	0.01574174
49	0xbcceeddd	-0.025259906
50	0x39a829f0	0.00032074703
51	0xbcd41609	-0.025889413
52	0xbca48a85	-0.020085583
53	0xbbcf3c39	-0.006324318
54	0xbc934c52	-0.017980728
55	0x3c8ac842	0.016941193
56	0xbc1fd5d4	-0.00975557
57	0x3cdb645e	0.026781257
58	0xbcd38b1c	-0.025823168
59	0x3b80d1a8	0.003931243
60	0xbbe08dcf	-0.0068528424
61	0xbb5999c3	-0.0033203221
62	0xbcbdbdea	-0.023161847
63	0x3c9e5ae3	0.019330448
64	0x3bb6f108	0.0055829324
65	0x3a358bf6	0.0006925458
66	0x3bc43076	0.0059872223
67	0x3d0146f9	0.031561825
68	0xbd2dd2d4	-0.04243739
69	0xbcbef1ca	-0.023308653
70	0xbc3dc829	-0.011583366
71	0x3b278d01	0.0025566223
72	0xbd00e74e	-0.03147059
73	0x3ce40ac3	0.027837163
74	0x3aa3ff3f	0.0012511982
75	0xbbb209eb	-0.005433311
76	0xbc861375	-0.0163667
77	0x3c07543f	0.008259832
78	0x3ce9c04c	0.028534077
79	0xbcc1d959	-0.02366321
80	0x3c80cde2	0.015723173
81	0x3c583730	0.0131967515
82	0xbc0e4e81	-0.008685709
83	0x3b7be59c	0.0038436418
84	0x3bd7aba8	0.0065817423
85	0x3c1c6a62	0.009546848
86	0xbc53213e	-0.0128863435
87	0xbbddb60e	-0.0067660874
88	0xbad6f175	-0.0016398864
89	0xbd09b47a	-0.03361938
90	0xbbf8518f	-0.007578082
91	0xbbdee657	-0.006802361
92	0x3baf494d	0.0053493143
93	0xbccc2d2b	-0.024923882
94	0x3c7f9e71	0.01560174
95	0xbb89563b	-0.0041911877
96	0xbd00d64e	-0.031454377
97	0x3c41f3bb	0.011837895
98	0xbcd98d7a	-0.02655672
99	0xbcd55766	-0.026042651
100	0x3d3830e3	0.044968497
101	0xbcb9e60d	-0.022692705
102	0x3b68a835	0.003550065
103	0x3b993d41	0.0046764915
104	0xbd165f52	-0.036712
105	0xbb378b6a	-0.0028006681
106	0x3ca0f703	0.019649034
107	0x3c7fa282	0.01560271
108	0xbcdeca05	-0.02719594
109	0x3b43962e	0.0029844153
110	0xbb341cf1	-0.002748307
111	0x3bba4e44	0.0056855995
112	0xbc02586e	-0.007955654
113	0xbc67a3a9	-0.014138141
114	0x3ca3a73a	0.0199772
115	0xbce05092	-0.027382169
116	0xbc8c28ba	-0.017109264
117	0x3bc50a38	0.006013181
118	0xbc7deb21	-0.015497954
119	0xbcafe760	-0.021472633
120	0xbcbd7a05	-0.023129473
121	0x3b51066a	0.0031894692
122	0x3ca5a750	0.020221382
123	0x3d71213b	0.05886958
124	0xbc9194a4	-0.017771073
125	0xbc7ba4dd	-0.015359131
126	0x3b430228	0.0029755924
127	0xbc8093ea	-0.01569553
128	0xbc25014a	-0.010071108
129	0xbb1f8c20	-0.0024344996
130	0xbc5d8298	-0.0135199055
131	0xbbbfe2ac	-0.005855879
132	0xbc0adb53	-0.0084751425
133	0xbbecc4f5	-0.0072256275
134	0xbc81e1cb	-0.015854737
135	0xbc79df5e	-0.015251009
136	0x3c97de08	0.01853849
137	0x39c5db0c	0.0003773797
138	0x3c1e6f75	0.009670128
139	0x3c5f2c29	0.013621368
140	0x3d4626ed	0.048376966
141	0xbc4a56e9	-0.012349823
142	0x3bc20db0	0.005922042
143	0xbbbc9892	-0.0057554925
144	0xbc2e3388	-0.010632403
145	0xbd3de718	-0.046362966
146	0xbc37c302	-0.011215927
147	0xbc6da16e	-0.01450382
148	0x3b69c698	0.003567135
149	0x3c9c4357	0.019075079
150	0xbc16078f	-0.009157076
151	0xbc1a226b	-0.00940762
152	0xbcf0de19	-0.02940278
153	0x3cf66c91	0.030081065
154	0x3ae37df4	0.0017356263
155	0xbc88c7d2	-0.016696844
156	0x3b0933b3	0.0020935356
157	0x3c081859	0.008306586
158	0x3d3b24a1	0.04568923
159	0x3ce03868	0.027370647
160	0xbbfb10da	-0.007661921
161	0x3bbd669e	0.005780055
162	0xbb4dec5e	-0.0031421403
163	0x3bd38aac	0.00645574
164	0x3c86bfd7	0.016448898
165	0xbc32f2f0	-0.010922179
166	0xbc20eb09	-0.009821662
167	0xbcc13bca	-0.02358808
168	0x3d3d4aef	0.04621404
169	0xbc74830f	-0.014923825
170	0xbcd2d356	-0.025735538
171	0xbc89c884	-0.016819246
172	0xbbdee1be	-0.006801813
173	0x3c087da4	0.008330736
174	0x3a43cb32	0.0007468938
175	0x3b1f4cb0	0.0024307184
176	0x3d190ad7	0.037363853
177	0xbd568784	-0.05237533
178	0x3c94d9ed	0.018170321
179	0xbd0477f1	-0.032340948
180	0xbce2d69d	-0.027690226
181	0x3c843b83	0.016141659
182	0xbd0d3afc	-0.03448008
183	0xbc607b4f	-0.013701274
184	0x3c3bd1cd	0.011463595
185	0xbcdbb8ae	-0.02682146
186	0x3bc59865	0.0060301297
187	0x3bd8ffd1	0.0066222926
188	0xbc02e521	-0.007989199
189	0xbc244f24	-0.010028634
190	0x3cadb2c9	0.021203415
191	0x39d0fdd0	0.00039861957
192	0xbc8eb1af	-0.01741871
193	0xbd6fd1a5	-0.058549542
194	0xbc8f7ce6	-0.01751561
195	0xbc0f80d9	-0.008758747
196	0xbc84dcb6	-0.016218524
197	0x3c915a2e	0.017743196
198	0x3ce30464	0.027712055
199	0xbc56a03a	-0.013099724
200	0x3c7047ce	0.014665557
201	0x3b6f9466	0.0036556958
202	0xbcf73f1e	-0.030181464
203	0x3d053c70	0.03252834
204	0x3c91a04d	0.017776633
205	0xbc07826e	-0.008270843
206	0xbcee6722	-0.029101912
207	0x3b8d3186	0.004308882
208	0xbb27395c	-0.0025516367
209	0xbbb9c2ec	-0.0056689885
210	0xbc780956	-0.015138945
211	0xbccc6bef	-0.02495381
212	0x3c8e4557	0.017367048
213	0x3ca8e21d	0.020615632
214	0xbc922bcd	-0.017843151
215	0x3cc73426	0.024316859
216	0x3bef0487	0.007294241
217	0x3cf62740	0.030048013
218	0x3c92cf1d	0.017921025
219	0xbc6fbde1	-0.014632673
220	0xbcab9f55	-0.020949999
221	0x3c25b6f0	0.0101144165
222	0x3ca5d239	0.020241844
223	0x3c85a339	0.016313182
224	0x3ce03850	0.027370602
225	0x3cb187d3	0.021671211
226	0x3c8ce460	0.017198741
227	0x3cb9c401	0.02267647
228	0x3c1f1ba3	0.009711179
229	0x3cbc9b31	0.02302322
230	0x3b8ce4ac	0.0042997207
231	0x3ba7dc70	0.0051227137
232	0xbc817de9	-0.015807109
233	0xbcb9d0c3	-0.022682553
234	0xbc40b14a	-0.011761019
235	0xbc82528c	-0.015908502
236	0xbcb3822a	-0.021912653
237	0x3bf6ae78	0.0075281225
238	0x3c15cf89	0.0091437185
239	0x3c807932	0.01568279
240	0xbbda15d9	-0.0066554365
241	0x3d0a66da	0.033789493
242	0xbca54d23	-0.020178383
243	0x3b4104da	0.0029452355
244	0xbc937d9a	-0.018004227
245	0xbcc6f818	-0.024288222
246	0xbc7b3001	-0.015331269
247	0xbc158026	-0.009124791
248	0x3b96b7ec	0.004599562
249	0x3c5134ff	0.012768983
250	0xbc3de681	-0.011590601
251	0x3d01afab	0.03166167
252	0xbd21224a	-0.03933934
253	0xbbc64078	-0.0060501657
254	0xbca944cb	-0.020662686
255	0x3c4424d9	0.011971676

classifier.bias f4 [5]
0	0x3d4a0222	0.04931844
1	0xbd06708b	-0.032822173
2	0xbd3b6bad	-0.045756985
3	0xbc52046a	-0.012818435
4	0xbcc4ebbd	-0.02403819

net.1.weight f4 [5, 184]
0	0x3c8d1d27	0.017225815
1	0xbd3f3492	-0.046680994
2	0x3c5ee10e	0.013603462
3	0xbc093001	-0.008373261
4	0xbc156159	-0.009117448
5	0xbbdec7cc	-0.00679872
6	0x3cf7802c	0.030212484
7	0x3ce84e8c	0.028357767
8	0xbcae48e4	-0.021274991
9	0xbcffd671	-0.031230183
10	0xbcb6ea95	-0.022328654
11	0xbc3c197c	-0.011480685
12	0xbca5d84c	-0.02024474
13	0x3c5d4665	0.013505553
14	0x3cd8d7ed	0.026470149
15	0xbb93e4e7	-0.0045133713
16	0x3b11322e	0.0022155154
17	0xbc32f96a	-0.010923723
18	0xbabc6d44	-0.0014375825
19	0x3c67222b	0.014107267
20	0x3ca03366	0.019555759
21	0xbc93073c	-0.017947786
22	0xbc9a72bd	-0.01885354
23	0xbbf52dce	-0.007482267
24	0xbb97da13	-0.004634151
25	0xbabf159f	-0.0014578587
26	0xbc9bac09	-0.019002931
27	0x3c616eff	0.013759374
28	0x3d41462b	0.047186058
29	0x3c7d30d3	0.015453535
30	0x3c4d5f68	0.012534954
31	0x3c776311	0.015099303
32	0xb8e7fcf1	-0.00011062052
33	0x3d35ad42	0.044354685
34	0x3b91ee9b	0.004453493
35	0xbc00277a	-0.007821912
36	0xbd10e5de	-0.03537547
37	0x3c381822	0.011236222
38	0xbb4a071f	-0.0030826998
39	0x3b675a88	0.0035301764
40	0x3c9f238a	0.019426126
41	0x3cfbf0a3	0.030754393
42	0x3c7bcfa2	0.015369328
43	0x3cdeb849	0.027187483
44	0x3cdfbf80	0.027312994
45	0x3c0c6661	0.008569331
46	0xbb4e790d	-0.0031505257
47	0x3c506218	0.0127187
48	0x3c80f4d2	0.01574174
49	0xbcceeddd	-0.025259906
50	0x39a829f0	0.00032074703
51	0xbcd41609	-0.025889413
52	0xbca48a85	-0.020085583
53	0xbbcf3c39	-0.006324318
54	0xbc934c52	-0.017980728
55	0x3c8ac842	0.016941193
56	0xbc1fd5d4	-0.00975557
57	0x3cdb645e	0.026781257
58	0xbcd38b1c	-0.025823168
59	0x3b80d1a8	0.003931243
60	0xbbe08dcf	-0.0068528424
61	0xbb5999c3	-0.0033203221
62	0xbcbdbdea	-0.023161847
63	0x3c9e5ae3	0.019330448
64	0x3bb6f108	0.0055829324
65	0x3a358bf6	0.0006925458
66	0x3bc43076	0.0059872223
67	0x3d0146f9	0.031561825
68	0xbd2dd2d4	-0.04243739
69	0xbcbef1ca	-0.023308653
70	0xbc3dc829	-0.011583366
71	0x3b278d01	0.0025566223
72	0xbd00e74e	-0.03147059
73	0x3ce40ac3	0.027837163
74	0x3aa3ff3f	0.0012511982
75	0xbbb209eb	-0.005433311
76	0xbc861375	-0.0163667
77	0x3c07543f	0.008259832
78	0x3ce9c04c	0.028534077
79	0xbcc1d959	-0.02366321
80	0x3c80cde2	0.015723173
81	0x3c583730	0.0131967515
82	0xbc0e4e81	-0.008685709
83	0x3b7be59c	0.0038436418
84	0x3bd7aba8	0.0065817423
85	0x3c1c6a62	0.009546848
86	0xbc53213e	-0.0128863435
87	0xbbddb60e	-0.0067660874
88	0xbad6f175	-0.0016398864
89	0xbd09b47a	-0.03361938
90	0xbbf8518f	-0.007578082
91	0xbbdee657	-0.006802361
92	0x3baf494d	0.0053493143
93	0xbccc2d2b	-0.024923882
94	0x3c7f9e71	0.01560174
95	0xbb89563b	-0.0041911877
96	0xbd00d64e	-0.031454377
97	0x3c41f3bb	0.011837895
98	0xbcd98d7a	-0.02655672
99	0xbcd55766	-0.026042651
100	0x3d3830e3	0.044968497
101	0xbcb9e60d	-0.022692705
102	0x3b68a835	0.003550065
103	0x3b993d41	0.0046764915
104	0xbd165f52	-0.036712
105	0xbb378b6a	-0.0028006681
106	0x3ca0f703	0.019649034
107	0x3c7fa282	0.01560271
108	0xbcdeca05	-0.02719594
109	0x3b43962e	0.0029844153
110	0xbb341cf1	-0.002748307
111	0x3bba4e44	0.0056855995
112	0xbc02586e	-0.007955654
113	0xbc67a3a9	-0.014138141
114	0x3ca3a73a	0.0199772
115	0xbce05092	-0.027382169
116	0xbc8c28ba	-0.017109264
117	0x3bc50a38	0.006013181
118	0xbc7deb21	-0.015497954
119	0xbcafe760	-0.021472633
120	0xbcbd7a05	-0.023129473
121	0x3b51066a	0.0031894692
122	0x3ca5a750	0.020221382
123	0x3d71213b	0.05886958
124	0xbc9194a4	-0.017771073
125	0xbc7ba4dd	-0.015359131
126	0x3b430228	0.0029755924
127	0xbc8093ea	-0.01569553
128	0xbc25014a	-0.010071108
129	0xbb1f8c20	-0.0024344996
130	0xbc5d8298	-0.0135199055
131	0xbbbfe2ac	-0.005855879
132	0xbc0adb53	-0.0084751425
133	0xbbecc4f5	-0.0072256275
134	0xbc81e1cb	-0.015854737
135	0xbc79df5e	-0.015251009
136	0x3c97de08	0.01853849
137	0x39c5db0c	0.0003773797
138	0x3c1e6f75	0.009670128
139	0x3c5f2c29	0.013621368
140	0x3d4626ed	0.048376966
141	0xbc4a56e9	-0.012349823
142	0x3bc20db0	0.005922042
143	0xbbbc9892	-0.0057554925
144	0xbc2e3388	-0.010632403
145	0xbd3de718	-0.046362966
146	0xbc37c302	-0.011215927
147	0xbc6da16e	-0.01450382
148	0x3b69c698	0.003567135
149	0x3c9c4357	0.019075079
150	0xbc16078f	-0.009157076
151	0xbc1a226b	-0.00940762
152	0xbcf0de19	-0.02940278
153	0x3cf66c91	0.030081065
154	0x3ae37df4	0.0017356263
155	0xbc88c7d2	-0.016696844
156	0x3b0933b3	0.0020935356
157	0x3c081859	0.008306586
158	0x3d3b24a1	0.04568923
159	0x3ce03868	0.027370647
160	0xbbfb10da	-0.007661921
161	0x3bbd669e	0.005780055
162	0xbb4dec5e	-0.0031421403
163	0x3bd38aac	0.00645574
164	0x3c86bfd7	0.016448898
165	0xbc32f2f0	-0.010922179
166	0xbc20eb09	-0.009821662
167	0xbcc13bca	-0.02358808
168	0x3d3d4aef	0.04621404
169	0xbc74830f	-0.014923825
170	0xbcd2d356	-0.025735538
171	0xbc89c884	-0.016819246
172	0xbbdee1be	-0.006801813
173	0x3c087da4	0.008330736
174	0x3a43cb32	0.0007468938
175	0x3b1f4cb0	0.0024307184
176	0x3d190ad7	0.037363853
177	0xbd568784	-0.05237533
178	0x3c94d9ed	0.018170321
179	0xbd0477f1	-0.032340948
180	0xbce2d69d	-0.027690226
181	0x3c843b83	0.016141659
182	0xbd0d3afc	-0.03448008
183	0xbc607b4f	-0.013701274
184	0x3c3bd1cd	0.011463595
185	0xbcdbb8ae	-0.02682146
186	0x3bc59865	0.0060301297
187	0x3bd8ffd1	0.0066222926
188	0xbc02e521	-0.007989199
189	0xbc244f24	-0.010028634
190	0x3cadb2c9	0.021203415
191	0x39d0fdd0	0.00039861957
192	0xbc8eb1af	-0.01741871
193	0xbd6fd1a5	-0.058549542
194	0xbc8f7ce6	-0.01751561
195	0xbc0f80d9	-0.008758747
196	0xbc84dcb6	-0.016218524
197	0x3c915a2e	0.017743196
198	0x3ce30464	0.027712055
199	0xbc56a03a	-0.013099724
200	0x3c7047ce	0.014665557
201	0x3b6f9466	0.0036556958
202	0xbcf73f1e	-0.030181464
203	0x3d053c70	0.03252834
204	0x3c91a04d	0.017776633
205	0xbc07826e	-0.008270843
206	0xbcee6722	-0.029101912
207	0x3b8d3186	0.004308882
208	0xbb27395c	-0.0025516367
209	0xbbb9c2ec	-0.0056689885
210	0xbc780956	-0.015138945
211	0xbccc6bef	-0.02495381
212	0x3c8e4557	0.017367048
213	0x3ca8e21d	0.020615632
214	0xbc922bcd	-0.017843151
215	0x3cc73426	0.024316859
216	0x3bef0487	0.007294241
217	0x3cf62740	0.030048013
218	0x3c92cf1d	0.017921025
219	0xbc6fbde1	-0.014632673
220	0xbcab9f55	-0.020949999
221	0x3c25b6f0	0.0101144165
222	0x3ca5d239	0.020241844
223	0x3c85a339	0.016313182
224	0x3ce03850	0.027370602
225	0x3cb187d3	0.021671211
226	0x3c8ce460	0.017198741
227	0x3cb9c401	0.02267647
228	0x3c1f1ba3	0.009711179
229	0x3cbc9b31	0.02302322
230	0x3b8ce4ac	0.0042997207
231	0x3ba7dc70	0.0051227137
232	0xbc817de9	-0.015807109
233	0xbcb9d0c3	-0.022682553
234	0xbc40b14a	-0.011761019
235	0xbc82528c	-0.015908502
236	0xbcb3822a	-0.021912653
237	0x3bf6ae78	0.0075281225
238	0x3c15cf89	0.0091437185
239	0x3c807932	0.01568279
240	0xbbda15d9	-0.0066554365
241	0x3d0a66da	0.033789493
242	0xbca54d23	-0.020178383
243	0x3b4104da	0.0029452355
244	0xbc937d9a	-0.018004227
245	0xbcc6f818	-0.024288222
246	0xbc7b3001	-0.015331269
247	0xbc158026	-0.009124791
248	0x3b96b7ec	0.004599562
249	0x3c5134ff	0.012768983
250	0xbc3de681	-0.011590601
251	0x3d01afab	0.03166167
252	0xbd21224a	-0.03933934
253	0xbbc64078	-0.0060501657
254	0xbca944cb	-0.020662686
255	0x3c4424d9	0.011971676

net.1.bias f4 [5]
0	0x3d4a0222	0.04931844
1	0xbd06708b	-0.032822173
2	0xbd3b6bad	-0.045756985
3	0xbc52046a	-0.012818435
4	0xbcc4ebbd	-0.02403819

weight f4 [5, 184]
0	0x3c8d1d27	0.017225815
1	0xbd3f3492	-0.046680994
2	0x3c5ee10e	0.013603462
3	0xbc093001	-0.008373261
4	0xbc156159	-0.009117448
5	0xbbdec7cc	-0.00679872
6	0x3cf7802c	0.030212484
7	0x3ce84e8c	0.028357767
8	0xbcae48e4	-0.021274991
9	0xbcffd671	-0.031230183
10	0xbcb6ea95	-0.022328654
11	0xbc3c197c	-0.011480685
12	0xbca5d84c	-0.02024474
13	0x3c5d4665	0.013505553
14	0x3cd8d7ed	0.026470149
15	0xbb93e4e7	-0.0045133713
16	0x3b11322e	0.0022155154
17	0xbc32f96a	-0.010923723
18	0xbabc6d44	-0.0014375825
19	0x3c67222b	0.014107267
20	0x3ca03366	0.019555759
21	0xbc93073c	-0.017947786
22	0xbc9a72bd	-0.01885354
23	0xbbf52dce	-0.007482267
24	0xbb97da13	-0.004634151
25	0xbabf159f	-0.0014578587
26	0xbc9bac09	-0.019002931
27	0x3c616eff	0.013759374
28	0x3d41462b	0.047186058
29	0x3c7d30d3	0.015453535
30	0x3c4d5f68	0.012534954
31	0x3c776311	0.015099303
32	0xb8e7fcf1	-0.00011062052
33	0x3d35ad42	0.044354685
34	0x3b91ee9b	0.004453493
35	0xbc00277a	-0.007821912
36	0xbd10e5de	-0.03537547
37	0x3c381822	0.011236222
38	0xbb4a071f	-0.0030826998
39	0x3b675a88	0.0035301764
40	0x3c9f238a	0.019426126
41	0x3cfbf0a3	0.030754393
42	0x3c7bcfa2	0.015369328
43	0x3cdeb849	0.027187483
44	0x3cdfbf80	0.027312994
45	0x3c0c6661	0.008569331
46	0xbb4e790d	-0.0031505257
47	0x3c506218	0.0127187
48	0x3c80f4d2	0.01574174
49	0xbcceeddd	-0.025259906
50	0x39a829f0	0.00032074703
51	0xbcd41609	-0.025889413
52	0xbca48a85	-0.020085583
53	0xbbcf3c39	-0.006324318
54	0xbc934c52	-0.017980728
55	0x3c8ac842	0.016941193
56	0xbc1fd5d4	-0.00975557
57	0x3cdb645e	0.026781257
58	0xbcd38b1c	-0.025823168
59	0x3b80d1a8	0.003931243
60	0xbbe08dcf	-0.0068528424
61	0xbb5999c3	-0.0033203221
62	0xbcbdbdea	-0.023161847
63	0x3c9e5ae3	0.019330448
64	0x3bb6f108	0.0055829324
65	0x3a358bf6	0.0006925458
66	0x3bc43076	0.0059872223
67	0x3d0146f9	0.031561825
68	0xbd2dd2d4	-0.04243739
69	0xbcbef1ca	-0.023308653
70	0xbc3dc829	-0.011583366
71	0x3b278d01	0.0025566223
72	0xbd00e74e	-0.03147059
73	0x3ce40ac3	0.027837163
74	0x3aa3ff3f	0.0012511982
75	0xbbb209eb	-0.005433311
76	0xbc861375	-0.0163667
77	0x3c07543f	0.008259832
78	0x3ce9c04c	0.028534077
79	0xbcc1d959	-0.02366321
80	0x3c80cde2	0.015723173
81	0x3c583730	0.0131967515
82	0xbc0e4e81	-0.008685709
83	0x3b7be59c	0.0038436418
84	0x3bd7aba8	0.0065817423
85	0x3c1c6a62	0.009546848
86	0xbc53213e	-0.0128863435
87	0xbbddb60e	-0.0067660874
88	0xbad6f175	-0.0016398864
89	0xbd09b47a	-0.03361938
90	0xbbf8518f	-0.007578082
91	0xbbdee657	-0.006802361
92	0x3baf494d	0.0053493143
93	0xbccc2d2b	-0.024923882
94	0x3c7f9e71	0.01560174
95	0xbb89563b	-0.0041911877
96	0xbd00d64e	-0.031454377
97	0x3c41f3bb	0.011837895
98	0xbcd98d7a	-0.02655672
99	0xbcd55766	-0.026042651
100	0x3d3830e3	0.044968497
101	0xbcb9e60d	-0.022692705
102	0x3b68a835	0.003550065
103	0x3b993d41	0.0046764915
104	0xbd165f52	-0.036712
105	0xbb378b6a	-0.0028006681
106	0x3ca0f703	0.019649034
107	0x3c7fa282	0.01560271
108	0xbcdeca05	-0.02719594
109	0x3b43962e	0.0029844153
110	0xbb341cf1	-0.002748307
111	0x3bba4e44	0.0056855995
112	0xbc02586e	-0.007955654
113	0xbc67a3a9	-0.014138141
114	0x3ca3a73a	0.0199772
115	0xbce05092	-0.027382169
116	0xbc8c28ba	-0.017109264
117	0x3bc50a38	0.006013181
118	0xbc7deb21	-0.015497954
119	0xbcafe760	-0.021472633
120	0xbcbd7a05	-0.023129473
121	0x3b51066a	0.0031894692
122	0x3ca5a750	0.020221382
123	0x3d71213b	0.05886958
124	0xbc9194a4	-0.017771073
125	0xbc7ba4dd	-0.015359131
126	0x3b430228	0.0029755924
127	0xbc8093ea	-0.01569553
128	0xbc25014a	-0.010071108
129	0xbb1f8c20	-0.0024344996
130	0xbc5d8298	-0.0135199055
131	0xbbbfe2ac	-0.005855879
132	0xbc0adb53	-0.0084751425
133	0xbbecc4f5	-0.0072256275
134	0xbc81e1cb	-0.015854737
135	0xbc79df5e	-0.015251009
136	0x3c97de08	0.01853849
137	0x39c5db0c	0.0003773797
138	0x3c1e6f75	0.009670128
139	0x3c5f2c29	0.013621368
140	0x3d4626ed	0.048376966
141	0xbc4a56e9	-0.012349823
142	0x3bc20db0	0.005922042
143	0xbbbc9892	-0.0057554925
144	0xbc2e3388	-0.010632403
145	0xbd3de718	-0.046362966
146	0xbc37c302	-0.011215927
147	0xbc6da16e	-0.01450382
148	0x3b69c698	0.003567135
149	0x3c9c4357	0.019075079
150	0xbc16078f	-0.009157076
151	0xbc1a226b	-0.00940762
152	0xbcf0de19	-0.02940278
153	0x3cf66c91	0.030081065
154	0x3ae37df4	0.0017356263
155	0xbc88c7d2	-0.016696844
156	0x3b0933b3	0.0020935356
157	0x3c081859	0.008306586
158	0x3d3b24a1	0.04568923
159	0x3ce03868	0.027370647
160	0xbbfb10da	-0.007661921
161	0x3bbd669e	0.005780055
162	0xbb4dec5e	-0.0031421403
163	0x3bd38aac	0.00645574
164	0x3c86bfd7	0.016448898
165	0xbc32f2f0	-0.010922179
166	0xbc20eb09	-0.009821662
167	0xbcc13bca	-0.02358808
168	0x3d3d4aef	0.04621404
169	0xbc74830f	-0.014923825
170	0xbcd2d356	-0.025735538
171	0xbc89c884	-0.016819246
172	0xbbdee1be	-0.006801813
173	0x3c087da4	0.008330736
174	0x3a43cb32	0.0007468938
175	0x3b1f4cb0	0.0024307184
176	0x3d190ad7	0.037363853
177	0xbd568784	-0.05237533
178	0x3c94d9ed	0.018170321
179	0xbd0477f1	-0.032340948
180	0xbce2d69d	-0.027690226
181	0x3c843b83	0.016141659
182	0xbd0d3afc	-0.03448008
183	0xbc607b4f	-0.013701274
184	0x3c3bd1cd	0.011463595
185	0xbcdbb8ae	-0.02682146
186	0x3bc59865	0.0060301297
187	0x3bd8ffd1	0.0066222926
188	0xbc02e521	-0.007989199
189	0xbc244f24	-0.010028634
190	0x3cadb2c9	0.021203415
191	0x39d0fdd0	0.00039861957
192	0xbc8eb1af	-0.01741871
193	0xbd6fd1a5	-0.058549542
194	0xbc8f7ce6	-0.01751561
195	0xbc0f80d9	-0.008758747
196	0xbc84dcb6	-0.016218524
197	0x3c915a2e	0.017743196
198	0x3ce30464	0.027712055
199	0xbc56a03a	-0.013099724
200	0x3c7047ce	0.014665557
201	0x3b6f9466	0.0036556958
202	0xbcf73f1e	-0.030181464
203	0x3d053c70	0.03252834
204	0x3c91a04d	0.017776633
205	0xbc07826e	-0.008270843
206	0xbcee6722	-0.029101912
207	0x3b8d3186	0.004308882
208	0xbb27395c	-0.0025516367
209	0xbbb9c2ec	-0.0056689885
210	0xbc780956	-0.015138945
211	0xbccc6bef	-0.02495381
212	0x3c8e4557	0.017367048
213	0x3ca8e21d	0.020615632
214	0xbc922bcd	-0.017843151
215	0x3cc73426	0.024316859
216	0x3bef0487	0.007294241
217	0x3cf62740	0.030048013
218	0x3c92cf1d	0.017921025
219	0xbc6fbde1	-0.014632673
220	0xbcab9f55	-0.020949999
221	0x3c25b6f0	0.0101144165
222	0x3ca5d239	0.020241844
223	0x3c85a339	0.016313182
224	0x3ce03850	0.027370602
225	0x3cb187d3	0.021671211
226	0x3c8ce460	0.017198741
227	0x3cb9c401	0.02267647
228	0x3c1f1ba3	0.009711179
229	0x3cbc9b31	0.02302322
230	0x3b8ce4ac	0.0042997207
231	0x3ba7dc70	0.0051227137
232	0xbc817de9	-0.015807109
233	0xbcb9d0c3	-0.022682553
234	0xbc40b14a	-0.011761019
235	0xbc82528c	-0.015908502
236	0xbcb3822a	-0.021912653
237	0x3bf6ae78	0.0075281225
238	0x3c15cf89	0.0091437185
239	0x3c807932	0.01568279
240	0xbbda15d9	-0.0066554365
241	0x3d0a66da	0.033789493
242	0xbca54d23	-0.020178383
243	0x3b4104da	0.0029452355
244	0xbc937d9a	-0.018004227
245	0xbcc6f818	-0.024288222
246	0xbc7b3001	-0.015331269
247	0xbc158026	-0.009124791
248	0x3b96b7ec	0.004599562
249	0x3c5134ff	0.012768983
250	0xbc3de681	-0.011590601
251	0x3d01afab	0.03166167
252	0xbd21224a	-0.03933934
253	0xbbc64078	-0.0060501657
254	0xbca944cb	-0.020662686
255	0x3c4424d9	0.011971676

bias f4 [5]
0	0x3d4a0222	0.04931844
1	0xbd06708b	-0.032822173
2	0xbd3b6bad	-0.045756985
3	0xbc52046a	-0.012818435
4	0xbcc4ebbd	-0.02403819
