experiments/CnnTransformer/simclr/simclr_cnn_transformer_trainings2/logistic_on_simclr_IT_20pat/lightning_logs/version_0/checkpoints/epoch=39-step=8760.ckpt (torch, 7847 bytes, 6 tensors)

classifier.weight f4 [5, 184]
0.054312315 -0.024968944 0.009638389 -0.005310194 0.002977643 0.012412973 0.022565283 0.02657496
0.023401596 0.015562384 0.01639075 -0.009516143 0.004114227 0.018540733 -0.06911256 -0.026015393
0.01115389 0.018848851 -0.022888988 0.018142728 -0.020672306 -0.0033274395 -0.005204334 0.050024327
-0.019943183 0.054956246 0.0077030417 0.021448068 0.01639971 -0.017683787 0.03372861 -0.004771757
-0.0057656714 0.004874805 -0.005705431 -0.015702488 0.054227993 0.019777343 -0.029530285 0.005461322
0.03294875 -0.026948918 0.024284994 0.009112878 -0.002999732 -0.022912435 -0.01608156 0.019477308
-0.026020197 0.04073874 0.00018594592 0.019482171 -0.00033978 -0.008992934 0.01687843 -0.023888838
-0.026424494 0.024477234 0.009514827 -0.015202981 0.034571934 -0.017586976 0.03788258 -0.056268983
0.029788336 0.037729852 0.014520944 -0.014263407 0.029806636 0.018441873 -0.019681044 -0.00023482776
-0.045948744 0.010281224 -0.018615887 -0.016091283 -0.018377407 0.032953486 -0.038875017 0.025393192
-0.014483331 0.010151818 0.035974756 -0.024877185 -0.034529064 0.014990343 0.0008180743 -0.018814478
0.01695016 0.011321534 0.012892366 0.02013635 -0.028743036 0.0080127055 -0.0087731695 -0.0073236604
-0.0052354573 0.004273914 -0.015946353 3.1190215e-05 -0.06196245 0.034457877 -0.004582832 -0.01496645
-0.030021043 0.034458485 0.006867505 -0.028305931 0.038337022 0.019216606 0.037157025 0.0022674783
-0.044769105 0.044040576 0.017212043 0.066248275 -0.008915604 0.015275758 -0.029389394 -0.020692563
-0.0065566814 -0.045853335 0.019882305 -0.027107054 -0.026964335 0.034698915 0.0014049532 -0.008696597
0.0035500685 0.02656758 -0.0013588491 -0.006124446 -0.024708208 -0.022007518 0.010539814 -0.025818387
0.048067715 0.026162699 -0.019285554 -0.014922815 -0.021476075 0.03074017 -0.024259873 0.04048993
-0.046222698 -0.009008734 0.023591924 0.005469943 -0.027492186 0.013633907 -0.017062237 -0.070714556
0.0067453333 0.0072457246 -0.014398766 -0.023202745 0.021557754 -0.0071608447 -0.014063544 0.014400779
-0.05953826 -0.02914268 -0.030444125 -0.03224116 -0.014007229 -0.028243233 -0.01883902 -0.020707384
-0.042698026 0.025673004 0.04939464 -0.0076978193 -0.037404723 0.032021407 -0.03227467 0.0053084726
-0.030192617 0.044853386 0.03041741 -0.044076975 0.008974727 -0.0019852289 0.016765226 -0.020642256
0.039552353 -0.028480498 0.026900101 0.003378064 -0.019301463 0.016293474 0.023966178 0.0024164612
-0.0006284352 0.056822762 0.013453867 -0.014072198 0.021232774 0.04934535 -0.043522373 -0.029204745
0.014940659 0.05124236 -0.016427893 0.028640023 0.063857175 -0.016261112 -0.018149234 -0.035840135
-0.047870476 -0.034846656 0.013282469 -0.056532875 -0.025852775 0.0055815075 0.033644788 -0.005956641
0.009236188 -0.0073577575 0.014011109 0.04482818 0.041929293 0.037668083 -0.00394039 -0.023719786
0.008813006 0.016045315 0.025883598 0.024334984 -0.034962866 -0.016399577 0.009399311 0.037097815
0.007340553 0.041365106 0.020299353 0.011011795 -0.012111597 -0.013469897 -0.03881029 0.02074347
-0.028572064 -0.01732257 -0.0158027 -0.04448101 0.059649434 -0.0045297695 0.013028573 -0.021196352
0.05936085 -0.005391501 0.011260795 0.03872474 0.071283795 0.043768167 -0.038926084 -0.035886414
00000000: 9776 5e3d ac8b ccbc 55ea 1d3c 2301 aebb
00000010: 8f24 433b c85f 4b3c d4da b83c bbb3 d93c
00000020: b4b4 bf3c 5ff9 7e3c e545 863c 99e9 1bbc
00000030: a3d0 863b bce2 973c e38a 8dbd 3c1e d5bc
00000040: cebe 363c e868 9a3c b081 bbbc 0fa0 943c
00000050: f858 a9bc 2c11 5abb 1e89 aabb 4fe6 4c3d
00000060: e35f a3bc cd19 613d cc69 fc3b dcb3 af3c
00000070: af58 863c 97dd 90bc 0327 0a3d 665c 9cbb
00000080: f5ed bcbb d4bc 9f3b a0f4 babb 81a2 80bc
00000090: 2c1e 5e3d 1804 a23c 7fe9 f1bc e4f4 b23b
000000a0: 45f5 063d fac3 dcbc 53f1 c63c 2e4e 153c
000000b0: 2797 44bb dcb2 bbbc 7abd 83bc e08e 9f3c
000000c0: 4f28 d5bc aadd 263d 7afa 4239 1399 9f3c
000000d0: 8024 b2b9 1957 13bc a244 8a3c 86b2 c3bc
000000e0: 2e78 d8bc 7b84 c83c 14e4 1b3c ed15 79bc
000000f0: 4d9b 0d3d 9012 90bc c42a 1b3d 4e7a 66bd
00000100: ab06 f43c 9e8a 1a3d 41e9 6d3c 11b1 69bc
00000110: 0c2d f43c 6913 973c 243a a1bc 193c 76b9
00000120: c034 3cbd 9472 283c 5880 98bc ded1 83bc
00000130: 378c 96bc 3cfa 063d 693b 1fbd 6205 d03c
00000140: 7e4b 6dbc d053 263c 445a 133d 3dcb cbbc
00000150: 596e 0dbd 0e9a 753c 0974 563a d220 9abc
00000160: 10db 8a3c f57d 393c 813a 533c fdf4 a43c
00000170: 8476 ebbc b947 033c 57bd 0fbc 51fb efbb
00000180: 338e abbb 300c 8c3b eda1 82bc 3dd2 0238
00000190: 57cc 7dbd b423 0d3d 952b 96bb d735 75bc
000001a0: b1ee f5bc 5724 0d3d cf08 e13b d7e1 e7bc
000001b0: 4807 1d3d 256c 9d3c f731 183d f999 143b
000001c0: cf5f 37bd e463 343d 4500 8d3c 2dad 873d
000001d0: c112 12bc 2c47 7a3c 07c2 f0bc 7383 a9bc
000001e0: 6ed9 d6bb b5d0 3bbd 37e0 a23c 9d0f debc
000001f0: 4fe4 dcbc 7320 0e3d 6826 b83a 2c7c 0ebc
00000200: 44a8 683b 41a4 d93c 691b b2ba 94af c8bb
00000210: de68 cabc 1c49 b4bc 2faf 2c3c 1581 d3bc
00000220: a7e2 443d 2853 d63c bdfc 9dbc d37e 74bc
00000230: 98ee afbc cfd2 fb3c a4bc c6bc c5d8 253d
00000240: 0354 3dbd 5e99 13bc da43 c13c 353d b33b
00000250: 4b37 e1bc c060 5f3c 1bc6 8bbc cbd2 90bd
00000260: f507 dd3b 8b6d ed3b cde8 6bbc af13 bebc
00000270: e399 b03c 85a5 eabb c76a 66bc 3ff1 6b3c
00000280: 64de 73bd a1bc eebc f565 f9bc 4e0f 04bd
00000290: 947e 65bc 5a5e e7bc 4a54 9abc 88a2 a9bc
000002a0: 20e4 2ebd 3150 d23c 0952 4a3d fd3d fcbb
000002b0: b235 19bd e128 033d 7232 04bd b2f2 ad3b
000002c0: 8256 f7bc 2fb8 373d ef2d f93c 0f8a 34bd
000002d0: bc0a 133c 9d1a 02bb 3a57 893c f319 a9bc
000002e0: a601 223d ef4f e9bc 9a5d dc3c 8262 5d3b
000002f0: 1a1e 9ebc e479 853c b854 c43c 7e5d 1e3b
00000300: 93bd 24ba fcbe 683d 9c6d 5c3c 148f 66bc
00000310: 5bf0 ad3c 5a1e 4a3d 8444 32bd ca3e efbc
00000320: aac9 743c 82e3 513d ca93 86bc 7b9e ea3c
00000330: 8dc7 823d 0636 85bc b4ad 94bc 1bcd 12bd
00000340: d513 44bd 5ebb 0ebd b69e 593c 048f 67bd
00000350: 33c9 d3bc 14e5 b63b 1ecf 093d ed2f c3bb
00000360: 6153 173c 5819 f1bb da8e 653c c19d 373d
00000370: 0dbe 2b3d d949 1a3d 631e 81bb ff4f c2bc
00000380: 6d64 103c 7771 833c d709 d43c 295a c73c
00000390: 3935 0fbd 6858 86bc 91ff 193c e1f3 173d
000003a0: 0689 f03b 756e 293d d44a a63c d16a 343c
000003b0: b86f 46bc d8b0 5cbc 8af7 1ebd 36ee a93c
000003c0: f60f eabc 10e8 8dbc aa74 81bc b831 36bd
000003d0: f752 743d 766e 94bb cc75 553c f9a3 adbc
000003e0: 5d24 733d 30ab b0bb 337f 383c d59d 1e3d
000003f0: 3dfd 913d 4046 333d f570 1fbd a2fd 12bd

classifier.bias f4 [5]
-0.062757686 -0.048018254 0.077592425 0.057094317 0.03350732
00000000: 1a87 80bd caae 44bd c7e8 9e3d bbdb 693d
00000010: f93e 093d

net.1.weight f4 [5, 184]
0.054312315 -0.024968944 0.009638389 -0.005310194 0.002977643 0.012412973 0.022565283 0.02657496
0.023401596 0.015562384 0.01639075 -0.009516143 0.004114227 0.018540733 -0.06911256 -0.026015393
0.01115389 0.018848851 -0.022888988 0.018142728 -0.020672306 -0.0033274395 -0.005204334 0.050024327
-0.019943183 0.054956246 0.0077030417 0.021448068 0.01639971 -0.017683787 0.03372861 -0.004771757
-0.0057656714 0.004874805 -0.005705431 -0.015702488 0.054227993 0.019777343 -0.029530285 0.005461322
0.03294875 -0.026948918 0.024284994 0.009112878 -0.002999732 -0.022912435 -0.01608156 0.019477308
-0.026020197 0.04073874 0.00018594592 0.019482171 -0.00033978 -0.008992934 0.01687843 -0.023888838
-0.026424494 0.024477234 0.009514827 -0.015202981 0.034571934 -0.017586976 0.03788258 -0.056268983
0.029788336 0.037729852 0.014520944 -0.014263407 0.029806636 0.018441873 -0.019681044 -0.00023482776
-0.045948744 0.010281224 -0.018615887 -0.016091283 -0.018377407 0.032953486 -0.038875017 0.025393192
-0.014483331 0.010151818 0.035974756 -0.024877185 -0.034529064 0.014990343 0.0008180743 -0.018814478
0.01695016 0.011321534 0.012892366 0.02013635 -0.028743036 0.0080127055 -0.0087731695 -0.0073236604
-0.0052354573 0.004273914 -0.015946353 3.1190215e-05 -0.06196245 0.034457877 -0.004582832 -0.01496645
-0.030021043 0.034458485 0.006867505 -0.028305931 0.038337022 0.019216606 0.037157025 0.0022674783
-0.044769105 0.044040576 0.017212043 0.066248275 -0.008915604 0.015275758 -0.029389394 -0.020692563
-0.0065566814 -0.045853335 0.019882305 -0.027107054 -0.026964335 0.034698915 0.0014049532 -0.008696597
0.0035500685 0.02656758 -0.0013588491 -0.006124446 -0.024708208 -0.022007518 0.010539814 -0.025818387
0.048067715 0.026162699 -0.019285554 -0.014922815 -0.021476075 0.03074017 -0.024259873 0.04048993
-0.046222698 -0.009008734 0.023591924 0.005469943 -0.027492186 0.013633907 -0.017062237 -0.070714556
0.0067453333 0.0072457246 -0.014398766 -0.023202745 0.021557754 -0.0071608447 -0.014063544 0.014400779
-0.05953826 -0.02914268 -0.030444125 -0.03224116 -0.014007229 -0.028243233 -0.01883902 -0.020707384
-0.042698026 0.025673004 0.04939464 -0.0076978193 -0.037404723 0.032021407 -0.03227467 0.0053084726
-0.030192617 0.044853386 0.03041741 -0.044076975 0.008974727 -0.0019852289 0.016765226 -0.020642256
0.039552353 -0.028480498 0.026900101 0.003378064 -0.019301463 0.016293474 0.023966178 0.0024164612
-0.0006284352 0.056822762 0.013453867 -0.014072198 0.021232774 0.04934535 -0.043522373 -0.029204745
0.014940659 0.05124236 -0.016427893 0.028640023 0.063857175 -0.016261112 -0.018149234 -0.035840135
-0.047870476 -0.034846656 0.013282469 -0.056532875 -0.025852775 0.0055815075 0.033644788 -0.005956641
0.009236188 -0.0073577575 0.014011109 0.04482818 0.041929293 0.037668083 -0.00394039 -0.023719786
0.008813006 0.016045315 0.025883598 0.024334984 -0.034962866 -0.016399577 0.009399311 0.037097815
0.007340553 0.041365106 0.020299353 0.011011795 -0.012111597 -0.013469897 -0.03881029 0.02074347
-0.028572064 -0.01732257 -0.0158027 -0.04448101 0.059649434 -0.0045297695 0.013028573 -0.021196352
0.05936085 -0.005391501 0.011260795 0.03872474 0.071283795 0.043768167 -0.038926084 -0.035886414
00000000: 9776 5e3d ac8b ccbc 55ea 1d3c 2301 aebb
00000010: 8f24 433b c85f 4b3c d4da b83c bbb3 d93c
00000020: b4b4 bf3c 5ff9 7e3c e545 863c 99e9 1bbc
00000030: a3d0 863b bce2 973c e38a 8dbd 3c1e d5bc
00000040: cebe 363c e868 9a3c b081 bbbc 0fa0 943c
00000050: f858 a9bc 2c11 5abb 1e89 aabb 4fe6 4c3d
00000060: e35f a3bc cd19 613d cc69 fc3b dcb3 af3c
00000070: af58 863c 97dd 90bc 0327 0a3d 665c 9cbb
00000080: f5ed bcbb d4bc 9f3b a0f4 babb 81a2 80bc
00000090: 2c1e 5e3d 1804 a23c 7fe9 f1bc e4f4 b23b
000000a0: 45f5 063d fac3 dcbc 53f1 c63c 2e4e 153c
000000b0: 2797 44bb dcb2 bbbc 7abd 83bc e08e 9f3c
000000c0: 4f28 d5bc aadd 263d 7afa 4239 1399 9f3c
000000d0: 8024 b2b9 1957 13bc a244 8a3c 86b2 c3bc
000000e0: 2e78 d8bc 7b84 c83c 14e4 1b3c ed15 79bc
000000f0: 4d9b 0d3d 9012 90bc c42a 1b3d 4e7a 66bd
00000100: ab06 f43c 9e8a 1a3d 41e9 6d3c 11b1 69bc
00000110: 0c2d f43c 6913 973c 243a a1bc 193c 76b9
00000120: c034 3cbd 9472 283c 5880 98bc ded1 83bc
00000130: 378c 96bc 3cfa 063d 693b 1fbd 6205 d03c
00000140: 7e4b 6dbc d053 263c 445a 133d 3dcb cbbc
00000150: 596e 0dbd 0e9a 753c 0974 563a d220 9abc
00000160: 10db 8a3c f57d 393c 813a 533c fdf4 a43c
00000170: 8476 ebbc b947 033c 57bd 0fbc 51fb efbb
00000180: 338e abbb 300c 8c3b eda1 82bc 3dd2 0238
00000190: 57cc 7dbd b423 0d3d 952b 96bb d735 75bc
000001a0: b1ee f5bc 5724 0d3d cf08 e13b d7e1 e7bc
000001b0: 4807 1d3d 256c 9d3c f731 183d f999 143b
000001c0: cf5f 37bd e463 343d 4500 8d3c 2dad 873d
000001d0: c112 12bc 2c47 7a3c 07c2 f0bc 7383 a9bc
000001e0: 6ed9 d6bb b5d0 3bbd 37e0 a23c 9d0f debc
000001f0: 4fe4 dcbc 7320 0e3d 6826 b83a 2c7c 0ebc
00000200: 44a8 683b 41a4 d93c 691b b2ba 94af c8bb
00000210: de68 cabc 1c49 b4bc 2faf 2c3c 1581 d3bc
00000220: a7e2 443d 2853 d63c bdfc 9dbc d37e 74bc
00000230: 98ee afbc cfd2 fb3c a4bc c6bc c5d8 253d
00000240: 0354 3dbd 5e99 13bc da43 c13c 353d b33b
00000250: 4b37 e1bc c060 5f3c 1bc6 8bbc cbd2 90bd
00000260: f507 dd3b 8b6d ed3b cde8 6bbc af13 bebc
00000270: e399 b03c 85a5 eabb c76a 66bc 3ff1 6b3c
00000280: 64de 73bd a1bc eebc f565 f9bc 4e0f 04bd
00000290: 947e 65bc 5a5e e7bc 4a54 9abc 88a2 a9bc
000002a0: 20e4 2ebd 3150 d23c 0952 4a3d fd3d fcbb
000002b0: b235 19bd e128 033d 7232 04bd b2f2 ad3b
000002c0: 8256 f7bc 2fb8 373d ef2d f93c 0f8a 34bd
000002d0: bc0a 133c 9d1a 02bb 3a57 893c f319 a9bc
000002e0: a601 223d ef4f e9bc 9a5d dc3c 8262 5d3b
000002f0: 1a1e 9ebc e479 853c b854 c43c 7e5d 1e3b
00000300: 93bd 24ba fcbe 683d 9c6d 5c3c 148f 66bc
00000310: 5bf0 ad3c 5a1e 4a3d 8444 32bd ca3e efbc
00000320: aac9 743c 82e3 513d ca93 86bc 7b9e ea3c
00000330: 8dc7 823d 0636 85bc b4ad 94bc 1bcd 12bd
00000340: d513 44bd 5ebb 0ebd b69e 593c 048f 67bd
00000350: 33c9 d3bc 14e5 b63b 1ecf 093d ed2f c3bb
00000360: 6153 173c 5819 f1bb da8e 653c c19d 373d
00000370: 0dbe 2b3d d949 1a3d 631e 81bb ff4f c2bc
00000380: 6d64 103c 7771 833c d709 d43c 295a c73c
00000390: 3935 0fbd 6858 86bc 91ff 193c e1f3 173d
000003a0: 0689 f03b 756e 293d d44a a63c d16a 343c
000003b0: b86f 46bc d8b0 5cbc 8af7 1ebd 36ee a93c
000003c0: f60f eabc 10e8 8dbc aa74 81bc b831 36bd
000003d0: f752 743d 766e 94bb cc75 553c f9a3 adbc
000003e0: 5d24 733d 30ab b0bb 337f 383c d59d 1e3d
000003f0: 3dfd 913d 4046 333d f570 1fbd a2fd 12bd

net.1.bias f4 [5]
-0.062757686 -0.048018254 0.077592425 0.057094317 0.03350732
00000000: 1a87 80bd caae 44bd c7e8 9e3d bbdb 693d
00000010: f93e 093d

weight f4 [5, 184]
0.054312315 -0.024968944 0.009638389 -0.005310194 0.002977643 0.012412973 0.022565283 0.02657496
0.023401596 0.015562384 0.01639075 -0.009516143 0.004114227 0.018540733 -0.06911256 -0.026015393
0.01115389 0.018848851 -0.022888988 0.018142728 -0.020672306 -0.0033274395 -0.005204334 0.050024327
-0.019943183 0.054956246 0.0077030417 0.021448068 0.01639971 -0.017683787 0.03372861 -0.004771757
-0.0057656714 0.004874805 -0.005705431 -0.015702488 0.054227993 0.019777343 -0.029530285 0.005461322
0.03294875 -0.026948918 0.024284994 0.009112878 -0.002999732 -0.022912435 -0.01608156 0.019477308
-0.026020197 0.04073874 0.00018594592 0.019482171 -0.00033978 -0.008992934 0.01687843 -0.023888838
-0.026424494 0.024477234 0.009514827 -0.015202981 0.034571934 -0.017586976 0.03788258 -0.056268983
0.029788336 0.037729852 0.014520944 -0.014263407 0.029806636 0.018441873 -0.019681044 -0.00023482776
-0.045948744 0.010281224 -0.018615887 -0.016091283 -0.018377407 0.032953486 -0.038875017 0.025393192
-0.014483331 0.010151818 0.035974756 -0.024877185 -0.034529064 0.014990343 0.0008180743 -0.018814478
0.01695016 0.011321534 0.012892366 0.02013635 -0.028743036 0.0080127055 -0.0087731695 -0.0073236604
-0.0052354573 0.004273914 -0.015946353 3.1190215e-05 -0.06196245 0.034457877 -0.004582832 -0.01496645
-0.030021043 0.034458485 0.006867505 -0.028305931 0.038337022 0.019216606 0.037157025 0.0022674783
-0.044769105 0.044040576 0.017212043 0.066248275 -0.008915604 0.015275758 -0.029389394 -0.020692563
-0.0065566814 -0.045853335 0.019882305 -0.027107054 -0.026964335 0.034698915 0.0014049532 -0.008696597
0.0035500685 0.02656758 -0.0013588491 -0.006124446 -0.024708208 -0.022007518 0.010539814 -0.025818387
0.048067715 0.026162699 -0.019285554 -0.014922815 -0.021476075 0.03074017 -0.024259873 0.04048993
-0.046222698 -0.009008734 0.023591924 0.005469943 -0.027492186 0.013633907 -0.017062237 -0.070714556
0.0067453333 0.0072457246 -0.014398766 -0.023202745 0.021557754 -0.0071608447 -0.014063544 0.014400779
-0.05953826 -0.02914268 -0.030444125 -0.03224116 -0.014007229 -0.028243233 -0.01883902 -0.020707384
-0.042698026 0.025673004 0.04939464 -0.0076978193 -0.037404723 0.032021407 -0.03227467 0.0053084726
-0.030192617 0.044853386 0.03041741 -0.044076975 0.008974727 -0.0019852289 0.016765226 -0.020642256
0.039552353 -0.028480498 0.026900101 0.003378064 -0.019301463 0.016293474 0.023966178 0.0024164612
-0.0006284352 0.056822762 0.013453867 -0.014072198 0.021232774 0.04934535 -0.043522373 -0.029204745
0.014940659 0.05124236 -0.016427893 0.028640023 0.063857175 -0.016261112 -0.018149234 -0.035840135
-0.047870476 -0.034846656 0.013282469 -0.056532875 -0.025852775 0.0055815075 0.033644788 -0.005956641
0.009236188 -0.0073577575 0.014011109 0.04482818 0.041929293 0.037668083 -0.00394039 -0.023719786
0.008813006 0.016045315 0.025883598 0.024334984 -0.034962866 -0.016399577 0.009399311 0.037097815
0.007340553 0.041365106 0.020299353 0.011011795 -0.012111597 -0.013469897 -0.03881029 0.02074347
-0.028572064 -0.01732257 -0.0158027 -0.04448101 0.059649434 -0.0045297695 0.013028573 -0.021196352
0.05936085 -0.005391501 0.011260795 0.03872474 0.071283795 0.043768167 -0.038926084 -0.035886414
00000000: 9776 5e3d ac8b ccbc 55ea 1d3c 2301 aebb
00000010: 8f24 433b c85f 4b3c d4da b83c bbb3 d93c
00000020: b4b4 bf3c 5ff9 7e3c e545 863c 99e9 1bbc
00000030: a3d0 863b bce2 973c e38a 8dbd 3c1e d5bc
00000040: cebe 363c e868 9a3c b081 bbbc 0fa0 943c
00000050: f858 a9bc 2c11 5abb 1e89 aabb 4fe6 4c3d
00000060: e35f a3bc cd19 613d cc69 fc3b dcb3 af3c
00000070: af58 863c 97dd 90bc 0327 0a3d 665c 9cbb
00000080: f5ed bcbb d4bc 9f3b a0f4 babb 81a2 80bc
00000090: 2c1e 5e3d 1804 a23c 7fe9 f1bc e4f4 b23b
000000a0: 45f5 063d fac3 dcbc 53f1 c63c 2e4e 153c
000000b0: 2797 44bb dcb2 bbbc 7abd 83bc e08e 9f3c
000000c0: 4f28 d5bc aadd 263d 7afa 4239 1399 9f3c
000000d0: 8024 b2b9 1957 13bc a244 8a3c 86b2 c3bc
000000e0: 2e78 d8bc 7b84 c83c 14e4 1b3c ed15 79bc
000000f0: 4d9b 0d3d 9012 90bc c42a 1b3d 4e7a 66bd
00000100: ab06 f43c 9e8a 1a3d 41e9 6d3c 11b1 69bc
00000110: 0c2d f43c 6913 973c 243a a1bc 193c 76b9
00000120: c034 3cbd 9472 283c 5880 98bc ded1 83bc
00000130: 378c 96bc 3cfa 063d 693b 1fbd 6205 d03c
00000140: 7e4b 6dbc d053 263c 445a 133d 3dcb cbbc
00000150: 596e 0dbd 0e9a 753c 0974 563a d220 9abc
00000160: 10db 8a3c f57d 393c 813a 533c fdf4 a43c
00000170: 8476 ebbc b947 033c 57bd 0fbc 51fb efbb
00000180: 338e abbb 300c 8c3b eda1 82bc 3dd2 0238
00000190: 57cc 7dbd b423 0d3d 952b 96bb d735 75bc
000001a0: b1ee f5bc 5724 0d3d cf08 e13b d7e1 e7bc
000001b0: 4807 1d3d 256c 9d3c f731 183d f999 143b
000001c0: cf5f 37bd e463 343d 4500 8d3c 2dad 873d
000001d0: c112 12bc 2c47 7a3c 07c2 f0bc 7383 a9bc
000001e0: 6ed9 d6bb b5d0 3bbd 37e0 a23c 9d0f debc
000001f0: 4fe4 dcbc 7320 0e3d 6826 b83a 2c7c 0ebc
00000200: 44a8 683b 41a4 d93c 691b b2ba 94af c8bb
00000210: de68 cabc 1c49 b4bc 2faf 2c3c 1581 d3bc
00000220: a7e2 443d 2853 d63c bdfc 9dbc d37e 74bc
00000230: 98ee afbc cfd2 fb3c a4bc c6bc c5d8 253d
00000240: 0354 3dbd 5e99 13bc da43 c13c 353d b33b
00000250: 4b37 e1bc c060 5f3c 1bc6 8bbc cbd2 90bd
00000260: f507 dd3b 8b6d ed3b cde8 6bbc af13 bebc
00000270: e399 b03c 85a5 eabb c76a 66bc 3ff1 6b3c
00000280: 64de 73bd a1bc eebc f565 f9bc 4e0f 04bd
00000290: 947e 65bc 5a5e e7bc 4a54 9abc 88a2 a9bc
000002a0: 20e4 2ebd 3150 d23c 0952 4a3d fd3d fcbb
000002b0: b235 19bd e128 033d 7232 04bd b2f2 ad3b
000002c0: 8256 f7bc 2fb8 373d ef2d f93c 0f8a 34bd
000002d0: bc0a 133c 9d1a 02bb 3a57 893c f319 a9bc
000002e0: a601 223d ef4f e9bc 9a5d dc3c 8262 5d3b
000002f0: 1a1e 9ebc e479 853c b854 c43c 7e5d 1e3b
00000300: 93bd 24ba fcbe 683d 9c6d 5c3c 148f 66bc
00000310: 5bf0 ad3c 5a1e 4a3d 8444 32bd ca3e efbc
00000320: aac9 743c 82e3 513d ca93 86bc 7b9e ea3c
00000330: 8dc7 823d 0636 85bc b4ad 94bc 1bcd 12bd
00000340: d513 44bd 5ebb 0ebd b69e 593c 048f 67bd
00000350: 33c9 d3bc 14e5 b63b 1ecf 093d ed2f c3bb
00000360: 6153 173c 5819 f1bb da8e 653c c19d 373d
00000370: 0dbe 2b3d d949 1a3d 631e 81bb ff4f c2bc
00000380: 6d64 103c 7771 833c d709 d43c 295a c73c
00000390: 3935 0fbd 6858 86bc 91ff 193c e1f3 173d
000003a0: 0689 f03b 756e 293d d44a a63c d16a 343c
000003b0: b86f 46bc d8b0 5cbc 8af7 1ebd 36ee a93c
000003c0: f60f eabc 10e8 8dbc aa74 81bc b831 36bd
000003d0: f752 743d 766e 94bb cc75 553c f9a3 adbc
000003e0: 5d24 733d 30ab b0bb 337f 383c d59d 1e3d
000003f0: 3dfd 913d 4046 333d f570 1fbd a2fd 12bd

bias f4 [5]
-0.062757686 -0.048018254 0.077592425 0.057094317 0.03350732
00000000: 1a87 80bd caae 44bd c7e8 9e3d bbdb 693d
00000010: f93e 093d
