experiments/CnnEncoder/simclr/simclr_cnn_encoder_trainings1/logistic_on_simclr_IT_10pat/lightning_logs/version_0/checkpoints/epoch=36-step=4551.ckpt (torch, 7847 bytes, 6 tensors)

classifier.weight f4 [5, 184]
000000 d5 bc fb bc 25 a2 4c bd f2 7b 36 bc d4 7f 9f 3c
       -0.03072969 -0.04995932 -0.011137949 0.019470133
000010 51 14 06 bd 14 10 2e 3d 84 b5 02 3d d8 3d 6a bd
       -0.03273422 0.042495802 0.031911388 -0.057187885
000020 e0 9d 55 3d b7 47 e3 bb 05 0b bb 3c 54 6a 3d 3d
       0.052152514 -0.0069360393 0.022832403 0.04624398
000030 e9 38 8a 3c 2f 33 aa 3d 7a d9 30 bd ed 07 34 bd
       0.01687284 0.08310544 -0.04317615 -0.04395287
000040 95 79 6e 3c 8a d5 77 3c 95 cc 44 3d 65 2c 8e ba
       0.014555355 0.015126595 0.048046667 -0.0010846971
000050 6d f7 51 bd bc 97 1b bc 3f 20 20 3d 0c 9f 0e bd
       -0.051261354 -0.0094966255 0.039093252 -0.034819648
000060 9e e4 2a bd ed 38 3c 3d cb d6 98 3b d5 a5 93 3c
       -0.041721933 0.045952726 0.004664277 0.01802341
000070 e2 0b 45 bd 31 a8 ab bc ae d2 80 bd 2d 43 27 bd
       -0.048107035 -0.020954223 -0.06290184 -0.04083555
000080 f4 c8 96 bb 01 d7 57 bd dc 95 82 3b 17 1b ce 3c
       -0.004601592 -0.052695278 0.00398515 0.025159402
000090 49 90 a9 3c 1c d6 be bb 02 80 a0 bc c6 1f f2 3c
       0.020698683 -0.0058238637 -0.019592289 0.029556166
0000a0 dc 2a 48 bd f9 3d 65 3c 62 57 59 bc 48 a9 a0 3d
       -0.048869 0.013991826 -0.013265463 0.07844788
0000b0 35 48 df 3c b8 87 68 bc 46 a2 bb b9 50 1a 5a 3d
       0.02725611 -0.014192514 -0.00035788323 0.05324775
0000c0 fd e3 34 3d 17 a7 76 bd ec b3 2c bc b4 53 e3 bc
       0.04416274 -0.060217943 -0.010540944 -0.027749874
0000d0 0e a3 54 bd 85 4f 27 bc 9c d6 b8 bb e5 87 e2 bc
       -0.051913314 -0.01021183 -0.005640818 -0.02765269
0000e0 83 0a 05 bd 93 f7 8e ba 85 fa a8 3c 62 5f 41 bd
       -0.032480728 -0.0010907523 0.02062727 -0.047210105
0000f0 86 3d ef 3b d4 2a 37 bb 3a d2 0b 3d 7e c3 7e 3d
       0.0073010353 -0.0027949112 0.034136035 0.062198155
000100 f8 d0 4d bb ce 8b 18 3c cc e1 75 bd eb 6d 8e bb
       -0.0031405073 0.009310676 -0.06002979 -0.0043465993
000110 42 42 1b bd 3b 28 78 3c e2 c3 bf bd a2 05 fb bc
       -0.037904985 0.01514631 -0.093635336 -0.030642334
000120 15 6a 90 bc 3c 3e 1f 3d bb 4d 50 3b f2 16 08 bd
       -0.017628709 0.03887771 0.0031784612 -0.033225007
000130 c5 57 87 bd 4c 3e 24 bc 0c 15 1b bc 66 40 56 3d
       -0.066085376 -0.010024618 -0.009465467 0.05230751
000140 a3 f5 77 bd a4 61 87 bc 3d c1 7f 3c 67 29 b3 bd
       -0.06053699 -0.01652605 0.015610036 -0.08748131
000150 83 6c ad bd b0 5a 88 bd 6b 79 15 3d ce 5d 0f 3c
       -0.084679626 -0.06657922 0.036492746 0.008750392
000160 f1 ff 61 bd 0f 7a 54 3d 13 cb 7e bc 44 5c 9a 3d
       -0.055175725 0.051874217 -0.015551346 0.075371295
000170 72 3a 61 3d cb ea 58 bc 15 81 09 bd 9b d2 80 3a
       0.05498738 -0.013239573 -0.033570368 0.000982839
000180 34 48 9b bd a6 81 d2 bc 03 70 1b bd 3c a3 da ba
       -0.07582131 -0.025696587 -0.03794862 -0.0016680728
000190 30 48 bb bd bb ed 7c bd d7 8a 3f bb 49 fd 4d 3c
       -0.09144628 -0.061750155 -0.0029227042 0.012572595
0001a0 24 ba 6a bd 16 26 b1 bc da da 1c 3d ec 4d 1a 3d
       -0.057306424 -0.021624606 0.03829465 0.03767197
0001b0 77 4e 05 bd 37 3d ca 3c 62 34 30 3d 87 5b 83 bd
       -0.032545533 0.024687393 0.043018706 -0.06413942
0001c0 63 be 8f bc 8b 59 5d bd 13 ef 46 3d 8d 2c de 3c
       -0.017546838 -0.054040473 0.048567843 0.027120853
0001d0 61 0f 61 3c 12 cc d0 bc 4e d9 88 bc de 07 df 3c
       0.013736577 -0.025487933 -0.016705181 0.027225431
0001e0 c9 3f 12 bd 2d 4b 28 3d fd ab 8b bc 74 f0 49 bd
       -0.03570536 0.04108732 -0.017049784 -0.04930158
0001f0 28 6e 34 bc 65 00 eb 3c 97 03 0b bd 95 c8 4d 3d
       -0.011012591 0.028686712 -0.03393897 0.050240118
000200 7d 7b 38 3b 4a cd 08 3d 76 62 26 3c 5f 4b 4a bc
       0.0028149777 0.033398904 0.010155311 -0.012347071
000210 80 0f ae 3c 73 6c d7 bc 1f 71 78 bb 8a b3 08 3d
       0.021247625 -0.02629683 -0.0037909222 0.033374347
000220 0c 41 11 bd d3 52 27 bd 86 8e 82 bd 9e aa 68 bc
       -0.035462424 -0.04085047 -0.063748404 -0.014200835
000230 cb 83 0b 3d ff 80 b8 bd 3f 00 01 39 0e ce de bc
       0.034061234 -0.09008979 0.0001230249 -0.027197864
000240 87 0d 63 bd fe d7 23 bd f3 16 94 3c 6d d1 a2 3d
       -0.055432823 -0.040000908 0.01807735 0.07950101
000250 a5 6d b1 bd 2b fd 44 3c e3 68 82 3c 2b bf d4 3c
       -0.08663491 0.012023251 0.015919155 0.025970062
000260 f9 a0 85 bc fb 5d 8a 3c aa 7e f5 bc c4 a2 0d bc
       -0.01631211 0.016890517 -0.029967625 -0.008644763
000270 72 56 53 bc b5 a4 fe bc 01 a4 15 3d 8b 95 7a bc
       -0.012899028 -0.031084398 0.03653336 -0.015294443
000280 c9 4d b4 bc c7 81 9f bc b3 c8 46 bc fa 64 bd bc
       -0.022009747 -0.019471062 -0.012132811 -0.023119438
000290 17 47 b8 3c f8 71 cc 3b 09 1b 10 bc 30 97 aa 3c
       0.022494836 0.006239172 -0.008795508 0.020824045
0002a0 7d 0a 10 3d 2e 7a 82 bb 10 ea 13 3d c9 26 aa bc
       0.035166252 -0.00398185 0.03611189 -0.020770447
0002b0 69 07 03 3d 0f 2a 1b bd b9 14 1a 3d 72 b9 84 3c
       0.03198949 -0.037881907 0.03761742 0.016201708
0002c0 06 80 84 3d ee 8f 12 bd f8 92 48 bd 87 ce f9 3c
       0.06469731 -0.035781793 -0.048968285 0.030493988
0002d0 a2 8b c8 3c 52 36 c7 bc 3f 19 ec 3b 2f d9 fb 3a
       0.024480645 -0.024317894 0.007205158 0.0019214506
0002e0 58 86 8d 3c 63 89 9f bd 52 40 f5 ba 7d 45 c7 bb
       0.017275974 -0.07789876 -0.0018711186 -0.0060812817
0002f0 50 ca 43 bd 64 9f 26 3d b0 97 07 3d ff 09 d5 3c
       -0.047800362 0.04067935 0.033103645 0.026005743
000300 23 e0 54 3d bf 6d 94 bc 0f b3 0e 3d 9f 98 01 bd
       0.051971566 -0.018118737 0.034838732 -0.03163969
000310 19 93 42 3d cd 5e 06 3d 76 60 27 bc a6 f1 3a 3d
       0.047503565 0.032805253 -0.010215869 0.04564061
000320 73 2c 3c 3d ab 00 60 3c f4 9b 5c 3d cb d1 82 bb
       0.045940828 0.013672034 0.053859666 -0.0039922944
000330 41 a6 22 3d 1f a7 47 bc 42 c4 28 3c a5 5f af bd
       0.039709333 -0.012185841 0.010300698 -0.085631646
000340 21 8f 19 3d eb 01 4c 3d f4 a4 62 3c 2f 2a 32 3d
       0.037490014 0.049806517 0.013833273 0.04349726
000350 54 58 9f 3c 9c 1b d9 3c 1a b9 ae 3b 1a 93 52 3d
       0.019451298 0.026502423 0.0053321244 0.05140982
000360 7d f0 27 3d 6a 95 1b bd ef 86 3c 3d fc 2b 05 bd
       0.041000832 -0.03798429 0.04602712 -0.03251265
000370 0e df 17 bd b2 c0 14 3d 23 2a 8d 3d 95 16 de 3b
       -0.037077956 0.03631658 0.068928026 0.0067775943
000380 ea ef f8 3c a1 9e 30 3d 3d 0e 3c 3c 6c 1e bb bc
       0.030387837 0.04312003 0.011478004 -0.022841655
000390 32 44 c4 3c a5 4a 0d 3c 9f 3e 37 ba b5 83 e3 3a
       0.0239583 0.008623754 -0.0006990227 0.0017357977
0003a0 5e 58 b4 bc 64 e2 89 bc eb d3 bb bb 52 d1 a4 bc
       -0.022014793 -0.016831584 -0.0057320497 -0.020119343
0003b0 1d 3f 85 bd be b0 eb bc e4 57 4c 3d bb fe 2c bd
       -0.065061785 -0.0287708 0.049888507 -0.042235117
0003c0 78 9a cb 3c ff 5a 9c bc 8d 93 80 3d 95 35 02 bd
       0.02485393 -0.01908636 0.06278143 -0.03178938
0003d0 25 71 18 3d e7 de 82 bd d9 70 12 bd e3 a0 d4 bc
       0.037217278 -0.063901715 -0.03575215 -0.025955623
0003e0 18 7b 8c 3d e0 9b 96 3a ee 7a 2c bd 2f 27 88 bc
       0.06859416 0.0011490546 -0.042109422 -0.016620247
0003f0 74 53 32 bd 75 e3 0a 3c b6 9a a7 bc 4d 34 2e bd
       -0.04353662 0.008477082 -0.020459514 -0.042530347

classifier.bias f4 [5]
000000 45 80 31 bd ae 79 6e 3b 50 0d a6 3d 4c 13 2f 3c
       -0.043335218 0.0036388445 0.08108008 0.010685753
000010 94 9d 55 bd
       -0.05215223

net.1.weight f4 [5, 184]
000000 d5 bc fb bc 25 a2 4c bd f2 7b 36 bc d4 7f 9f 3c
       -0.03072969 -0.04995932 -0.011137949 0.019470133
000010 51 14 06 bd 14 10 2e 3d 84 b5 02 3d d8 3d 6a bd
       -0.03273422 0.042495802 0.031911388 -0.057187885
000020 e0 9d 55 3d b7 47 e3 bb 05 0b bb 3c 54 6a 3d 3d
       0.052152514 -0.0069360393 0.022832403 0.04624398
000030 e9 38 8a 3c 2f 33 aa 3d 7a d9 30 bd ed 07 34 bd
       0.01687284 0.08310544 -0.04317615 -0.04395287
000040 95 79 6e 3c 8a d5 77 3c 95 cc 44 3d 65 2c 8e ba
       0.014555355 0.015126595 0.048046667 -0.0010846971
000050 6d f7 51 bd bc 97 1b bc 3f 20 20 3d 0c 9f 0e bd
       -0.051261354 -0.0094966255 0.039093252 -0.034819648
000060 9e e4 2a bd ed 38 3c 3d cb d6 98 3b d5 a5 93 3c
       -0.041721933 0.045952726 0.004664277 0.01802341
000070 e2 0b 45 bd 31 a8 ab bc ae d2 80 bd 2d 43 27 bd
       -0.048107035 -0.020954223 -0.06290184 -0.04083555
000080 f4 c8 96 bb 01 d7 57 bd dc 95 82 3b 17 1b ce 3c
       -0.004601592 -0.052695278 0.00398515 0.025159402
000090 49 90 a9 3c 1c d6 be bb 02 80 a0 bc c6 1f f2 3c
       0.020698683 -0.0058238637 -0.019592289 0.029556166
0000a0 dc 2a 48 bd f9 3d 65 3c 62 57 59 bc 48 a9 a0 3d
       -0.048869 0.013991826 -0.013265463 0.07844788
0000b0 35 48 df 3c b8 87 68 bc 46 a2 bb b9 50 1a 5a 3d
       0.02725611 -0.014192514 -0.00035788323 0.05324775
0000c0 fd e3 34 3d 17 a7 76 bd ec b3 2c bc b4 53 e3 bc
       0.04416274 -0.060217943 -0.010540944 -0.027749874
0000d0 0e a3 54 bd 85 4f 27 bc 9c d6 b8 bb e5 87 e2 bc
       -0.051913314 -0.01021183 -0.005640818 -0.02765269
0000e0 83 0a 05 bd 93 f7 8e ba 85 fa a8 3c 62 5f 41 bd
       -0.032480728 -0.0010907523 0.02062727 -0.047210105
0000f0 86 3d ef 3b d4 2a 37 bb 3a d2 0b 3d 7e c3 7e 3d
       0.0073010353 -0.0027949112 0.034136035 0.062198155
000100 f8 d0 4d bb ce 8b 18 3c cc e1 75 bd eb 6d 8e bb
       -0.0031405073 0.009310676 -0.06002979 -0.0043465993
000110 42 42 1b bd 3b 28 78 3c e2 c3 bf bd a2 05 fb bc
       -0.037904985 0.01514631 -0.093635336 -0.030642334
000120 15 6a 90 bc 3c 3e 1f 3d bb 4d 50 3b f2 16 08 bd
       -0.017628709 0.03887771 0.0031784612 -0.033225007
000130 c5 57 87 bd 4c 3e 24 bc 0c 15 1b bc 66 40 56 3d
       -0.066085376 -0.010024618 -0.009465467 0.05230751
000140 a3 f5 77 bd a4 61 87 bc 3d c1 7f 3c 67 29 b3 bd
       -0.06053699 -0.01652605 0.015610036 -0.08748131
000150 83 6c ad bd b0 5a 88 bd 6b 79 15 3d ce 5d 0f 3c
       -0.084679626 -0.06657922 0.036492746 0.008750392
000160 f1 ff 61 bd 0f 7a 54 3d 13 cb 7e bc 44 5c 9a 3d
       -0.055175725 0.051874217 -0.015551346 0.075371295
000170 72 3a 61 3d cb ea 58 bc 15 81 09 bd 9b d2 80 3a
       0.05498738 -0.013239573 -0.033570368 0.000982839
000180 34 48 9b bd a6 81 d2 bc 03 70 1b bd 3c a3 da ba
       -0.07582131 -0.025696587 -0.03794862 -0.0016680728
000190 30 48 bb bd bb ed 7c bd d7 8a 3f bb 49 fd 4d 3c
       -0.09144628 -0.061750155 -0.0029227042 0.012572595
0001a0 24 ba 6a bd 16 26 b1 bc da da 1c 3d ec 4d 1a 3d
       -0.057306424 -0.021624606 0.03829465 0.03767197
0001b0 77 4e 05 bd 37 3d ca 3c 62 34 30 3d 87 5b 83 bd
       -0.032545533 0.024687393 0.043018706 -0.06413942
0001c0 63 be 8f bc 8b 59 5d bd 13 ef 46 3d 8d 2c de 3c
       -0.017546838 -0.054040473 0.048567843 0.027120853
0001d0 61 0f 61 3c 12 cc d0 bc 4e d9 88 bc de 07 df 3c
       0.013736577 -0.025487933 -0.016705181 0.027225431
0001e0 c9 3f 12 bd 2d 4b 28 3d fd ab 8b bc 74 f0 49 bd
       -0.03570536 0.04108732 -0.017049784 -0.04930158
0001f0 28 6e 34 bc 65 00 eb 3c 97 03 0b bd 95 c8 4d 3d
       -0.011012591 0.028686712 -0.03393897 0.050240118
000200 7d 7b 38 3b 4a cd 08 3d 76 62 26 3c 5f 4b 4a bc
       0.0028149777 0.033398904 0.010155311 -0.012347071
000210 80 0f ae 3c 73 6c d7 bc 1f 71 78 bb 8a b3 08 3d
       0.021247625 -0.02629683 -0.0037909222 0.033374347
000220 0c 41 11 bd d3 52 27 bd 86 8e 82 bd 9e aa 68 bc
       -0.035462424 -0.04085047 -0.063748404 -0.014200835
000230 cb 83 0b 3d ff 80 b8 bd 3f 00 01 39 0e ce de bc
       0.034061234 -0.09008979 0.0001230249 -0.027197864
000240 87 0d 63 bd fe d7 23 bd f3 16 94 3c 6d d1 a2 3d
       -0.055432823 -0.040000908 0.01807735 0.07950101
000250 a5 6d b1 bd 2b fd 44 3c e3 68 82 3c 2b bf d4 3c
       -0.08663491 0.012023251 0.015919155 0.025970062
000260 f9 a0 85 bc fb 5d 8a 3c aa 7e f5 bc c4 a2 0d bc
       -0.01631211 0.016890517 -0.029967625 -0.008644763
000270 72 56 53 bc b5 a4 fe bc 01 a4 15 3d 8b 95 7a bc
       -0.012899028 -0.031084398 0.03653336 -0.015294443
000280 c9 4d b4 bc c7 81 9f bc b3 c8 46 bc fa 64 bd bc
       -0.022009747 -0.019471062 -0.012132811 -0.023119438
000290 17 47 b8 3c f8 71 cc 3b 09 1b 10 bc 30 97 aa 3c
       0.022494836 0.006239172 -0.008795508 0.020824045
0002a0 7d 0a 10 3d 2e 7a 82 bb 10 ea 13 3d c9 26 aa bc
       0.035166252 -0.00398185 0.03611189 -0.020770447
0002b0 69 07 03 3d 0f 2a 1b bd b9 14 1a 3d 72 b9 84 3c
       0.03198949 -0.037881907 0.03761742 0.016201708
0002c0 06 80 84 3d ee 8f 12 bd f8 92 48 bd 87 ce f9 3c
       0.06469731 -0.035781793 -0.048968285 0.030493988
0002d0 a2 8b c8 3c 52 36 c7 bc 3f 19 ec 3b 2f d9 fb 3a
       0.024480645 -0.024317894 0.007205158 0.0019214506
0002e0 58 86 8d 3c 63 89 9f bd 52 40 f5 ba 7d 45 c7 bb
       0.017275974 -0.07789876 -0.0018711186 -0.0060812817
0002f0 50 ca 43 bd 64 9f 26 3d b0 97 07 3d ff 09 d5 3c
       -0.047800362 0.04067935 0.033103645 0.026005743
000300 23 e0 54 3d bf 6d 94 bc 0f b3 0e 3d 9f 98 01 bd
       0.051971566 -0.018118737 0.034838732 -0.03163969
000310 19 93 42 3d cd 5e 06 3d 76 60 27 bc a6 f1 3a 3d
       0.047503565 0.032805253 -0.010215869 0.04564061
000320 73 2c 3c 3d ab 00 60 3c f4 9b 5c 3d cb d1 82 bb
       0.045940828 0.013672034 0.053859666 -0.0039922944
000330 41 a6 22 3d 1f a7 47 bc 42 c4 28 3c a5 5f af bd
       0.039709333 -0.012185841 0.010300698 -0.085631646
000340 21 8f 19 3d eb 01 4c 3d f4 a4 62 3c 2f 2a 32 3d
       0.037490014 0.049806517 0.013833273 0.04349726
000350 54 58 9f 3c 9c 1b d9 3c 1a b9 ae 3b 1a 93 52 3d
       0.019451298 0.026502423 0.0053321244 0.05140982
000360 7d f0 27 3d 6a 95 1b bd ef 86 3c 3d fc 2b 05 bd
       0.041000832 -0.03798429 0.04602712 -0.03251265
000370 0e df 17 bd b2 c0 14 3d 23 2a 8d 3d 95 16 de 3b
       -0.037077956 0.03631658 0.068928026 0.0067775943
000380 ea ef f8 3c a1 9e 30 3d 3d 0e 3c 3c 6c 1e bb bc
       0.030387837 0.04312003 0.011478004 -0.022841655
000390 32 44 c4 3c a5 4a 0d 3c 9f 3e 37 ba b5 83 e3 3a
       0.0239583 0.008623754 -0.0006990227 0.0017357977
0003a0 5e 58 b4 bc 64 e2 89 bc eb d3 bb bb 52 d1 a4 bc
       -0.022014793 -0.016831584 -0.0057320497 -0.020119343
0003b0 1d 3f 85 bd be b0 eb bc e4 57 4c 3d bb fe 2c bd
       -0.065061785 -0.0287708 0.049888507 -0.042235117
0003c0 78 9a cb 3c ff 5a 9c bc 8d 93 80 3d 95 35 02 bd
       0.02485393 -0.01908636 0.06278143 -0.03178938
0003d0 25 71 18 3d e7 de 82 bd d9 70 12 bd e3 a0 d4 bc
       0.037217278 -0.063901715 -0.03575215 -0.025955623
0003e0 18 7b 8c 3d e0 9b 96 3a ee 7a 2c bd 2f 27 88 bc
       0.06859416 0.0011490546 -0.042109422 -0.016620247
0003f0 74 53 32 bd 75 e3 0a 3c b6 9a a7 bc 4d 34 2e bd
       -0.04353662 0.008477082 -0.020459514 -0.042530347

net.1.bias f4 [5]
000000 45 80 31 bd ae 79 6e 3b 50 0d a6 3d 4c 13 2f 3c
       -0.043335218 0.0036388445 0.08108008 0.010685753
000010 94 9d 55 bd
       -0.05215223

weight f4 [5, 184]
000000 d5 bc fb bc 25 a2 4c bd f2 7b 36 bc d4 7f 9f 3c
       -0.03072969 -0.04995932 -0.011137949 0.019470133
000010 51 14 06 bd 14 10 2e 3d 84 b5 02 3d d8 3d 6a bd
       -0.03273422 0.042495802 0.031911388 -0.057187885
000020 e0 9d 55 3d b7 47 e3 bb 05 0b bb 3c 54 6a 3d 3d
       0.052152514 -0.0069360393 0.022832403 0.04624398
000030 e9 38 8a 3c 2f 33 aa 3d 7a d9 30 bd ed 07 34 bd
       0.01687284 0.08310544 -0.04317615 -0.04395287
000040 95 79 6e 3c 8a d5 77 3c 95 cc 44 3d 65 2c 8e ba
       0.014555355 0.015126595 0.048046667 -0.0010846971
000050 6d f7 51 bd bc 97 1b bc 3f 20 20 3d 0c 9f 0e bd
       -0.051261354 -0.0094966255 0.039093252 -0.034819648
000060 9e e4 2a bd ed 38 3c 3d cb d6 98 3b d5 a5 93 3c
       -0.041721933 0.045952726 0.004664277 0.01802341
000070 e2 0b 45 bd 31 a8 ab bc ae d2 80 bd 2d 43 27 bd
       -0.048107035 -0.020954223 -0.06290184 -0.04083555
000080 f4 c8 96 bb 01 d7 57 bd dc 95 82 3b 17 1b ce 3c
       -0.004601592 -0.052695278 0.00398515 0.025159402
000090 49 90 a9 3c 1c d6 be bb 02 80 a0 bc c6 1f f2 3c
       0.020698683 -0.0058238637 -0.019592289 0.029556166
0000a0 dc 2a 48 bd f9 3d 65 3c 62 57 59 bc 48 a9 a0 3d
       -0.048869 0.013991826 -0.013265463 0.07844788
0000b0 35 48 df 3c b8 87 68 bc 46 a2 bb b9 50 1a 5a 3d
       0.02725611 -0.014192514 -0.00035788323 0.05324775
0000c0 fd e3 34 3d 17 a7 76 bd ec b3 2c bc b4 53 e3 bc
       0.04416274 -0.060217943 -0.010540944 -0.027749874
0000d0 0e a3 54 bd 85 4f 27 bc 9c d6 b8 bb e5 87 e2 bc
       -0.051913314 -0.01021183 -0.005640818 -0.02765269
0000e0 83 0a 05 bd 93 f7 8e ba 85 fa a8 3c 62 5f 41 bd
       -0.032480728 -0.0010907523 0.02062727 -0.047210105
0000f0 86 3d ef 3b d4 2a 37 bb 3a d2 0b 3d 7e c3 7e 3d
       0.0073010353 -0.0027949112 0.034136035 0.062198155
000100 f8 d0 4d bb ce 8b 18 3c cc e1 75 bd eb 6d 8e bb
       -0.0031405073 0.009310676 -0.06002979 -0.0043465993
000110 42 42 1b bd 3b 28 78 3c e2 c3 bf bd a2 05 fb bc
       -0.037904985 0.01514631 -0.093635336 -0.030642334
000120 15 6a 90 bc 3c 3e 1f 3d bb 4d 50 3b f2 16 08 bd
       -0.017628709 0.03887771 0.0031784612 -0.033225007
000130 c5 57 87 bd 4c 3e 24 bc 0c 15 1b bc 66 40 56 3d
       -0.066085376 -0.010024618 -0.009465467 0.05230751
000140 a3 f5 77 bd a4 61 87 bc 3d c1 7f 3c 67 29 b3 bd
       -0.06053699 -0.01652605 0.015610036 -0.08748131
000150 83 6c ad bd b0 5a 88 bd 6b 79 15 3d ce 5d 0f 3c
       -0.084679626 -0.06657922 0.036492746 0.008750392
000160 f1 ff 61 bd 0f 7a 54 3d 13 cb 7e bc 44 5c 9a 3d
       -0.055175725 0.051874217 -0.015551346 0.075371295
000170 72 3a 61 3d cb ea 58 bc 15 81 09 bd 9b d2 80 3a
       0.05498738 -0.013239573 -0.033570368 0.000982839
000180 34 48 9b bd a6 81 d2 bc 03 70 1b bd 3c a3 da ba
       -0.07582131 -0.025696587 -0.03794862 -0.0016680728
000190 30 48 bb bd bb ed 7c bd d7 8a 3f bb 49 fd 4d 3c
       -0.09144628 -0.061750155 -0.0029227042 0.012572595
0001a0 24 ba 6a bd 16 26 b1 bc da da 1c 3d ec 4d 1a 3d
       -0.057306424 -0.021624606 0.03829465 0.03767197
0001b0 77 4e 05 bd 37 3d ca 3c 62 34 30 3d 87 5b 83 bd
       -0.032545533 0.024687393 0.043018706 -0.06413942
0001c0 63 be 8f bc 8b 59 5d bd 13 ef 46 3d 8d 2c de 3c
       -0.017546838 -0.054040473 0.048567843 0.027120853
0001d0 61 0f 61 3c 12 cc d0 bc 4e d9 88 bc de 07 df 3c
       0.013736577 -0.025487933 -0.016705181 0.027225431
0001e0 c9 3f 12 bd 2d 4b 28 3d fd ab 8b bc 74 f0 49 bd
       -0.03570536 0.04108732 -0.017049784 -0.04930158
0001f0 28 6e 34 bc 65 00 eb 3c 97 03 0b bd 95 c8 4d 3d
       -0.011012591 0.028686712 -0.03393897 0.050240118
000200 7d 7b 38 3b 4a cd 08 3d 76 62 26 3c 5f 4b 4a bc
       0.0028149777 0.033398904 0.010155311 -0.012347071
000210 80 0f ae 3c 73 6c d7 bc 1f 71 78 bb 8a b3 08 3d
       0.021247625 -0.02629683 -0.0037909222 0.033374347
000220 0c 41 11 bd d3 52 27 bd 86 8e 82 bd 9e aa 68 bc
       -0.035462424 -0.04085047 -0.063748404 -0.014200835
000230 cb 83 0b 3d ff 80 b8 bd 3f 00 01 39 0e ce de bc
       0.034061234 -0.09008979 0.0001230249 -0.027197864
000240 87 0d 63 bd fe d7 23 bd f3 16 94 3c 6d d1 a2 3d
       -0.055432823 -0.040000908 0.01807735 0.07950101
000250 a5 6d b1 bd 2b fd 44 3c e3 68 82 3c 2b bf d4 3c
       -0.08663491 0.012023251 0.015919155 0.025970062
000260 f9 a0 85 bc fb 5d 8a 3c aa 7e f5 bc c4 a2 0d bc
       -0.01631211 0.016890517 -0.029967625 -0.008644763
000270 72 56 53 bc b5 a4 fe bc 01 a4 15 3d 8b 95 7a bc
       -0.012899028 -0.031084398 0.03653336 -0.015294443
000280 c9 4d b4 bc c7 81 9f bc b3 c8 46 bc fa 64 bd bc
       -0.022009747 -0.019471062 -0.012132811 -0.023119438
000290 17 47 b8 3c f8 71 cc 3b 09 1b 10 bc 30 97 aa 3c
       0.022494836 0.006239172 -0.008795508 0.020824045
0002a0 7d 0a 10 3d 2e 7a 82 bb 10 ea 13 3d c9 26 aa bc
       0.035166252 -0.00398185 0.03611189 -0.020770447
0002b0 69 07 03 3d 0f 2a 1b bd b9 14 1a 3d 72 b9 84 3c
       0.03198949 -0.037881907 0.03761742 0.016201708
0002c0 06 80 84 3d ee 8f 12 bd f8 92 48 bd 87 ce f9 3c
       0.06469731 -0.035781793 -0.048968285 0.030493988
0002d0 a2 8b c8 3c 52 36 c7 bc 3f 19 ec 3b 2f d9 fb 3a
       0.024480645 -0.024317894 0.007205158 0.0019214506
0002e0 58 86 8d 3c 63 89 9f bd 52 40 f5 ba 7d 45 c7 bb
       0.017275974 -0.07789876 -0.0018711186 -0.0060812817
0002f0 50 ca 43 bd 64 9f 26 3d b0 97 07 3d ff 09 d5 3c
       -0.047800362 0.04067935 0.033103645 0.026005743
000300 23 e0 54 3d bf 6d 94 bc 0f b3 0e 3d 9f 98 01 bd
       0.051971566 -0.018118737 0.034838732 -0.03163969
000310 19 93 42 3d cd 5e 06 3d 76 60 27 bc a6 f1 3a 3d
       0.047503565 0.032805253 -0.010215869 0.04564061
000320 73 2c 3c 3d ab 00 60 3c f4 9b 5c 3d cb d1 82 bb
       0.045940828 0.013672034 0.053859666 -0.0039922944
000330 41 a6 22 3d 1f a7 47 bc 42 c4 28 3c a5 5f af bd
       0.039709333 -0.012185841 0.010300698 -0.085631646
000340 21 8f 19 3d eb 01 4c 3d f4 a4 62 3c 2f 2a 32 3d
       0.037490014 0.049806517 0.013833273 0.04349726
000350 54 58 9f 3c 9c 1b d9 3c 1a b9 ae 3b 1a 93 52 3d
       0.019451298 0.026502423 0.0053321244 0.05140982
000360 7d f0 27 3d 6a 95 1b bd ef 86 3c 3d fc 2b 05 bd
       0.041000832 -0.03798429 0.04602712 -0.03251265
000370 0e df 17 bd b2 c0 14 3d 23 2a 8d 3d 95 16 de 3b
       -0.037077956 0.03631658 0.068928026 0.0067775943
000380 ea ef f8 3c a1 9e 30 3d 3d 0e 3c 3c 6c 1e bb bc
       0.030387837 0.04312003 0.011478004 -0.022841655
000390 32 44 c4 3c a5 4a 0d 3c 9f 3e 37 ba b5 83 e3 3a
       0.0239583 0.008623754 -0.0006990227 0.0017357977
0003a0 5e 58 b4 bc 64 e2 89 bc eb d3 bb bb 52 d1 a4 bc
       -0.022014793 -0.016831584 -0.0057320497 -0.020119343
0003b0 1d 3f 85 bd be b0 eb bc e4 57 4c 3d bb fe 2c bd
       -0.065061785 -0.0287708 0.049888507 -0.042235117
0003c0 78 9a cb 3c ff 5a 9c bc 8d 93 80 3d 95 35 02 bd
       0.02485393 -0.01908636 0.06278143 -0.03178938
0003d0 25 71 18 3d e7 de 82 bd d9 70 12 bd e3 a0 d4 bc
       0.037217278 -0.063901715 -0.03575215 -0.025955623
0003e0 18 7b 8c 3d e0 9b 96 3a ee 7a 2c bd 2f 27 88 bc
       0.06859416 0.0011490546 -0.042109422 -0.016620247
0003f0 74 53 32 bd 75 e3 0a 3c b6 9a a7 bc 4d 34 2e bd
       -0.04353662 0.008477082 -0.020459514 -0.042530347

bias f4 [5]
000000 45 80 31 bd ae 79 6e 3b 50 0d a6 3d 4c 13 2f 3c
       -0.043335218 0.0036388445 0.08108008 0.010685753
000010 94 9d 55 bd
       -0.05215223
