experiments/CnnEncoder/simclr/simclr_cnn_encoder_trainings1/logistic_on_simclr_IT_50pat/lightning_logs/version_0/checkpoints/epoch=36-step=21090.ckpt (torch, 7847 bytes, 6 tensors)

classifier.weight f4 [5, 184]
0	0xbd995e85	-0.07488731
1	0xbc88b3cc	-0.016687296
2	0xbb82cef8	-0.0039919578
3	0x3cbc3c5d	0.022978002
4	0xbd4f9cad	-0.050686527
5	0xbc9214d7	-0.017832203
6	0xbd25ac9c	-0.040447816
7	0xbd91154d	-0.07084141
8	0xbad432d8	-0.0016189469
9	0xbd5be311	-0.053683344
10	0x3b4e081b	0.0031437937
11	0x3cbfa284	0.023392923
12	0x3cc68365	0.024232576
13	0x3cd35f94	0.025802411
14	0x3d24986c	0.040184423
15	0x3cde4da0	0.027136624
16	0xbd2339fc	-0.03985022
17	0xbd031b51	-0.032008473
18	0xbb8ea2ce	-0.004352904
19	0xbd11d380	-0.035602093
20	0xbd500e9d	-0.050795186
21	0x3c02d4e2	0.0079853255
22	0x3d439411	0.04774863
23	0xbd18c8b2	-0.037300773
24	0xbbf5a52c	-0.0074964967
25	0xbcb954dc	-0.022623472
26	0x3d7da43c	0.061924204
27	0x3cad69c0	0.02116859
28	0xbd4e5eb5	-0.05038329
29	0xbcef33aa	-0.02919944
30	0xba114e83	-0.000554301
31	0xbc8f2fc7	-0.017478837
32	0x3c353306	0.011059528
33	0x3c910e5e	0.017707046
34	0x3d3308a3	0.04370941
35	0x3d2b1bbe	0.041774504
36	0xbd26511a	-0.04060469
37	0x3c08af0d	0.008342517
38	0x3d7eb51d	0.06218444
39	0xbd7a1558	-0.06105551
40	0xbce2bd3b	-0.027678123
41	0x3d09bb8d	0.033626128
42	0x3cb707cb	0.022342583
43	0xbd1eedc4	-0.03880097
44	0xbce29071	-0.027656766
45	0xbcd7bdf2	-0.02633569
46	0xbc0103e2	-0.007874461
47	0xbc4382a8	-0.011933006
48	0xbceb83a0	-0.028749287
49	0xbd8ba514	-0.068185955
50	0xbcb50d30	-0.022101015
51	0x3d04e5ac	0.032445595
52	0x3d185b4b	0.03719644
53	0xbd296105	-0.04135229
54	0xbc558a11	-0.013033406
55	0x3cc2e2b4	0.023789741
56	0xbd12e894	-0.035866335
57	0x3bf2cf32	0.0074099535
58	0xbd8328ea	-0.06404288
59	0xbc1c8c0e	-0.009554876
60	0xbbd174c7	-0.006392095
61	0xbcdc881c	-0.02692037
62	0xbcd4057f	-0.025881527
63	0x3ccf0435	0.02527056
64	0x3c4f7f17	0.012664578
65	0x3cc35a39	0.023846732
66	0x3cf57fb9	0.02996813
67	0x3cd845ff	0.026400564
68	0xbc784e14	-0.015155334
69	0x3b260eea	0.002533848
70	0x3caf3721	0.021388592
71	0xbd2f9e81	-0.04287577
72	0x3d5b6325	0.05356135
73	0x3db0e04e	0.08636533
74	0xbc7ac39c	-0.015305426
75	0xbc5969ea	-0.013269881
76	0x3ca1f132	0.019768331
77	0xbc509975	-0.0127318995
78	0x3d2f146c	0.042744085
79	0xbd7936c0	-0.06084323
80	0x3d9a65e8	0.07538968
81	0xbd26f40b	-0.04076008
82	0xbd0a1332	-0.033709712
83	0x3d0df285	0.034655113
84	0x3d0bc54b	0.0341237
85	0xbda3a63e	-0.079906926
86	0xbcafc6ee	-0.021457162
87	0x3c101339	0.008793646
88	0xbd7a832a	-0.061160244
89	0x3c5cdef6	0.013480892
90	0xbc456e1d	-0.012050179
91	0x3cc4e4f3	0.024034953
92	0x3b89070d	0.0041817487
93	0x3cea75f3	0.028620696
94	0x3caa36a6	0.020778012
95	0xbc10bf43	-0.008834663
96	0xbd54968a	-0.051901378
97	0xbd86228e	-0.065495595
98	0x3c89f94d	0.016842509
99	0xbd4550c7	-0.04817274
100	0x3d579cc8	0.052639753
101	0x3b5aff4e	0.0033416334
102	0x3d135d90	0.0359779
103	0xbc05377a	-0.008130902
104	0xbbe36fd2	-0.0069408203
105	0x3d2d3a84	0.042292133
106	0x3d7675b3	0.06017084
107	0x3da65aa8	0.0812276
108	0xbaf104b3	-0.0018388241
109	0x3c0c1488	0.008549817
110	0xbd037dc7	-0.032102372
111	0x3d056935	0.032571036
112	0xbc8ff8a6	-0.01757462
113	0x3d22bc03	0.039730083
114	0xba22ed8b	-0.0006215206
115	0xbce6c232	-0.028168771
116	0x3ce146ba	0.027499545
117	0x3d5ecec1	0.054396395
118	0xbcbcfcfa	-0.023069847
119	0xbc40df9d	-0.011772064
120	0x3d41fb9f	0.047359105
121	0xbd31ff21	-0.0434562
122	0x3c2c4c6f	0.01051627
123	0xbcd1e792	-0.025623117
124	0xbc43b9df	-0.011946171
125	0xbaee965e	-0.0018202772
126	0xbbd184e2	-0.0063940147
127	0x3d051e22	0.03249944
128	0xbc5a5eb6	-0.013328245
129	0xbbe5a2a1	-0.0070079123
130	0xbccb4b42	-0.02481616
131	0xbd26ecad	-0.040753055
132	0x3b3eba0d	0.0029102594
133	0x3c292b6d	0.010325295
134	0x3cf60046	0.030029427
135	0x3c7947ab	0.015214841
136	0x3bd193df	0.0063958014
137	0x3cf5fe39	0.03002845
138	0xbc064ca0	-0.00819698
139	0x3b9c16a5	0.0047634416
140	0xbd74b1cc	-0.059739873
141	0x3c4ef4f4	0.012631644
142	0xbc92553e	-0.017862912
143	0x3b96d9e4	0.0046036113
144	0xbcf4bc1a	-0.02987485
145	0x3d3e65b9	0.04648373
146	0x3c03aada	0.00803634
147	0xbba94fd1	-0.0051669856
148	0x3cccd6ee	0.02500483
149	0x3d5b6aee	0.053568773
150	0xbd721d67	-0.05911007
151	0xbcd7bc4c	-0.026334904
152	0x3dbc2cf7	0.09188264
153	0x3bf00e05	0.00732589
154	0x3ac792c6	0.0015226237
155	0x3bddec1a	0.0067725303
156	0xbd307b1c	-0.043086156
157	0xbd1bd57a	-0.038045384
158	0xbc128cff	-0.008944749
159	0xba04eaf5	-0.0005070412
160	0x3d328e11	0.043592516
161	0xbb9c8d3e	-0.0047775796
162	0xbd21e191	-0.039521758
163	0xbc7220ca	-0.014778325
164	0xbc6aa08f	-0.014320507
165	0x3c2c1ed2	0.010505395
166	0x3cb1262a	0.021624643
167	0xbcfcef22	-0.030875746
168	0xbc446840	-0.011987746
169	0xbd73b129	-0.059495125
170	0xba0abe54	-0.00052926433
171	0xbd84bd05	-0.06481365
172	0xbd12bf3e	-0.035826914
173	0x3c9b86bc	0.018985145
174	0xbb8932d2	-0.0041869665
175	0x3ce2ac9c	0.027670197
176	0x3ca56747	0.020190848
177	0x3d40a03f	0.047027823
178	0xbd2e797f	-0.042596336
179	0xbd6c0bea	-0.05762855
180	0x3d25a577	0.040441003
181	0xbcdfec43	-0.027334338
182	0x3d51e605	0.051244754
183	0xbc67b9fc	-0.014143463
184	0xbb4674da	-0.0030282051
185	0x3d264b1d	0.040598977
186	0xbc7f66ac	-0.015588444
187	0x3d5c13b1	0.053729717
188	0xbcf17358	-0.029473945
189	0x3c543f19	0.012954497
190	0x3cb8a550	0.022539765
191	0xbb7dd4ed	-0.003873165
192	0x3bf6437b	0.0075153685
193	0xbb61f4be	-0.0034478153
194	0xbdc0605b	-0.09393378
195	0x3d2c7493	0.04210336
196	0xbd0ef018	-0.03489694
197	0x3d9e2bb2	0.07723178
198	0x3c634ab3	0.01387279
199	0x3d0cb105	0.034348506
200	0xbd8cd032	-0.068756476
201	0xbdbb9104	-0.09158519
202	0xbd22ddb2	-0.039762206
203	0xbd2d4829	-0.042305145
204	0x3d029f7b	0.031890374
205	0x3cc9e897	0.02464704
206	0x3ca80a99	0.020512866
207	0x3cbcd199	0.023049163
208	0x3b39529a	0.0028277994
209	0xbdb2f979	-0.087389894
210	0xbb289b6b	-0.0025727402
211	0xbd6c86e5	-0.057745833
212	0xbcbac0ff	-0.022797106
213	0xbccf2b8b	-0.025289318
214	0x3c48e3f3	0.012261379
215	0xbd2a4914	-0.0415736
216	0xbb2daca7	-0.0026500614
217	0x3c9b0204	0.01892186
218	0x3d0b337a	0.03398464
219	0x3cad62a2	0.021165196
220	0xbd090069	-0.033447657
221	0xbbb8617e	-0.0056268563
222	0x3bc5e68b	0.0060394458
223	0x3caa7f4f	0.020812659
224	0x3d01ccc1	0.03168941
225	0xbc8dc0c4	-0.017303832
226	0xbc852af2	-0.01625583
227	0xbcdb65ef	-0.026782004
228	0x3d661b19	0.056178186
229	0xbc3f8a25	-0.011690651
230	0xbce47c23	-0.027891224
231	0x3afe3251	0.0019393658
232	0xbcb2e13f	-0.021835921
233	0xbc1a30dc	-0.009411063
234	0xbcefff2b	-0.029296478
235	0x3c177535	0.009244253
236	0xbd624dda	-0.055250026
237	0x3b80c4fc	0.0039297324
238	0x3c80cc06	0.015722286
239	0x3bc3924d	0.005968368
240	0xbced535a	-0.02897041
241	0xbb8a390c	-0.0042182263
242	0x3d4bb0b5	0.049729068
243	0x3d691e97	0.05691394
244	0x3d1e6758	0.038672775
245	0xbd1e2bf0	-0.03861612
246	0xbd64ab33	-0.05582733
247	0xbc3dfed0	-0.011596397
248	0xbd2efdf9	-0.042722676
249	0xbd033b08	-0.03203872
250	0x3d7b2da0	0.06132281
251	0x3c1fd326	0.009754932
252	0x3d1ff9db	0.03905664
253	0xbc3231b9	-0.010876113
254	0x3ccbf9e4	0.02489943
255	0xbcc53555	-0.024073282

classifier.bias f4 [5]
0	0x3db82dc5	0.08993105
1	0xbd949aef	-0.07256114
2	0x3dc7b348	0.09750992
3	0xbd42c3e6	-0.047550105
4	0xbda5ac67	-0.08089524

net.1.weight f4 [5, 184]
0	0xbd995e85	-0.07488731
1	0xbc88b3cc	-0.016687296
2	0xbb82cef8	-0.0039919578
3	0x3cbc3c5d	0.022978002
4	0xbd4f9cad	-0.050686527
5	0xbc9214d7	-0.017832203
6	0xbd25ac9c	-0.040447816
7	0xbd91154d	-0.07084141
8	0xbad432d8	-0.0016189469
9	0xbd5be311	-0.053683344
10	0x3b4e081b	0.0031437937
11	0x3cbfa284	0.023392923
12	0x3cc68365	0.024232576
13	0x3cd35f94	0.025802411
14	0x3d24986c	0.040184423
15	0x3cde4da0	0.027136624
16	0xbd2339fc	-0.03985022
17	0xbd031b51	-0.032008473
18	0xbb8ea2ce	-0.004352904
19	0xbd11d380	-0.035602093
20	0xbd500e9d	-0.050795186
21	0x3c02d4e2	0.0079853255
22	0x3d439411	0.04774863
23	0xbd18c8b2	-0.037300773
24	0xbbf5a52c	-0.0074964967
25	0xbcb954dc	-0.022623472
26	0x3d7da43c	0.061924204
27	0x3cad69c0	0.02116859
28	0xbd4e5eb5	-0.05038329
29	0xbcef33aa	-0.02919944
30	0xba114e83	-0.000554301
31	0xbc8f2fc7	-0.017478837
32	0x3c353306	0.011059528
33	0x3c910e5e	0.017707046
34	0x3d3308a3	0.04370941
35	0x3d2b1bbe	0.041774504
36	0xbd26511a	-0.04060469
37	0x3c08af0d	0.008342517
38	0x3d7eb51d	0.06218444
39	0xbd7a1558	-0.06105551
40	0xbce2bd3b	-0.027678123
41	0x3d09bb8d	0.033626128
42	0x3cb707cb	0.022342583
43	0xbd1eedc4	-0.03880097
44	0xbce29071	-0.027656766
45	0xbcd7bdf2	-0.02633569
46	0xbc0103e2	-0.007874461
47	0xbc4382a8	-0.011933006
48	0xbceb83a0	-0.028749287
49	0xbd8ba514	-0.068185955
50	0xbcb50d30	-0.022101015
51	0x3d04e5ac	0.032445595
52	0x3d185b4b	0.03719644
53	0xbd296105	-0.04135229
54	0xbc558a11	-0.013033406
55	0x3cc2e2b4	0.023789741
56	0xbd12e894	-0.035866335
57	0x3bf2cf32	0.0074099535
58	0xbd8328ea	-0.06404288
59	0xbc1c8c0e	-0.009554876
60	0xbbd174c7	-0.006392095
61	0xbcdc881c	-0.02692037
62	0xbcd4057f	-0.025881527
63	0x3ccf0435	0.02527056
64	0x3c4f7f17	0.012664578
65	0x3cc35a39	0.023846732
66	0x3cf57fb9	0.02996813
67	0x3cd845ff	0.026400564
68	0xbc784e14	-0.015155334
69	0x3b260eea	0.002533848
70	0x3caf3721	0.021388592
71	0xbd2f9e81	-0.04287577
72	0x3d5b6325	0.05356135
73	0x3db0e04e	0.08636533
74	0xbc7ac39c	-0.015305426
75	0xbc5969ea	-0.013269881
76	0x3ca1f132	0.019768331
77	0xbc509975	-0.0127318995
78	0x3d2f146c	0.042744085
79	0xbd7936c0	-0.06084323
80	0x3d9a65e8	0.07538968
81	0xbd26f40b	-0.04076008
82	0xbd0a1332	-0.033709712
83	0x3d0df285	0.034655113
84	0x3d0bc54b	0.0341237
85	0xbda3a63e	-0.079906926
86	0xbcafc6ee	-0.021457162
87	0x3c101339	0.008793646
88	0xbd7a832a	-0.061160244
89	0x3c5cdef6	0.013480892
90	0xbc456e1d	-0.012050179
91	0x3cc4e4f3	0.024034953
92	0x3b89070d	0.0041817487
93	0x3cea75f3	0.028620696
94	0x3caa36a6	0.020778012
95	0xbc10bf43	-0.008834663
96	0xbd54968a	-0.051901378
97	0xbd86228e	-0.065495595
98	0x3c89f94d	0.016842509
99	0xbd4550c7	-0.04817274
100	0x3d579cc8	0.052639753
101	0x3b5aff4e	0.0033416334
102	0x3d135d90	0.0359779
103	0xbc05377a	-0.008130902
104	0xbbe36fd2	-0.0069408203
105	0x3d2d3a84	0.042292133
106	0x3d7675b3	0.06017084
107	0x3da65aa8	0.0812276
108	0xbaf104b3	-0.0018388241
109	0x3c0c1488	0.008549817
110	0xbd037dc7	-0.032102372
111	0x3d056935	0.032571036
112	0xbc8ff8a6	-0.01757462
113	0x3d22bc03	0.039730083
114	0xba22ed8b	-0.0006215206
115	0xbce6c232	-0.028168771
116	0x3ce146ba	0.027499545
117	0x3d5ecec1	0.054396395
118	0xbcbcfcfa	-0.023069847
119	0xbc40df9d	-0.011772064
120	0x3d41fb9f	0.047359105
121	0xbd31ff21	-0.0434562
122	0x3c2c4c6f	0.01051627
123	0xbcd1e792	-0.025623117
124	0xbc43b9df	-0.011946171
125	0xbaee965e	-0.0018202772
126	0xbbd184e2	-0.0063940147
127	0x3d051e22	0.03249944
128	0xbc5a5eb6	-0.013328245
129	0xbbe5a2a1	-0.0070079123
130	0xbccb4b42	-0.02481616
131	0xbd26ecad	-0.040753055
132	0x3b3eba0d	0.0029102594
133	0x3c292b6d	0.010325295
134	0x3cf60046	0.030029427
135	0x3c7947ab	0.015214841
136	0x3bd193df	0.0063958014
137	0x3cf5fe39	0.03002845
138	0xbc064ca0	-0.00819698
139	0x3b9c16a5	0.0047634416
140	0xbd74b1cc	-0.059739873
141	0x3c4ef4f4	0.012631644
142	0xbc92553e	-0.017862912
143	0x3b96d9e4	0.0046036113
144	0xbcf4bc1a	-0.02987485
145	0x3d3e65b9	0.04648373
146	0x3c03aada	0.00803634
147	0xbba94fd1	-0.0051669856
148	0x3cccd6ee	0.02500483
149	0x3d5b6aee	0.053568773
150	0xbd721d67	-0.05911007
151	0xbcd7bc4c	-0.026334904
152	0x3dbc2cf7	0.09188264
153	0x3bf00e05	0.00732589
154	0x3ac792c6	0.0015226237
155	0x3bddec1a	0.0067725303
156	0xbd307b1c	-0.043086156
157	0xbd1bd57a	-0.038045384
158	0xbc128cff	-0.008944749
159	0xba04eaf5	-0.0005070412
160	0x3d328e11	0.043592516
161	0xbb9c8d3e	-0.0047775796
162	0xbd21e191	-0.039521758
163	0xbc7220ca	-0.014778325
164	0xbc6aa08f	-0.014320507
165	0x3c2c1ed2	0.010505395
166	0x3cb1262a	0.021624643
167	0xbcfcef22	-0.030875746
168	0xbc446840	-0.011987746
169	0xbd73b129	-0.059495125
170	0xba0abe54	-0.00052926433
171	0xbd84bd05	-0.06481365
172	0xbd12bf3e	-0.035826914
173	0x3c9b86bc	0.018985145
174	0xbb8932d2	-0.0041869665
175	0x3ce2ac9c	0.027670197
176	0x3ca56747	0.020190848
177	0x3d40a03f	0.047027823
178	0xbd2e797f	-0.042596336
179	0xbd6c0bea	-0.05762855
180	0x3d25a577	0.040441003
181	0xbcdfec43	-0.027334338
182	0x3d51e605	0.051244754
183	0xbc67b9fc	-0.014143463
184	0xbb4674da	-0.0030282051
185	0x3d264b1d	0.040598977
186	0xbc7f66ac	-0.015588444
187	0x3d5c13b1	0.053729717
188	0xbcf17358	-0.029473945
189	0x3c543f19	0.012954497
190	0x3cb8a550	0.022539765
191	0xbb7dd4ed	-0.003873165
192	0x3bf6437b	0.0075153685
193	0xbb61f4be	-0.0034478153
194	0xbdc0605b	-0.09393378
195	0x3d2c7493	0.04210336
196	0xbd0ef018	-0.03489694
197	0x3d9e2bb2	0.07723178
198	0x3c634ab3	0.01387279
199	0x3d0cb105	0.034348506
200	0xbd8cd032	-0.068756476
201	0xbdbb9104	-0.09158519
202	0xbd22ddb2	-0.039762206
203	0xbd2d4829	-0.042305145
204	0x3d029f7b	0.031890374
205	0x3cc9e897	0.02464704
206	0x3ca80a99	0.020512866
207	0x3cbcd199	0.023049163
208	0x3b39529a	0.0028277994
209	0xbdb2f979	-0.087389894
210	0xbb289b6b	-0.0025727402
211	0xbd6c86e5	-0.057745833
212	0xbcbac0ff	-0.022797106
213	0xbccf2b8b	-0.025289318
214	0x3c48e3f3	0.012261379
215	0xbd2a4914	-0.0415736
216	0xbb2daca7	-0.0026500614
217	0x3c9b0204	0.01892186
218	0x3d0b337a	0.03398464
219	0x3cad62a2	0.021165196
220	0xbd090069	-0.033447657
221	0xbbb8617e	-0.0056268563
222	0x3bc5e68b	0.0060394458
223	0x3caa7f4f	0.020812659
224	0x3d01ccc1	0.03168941
225	0xbc8dc0c4	-0.017303832
226	0xbc852af2	-0.01625583
227	0xbcdb65ef	-0.026782004
228	0x3d661b19	0.056178186
229	0xbc3f8a25	-0.011690651
230	0xbce47c23	-0.027891224
231	0x3afe3251	0.0019393658
232	0xbcb2e13f	-0.021835921
233	0xbc1a30dc	-0.009411063
234	0xbcefff2b	-0.029296478
235	0x3c177535	0.009244253
236	0xbd624dda	-0.055250026
237	0x3b80c4fc	0.0039297324
238	0x3c80cc06	0.015722286
239	0x3bc3924d	0.005968368
240	0xbced535a	-0.02897041
241	0xbb8a390c	-0.0042182263
242	0x3d4bb0b5	0.049729068
243	0x3d691e97	0.05691394
244	0x3d1e6758	0.038672775
245	0xbd1e2bf0	-0.03861612
246	0xbd64ab33	-0.05582733
247	0xbc3dfed0	-0.011596397
248	0xbd2efdf9	-0.042722676
249	0xbd033b08	-0.03203872
250	0x3d7b2da0	0.06132281
251	0x3c1fd326	0.009754932
252	0x3d1ff9db	0.03905664
253	0xbc3231b9	-0.010876113
254	0x3ccbf9e4	0.02489943
255	0xbcc53555	-0.024073282

net.1.bias f4 [5]
0	0x3db82dc5	0.08993105
1	0xbd949aef	-0.07256114
2	0x3dc7b348	0.09750992
3	0xbd42c3e6	-0.047550105
4	0xbda5ac67	-0.08089524

weight f4 [5, 184]
0	0xbd995e85	-0.07488731
1	0xbc88b3cc	-0.016687296
2	0xbb82cef8	-0.0039919578
3	0x3cbc3c5d	0.022978002
4	0xbd4f9cad	-0.050686527
5	0xbc9214d7	-0.017832203
6	0xbd25ac9c	-0.040447816
7	0xbd91154d	-0.07084141
8	0xbad432d8	-0.0016189469
9	0xbd5be311	-0.053683344
10	0x3b4e081b	0.0031437937
11	0x3cbfa284	0.023392923
12	0x3cc68365	0.024232576
13	0x3cd35f94	0.025802411
14	0x3d24986c	0.040184423
15	0x3cde4da0	0.027136624
16	0xbd2339fc	-0.03985022
17	0xbd031b51	-0.032008473
18	0xbb8ea2ce	-0.004352904
19	0xbd11d380	-0.035602093
20	0xbd500e9d	-0.050795186
21	0x3c02d4e2	0.0079853255
22	0x3d439411	0.04774863
23	0xbd18c8b2	-0.037300773
24	0xbbf5a52c	-0.0074964967
25	0xbcb954dc	-0.022623472
26	0x3d7da43c	0.061924204
27	0x3cad69c0	0.02116859
28	0xbd4e5eb5	-0.05038329
29	0xbcef33aa	-0.02919944
30	0xba114e83	-0.000554301
31	0xbc8f2fc7	-0.017478837
32	0x3c353306	0.011059528
33	0x3c910e5e	0.017707046
34	0x3d3308a3	0.04370941
35	0x3d2b1bbe	0.041774504
36	0xbd26511a	-0.04060469
37	0x3c08af0d	0.008342517
38	0x3d7eb51d	0.06218444
39	0xbd7a1558	-0.06105551
40	0xbce2bd3b	-0.027678123
41	0x3d09bb8d	0.033626128
42	0x3cb707cb	0.022342583
43	0xbd1eedc4	-0.03880097
44	0xbce29071	-0.027656766
45	0xbcd7bdf2	-0.02633569
46	0xbc0103e2	-0.007874461
47	0xbc4382a8	-0.011933006
48	0xbceb83a0	-0.028749287
49	0xbd8ba514	-0.068185955
50	0xbcb50d30	-0.022101015
51	0x3d04e5ac	0.032445595
52	0x3d185b4b	0.03719644
53	0xbd296105	-0.04135229
54	0xbc558a11	-0.013033406
55	0x3cc2e2b4	0.023789741
56	0xbd12e894	-0.035866335
57	0x3bf2cf32	0.0074099535
58	0xbd8328ea	-0.06404288
59	0xbc1c8c0e	-0.009554876
60	0xbbd174c7	-0.006392095
61	0xbcdc881c	-0.02692037
62	0xbcd4057f	-0.025881527
63	0x3ccf0435	0.02527056
64	0x3c4f7f17	0.012664578
65	0x3cc35a39	0.023846732
66	0x3cf57fb9	0.02996813
67	0x3cd845ff	0.026400564
68	0xbc784e14	-0.015155334
69	0x3b260eea	0.002533848
70	0x3caf3721	0.021388592
71	0xbd2f9e81	-0.04287577
72	0x3d5b6325	0.05356135
73	0x3db0e04e	0.08636533
74	0xbc7ac39c	-0.015305426
75	0xbc5969ea	-0.013269881
76	0x3ca1f132	0.019768331
77	0xbc509975	-0.0127318995
78	0x3d2f146c	0.042744085
79	0xbd7936c0	-0.06084323
80	0x3d9a65e8	0.07538968
81	0xbd26f40b	-0.04076008
82	0xbd0a1332	-0.033709712
83	0x3d0df285	0.034655113
84	0x3d0bc54b	0.0341237
85	0xbda3a63e	-0.079906926
86	0xbcafc6ee	-0.021457162
87	0x3c101339	0.008793646
88	0xbd7a832a	-0.061160244
89	0x3c5cdef6	0.013480892
90	0xbc456e1d	-0.012050179
91	0x3cc4e4f3	0.024034953
92	0x3b89070d	0.0041817487
93	0x3cea75f3	0.028620696
94	0x3caa36a6	0.020778012
95	0xbc10bf43	-0.008834663
96	0xbd54968a	-0.051901378
97	0xbd86228e	-0.065495595
98	0x3c89f94d	0.016842509
99	0xbd4550c7	-0.04817274
100	0x3d579cc8	0.052639753
101	0x3b5aff4e	0.0033416334
102	0x3d135d90	0.0359779
103	0xbc05377a	-0.008130902
104	0xbbe36fd2	-0.0069408203
105	0x3d2d3a84	0.042292133
106	0x3d7675b3	0.06017084
107	0x3da65aa8	0.0812276
108	0xbaf104b3	-0.0018388241
109	0x3c0c1488	0.008549817
110	0xbd037dc7	-0.032102372
111	0x3d056935	0.032571036
112	0xbc8ff8a6	-0.01757462
113	0x3d22bc03	0.039730083
114	0xba22ed8b	-0.0006215206
115	0xbce6c232	-0.028168771
116	0x3ce146ba	0.027499545
117	0x3d5ecec1	0.054396395
118	0xbcbcfcfa	-0.023069847
119	0xbc40df9d	-0.011772064
120	0x3d41fb9f	0.047359105
121	0xbd31ff21	-0.0434562
122	0x3c2c4c6f	0.01051627
123	0xbcd1e792	-0.025623117
124	0xbc43b9df	-0.011946171
125	0xbaee965e	-0.0018202772
126	0xbbd184e2	-0.0063940147
127	0x3d051e22	0.03249944
128	0xbc5a5eb6	-0.013328245
129	0xbbe5a2a1	-0.0070079123
130	0xbccb4b42	-0.02481616
131	0xbd26ecad	-0.040753055
132	0x3b3eba0d	0.0029102594
133	0x3c292b6d	0.010325295
134	0x3cf60046	0.030029427
135	0x3c7947ab	0.015214841
136	0x3bd193df	0.0063958014
137	0x3cf5fe39	0.03002845
138	0xbc064ca0	-0.00819698
139	0x3b9c16a5	0.0047634416
140	0xbd74b1cc	-0.059739873
141	0x3c4ef4f4	0.012631644
142	0xbc92553e	-0.017862912
143	0x3b96d9e4	0.0046036113
144	0xbcf4bc1a	-0.02987485
145	0x3d3e65b9	0.04648373
146	0x3c03aada	0.00803634
147	0xbba94fd1	-0.0051669856
148	0x3cccd6ee	0.02500483
149	0x3d5b6aee	0.053568773
150	0xbd721d67	-0.05911007
151	0xbcd7bc4c	-0.026334904
152	0x3dbc2cf7	0.09188264
153	0x3bf00e05	0.00732589
154	0x3ac792c6	0.0015226237
155	0x3bddec1a	0.0067725303
156	0xbd307b1c	-0.043086156
157	0xbd1bd57a	-0.038045384
158	0xbc128cff	-0.008944749
159	0xba04eaf5	-0.0005070412
160	0x3d328e11	0.043592516
161	0xbb9c8d3e	-0.0047775796
162	0xbd21e191	-0.039521758
163	0xbc7220ca	-0.014778325
164	0xbc6aa08f	-0.014320507
165	0x3c2c1ed2	0.010505395
166	0x3cb1262a	0.021624643
167	0xbcfcef22	-0.030875746
168	0xbc446840	-0.011987746
169	0xbd73b129	-0.059495125
170	0xba0abe54	-0.00052926433
171	0xbd84bd05	-0.06481365
172	0xbd12bf3e	-0.035826914
173	0x3c9b86bc	0.018985145
174	0xbb8932d2	-0.0041869665
175	0x3ce2ac9c	0.027670197
176	0x3ca56747	0.020190848
177	0x3d40a03f	0.047027823
178	0xbd2e797f	-0.042596336
179	0xbd6c0bea	-0.05762855
180	0x3d25a577	0.040441003
181	0xbcdfec43	-0.027334338
182	0x3d51e605	0.051244754
183	0xbc67b9fc	-0.014143463
184	0xbb4674da	-0.0030282051
185	0x3d264b1d	0.040598977
186	0xbc7f66ac	-0.015588444
187	0x3d5c13b1	0.053729717
188	0xbcf17358	-0.029473945
189	0x3c543f19	0.012954497
190	0x3cb8a550	0.022539765
191	0xbb7dd4ed	-0.003873165
192	0x3bf6437b	0.0075153685
193	0xbb61f4be	-0.0034478153
194	0xbdc0605b	-0.09393378
195	0x3d2c7493	0.04210336
196	0xbd0ef018	-0.03489694
197	0x3d9e2bb2	0.07723178
198	0x3c634ab3	0.01387279
199	0x3d0cb105	0.034348506
200	0xbd8cd032	-0.068756476
201	0xbdbb9104	-0.09158519
202	0xbd22ddb2	-0.039762206
203	0xbd2d4829	-0.042305145
204	0x3d029f7b	0.031890374
205	0x3cc9e897	0.02464704
206	0x3ca80a99	0.020512866
207	0x3cbcd199	0.023049163
208	0x3b39529a	0.0028277994
209	0xbdb2f979	-0.087389894
210	0xbb289b6b	-0.0025727402
211	0xbd6c86e5	-0.057745833
212	0xbcbac0ff	-0.022797106
213	0xbccf2b8b	-0.025289318
214	0x3c48e3f3	0.012261379
215	0xbd2a4914	-0.0415736
216	0xbb2daca7	-0.0026500614
217	0x3c9b0204	0.01892186
218	0x3d0b337a	0.03398464
219	0x3cad62a2	0.021165196
220	0xbd090069	-0.033447657
221	0xbbb8617e	-0.0056268563
222	0x3bc5e68b	0.0060394458
223	0x3caa7f4f	0.020812659
224	0x3d01ccc1	0.03168941
225	0xbc8dc0c4	-0.017303832
226	0xbc852af2	-0.01625583
227	0xbcdb65ef	-0.026782004
228	0x3d661b19	0.056178186
229	0xbc3f8a25	-0.011690651
230	0xbce47c23	-0.027891224
231	0x3afe3251	0.0019393658
232	0xbcb2e13f	-0.021835921
233	0xbc1a30dc	-0.009411063
234	0xbcefff2b	-0.029296478
235	0x3c177535	0.009244253
236	0xbd624dda	-0.055250026
237	0x3b80c4fc	0.0039297324
238	0x3c80cc06	0.015722286
239	0x3bc3924d	0.005968368
240	0xbced535a	-0.02897041
241	0xbb8a390c	-0.0042182263
242	0x3d4bb0b5	0.049729068
243	0x3d691e97	0.05691394
244	0x3d1e6758	0.038672775
245	0xbd1e2bf0	-0.03861612
246	0xbd64ab33	-0.05582733
247	0xbc3dfed0	-0.011596397
248	0xbd2efdf9	-0.042722676
249	0xbd033b08	-0.03203872
250	0x3d7b2da0	0.06132281
251	0x3c1fd326	0.009754932
252	0x3d1ff9db	0.03905664
253	0xbc3231b9	-0.010876113
254	0x3ccbf9e4	0.02489943
255	0xbcc53555	-0.024073282

bias f4 [5]
0	0x3db82dc5	0.08993105
1	0xbd949aef	-0.07256114
2	0x3dc7b348	0.09750992
3	0xbd42c3e6	-0.047550105
4	0xbda5ac67	-0.08089524
