experiments/CnnEncoder/simclr/simclr_cnn_encoder_trainings1/logistic_on_simclr_IT_50pat/lightning_logs/version_0/checkpoints/last.ckpt (torch, 7847 bytes, 6 tensors)

classifier.weight f4 [5, 184]
00000000: 2487 9bbd 3105 88bc cbbd 9dbb 3d4a b73c
00000010: 0bc2 51bd ef83 8dbc 6110 25bd 49e8 8cbd
00000020: b04c 81ba b171 5bbd 01d5 413b 1bd3 cc3c
00000030: b974 ba3c d394 c13c 67da 293d a497 df3c
00000040: 8d25 26bd d2a3 febc 43ba 62bb 2f62 10bd
00000050: 1281 51bd a58f e63b 849a 433d dc13 14bd
00000060: 15f9 1dbc 06ca bcbc b531 7b3d c538 b13c
00000070: 01ad 46bd 2c83 02bd 7433 b639 b63d 94bc
00000080: 28dd 413c 61d5 893c 0020 393d 21ba 313d
00000090: a5a6 23bd c2d0 f83b 4ced 7f3d ecfd 79bd
000000a0: 9b76 e9bc 8ee4 063d cf9d ad3c 7380 20bd
000000b0: 0a79 ebbc cfdf ddbc 71ff 01bc af59 53bc
000000c0: 8660 e4bc de95 8dbd 2dcd b9bc 56f2 033d
000000d0: e54d 163d 9de7 2dbd 5bd0 3dbc bc4c bf3c
000000e0: f390 16bd 62a8 de3b 0f7d 81bd 8bb8 10bc
000000f0: 8681 ccbb 64b3 d2bc 9626 d4bc 96e2 e73c
00000100: d074 653c 319e af3c b00a f23c 6640 d73c
00000110: ec7a 82bc 4f96 fc3a 4a46 aa3c 0e6f 2ebd
00000120: 52d5 5e3d 70ea b03d 6835 8cbc ba0e 40bc
00000130: 0272 9b3c d7a6 4dbc 1dcc 303d 49ef 7ebd
00000140: 595b 9c3d 5cfb 27bd f1ef 06bd 6f20 0d3d
00000150: 4eed 0a3d 4303 a4bd d2e7 b3bc ad06 0f3c
00000160: 216b 79bd 01f9 4e3c e931 44bc b1ef b93c
00000170: e96d 8a3b 063c e33c cf32 a83c 6f6e 21bc
00000180: 4157 52bd 9c65 88bd e226 8b3c dcf6 45bd
00000190: b34a 543d 9181 913b 488e 103d c149 debb
000001a0: 3cc7 e4bb 9228 243d aee4 733d 34f9 a63d
000001b0: 7b11 06bb a45d 163c f81d 01bd 51b5 053d
000001c0: 56bd 90bc 0d3d 253d a169 edb8 8d4b ddbc
000001d0: b7d5 d73c d9a0 5b3d fd7a babc 0d8d 38bc
000001e0: e087 443d 2554 30bd 821e 273c a716 d3bc
000001f0: 357c 47bc 8452 9dba 3477 d5bb 8c96 073d
00000200: 97e4 64bc 1558 02bc 5ce0 c2bc 4246 2bbd
00000210: 4603 293b 495b 1f3c 12be fc3c c14c 7a3c
00000220: 2c71 de3b a7a9 f23c 6ef3 16bc 9e07 603b
00000230: cd29 74bd 752b 433c 8f6a 91bc cef7 883b
00000240: dd60 f4bc 4f63 3e3d 6af4 1b3c bb41 86bb
00000250: 7323 d43c 015f 5a3d f805 74bd b30f edbc
00000260: 6bdf b93d d67a 8b3b 81e0 a43a 6753 e63b
00000270: 798c 33bd fb03 21bd cf72 09bc d248 9aba
00000280: 7d03 323d a236 b9bb 8144 1ebd 633b 6dbc
00000290: a0e2 59bc 082c 293c 8d83 ab3c d07f fcbc
000002a0: df38 49bc afe1 73bd 3e11 26bb 5258 83bd
000002b0: b517 12bd 8d40 ad3c d15f 6fbb 702d e63c
000002c0: aacb a63c 5238 433d 7e3e 31bd 4a2d 72bd
000002d0: 17a2 213d 1d98 dfbc cfa7 4e3d 35af 6fbc
000002e0: 523f 63bb 3b59 233d 787e 82bc 1462 5b3d
000002f0: 5b23 eebc 2ce3 4a3c 05f8 b53c 7de6 90bb
00000300: 68ef 123c ae1e 83bb 81f2 bdbd 0834 2c3d
00000310: 71df 0dbd dbe1 9d3d e5db 6b3c 4dd0 0d3d
00000320: 28ee 8dbd e816 babd ffc0 22bd c586 2cbd
00000330: 0b23 043d bb2a c03c 7123 9c3c 8b46 b83c
00000340: 219c 713b 9ae5 b1bd 82c1 36bb 6acc 6ebd
00000350: 8555 c0bc 209a cbbc 65ff 263c 9087 25bd
00000360: 5067 3dbb d425 9c3c 96d9 043d 55f9 a93c
00000370: 220f 07bd dea4 98bb 176c b23b ad9a a03c
00000380: b98b 003d 27da 90bc c7e8 83bc b1e5 d4bc
00000390: 1bea 613d 7046 43bc c728 e3bc 809d 213b
000003a0: 3658 b2bc cfb1 1bbc a75c f4bc c39e 073c
000003b0: 7ba1 5fbd a027 973b 4197 833c 0991 ea3b
000003c0: 3d25 eebc 2492 6cbb d0eb 493d 0395 643d
000003d0: a608 1d3d 8a61 1fbd fd6d 63bd 2f74 31bc
000003e0: fcc8 31bd 4f5f f9bc 35f2 783d 8c84 0d3c
000003f0: a432 1e3d 706f 1fbc bf5f c83c a42b cdbc
-0.075941354 -0.016604038 -0.004813885 0.022374267 -0.051210444 -0.017274825 -0.040298823 -0.068802424
-0.0009864774 -0.05357522 0.0029576423 0.025003007 0.022760736 0.023630535 0.04146805 0.027293988
-0.040563155 -0.031083975 -0.0034595884 -0.035249885 -0.05114848 0.0070361667 0.04775478 -0.036151752
-0.009641905 -0.023045551 0.0613267 0.021633515 -0.048504833 -0.031863376 0.0003475208 -0.018095832
0.011832513 0.01682538 0.045196533 0.043390397 -0.039953846 0.0075932452 0.062482163 -0.061033174
-0.028498938 0.03293281 0.021193413 -0.039185 -0.02874424 -0.02708426 -0.007934437 -0.0128998
-0.027878057 -0.069133505 -0.022680843 0.03221353 0.03669538 -0.04245721 -0.01158532 0.02335202
-0.036759328 0.006794975 -0.06322681 -0.008833061 -0.0062410263 -0.025720306 -0.025897305 0.028306287
0.014004901 0.021437736 0.029546112 0.026275825 -0.015927754 0.001927087 0.02078547 -0.04258638
0.054402657 0.086384654 -0.01711531 -0.011722261 0.018975262 -0.012551985 0.043163408 -0.06223992
0.07634611 -0.0410112 -0.03294367 0.03445476 0.033917718 -0.080084346 -0.021961126 0.008729619
-0.06089318 0.012632609 -0.01197479 0.022697302 0.004224528 0.027738582 0.02053204 -0.00985299
-0.051352743 -0.066600055 0.016986314 -0.048331127 0.05182905 0.0044404943 0.03529194 -0.0067836945
-0.0069817584 0.040077753 0.059544258 0.081530005 -0.0020457197 0.009177599 -0.03152272 0.03264362
-0.017668407 0.040341426 -0.000113207156 -0.027013564 0.026347024 0.053620193 -0.022763724 -0.011264098
0.047981143 -0.043048996 0.010200145 -0.025767637 -0.012175609 -0.0012002741 -0.0065144543 0.033102557
-0.013970516 -0.007955571 -0.023788624 -0.04181505 0.0025789305 0.009726354 0.030852351 0.015277089
0.0067883935 0.029621912 -0.009213312 0.0034184228 -0.059610177 0.011912216 -0.017751006 0.0041799312
-0.029831344 0.046481427 0.009518722 -0.004097191 0.02589581 0.05331326 -0.059576005 -0.02893815
0.09075817 0.0042565865 0.0012579114 0.0070289853 -0.043835137 -0.039310437 -0.008389189 -0.001177097
0.043460358 -0.0056522647 -0.03863955 -0.014479491 -0.0132986605 0.010325439 0.020936752 -0.030822664
-0.0122816255 -0.0595414 -0.0025339867 -0.0641333 -0.03566714 0.021148944 -0.0036525617 0.028097838
0.020360786 0.047661133 -0.043272488 -0.059125222 0.03946122 -0.027294213 0.050453003 -0.014629175
-0.0034675193 0.03988002 -0.015929446 0.05356033 -0.029069593 0.012383264 0.022212991 -0.0044220076
0.008968212 -0.00400146 -0.092747696 0.04204181 -0.03463692 0.07709094 0.014395689 0.03462248
-0.0693019 -0.090864 -0.039734837 -0.042120714 0.032259982 0.023457875 0.019059869 0.022494575
0.0036866742 -0.08686371 -0.0027886336 -0.058300413 -0.023478279 -0.024853766 0.010192727 -0.040412486
-0.002890069 0.019061007 0.03243407 0.020748774 -0.032973416 -0.0046583256 0.005445014 0.019605005
0.03138325 -0.017682148 -0.016102208 -0.025988432 0.0551549 -0.011918649 -0.027729405 0.0024660528
-0.021770578 -0.009502842 -0.029829336 0.008277598 -0.05459736 0.004612878 0.016063334 0.007158403
-0.029070491 -0.0036097849 0.049297154 0.05580617 0.038338326 -0.03891138 -0.055524815 -0.010830923
-0.043404564 -0.030440954 0.06077786 0.008637559 0.038622513 -0.009731159 0.024459718 -0.025045224

classifier.bias f4 [5]
00000000: 142b bf3d d2b3 96bd 4efb ce3d 0caf 4cbd
00000010: 9938 b0bd
0.093343884 -0.07358517 0.10106526 -0.049971625 -0.08604545

net.1.weight f4 [5, 184]
00000000: 2487 9bbd 3105 88bc cbbd 9dbb 3d4a b73c
00000010: 0bc2 51bd ef83 8dbc 6110 25bd 49e8 8cbd
00000020: b04c 81ba b171 5bbd 01d5 413b 1bd3 cc3c
00000030: b974 ba3c d394 c13c 67da 293d a497 df3c
00000040: 8d25 26bd d2a3 febc 43ba 62bb 2f62 10bd
00000050: 1281 51bd a58f e63b 849a 433d dc13 14bd
00000060: 15f9 1dbc 06ca bcbc b531 7b3d c538 b13c
00000070: 01ad 46bd 2c83 02bd 7433 b639 b63d 94bc
00000080: 28dd 413c 61d5 893c 0020 393d 21ba 313d
00000090: a5a6 23bd c2d0 f83b 4ced 7f3d ecfd 79bd
000000a0: 9b76 e9bc 8ee4 063d cf9d ad3c 7380 20bd
000000b0: 0a79 ebbc cfdf ddbc 71ff 01bc af59 53bc
000000c0: 8660 e4bc de95 8dbd 2dcd b9bc 56f2 033d
000000d0: e54d 163d 9de7 2dbd 5bd0 3dbc bc4c bf3c
000000e0: f390 16bd 62a8 de3b 0f7d 81bd 8bb8 10bc
000000f0: 8681 ccbb 64b3 d2bc 9626 d4bc 96e2 e73c
00000100: d074 653c 319e af3c b00a f23c 6640 d73c
00000110: ec7a 82bc 4f96 fc3a 4a46 aa3c 0e6f 2ebd
00000120: 52d5 5e3d 70ea b03d 6835 8cbc ba0e 40bc
00000130: 0272 9b3c d7a6 4dbc 1dcc 303d 49ef 7ebd
00000140: 595b 9c3d 5cfb 27bd f1ef 06bd 6f20 0d3d
00000150: 4eed 0a3d 4303 a4bd d2e7 b3bc ad06 0f3c
00000160: 216b 79bd 01f9 4e3c e931 44bc b1ef b93c
00000170: e96d 8a3b 063c e33c cf32 a83c 6f6e 21bc
00000180: 4157 52bd 9c65 88bd e226 8b3c dcf6 45bd
00000190: b34a 543d 9181 913b 488e 103d c149 debb
000001a0: 3cc7 e4bb 9228 243d aee4 733d 34f9 a63d
000001b0: 7b11 06bb a45d 163c f81d 01bd 51b5 053d
000001c0: 56bd 90bc 0d3d 253d a169 edb8 8d4b ddbc
000001d0: b7d5 d73c d9a0 5b3d fd7a babc 0d8d 38bc
000001e0: e087 443d 2554 30bd 821e 273c a716 d3bc
000001f0: 357c 47bc 8452 9dba 3477 d5bb 8c96 073d
00000200: 97e4 64bc 1558 02bc 5ce0 c2bc 4246 2bbd
00000210: 4603 293b 495b 1f3c 12be fc3c c14c 7a3c
00000220: 2c71 de3b a7a9 f23c 6ef3 16bc 9e07 603b
00000230: cd29 74bd 752b 433c 8f6a 91bc cef7 883b
00000240: dd60 f4bc 4f63 3e3d 6af4 1b3c bb41 86bb
00000250: 7323 d43c 015f 5a3d f805 74bd b30f edbc
00000260: 6bdf b93d d67a 8b3b 81e0 a43a 6753 e63b
00000270: 798c 33bd fb03 21bd cf72 09bc d248 9aba
00000280: 7d03 323d a236 b9bb 8144 1ebd 633b 6dbc
00000290: a0e2 59bc 082c 293c 8d83 ab3c d07f fcbc
000002a0: df38 49bc afe1 73bd 3e11 26bb 5258 83bd
000002b0: b517 12bd 8d40 ad3c d15f 6fbb 702d e63c
000002c0: aacb a63c 5238 433d 7e3e 31bd 4a2d 72bd
000002d0: 17a2 213d 1d98 dfbc cfa7 4e3d 35af 6fbc
000002e0: 523f 63bb 3b59 233d 787e 82bc 1462 5b3d
000002f0: 5b23 eebc 2ce3 4a3c 05f8 b53c 7de6 90bb
00000300: 68ef 123c ae1e 83bb 81f2 bdbd 0834 2c3d
00000310: 71df 0dbd dbe1 9d3d e5db 6b3c 4dd0 0d3d
00000320: 28ee 8dbd e816 babd ffc0 22bd c586 2cbd
00000330: 0b23 043d bb2a c03c 7123 9c3c 8b46 b83c
00000340: 219c 713b 9ae5 b1bd 82c1 36bb 6acc 6ebd
00000350: 8555 c0bc 209a cbbc 65ff 263c 9087 25bd
00000360: 5067 3dbb d425 9c3c 96d9 043d 55f9 a93c
00000370: 220f 07bd dea4 98bb 176c b23b ad9a a03c
00000380: b98b 003d 27da 90bc c7e8 83bc b1e5 d4bc
00000390: 1bea 613d 7046 43bc c728 e3bc 809d 213b
000003a0: 3658 b2bc cfb1 1bbc a75c f4bc c39e 073c
000003b0: 7ba1 5fbd a027 973b 4197 833c 0991 ea3b
000003c0: 3d25 eebc 2492 6cbb d0eb 493d 0395 643d
000003d0: a608 1d3d 8a61 1fbd fd6d 63bd 2f74 31bc
000003e0: fcc8 31bd 4f5f f9bc 35f2 783d 8c84 0d3c
000003f0: a432 1e3d 706f 1fbc bf5f c83c a42b cdbc
-0.075941354 -0.016604038 -0.004813885 0.022374267 -0.051210444 -0.017274825 -0.040298823 -0.068802424
-0.0009864774 -0.05357522 0.0029576423 0.025003007 0.022760736 0.023630535 0.04146805 0.027293988
-0.040563155 -0.031083975 -0.0034595884 -0.035249885 -0.05114848 0.0070361667 0.04775478 -0.036151752
-0.009641905 -0.023045551 0.0613267 0.021633515 -0.048504833 -0.031863376 0.0003475208 -0.018095832
0.011832513 0.01682538 0.045196533 0.043390397 -0.039953846 0.0075932452 0.062482163 -0.061033174
-0.028498938 0.03293281 0.021193413 -0.039185 -0.02874424 -0.02708426 -0.007934437 -0.0128998
-0.027878057 -0.069133505 -0.022680843 0.03221353 0.03669538 -0.04245721 -0.01158532 0.02335202
-0.036759328 0.006794975 -0.06322681 -0.008833061 -0.0062410263 -0.025720306 -0.025897305 0.028306287
0.014004901 0.021437736 0.029546112 0.026275825 -0.015927754 0.001927087 0.02078547 -0.04258638
0.054402657 0.086384654 -0.01711531 -0.011722261 0.018975262 -0.012551985 0.043163408 -0.06223992
0.07634611 -0.0410112 -0.03294367 0.03445476 0.033917718 -0.080084346 -0.021961126 0.008729619
-0.06089318 0.012632609 -0.01197479 0.022697302 0.004224528 0.027738582 0.02053204 -0.00985299
-0.051352743 -0.066600055 0.016986314 -0.048331127 0.05182905 0.0044404943 0.03529194 -0.0067836945
-0.0069817584 0.040077753 0.059544258 0.081530005 -0.0020457197 0.009177599 -0.03152272 0.03264362
-0.017668407 0.040341426 -0.000113207156 -0.027013564 0.026347024 0.053620193 -0.022763724 -0.011264098
0.047981143 -0.043048996 0.010200145 -0.025767637 -0.012175609 -0.0012002741 -0.0065144543 0.033102557
-0.013970516 -0.007955571 -0.023788624 -0.04181505 0.0025789305 0.009726354 0.030852351 0.015277089
0.0067883935 0.029621912 -0.009213312 0.0034184228 -0.059610177 0.011912216 -0.017751006 0.0041799312
-0.029831344 0.046481427 0.009518722 -0.004097191 0.02589581 0.05331326 -0.059576005 -0.02893815
0.09075817 0.0042565865 0.0012579114 0.0070289853 -0.043835137 -0.039310437 -0.008389189 -0.001177097
0.043460358 -0.0056522647 -0.03863955 -0.014479491 -0.0132986605 0.010325439 0.020936752 -0.030822664
-0.0122816255 -0.0595414 -0.0025339867 -0.0641333 -0.03566714 0.021148944 -0.0036525617 0.028097838
0.020360786 0.047661133 -0.043272488 -0.059125222 0.03946122 -0.027294213 0.050453003 -0.014629175
-0.0034675193 0.03988002 -0.015929446 0.05356033 -0.029069593 0.012383264 0.022212991 -0.0044220076
0.008968212 -0.00400146 -0.092747696 0.04204181 -0.03463692 0.07709094 0.014395689 0.03462248
-0.0693019 -0.090864 -0.039734837 -0.042120714 0.032259982 0.023457875 0.019059869 0.022494575
0.0036866742 -0.08686371 -0.0027886336 -0.058300413 -0.023478279 -0.024853766 0.010192727 -0.040412486
-0.002890069 0.019061007 0.03243407 0.020748774 -0.032973416 -0.0046583256 0.005445014 0.019605005
0.03138325 -0.017682148 -0.016102208 -0.025988432 0.0551549 -0.011918649 -0.027729405 0.0024660528
-0.021770578 -0.009502842 -0.029829336 0.008277598 -0.05459736 0.004612878 0.016063334 0.007158403
-0.029070491 -0.0036097849 0.049297154 0.05580617 0.038338326 -0.03891138 -0.055524815 -0.010830923
-0.043404564 -0.030440954 0.06077786 0.008637559 0.038622513 -0.009731159 0.024459718 -0.025045224

net.1.bias f4 [5]
00000000: 142b bf3d d2b3 96bd 4efb ce3d 0caf 4cbd
00000010: 9938 b0bd
0.093343884 -0.07358517 0.10106526 -0.049971625 -0.08604545

weight f4 [5, 184]
00000000: 2487 9bbd 3105 88bc cbbd 9dbb 3d4a b73c
00000010: 0bc2 51bd ef83 8dbc 6110 25bd 49e8 8cbd
00000020: b04c 81ba b171 5bbd 01d5 413b 1bd3 cc3c
00000030: b974 ba3c d394 c13c 67da 293d a497 df3c
00000040: 8d25 26bd d2a3 febc 43ba 62bb 2f62 10bd
00000050: 1281 51bd a58f e63b 849a 433d dc13 14bd
00000060: 15f9 1dbc 06ca bcbc b531 7b3d c538 b13c
00000070: 01ad 46bd 2c83 02bd 7433 b639 b63d 94bc
00000080: 28dd 413c 61d5 893c 0020 393d 21ba 313d
00000090: a5a6 23bd c2d0 f83b 4ced 7f3d ecfd 79bd
000000a0: 9b76 e9bc 8ee4 063d cf9d ad3c 7380 20bd
000000b0: 0a79 ebbc cfdf ddbc 71ff 01bc af59 53bc
000000c0: 8660 e4bc de95 8dbd 2dcd b9bc 56f2 033d
000000d0: e54d 163d 9de7 2dbd 5bd0 3dbc bc4c bf3c
000000e0: f390 16bd 62a8 de3b 0f7d 81bd 8bb8 10bc
000000f0: 8681 ccbb 64b3 d2bc 9626 d4bc 96e2 e73c
00000100: d074 653c 319e af3c b00a f23c 6640 d73c
00000110: ec7a 82bc 4f96 fc3a 4a46 aa3c 0e6f 2ebd
00000120: 52d5 5e3d 70ea b03d 6835 8cbc ba0e 40bc
00000130: 0272 9b3c d7a6 4dbc 1dcc 303d 49ef 7ebd
00000140: 595b 9c3d 5cfb 27bd f1ef 06bd 6f20 0d3d
00000150: 4eed 0a3d 4303 a4bd d2e7 b3bc ad06 0f3c
00000160: 216b 79bd 01f9 4e3c e931 44bc b1ef b93c
00000170: e96d 8a3b 063c e33c cf32 a83c 6f6e 21bc
00000180: 4157 52bd 9c65 88bd e226 8b3c dcf6 45bd
00000190: b34a 543d 9181 913b 488e 103d c149 debb
000001a0: 3cc7 e4bb 9228 243d aee4 733d 34f9 a63d
000001b0: 7b11 06bb a45d 163c f81d 01bd 51b5 053d
000001c0: 56bd 90bc 0d3d 253d a169 edb8 8d4b ddbc
000001d0: b7d5 d73c d9a0 5b3d fd7a babc 0d8d 38bc
000001e0: e087 443d 2554 30bd 821e 273c a716 d3bc
000001f0: 357c 47bc 8452 9dba 3477 d5bb 8c96 073d
00000200: 97e4 64bc 1558 02bc 5ce0 c2bc 4246 2bbd
00000210: 4603 293b 495b 1f3c 12be fc3c c14c 7a3c
00000220: 2c71 de3b a7a9 f23c 6ef3 16bc 9e07 603b
00000230: cd29 74bd 752b 433c 8f6a 91bc cef7 883b
00000240: dd60 f4bc 4f63 3e3d 6af4 1b3c bb41 86bb
00000250: 7323 d43c 015f 5a3d f805 74bd b30f edbc
00000260: 6bdf b93d d67a 8b3b 81e0 a43a 6753 e63b
00000270: 798c 33bd fb03 21bd cf72 09bc d248 9aba
00000280: 7d03 323d a236 b9bb 8144 1ebd 633b 6dbc
00000290: a0e2 59bc 082c 293c 8d83 ab3c d07f fcbc
000002a0: df38 49bc afe1 73bd 3e11 26bb 5258 83bd
000002b0: b517 12bd 8d40 ad3c d15f 6fbb 702d e63c
000002c0: aacb a63c 5238 433d 7e3e 31bd 4a2d 72bd
000002d0: 17a2 213d 1d98 dfbc cfa7 4e3d 35af 6fbc
000002e0: 523f 63bb 3b59 233d 787e 82bc 1462 5b3d
000002f0: 5b23 eebc 2ce3 4a3c 05f8 b53c 7de6 90bb
00000300: 68ef 123c ae1e 83bb 81f2 bdbd 0834 2c3d
00000310: 71df 0dbd dbe1 9d3d e5db 6b3c 4dd0 0d3d
00000320: 28ee 8dbd e816 babd ffc0 22bd c586 2cbd
00000330: 0b23 043d bb2a c03c 7123 9c3c 8b46 b83c
00000340: 219c 713b 9ae5 b1bd 82c1 36bb 6acc 6ebd
00000350: 8555 c0bc 209a cbbc 65ff 263c 9087 25bd
00000360: 5067 3dbb d425 9c3c 96d9 043d 55f9 a93c
00000370: 220f 07bd dea4 98bb 176c b23b ad9a a03c
00000380: b98b 003d 27da 90bc c7e8 83bc b1e5 d4bc
00000390: 1bea 613d 7046 43bc c728 e3bc 809d 213b
000003a0: 3658 b2bc cfb1 1bbc a75c f4bc c39e 073c
000003b0: 7ba1 5fbd a027 973b 4197 833c 0991 ea3b
000003c0: 3d25 eebc 2492 6cbb d0eb 493d 0395 643d
000003d0: a608 1d3d 8a61 1fbd fd6d 63bd 2f74 31bc
000003e0: fcc8 31bd 4f5f f9bc 35f2 783d 8c84 0d3c
000003f0: a432 1e3d 706f 1fbc bf5f c83c a42b cdbc
-0.075941354 -0.016604038 -0.004813885 0.022374267 -0.051210444 -0.017274825 -0.040298823 -0.068802424
-0.0009864774 -0.05357522 0.0029576423 0.025003007 0.022760736 0.023630535 0.04146805 0.027293988
-0.040563155 -0.031083975 -0.0034595884 -0.035249885 -0.05114848 0.0070361667 0.04775478 -0.036151752
-0.009641905 -0.023045551 0.0613267 0.021633515 -0.048504833 -0.031863376 0.0003475208 -0.018095832
0.011832513 0.01682538 0.045196533 0.043390397 -0.039953846 0.0075932452 0.062482163 -0.061033174
-0.028498938 0.03293281 0.021193413 -0.039185 -0.02874424 -0.02708426 -0.007934437 -0.0128998
-0.027878057 -0.069133505 -0.022680843 0.03221353 0.03669538 -0.04245721 -0.01158532 0.02335202
-0.036759328 0.006794975 -0.06322681 -0.008833061 -0.0062410263 -0.025720306 -0.025897305 0.028306287
0.014004901 0.021437736 0.029546112 0.026275825 -0.015927754 0.001927087 0.02078547 -0.04258638
0.054402657 0.086384654 -0.01711531 -0.011722261 0.018975262 -0.012551985 0.043163408 -0.06223992
0.07634611 -0.0410112 -0.03294367 0.03445476 0.033917718 -0.080084346 -0.021961126 0.008729619
-0.06089318 0.012632609 -0.01197479 0.022697302 0.004224528 0.027738582 0.02053204 -0.00985299
-0.051352743 -0.066600055 0.016986314 -0.048331127 0.05182905 0.0044404943 0.03529194 -0.0067836945
-0.0069817584 0.040077753 0.059544258 0.081530005 -0.0020457197 0.009177599 -0.03152272 0.03264362
-0.017668407 0.040341426 -0.000113207156 -0.027013564 0.026347024 0.053620193 -0.022763724 -0.011264098
0.047981143 -0.043048996 0.010200145 -0.025767637 -0.012175609 -0.0012002741 -0.0065144543 0.033102557
-0.013970516 -0.007955571 -0.023788624 -0.04181505 0.0025789305 0.009726354 0.030852351 0.015277089
0.0067883935 0.029621912 -0.009213312 0.0034184228 -0.059610177 0.011912216 -0.017751006 0.0041799312
-0.029831344 0.046481427 0.009518722 -0.004097191 0.02589581 0.05331326 -0.059576005 -0.02893815
0.09075817 0.0042565865 0.0012579114 0.0070289853 -0.043835137 -0.039310437 -0.008389189 -0.001177097
0.043460358 -0.0056522647 -0.03863955 -0.014479491 -0.0132986605 0.010325439 0.020936752 -0.030822664
-0.0122816255 -0.0595414 -0.0025339867 -0.0641333 -0.03566714 0.021148944 -0.0036525617 0.028097838
0.020360786 0.047661133 -0.043272488 -0.059125222 0.03946122 -0.027294213 0.050453003 -0.014629175
-0.0034675193 0.03988002 -0.015929446 0.05356033 -0.029069593 0.012383264 0.022212991 -0.0044220076
0.008968212 -0.00400146 -0.092747696 0.04204181 -0.03463692 0.07709094 0.014395689 0.03462248
-0.0693019 -0.090864 -0.039734837 -0.042120714 0.032259982 0.023457875 0.019059869 0.022494575
0.0036866742 -0.08686371 -0.0027886336 -0.058300413 -0.023478279 -0.024853766 0.010192727 -0.040412486
-0.002890069 0.019061007 0.03243407 0.020748774 -0.032973416 -0.0046583256 0.005445014 0.019605005
0.03138325 -0.017682148 -0.016102208 -0.025988432 0.0551549 -0.011918649 -0.027729405 0.0024660528
-0.021770578 -0.009502842 -0.029829336 0.008277598 -0.05459736 0.004612878 0.016063334 0.007158403
-0.029070491 -0.0036097849 0.049297154 0.05580617 0.038338326 -0.03891138 -0.055524815 -0.010830923
-0.043404564 -0.030440954 0.06077786 0.008637559 0.038622513 -0.009731159 0.024459718 -0.025045224

bias f4 [5]
00000000: 142b bf3d d2b3 96bd 4efb ce3d 0caf 4cbd
00000010: 9938 b0bd
0.093343884 -0.07358517 0.10106526 -0.049971625 -0.08604545
